tmp/aa_models/2.pt (torch_old, 539704 bytes, 30 tensors)

rnn.weight_ih_l0 f4 [204, 60]
0.1848738 -0.031664703 0.005365487 0.17639777 0.05972353 0.026591657 0.013511405 -0.06744028
0.031809054 0.06238245 0.08640328 0.06059095 0.085571885 -0.020177944 4.7553485e-06 -0.02462301
0.032028466 0.038399708 -0.09750631 0.1185875 0.02458868 0.070976146 0.04067369 -0.042408492
-0.058707688 0.103302866 0.031995602 -0.03196179 -0.026412698 -0.10082394 0.036811702 0.05557901
0.14847505 -0.05296842 -0.1234195 0.0653804 -0.042013057 -0.08384157 -0.073202685 -0.12139572
-0.07318213 0.09454895 -0.046444874 -0.1323521 -0.056748893 -0.019711314 -0.14197566 0.062477004
0.060182862 0.061097577 0.09923738 -0.101588726 0.10662334 -0.0017600358 -0.087918885 0.056163058
-0.017732695 0.091493934 0.07650855 0.031392574 -0.16956323 -0.049881183 -0.004949732 -0.16433086
0.05634658 -0.08946821 0.040017307 0.038105976 -0.1153496 0.13137361 0.09729931 -0.0942674
0.05564644 0.07251002 0.14577824 0.03606245 0.12847021 0.0028314898 0.0060406444 -0.13750122
0.0133098345 0.05884392 0.02343489 -0.09933299 0.12159051 -0.03457922 0.0048805606 0.027976628
0.010492015 -0.10606065 -0.14619428 0.047859177 0.07868748 0.06258739 -0.124190785 -0.048944093
-0.13029815 0.071459614 0.037809245 -0.08092739 0.035121813 0.085613586 0.07478934 0.0234153
0.0860431 -0.048610955 0.010883303 -0.077270105 -0.11464456 -0.112222984 -0.1288154 0.024975255
0.11378385 -0.035002515 -0.039453976 0.029118031 -0.09902859 -0.104262784 -0.10939637 -0.052918054
-0.105283886 -0.09907532 0.04267233 0.025999416 -0.05791334 0.05337656 0.10241043 -0.0676049
0.060157165 0.049536288 0.10136992 0.12325691 0.14224121 -0.054663666 0.05442062 0.031113328
-0.090860285 -0.060619865 -0.09902266 -0.05608916 -0.1002547 0.10749222 0.06663665 0.11443586
-0.11309562 0.048017155 -0.00023468999 0.010373668 0.08099897 0.029727472 -0.10318577 0.080345586
-0.102469325 -0.010410989 -0.04145827 -0.10373496 -0.03433148 -0.050400995 -0.065463744 0.044710856
-0.09581498 -0.06707963 -0.013698758 -0.08783692 0.062978104 -0.0467031 -0.1281602 0.04450704
0.064272076 0.066035405 0.11424656 -0.055094577 0.090569675 0.008944795 -0.063646235 0.116236165
-0.032425873 0.060977235 -0.13284819 -0.04491604 0.017927328 0.111367494 0.13193034 -0.09177815
-0.0239438 5.707609e-05 0.1340135 0.0047458573 0.012457599 -0.015083492 0.014974585 -0.039354347
0.13152513 -0.09749805 -0.022755964 -0.1298695 -0.009449955 0.1310526 0.040862028 0.061366092
0.032895654 -0.11598845 0.113157526 -0.062241655 -0.02925548 -0.10331851 -0.0775559 -0.017536834
-0.007501497 -0.09017067 0.034516696 0.1252265 0.08105075 0.14548878 -0.043277968 0.056694567
0.14366299 0.032495864 0.109226115 0.0449113 0.05177528 0.01211284 -0.14517228 0.06623524
-0.12113354 0.040277626 -0.0300612 0.086853474 -0.079860054 -0.028851494 0.021644324 -0.014075264
-0.0803812 0.08581883 -0.06351651 0.09796375 -0.044877313 -0.06927723 0.030330181 0.041505605
0.025274573 0.14612046 0.12060414 0.009165689 0.087823406 0.110724956 -0.06687854 0.021446783
-0.0328503 -0.06582055 -0.06794625 0.10569105 0.079139106 -0.095979534 0.13664353 -0.02333876
00000000: 8f4f 3d3e d9b2 01bd f8d0 af3b 9ea1 343e
00000010: a9a0 743d bfd6 d93c f15e 5d3c 211e 8abd
00000020: 364a 023d bd84 7f3d 34f4 b03d 372e 783d
00000030: 5040 af3d 374c a5bc 2290 9f36 32b6 c9bc
00000040: 4830 033d 0349 1d3d 63b1 c7bd 01de f23d
00000050: 336e c93c f15b 913d 7599 263d 87b4 2dbd
00000060: 7977 70bd 7490 d33d d20d 033d 5eea 02bd
00000070: 715f d8bc c87c cebd dec7 163d d1a6 633d
00000080: d809 183e 6af5 58bd 5dc3 fcbd 29e6 853d
00000090: e215 2cbd 21b5 abbd 4aeb 95bd 529e f8bd
000000a0: 83e0 95bd e1a2 c13d fb3c 3ebd 4f87 07be
000000b0: 8771 68bd 9f79 a1bc 1162 11be e3e7 7f3d
000000c0: 4e82 763d 7441 7a3d f83c cb3d c00d d0bd
000000d0: 565d da3d 00b1 e6ba d10e b4bd 3c0b 663d
000000e0: 2844 91bc 2c61 bb3d 84b0 9c3d 8095 003d
000000f0: fca1 2dbe 3650 4cbd 5d31 a2bb 5946 28be
00000100: accb 663d 1c3b b7bd 30e9 233d 0315 1c3d
00000110: 693c ecbd ce86 063e dc44 c73d 440f c1bd
00000120: 85ed 633d 2280 943d e446 153e 38b6 133d
00000130: b28d 033e 8490 393b 99f0 c53b 1fcd 0cbe
00000140: 7e11 5a3c 5206 713d 87fa bf3c 186f cbbd
00000150: 7204 f93d f1a2 0dbd 1ced 9f3b 3e2f e53c
00000160: b3e6 2b3c 5336 d9bd f4b3 15be fc07 443d
00000170: e726 a13d d12d 803d bd57 febd 9a79 48bd
00000180: e16c 05be 6b59 923d dedd 1a3d 42bd a5bd
00000190: e4db 0f3d 2d56 af3d 272b 993d 71d1 bf3c
000001a0: 5d37 b03d 481c 47bd e24f 323c ca3f 9ebd
000001b0: c4ca eabd 2ad5 e5bd 2fe8 03be e898 cc3c
000001c0: 8207 e93d cc5e 0fbd 7e9a 21bd f088 ee3c
000001d0: 80cf cabd ba87 d5bd 340b e0bd 9ac0 58bd
000001e0: 149f d7bd 00e8 cabd 2ec9 2e3d bafc d43c
000001f0: 8a36 6dbd 61a1 5a3d 8fbc d13d 7074 8abd
00000200: 5c67 763d 90e6 4a3d 089b cf3d 1e6e fc3d
00000210: aea7 113e 02e7 5fbd 28e8 5e3d 61e1 fe3c
00000220: f514 babd 894c 78bd 64cc cabd bfbd 65bd
00000230: 5652 cdbd e224 dc3d cc78 883d 595d ea3d
00000240: ad9e e7bd a3ad 443d 1d17 76b9 51f6 293c
00000250: cae2 a53d 0787 f33c 1053 d3bd 3a8c a43d
00000260: 70db d1bd da92 2abc 26d0 29bd ff72 d4bd
00000270: 2a9f 0cbd 4671 4ebd db11 86bd bb22 373d
00000280: a53a c4bd 0c61 89bd c170 60bc d8e3 b3bd
00000290: aafa 803d c04b 3fbd 6d3c 03be 044d 363d
000002a0: 14a1 833d 923d 873d 1afa e93d daaa 61bd
000002b0: 987c b93d 308d 123c f558 82bd 3a0d ee3d
000002c0: fed0 04bd 44c3 793d 5b09 08be e2f9 37bd
000002d0: 55dc 923c a414 e43d bf18 073e 2ff6 bbbd
000002e0: ca25 c4bc fc64 6f38 d63a 093e 2383 9b3b
000002f0: f51a 4c3c c020 77bc f657 753c 0632 21bd
00000300: 86ae 063e 0fad c7bd b76a babc 83fc 04be
00000310: fcd3 1abc a732 063e f15e 273d 035b 7b3d
00000320: 98bd 063d 5a8b edbd 22bf e73d 1bf1 7ebd
00000330: 30a9 efbc a898 d3bd a1d5 9ebd 68a9 8fbc
00000340: 1ecf f5bb 66ab b8bd 6161 0d3d 603b 003e
00000350: f0fd a53d 03fb 143e 3d44 31bd 9038 683d
00000360: 641c 133e 621a 053d f1b1 df3d e9f4 373d
00000370: 5112 543d ef74 463c 0ba8 14be 57a6 873d
00000380: dd14 f8bd 27fa 243d e842 f6bc 3ce0 b13d
00000390: ab8d a3bd f859 ecbc 704f b13c f09b 66bc
000003a0: e69e a4bd c8c1 af3d f214 82bd 38a1 c83d
000003b0: 46d1 37bd 38e1 8dbd 0077 f83c c801 2a3d
000003c0: 9f0c cf3c 9aa0 153e 4eff f63d b02b 163c
000003d0: c2dc b33d c4c3 e23d 9ef7 88bd 2ab1 af3c
000003e0: 098e 06bd edcc 86bd 6727 8bbd 8d74 d83d
000003f0: af13 a23d eb90 c4bd 48ec 0b3e ed30 bfbc

rnn.weight_hh_l0 f4 [204, 51]
0.09244384 -0.045218915 -0.009982457 -0.038041335 0.124955006 -0.096834905 -0.023335192 -0.09582237
-0.12021609 -0.09830703 0.077864066 0.02926085 -0.1978174 0.042590484 -0.01908382 -0.012557851
0.041835323 0.1908425 -0.018292869 -0.06951598 -0.12063058 0.16516916 -0.009622429 -0.04655279
0.0046513844 -0.11519639 -0.06647798 -0.07912109 -0.16723126 0.007639191 -0.06686088 -0.014178296
-0.1116073 -0.08370906 -0.15824032 0.013561204 0.12324751 0.049884517 -0.036674254 -0.14394379
0.080150664 0.030614987 -0.06593556 0.026193466 0.005278855 -0.04364756 -0.033004068 -0.013306101
0.13862284 0.23604606 0.10553862 -0.07617594 0.1399792 -0.15317501 -0.028808258 0.18847698
-0.024815295 0.069840156 -0.15195207 -0.14610486 0.009248983 0.085800044 -0.03923626 0.020134766
-0.08553867 0.09602275 0.031521592 -0.070577085 0.116431735 0.1735196 -0.13213113 0.039009955
0.053926356 0.0005202126 0.10571489 -0.03465356 -0.07820417 -0.0014014553 0.015855188 -0.12951076
0.17852427 -0.10631442 -0.030616144 0.04255181 -0.13421965 0.05587606 -0.09114885 0.18462439
-0.027522447 0.13631722 -0.048537698 0.040981732 0.08647676 0.045829907 0.068227224 0.1188171
0.061120793 0.039792582 -0.0378526 0.10431117 0.12236928 -0.11840509 0.025279155 0.07068655
0.07085388 -0.08821618 0.055430282 -0.025176069 -0.028108789 -0.026782032 -0.1320886 -0.088929
0.11086638 -0.1872884 -0.19383273 0.11506701 0.037439868 -0.07849945 -0.07755775 0.013575532
0.2201059 -0.20889384 0.060597192 0.017808314 -0.04261529 -0.13159962 0.17352223 -0.03138415
0.012370153 0.010499628 -0.20651165 0.04033422 -0.016661815 -0.18977265 -0.06467825 0.13048244
0.052086543 -0.073341735 0.15793335 -0.0847123 -0.09554137 0.015475751 -0.11923157 0.13412851
-0.020589825 -0.0020180992 -0.041031845 -0.07589584 -0.020109594 -0.018365076 0.042347282 0.10686468
0.091060504 0.1305703 0.1681655 -0.17827304 0.06861191 -0.059619136 -0.18499792 -0.02403341
-0.08272751 -0.09175392 -0.093597576 -0.082866244 -0.015996043 -0.19599506 0.04803285 -0.17198548
0.14946526 0.05746998 -0.034997124 0.037303966 -0.116171815 0.08132566 0.09236704 -0.09704477
-0.10668599 0.108727075 -0.118290275 0.09639695 0.16467494 -0.013157113 -0.04460028 0.033832908
-0.15340427 0.005051226 -0.06449839 -0.01875082 0.1336195 0.050998833 0.18165688 0.009445034
-0.119538344 -0.11796343 0.0065637613 0.07752849 -0.03314834 -0.054841768 -0.039813295 0.03630733
-0.041509435 0.057438415 0.0888633 -0.026885858 0.07498292 0.11102985 0.09417812 0.06802904
0.106000535 -0.21548702 -0.1707214 -0.099942125 -0.04086956 -0.049464043 0.13351378 0.03691771
-0.09937318 0.08059583 -0.09221482 0.09636846 -0.192258 0.2380819 0.18420292 -0.07930176
-0.19378367 0.13695005 -0.056395244 -0.14216001 0.00064834673 -0.1276272 0.04967018 -0.09337524
-0.097562306 0.09634756 -0.0812479 -0.06782169 0.10697043 -0.04647749 0.057018045 0.15173787
0.016001647 0.03967918 0.00028274299 0.012748269 0.034135588 -0.07082572 0.14557268 -0.1445504
0.18704396 0.13334805 -0.10683647 0.04382492 0.16383502 0.033449147 -0.046265807 -0.052572086
00000000: 3253 bd3d 7837 39bd 768d 23bc 3bd1 1bbd
00000010: 69e8 ff3d 6151 c6bd 7229 bfbc 853e c4bd
00000020: da33 f6bd 3255 c9bd 3277 9f3d 73b4 ef3c
00000030: a590 4abe 5c73 2e3d ac55 9cbc 72bf 4dbc
00000040: 845b 2b3d 376c 433e edda 95bc 655e 8ebd
00000050: 2a0d f7bd 1b22 293e 64a7 1dbc 23ae 3ebd
00000060: a46a 983b 16ec ebbd 9b25 88bd 3d0a a2bd
00000070: ac3e 2bbe 2e52 fa3b 5bee 88bd 154c 68bc
00000080: 5e92 e4bd a86f abbd c009 22be d02f 5e3c
00000090: 3169 fc3d b553 4c3d be37 16bd 0066 13be
000000a0: 0826 a43d 48cc fa3c 3909 87bd ae93 d63c
000000b0: 3ffa ac3b c9c7 32bd 462f 07bd d501 5abc
000000c0: 25f3 0d3e 0fb6 713e a224 d83d 2202 9cbd
000000d0: b556 0f3e e9d9 1cbe 4cff ebbc 1c00 413e
000000e0: 7249 cbbc 5b08 8f3d 5399 1bbe 839c 15be
000000f0: 0c89 173c efb7 af3d 33b6 20bd aaf1 a43c
00000100: e62e afbd 93a7 c43d c91c 013d b88a 90bd
00000110: c373 ee3d 1faf 313e 624d 07be e7c8 1f3d
00000120: e2e1 5c3d e05e 083a 0c81 d83d e4f0 0dbd
00000130: 8229 a0bd 09b1 b7ba bde2 813c 789e 04be
00000140: 11cf 363e 60bb d9bd b5ce fabc cf4a 2e3d
00000150: e070 09be 4cde 643d 40ac babd 2d0e 3d3e
00000160: c176 e1bc be96 0b3e 77cf 46bd 76dc 273d
00000170: ba1a b13d 24b8 3b3d b7ba 8b3d 6156 f33d
00000180: cc59 7a3d 8cfd 223d 540b 1bbd 18a1 d53d
00000190: bf9c fa3d 5e7e f2bd 3b16 cf3c 1cc4 903d
000001a0: d71b 913d afaa b4bd dd0a 633d 0b3e cebc
000001b0: 6744 e6bc fe65 dbbc 3c42 07be 6820 b6bd
000001c0: ea0d e33d 88c8 3fbe 167c 46be 41a8 eb3d
000001d0: 8c5a 193d 52c4 a0bd 99d6 9ebd e86b 5e3c
000001e0: 7163 613e 44e8 55be c334 783d bee2 913c
000001f0: 5f8d 2ebd 0dc2 06be d0af 313e ab8c 00bd
00000200: 2fac 4a3c a206 2c3c ca77 53be 7f35 253d
00000210: 5c7e 88bc c353 42be 0876 84bd 309d 053e
00000220: b358 553d 3134 96bd 48b9 213e a47d adbd
00000230: 32ab c3bd 018e 7d3c ae2f f4bd fc58 093e
00000240: feab a8bc 1642 04bb 0211 28bd 476f 9bbd
00000250: e0bc a4bc 5b72 96bc 5874 2d3d dfdb da3d
00000260: ee7d ba3d 39b4 053e 9433 2c3e 358d 36be
00000270: 6784 8c3d 3233 74bd 1870 3dbe b7e1 c4bc
00000280: 0a6d a9bd 7be9 bbbd 16b0 bfbd c7b5 a9bd
00000290: 220a 83bc eeb2 48be 18be 443d f61c 30be
000002a0: 6c0d 193e a465 6b3d 2559 0fbd 0bcc 183d
000002b0: 7deb edbd 118e a63d ee2a bd3d 69bf c6bd
000002c0: 2f7e dabd 4dac de3d 2c42 f2bd c46b c53d
000002d0: 8ca0 283e ef90 57bc c8ae 36bd 6094 0a3d
000002e0: 0216 1dbe c184 a53b bb17 84bd 529b 99bc
000002f0: 8dd3 083e 27e4 503d 4304 3a3e 58bf 1a3c
00000300: 85d0 f4bd d096 f1bd d214 d73b 42c7 9e3d
00000310: 8ec6 07bd c3a1 60bd 4413 23bd ffb6 143d
00000320: cc05 2abd 8b44 6b3d f6fd b53d bb3f dcbc
00000330: a590 993d 9e63 e33d 75e0 c03d cf52 8b3d
00000340: cf16 d93d a1a8 5cbe 97d1 2ebe 75ae ccbd
00000350: d766 27bd cf9a 4abd d6b7 083e 0637 173d
00000360: 2a84 cbbd 6d0f a53d 20db bcbd d45c c53d
00000370: 48df 44be becb 733e b19f 3c3e f668 a2bd
00000380: 3a6f 46be a23c 0c3e b3fe 66bd 6592 11be
00000390: d0f5 293a b4b0 02be f572 4b3d 853b bfbd
000003a0: bfce c7bd df51 c53d 4d65 a6bd 19e6 8abd
000003b0: 5013 db3d 2e5f 3ebd c18b 693d 2c61 1b3e
000003c0: e315 833c a386 223d 1f3d 9439 1ede 503c
000003d0: c2d1 0b3d 130d 91bd 0111 153e 0505 14be
000003e0: 7488 3f3e 648c 083e 14cd dabd c281 333d
000003f0: 5ec4 273e f901 093d 3781 3dbd d455 57bd

rnn.bias_ih_l0 f4 [204]
0.19429126 0.11144838 -0.0038618552 -0.016115652 -0.066981085 -0.03361969 0.12753536 -0.031159287
-0.025629357 0.030504648 -0.016438697 0.13377567 0.0048685838 -0.07848566 -0.093399554 0.17907646
0.08770514 -0.0420137 -0.03245241 -0.120999284 -0.0069155726 0.0022331513 0.050675873 0.1745588
0.106326215 0.059802916 0.04716265 -0.053956307 0.13310884 -0.059167538 0.14522254 0.105430245
-0.033891633 0.09217798 -0.11281201 0.060754247 0.0688691 0.12764722 -0.07034967 -0.058278717
-0.04651468 -0.021647168 0.024367612 -0.039716788 -0.005035031 -0.014112169 -0.009126443 0.0965605
-0.04986774 0.1499369 -0.08936427 0.020200938 0.13788314 0.050904047 -0.09277592 -0.008703832
0.037999626 0.0020402775 0.12692842 0.16623329 -0.003502735 -0.086257294 0.16850697 0.16488655
-0.07228414 0.16796395 -0.075232714 0.07228045 0.073173895 -0.04089456 -0.025585296 -0.06355687
-0.11687719 0.1314713 -0.07197197 -0.044648543 -0.04142454 -0.015193761 0.06842125 0.049150195
0.15217847 -0.013325209 0.06963785 -0.06058267 -0.023596816 0.047249876 0.15860844 0.18366937
0.17126568 0.04575007 0.03895508 -0.16985355 -0.023723302 0.15356544 0.0015855307 -0.05713938
0.08949894 -0.06135444 -0.009395147 0.16219053 0.064938694 0.03670927 0.07018194 0.16359352
-0.16780229 -0.068503946 -0.10810581 -0.15563887 -0.14251949 -0.039478313 0.005592485 0.055330068
0.079112224 -0.06331378 -0.08593971 0.09980565 -0.14243531 0.11711385 -0.07473399 0.12341627
-0.008475323 -0.077539146 0.025854506 -0.09163094 -0.11268581 -0.08729099 0.11841134 -0.0016867575
0.12536024 0.13680539 0.102136806 0.014782034 0.12391909 -0.025878994 0.119020045 0.007476592
-0.14074314 0.16495524 0.15219417 0.11665419 -0.11706415 -0.061585393 -0.02222288 0.14466722
0.16667503 -0.08824245 0.15118417 0.022832539 0.16261052 -0.028156755 0.068067044 0.12313611
0.099361084 -0.0468592 -0.07505474 0.12710862 -0.029905003 0.17133664 0.13214867 0.060206607
-0.11428485 -0.0022178811 0.044053286 -0.05836802 0.003939438 0.022316402 -0.05367169 0.12873572
0.08712 0.027055306 0.087848336 0.12516077 0.094658904 0.09985614 -0.011401376 -0.03551247
0.12901253 -0.04616301 -0.075483665 0.19108996 -0.040369414 0.14444192 0.13618578 -0.057644807
0.16340686 -0.01467785 0.2003751 0.11158647 0.14677906 0.13415085 0.07311542 0.046269197
0.048305452 0.016319849 0.1363848 0.13572028 0.12364362 0.019152535 0.067785166 0.052588444
0.12989096 -0.03508603 0.23245414 0.03323799
00000000: 4af4 463e 0c3f e43d 2e17 7dbb f904 84bc
00000010: 612d 89bd cdb4 09bd a198 023e c341 ffbc
00000020: a8f4 d1bc e2e4 f93c 72aa 86bc 7dfc 083e
00000030: a488 9f3b 17bd a0bd 4448 bfbd d25f 373e
00000040: c19e b33d 8f16 2cbd d1ec 04bd 79ce f7bd
00000050: 079c e2bb 105a 123b 8191 4f3d 8bbf 323e
00000060: 8fc1 d93d e7f3 743d 9f2d 413d 4a01 5dbd
00000070: af4d 083e a959 72bd 38b5 143e d0eb d73d
00000080: f4d1 0abd cfc7 bc3d fc09 e7bd 72d9 783d
00000090: 3e0b 8d3d f4b5 023e 7d13 90bd aab5 6ebd
000000a0: 2d86 3ebd 6755 b1bc 969e c73c 12ae 22bd
000000b0: e7fc a4bb ba36 67bc 1487 15bc 83c1 c53d
000000c0: 1e42 4cbd 0f89 193e 9d04 b7bd 707c a53c
000000d0: 3d31 0d3e c380 503d 4d01 bebd 849a 0ebc
000000e0: 7fa5 1b3d 2db6 053b 86f9 013e 0f39 2a3e
000000f0: 248e 65bb aaa7 b0bd 178d 2c3e 05d8 283e
00000100: b509 94bd befe 2b3e 9c13 9abd c607 943d
00000110: 32dc 953d 0e81 27bd 4198 d1bc 1b2a 82bd
00000120: 4f5d efbd 6aa0 063e 0a66 93bd 64e1 36bd
00000130: c7ac 29bd 41ef 78bc 7120 8c3d b751 493d
00000140: acd4 1b3e fa51 5abc 4a9e 8e3d 8925 78bd
00000150: 1c4e c1bc 1689 413d 406a 223e d313 3c3e
00000160: 4560 2f3e 6d64 3b3d 5d8f 1f3d 17ee 2dbe
00000170: 5f57 c2bc 4240 1d3e 95d1 cf3a fc0a 6abd
00000180: 384b b73d cb4e 7bbd 1aee 19bc 4615 263e
00000190: 94fe 843d 765c 163d 8dbb 8f3d 0f85 273e
000001a0: 5dd4 2bbe cc4b 8cbd 9466 ddbd cc5f 1fbe
000001b0: a1f0 11be 03b4 21bd 2a41 b73b c8a1 623d
000001c0: 9705 a23d a8aa 81bd 2901 b0bd e866 cc3d
000001d0: 90da 11be 63d9 ef3d 220e 99bd abc1 fc3d
000001e0: 15dc 0abc d8cc 9ebd d4cc d33c 01a9 bbbd
000001f0: d1c7 e6bd 9ec5 b2bd a581 f23d 3116 ddba
00000200: 6f5e 003e b616 0c3e 1a2d d13d 5830 723c
00000210: 4bc9 fd3d 2f00 d4bc c8c0 f33d 33fe f43b
00000220: f81e 10be 07ea 283e cad8 1b3e 64e8 ee3d
00000230: 54bf efbd f740 7cbd c20c b6bc a523 143e
00000240: dcac 2a3e 75b8 b4bd 06d0 1a3e 4e0b bb3c
00000250: 5f83 263e ffa8 e6bc bc66 8b3d c92e fc3d
00000260: d37d cb3d 6fef 3fbd 4db6 99bd c328 023e
00000270: 56fb f4bc df72 2f3e fb51 073e 349b 763d
00000280: 2d0e eabd df59 11bb 3871 343d 4e13 6fbd
00000290: 6716 813b e3d0 b63c d9d6 5bbd 4cd3 033e
000002a0: f86b b23d 17a3 dd3c d4e9 b33d 252a 003e
000002b0: 87dc c13d 6081 cc3d d6cc 3abc 8675 11bd
000002c0: dc1b 043e 6d15 3dbd 2e97 9abd 16ad 433e
000002d0: 665a 25bd 95e8 133e 4974 0b3e f61c 6cbd
000002e0: 2154 273e 5d7b 70bc 212f 4d3e 7287 e43d
000002f0: 404d 163e d75e 093e 8abd 953d c584 3d3d
00000300: f0db 453d 34b1 853c 75a8 0b3e 42fa 0a3e
00000310: de38 fd3d c7e5 9c3c f3d2 8a3d fb66 573d
00000320: 2302 053e 5eb6 0fbd 7508 6e3e 8f24 083d

rnn.bias_hh_l0 f4 [204]
0.025692265 0.015046224 -0.026853925 -0.025358848 0.050711103 0.027067598 0.03768031 0.15737352
0.061058216 -0.035394408 0.048633695 -0.029982662 -0.006926838 0.17892447 0.09630888 -0.019988973
0.046431374 0.09278961 0.016037028 -0.034597117 0.04315752 -0.04093222 -0.078300446 0.113868244
0.16685699 -0.05216399 0.058518168 -0.022263836 0.12677737 0.16975214 -0.07580736 0.21134095
-0.09640132 0.037185494 0.14637144 -0.09374033 0.086644396 0.03738941 0.05115751 0.082539685
-0.03309958 -0.02223787 0.055038527 0.17150189 0.042261995 0.18575601 0.12995878 0.09767247
0.15483078 0.07199144 -0.0092260875 -0.047022406 0.13916425 0.11093732 -0.08780806 -0.12492266
0.08235034 0.056908533 -0.106999464 -0.019011226 -0.067006566 -0.07356902 0.01066523 0.111037076
0.14946787 0.14564045 -0.06185454 0.022861138 -0.045217756 0.15959844 0.0965236 0.09060193
-0.049570575 -0.03965303 0.0014738981 -0.06085355 0.06166602 -0.07025884 -0.00371833 -0.16299279
0.097937375 0.14655945 -0.0994733 0.088727176 -0.13105056 0.15106848 0.117055506 0.028671615
0.00587687 0.09759861 -0.056298673 -0.07501848 0.08258753 0.13719217 0.03637635 0.051821977
0.16484967 0.1225856 -0.10819777 0.004532778 -0.012102954 -0.05015553 0.116620705 0.15472916
-0.117017396 -0.1671215 -0.07608744 0.0021267582 -0.067849815 -0.14992775 -0.13874102 -0.119674884
0.01954421 -0.15325327 -0.08521666 0.17922412 -0.09661971 0.10172366 -0.16849291 0.058917437
0.15224136 0.007231327 0.057979707 0.033963483 0.042249106 -0.11221623 -0.03795656 -0.11242753
0.06576787 -0.036921043 0.020724747 0.12763625 0.089170866 -0.06312321 0.12285799 -0.004253795
-0.12353731 0.1310456 0.04736822 0.023854336 -0.09983483 -0.035340402 -0.046501733 0.077348165
0.009532671 -0.017742872 -0.0012589457 0.036620755 0.012938674 -0.12993501 0.17350602 -0.055184945
0.04943569 0.14903022 0.13991854 -0.0023496891 0.044584952 0.03787901 0.15515713 0.027975744
0.03770829 0.17940088 0.038459696 0.18802771 0.1574246 0.031950146 0.1531887 0.062454805
0.01822421 0.15601872 -0.08831743 0.13440354 -0.12616612 -0.048087846 -0.043096375 0.10600331
-0.009644854 0.08551848 -0.060339965 0.17710134 0.15223898 0.053872816 -0.0051637273 0.012634167
0.030151814 0.10040797 0.15978521 -0.03923614 0.13332142 0.024697792 0.05542271 0.15273479
0.14111565 0.16400485 0.08068149 -0.058227334 0.12937088 0.12195098 -0.058905557 -0.0048047323
0.02267874 -0.08578653 0.009674515 -0.06500707
00000000: 9678 d23c 7084 763c c3fc dbbc 5cbd cfbc
00000010: 72b6 4f3d debc dd3c ab56 1a3d 8626 213e
00000020: 2e18 7a3d baf9 10bd 2034 473d 339e f5bc
00000030: 87fa e2bb fa37 373e 973d c53d eabf a3bc
00000040: d32e 3e3d 7b08 be3d 1660 833c b5b5 0dbd
00000050: f1c5 303d 8ba8 27bd fc5b a0bd c133 e93d
00000060: 8fdc 2a3e e8a9 55bd bfb0 6f3d a662 b6bc
00000070: edd1 013e 81d3 2d3e e440 9bbd c369 583e
00000080: 0e6e c5bd d14f 183d 65e2 153e eefa bfbd
00000090: 9e72 b13d a325 193d 8a8a 513d 910a a93d
000000a0: 6d93 07bd 322c b6bc 1470 613d 319e 2f3e
000000b0: ea1a 2d3d d336 3e3e ea13 053e 8108 c83d
000000c0: f68b 1e3e 4070 933d 0429 17bc 919a 40bd
000000d0: 1381 0e3e 1b33 e33d b6d4 b3bd 74d7 ffbd
000000e0: 4ca7 a83d ec18 693d 8922 dbbd 6ebd 9bbc
000000f0: bd3a 89bd 5bab 96bd 38bd 2e3c 6867 e33d
00000100: 1b0e 193e c522 153e 305b 7dbd 4847 bb3c
00000110: 4136 39bd c66d 233e 2aae c53d 818d b93d
00000120: 840a 4bbd 376b 22bd d02f c13a 9241 79bd
00000130: 8295 7c3d dee3 8fbd 3aaf 73bb 95e7 26be
00000140: 6493 c83d ae13 163e a8b8 cbbd 98b6 b53d
00000150: 1e32 06be b2b1 1a3e ccba ef3d bce0 ea3c
00000160: c292 c03b c8e1 c73d 7099 66bd 4aa3 99bd
00000170: a723 a93d 1b7c 0c3e 5eff 143d 4843 543d
00000180: 5ace 283e 290e fb3d cb96 ddbd b387 943b
00000190: 784b 46bc e36f 4dbd d6d6 ee3d 5271 1e3e
000001a0: d1a6 efbd e621 2bbe bbd3 9bbd 1561 0b3b
000001b0: d8f4 8abd a986 19be 2012 0ebe 1b18 f5bd
000001c0: 2e1b a03c 6dee 1cbe 1286 aebd 8786 373e
000001d0: 8ee0 c5bd 7f54 d03d 6889 2cbe 6953 713d
000001e0: 29e5 1b3e c4f4 ec3b 217c 6d3d 4b1d 0b3d
000001f0: 660d 2d3d 9fd1 e5bd 5678 1bbd 6840 e6bd
00000200: 4eb1 863d 853a 17bd f2c6 a93c 14b3 023e
00000210: 379f b63d be46 81bd f89c fb3d 6b63 8bbb
00000220: 2101 fdbd d130 063e 2e05 423d 2b6a c33c
00000230: 3476 ccbd 19c1 10bd 9a78 3ebd b768 9e3d
00000240: ec2e 1c3c 8059 91bc 3503 a5ba a5ff 153d
00000250: bbfc 533c af0d 05be 90ab 313e 9c09 62bd
00000260: 147d 4a3d 619b 183e ce46 0f3e 3efd 19bb
00000270: b69e 363d 0527 1b3d 83e1 1e3e 632d e53c
00000280: 0274 1a3d ddb4 373e ea87 1d3d 568a 403e
00000290: ea33 213e 28de 023d 80dd 1c3e 9cd0 7f3d
000002a0: f04a 953c 5fc3 1f3e c5df b4bd 15a1 093e
000002b0: b131 01be c3f7 44bd d385 30bd 4318 d93d
000002c0: 7305 1ebc 5024 af3d 0a27 77bd 0e5a 353e
000002d0: 89e4 1b3e bea9 5c3d 7c34 a9bb 8aff 4e3c
000002e0: f000 f73c b2a2 cd3d bc9e 233e 13b6 20bd
000002f0: 6985 083e 0653 ca3c ec02 633d 8266 1c3e
00000300: 9f80 103e e3f0 273e 563c a53d c97f 6ebd
00000310: cd79 043e 6fc1 f93d f446 71bd 0471 9dbb
00000320: c4c8 b93c d9b0 afbd db81 1e3c 6d22 85bd

rnn.weight_ih_l1 f4 [204, 51]
-0.08449177 -0.01423138 0.052624326 -0.074208036 0.021771736 -0.14844373 -0.10663324 -0.08219499
-0.03583506 0.12621269 0.05031226 -0.0750896 0.041629784 0.09229763 -0.029162858 -0.04759964
-0.09990393 0.135276 0.14020123 0.031376783 -0.021582054 -0.091624215 -0.11902177 0.054886937
-0.028019594 0.0048401235 -0.17335847 0.012186644 -0.12137231 0.10117375 -0.0650011 -0.11119281
0.11314579 0.07738527 0.028764186 -0.044772357 0.03468908 0.014170899 0.101768516 -0.16079807
-0.046961214 0.030809995 0.17583784 -0.24642245 -0.05506758 -0.089509025 -0.09675142 -0.07029187
0.098381475 0.078246996 0.07419856 0.07096973 -0.04788693 -0.006471616 -0.032529294 -0.11327946
0.11047873 -0.07458331 0.06902364 -0.05864147 -0.19716643 0.026684336 -0.08225038 0.02436125
0.09485278 -0.07406399 0.0033451368 -0.07665704 0.13700096 -0.10321609 0.05741772 0.1308055
-0.01661207 -0.047714714 -0.003482652 0.055576514 -0.07718512 0.035250854 -0.056119952 0.035578858
0.13765456 0.10887411 0.20802271 0.0060089943 0.13729605 -0.16227697 0.12987319 0.06664524
-0.012933869 -0.081662595 0.047224104 -0.019636584 -0.084571935 -0.010587871 -0.21289967 0.12001166
0.02140145 0.03130494 -0.026595838 -0.06015246 0.063036524 0.17086299 0.11188561 0.007745507
0.008770658 -0.084488556 0.12909289 -0.14063098 -0.16730133 -0.17649093 -0.15540607 -0.054631677
0.13002238 -0.12334745 -0.1550455 0.091718495 0.106271215 -0.04466045 -0.08389628 0.06859264
0.17944095 -0.2014316 0.0067386013 -0.14055003 -0.046827637 -0.051670935 -0.078495026 -0.18691353
0.09172484 -0.01504146 -0.050687272 -0.011289821 0.06909826 0.012541165 0.08752695 -0.03701403
-0.025444759 0.02300348 -0.00782515 0.046859995 -0.081939116 -0.07719231 -0.08129344 0.07490951
-0.01403272 -0.23507592 0.10277308 0.09882027 -0.059923533 0.00089460553 0.043268718 0.018062659
0.15878887 0.011216551 -0.050566692 -0.04754925 0.034408063 0.018515997 0.041726373 -0.073650084
-0.04794886 0.005703732 0.22844885 0.067377836 -0.005214904 0.04858015 0.086186595 0.10483424
-0.09260642 0.012292022 0.06653804 0.18940017 -0.104611404 0.009117104 -0.23071876 -0.13748941
-0.19350897 0.13706677 0.04530747 -0.21954682 0.06320778 -0.3448343 0.15227717 0.04041138
0.050180845 -0.017970376 0.03003789 0.04782433 -0.061180457 0.19555146 0.015002092 0.24772017
-0.19383146 -0.10383203 0.06867139 0.12152265 -0.0215163 -0.12600319 -0.081214026 0.016186288
0.22976623 0.15446135 0.07360527 -0.009642822 -0.1559981 0.007507364 -0.053342994 -0.051557004
0.15849015 -0.07093205 -0.18246198 -0.10652799 -0.018670611 0.10283799 0.20385686 -0.09554832
-0.14777952 0.2098952 0.047055576 0.029378558 -0.19243944 0.032065917 0.14385329 -0.30664393
-0.22156672 0.031204885 -0.18011175 0.010170504 -0.09668726 0.022620765 -0.24299061 -0.2105104
-0.2692316 0.13162206 -0.10981291 -0.19136518 -0.017944599 -0.14344348 0.055054292 0.07392227
0.03577129 0.19193922 0.06875118 -0.022682609 -0.08990234 0.03487578 0.011830461 -0.28082284
0.070916615 0.0047729923 -0.05484037 0.11704832 0.0306943 0.17022455 -0.058178402 -0.090114646
00000000: 050a adbd bc2a 69bc 9b8c 573d 62fa 97bd
00000010: a45a b23c a201 18be 8762 dabd d955 a8bd
00000020: c9c7 12bd e63d 013e 3a14 4e3d 94c8 99bd
00000030: fe83 2a3d 8a06 bd3d f2e6 eebc d7f7 42bd
00000040: 6f9a ccbd cb85 0a3e e990 0f3e f184 003d
00000050: d9cc b0bc 7aa5 bbbd b0c1 f3bd 20d1 603d
00000060: 5989 e5bc e699 9e3b e284 31be 7daa 473c
00000070: 0c92 f8bd 2f34 cf3d 4c1f 85bd 0eb9 e3bd
00000080: fbb8 e73d 2b7c 9e3d dfa2 eb3c 3863 37bd
00000090: 2316 0e3d 0f2d 683c 036c d03d 40a8 24be
000000a0: 675a 40bd 3e65 fc3c d60e 343e 2b56 7cbe
000000b0: 8b8e 61bd 8250 b7bd 9c25 c6bd 2ff5 8fbd
000000c0: 3a7c c93d f63f a03d 6af5 973d 9458 913d
000000d0: 1625 44bd da0f d4bb 703d 05bd 10ff e7bd
000000e0: ac42 e23d 22bf 98bd 445c 8d3d 0a32 70bd
000000f0: ffe5 49be 1c99 da3c e372 a8bd 3f91 c73c
00000100: 2d42 c23d dcae 97bd 153a 5b3b 5efe 9cbd
00000110: fb49 0c3e f562 d3bd d82e 6b3d e1f1 053e
00000120: 0916 88bc 8170 43bd 343d 64bb 33a4 633d
00000130: 3b13 9ebd 3363 103d 09de 65bd 23bb 113d
00000140: 51f5 0c3e 64f9 de3d e803 553e 19e7 c43b
00000150: 5697 0c3e ef2b 26be 7afd 043e 4d7d 883d
00000160: 94e8 53bc b83e a7bd 106e 413d e7dc a0bc
00000170: 0d34 adbd c078 2dbc 5f02 5abe acc8 f53d
00000180: 1852 af3c 9c39 003d 84df d9bc 6d62 76bd
00000190: 4b19 813d b5f6 2e3e 4824 e53d 06ce fd3b
000001a0: ceb2 0f3c 5608 adbd ed30 043e 9101 10be
000001b0: 0a51 2bbe 0aba 34be c522 1fbe 77c5 5fbd
000001c0: 9624 053e 969d fcbd 3fc4 1ebe e8d6 bb3d
000001d0: b9a4 d93d e0ed 36bd d0d1 abbd 4c7a 8c3d
000001e0: 5ebf 373e 1644 4ebe 7ccf dc3b 59ec 0fbe
000001f0: 56ce 3fbd e7a4 53bd 00c2 a0bd 4366 3fbe
00000200: 3cda bb3d 7570 76bc 759d 4fbd f1f8 38bc
00000210: 6383 8d3d 7579 4d3c 5441 b33d 069c 17bd
00000220: 8771 d0bc cb71 bc3c 0f35 00bc 44f0 3f3d
00000230: b2cf a7bd 0017 9ebd 2d7d a6bd 286a 993d
00000240: 7ee9 65bc beb7 70be b17a d23d 4862 ca3d
00000250: 6172 75bd f683 6a3a 8a3a 313d 24f8 933c
00000260: 8d99 223e a0c5 373c 051f 4fbd 01c3 42bd
00000270: 78ef 0c3d dcae 973c 46e9 2a3d dbd5 96bd
00000280: 0666 44bd 5fe6 ba3b 7fee 693e 64fd 893d
00000290: c9e1 aabb fbfb 463d 9982 b03d 56b3 d63d
000002a0: 6fa8 bdbd 7a64 493c 1945 883d 1ef2 413e
000002b0: 813e d6bd e85f 153c 8a41 6cbe 06ca 0cbe
000002c0: 3727 46be 3b5b 0c3e 5394 393d e2d0 60be
000002d0: 1573 813d 1f8e b0be 8cee 1b3e 6786 253d
000002e0: 6e8a 4d3d 9c36 93bc 0512 f63c 72e3 433d
000002f0: 5c98 7abd a43e 483e 56cb 753c 5baa 7d3e
00000300: c17b 46be e3a5 d4bd 96a3 8c3d dee0 f83d
00000310: f442 b0bc fb06 01be 8a53 a6bd 1b99 843c
00000320: d747 6b3e 1e2b 1e3e 5cbe 963d edfc 1dbc
00000330: f7bd 1fbe 5500 f63b 2f7e 5abd 702d 53bd
00000340: 3e4b 223e d344 91bd 50d7 3abe 592b dabd
00000350: 1cf3 98bc b99c d23d dabf 503e d6ae c3bd
00000360: 8453 17be c4ee 563e 59bd 403d 4dab f03c
00000370: d80e 45be 8d57 033d 474e 133e 6f00 9dbe
00000380: 63e2 62be 63a1 ff3c 376f 38be 30a2 263c
00000390: f803 c6bd 2f4f b93c 88d2 78be 0a90 57be
000003a0: b9d8 89be efc7 063e 97e5 e0bd 3cf5 43be
000003b0: 8d00 93bc d9e2 12be 9c80 613d 8f64 973d
000003c0: eb84 123d b78b 443e 6bcd 8c3d e1d0 b9bc
000003d0: b81e b8bd e8d9 0e3d 8dd4 413c 03c8 8fbe
000003e0: bb3c 913d c366 9c3b 4ca0 60bd 08b7 ef3d
000003f0: 9d72 fb3c 584f 2e3e 7a4c 6ebd 078e b8bd

rnn.weight_hh_l1 f4 [204, 51]
-0.027072022 -0.101752505 0.005045299 -0.009281726 -0.0014197249 -0.008248738 0.1576781 0.15601848
-0.08931015 -0.04807394 0.07266338 0.016784934 -0.08901018 0.03213651 -0.14493677 -0.17157315
-0.13554257 -0.029144714 0.095093265 0.15295163 -0.091950536 -0.052174047 0.13667509 -0.07609192
-0.10078235 0.07562534 -0.08976112 -0.114475355 0.10677693 -0.087350406 0.07108592 0.08740856
-0.07607721 0.09421593 -0.0739769 -0.008242661 0.11098523 0.041578773 0.0027340844 -0.059579067
-0.08936872 0.04033003 0.07229544 0.07971363 0.028883517 -0.006586921 -0.08067501 0.0048269145
-0.052952807 -0.1405231 0.10476173 -0.09697663 0.060971532 -0.040186107 -0.05492557 0.017927995
-0.09522684 0.11724031 0.0956696 -0.09774222 -0.03868386 0.06514253 -0.088962674 -0.023963949
0.06279977 -0.024854658 0.103581175 -0.1406759 0.0067027113 -0.13043304 0.014908539 -0.088864595
0.039521433 -0.10939643 0.09215898 -0.1062301 -0.04333903 0.16057849 -0.11442081 -0.042076383
0.046732794 0.1568499 -0.13832454 -0.013337959 0.081841744 -0.032620545 -0.006904811 -0.06614965
-0.15921678 -0.11244919 -0.08484263 0.09219952 -0.10630412 -0.02445387 0.07291534 0.13132602
-0.03968835 -0.15342417 -0.11379624 -0.05438488 -0.14972106 0.11971006 -0.054452304 0.039824203
0.009450429 -0.14406672 -0.17096926 -0.054283336 0.013453006 0.106437154 -0.014023012 -0.083969384
-0.0007901306 0.07121568 0.06292442 -0.063780054 -0.1954474 -0.14069268 0.03968024 0.004567929
-0.14137273 0.124342754 -0.029709598 -0.12739138 0.065163106 0.03681781 -0.12717293 -0.0024564408
-0.01134032 -0.097398944 0.062167194 -0.079997145 -0.078655876 0.0920221 0.07097232 0.025202287
0.07556554 -0.12172135 -0.03236158 0.060643118 -0.095537 0.006688555 0.058659453 -0.06474602
-0.08399113 -0.056396767 0.029807447 0.10974199 -0.11294781 0.020542096 -0.12122206 -0.028456189
-0.049596377 -0.074923135 0.13525487 -0.09425694 -0.07122596 -0.0917139 -0.13743655 0.13540503
-0.063526206 0.096237205 -0.00032581153 0.042936973 0.07594315 0.12866488 -0.023673434 -0.0015544846
0.0325556 -0.020904617 0.08838263 -0.16355522 -0.062607355 -0.026280768 -0.1166491 0.035889167
-0.008445432 -0.120051 0.0003613191 0.00933102 -0.049367916 -0.008726616 -0.027760103 -0.0695457
0.120187536 -0.064466774 0.088318005 0.105570175 -0.011800671 0.06212068 0.0426644 0.121374495
-0.014449123 0.07851441 0.018825356 0.14485812 -0.107094646 -0.11239241 0.14632955 0.0009219534
-0.06019887 0.07092064 -0.05778189 -0.0023878287 -0.01503521 0.012222149 -0.04219107 -0.17687398
0.056372218 -0.015113481 -0.04575887 0.12434213 -0.015009837 -0.083899915 -0.0013115181 0.0657244
0.09237391 0.025870768 -0.073062256 0.006535812 -0.11606612 0.0047305436 0.05335489 0.19185683
-0.026963146 -0.06448504 0.15719895 0.075262345 -0.0550777 -0.09299144 -0.09921262 -0.14543763
0.18097845 -0.13084675 0.026470523 0.045583054 -0.06657733 -0.18074274 -0.099892445 -0.09850167
0.09066167 0.15132052 -0.1338829 -0.17837058 -0.072184406 0.040092207 0.1905477 -0.17159867
-0.012118691 0.12504072 -0.008945055 0.053963155 -0.03444936 -0.07345823 -0.013652202 -0.1373273
00000000: 25c6 ddbc 9e63 d0bd 0953 a53b 6112 18bc
00000010: 1016 baba b725 07bc 5e76 213e 4fc3 1f3e
00000020: 3de8 b6bd 2ee9 44bd 8ad0 943d 8f80 893c
00000030: f84a b6bd 93a1 033d 4e6a 14be dfb0 2fbe
00000040: accb 0abe e5c0 eebc 42c0 c23d 5a9f 1c3e
00000050: 9050 bcbd 74b4 55bd 8ef4 0b3e 15d6 9bbd
00000060: fa66 cebd 75e1 9a3d aed4 b7bd 0e72 eabd
00000070: ddad da3d c5e4 b2bd 7f95 913d 4203 b33d
00000080: 5ece 9bbd 48f4 c03d 3381 97bd 3a0c 07bc
00000090: 394c e33d 814e 2a3d 532e 333b 2e09 74bd
000000a0: f306 b7bd 1a31 253d a20f 943d e640 a33d
000000b0: 209d ec3c 19d7 d7bb f138 a5bd 182b 9e3b
000000c0: 0be5 58bd 4ae5 0fbe 518d d63d af9b c6bd
000000d0: 49bd 793d 309a 24bd a2f9 60bd bbdd 923c
000000e0: 4a06 c3bd b01b f03d 6cee c33d 132d c8bd
000000f0: f872 1ebd 7269 853d 1032 b6bd 0b50 c4bc
00000100: 2a9d 803d ff9b cbbc 5e22 d43d 580d 10be
00000110: 6ba2 db3b 3d90 05be f242 743c a4fe b5bd
00000120: 3ae1 213d 3c0b e0bd d9bd bc3d 2b8f d9bd
00000130: 4484 31bd b06e 243e 7555 eabd 4958 2cbd
00000140: e36a 3f3d 439d 203e f3a4 0dbe 7487 5abc
00000150: a59c a73d 1f9d 05bd c141 e2bb 7879 87bd
00000160: b909 23be c34b e6bd f9c1 adbd 1ad3 bc3d
00000170: f9b5 d9bd 7b53 c8bc a354 953d 547a 063e
00000180: 4090 22bd 3a1b 1dbe 010e e9bd aec2 5ebd
00000190: 7a50 19be 8c2a f53d 6109 5fbd b41e 233d
000001a0: f9d5 1a3c 3a86 13be 9112 2fbe 3458 5ebd
000001b0: ff69 5c3c b9fb d93d c6c0 65bc 24f8 abbd
000001c0: c420 4fba 87d9 913d 85de 803d 1e9f 82bd
000001d0: 5d23 48be be11 10be bf87 223d 91ae 953b
000001e0: 03c4 10be 6aa7 fe3d 8b61 f3bc e372 02be
000001f0: 3c74 853d 46ce 163d 9f39 02be 3dfc 20bb
00000200: c0cc 39bc 1979 c7bd 07a3 7e3d 8bd5 a3bd
00000210: 5516 a1bd 1576 bc3d f059 913d 0775 ce3c
00000220: 1bc2 9a3d 0b49 f9bd 938d 04bd eb64 783d
00000230: e7a8 c3bd aa2b db3b e544 703d 9099 84bd
00000240: 8b03 acbd 4c00 67bd bf2e f43c 69c0 e03d
00000250: 2e51 e7bd e647 a83c 4543 f8bd f41c e9bc
00000260: 9225 4bbd 4d71 99bd 4180 0a3e c809 c1bd
00000270: ebde 91bd 7fd4 bbbd 2bbc 0cbe 9ea7 0a3e
00000280: 071a 82bd 0318 c53d afd1 aab9 aede 2f3d
00000290: 1588 9b3d bac0 033e caee c1bc d9bf cbba
000002a0: 0559 053d 2940 abbc f401 b53d 057b 27be
000002b0: 4938 80bd c44a d7bc b9e5 eebd 8500 133d
000002c0: b65e 0abc 4cdd f5bd 6e6f bd39 22e1 183c
000002d0: 0336 4abd 15fa 0ebc 2869 e3bc fa6d 8ebd
000002e0: e224 f63d 2807 84bd 12e0 b43d 2d35 d83d
000002f0: 9a57 41bc 4172 7e3d dec0 2e3d 3193 f83d
00000300: 04bc 6cbc 2acc a03d a237 9a3c b055 143e
00000310: 7054 dbbd fe2d e6bd 6ad7 153e 3faf 713a
00000320: 1793 76bd d73e 913d b4ac 6cbd 1e7d 1cbb
00000330: 3e56 76bc 693f 483c 8bd0 2cbd 741e 35be
00000340: 8ee6 663d 899e 77bc a76d 3bbd 16a7 fe3d
00000350: d2eb 75bc b8d3 abbd 3fe7 abba 849a 863d
00000360: 882e bd3d efee d33c aaa1 95bd 5d2a d63b
00000370: 13b4 edbd ad02 9b3b a88a 5a3d 1e76 443e
00000380: d1e1 dcbc bc10 84bd c3f8 203e 2523 9a3d
00000390: 2899 61bd 4c72 bebd fc2f cbbd 9aed 14be
000003a0: 6a52 393e b1fc 05be b6d8 d83c 4cb5 3a3d
000003b0: b259 88bd a014 39be 6994 ccbd 3ebb c9bd
000003c0: d3ac b93d c4f3 1a3e 9918 09be c7a6 36be
000003d0: 6bd5 93bd ba37 243d f01e 433e 90b7 2fbe
000003e0: 798d 46bc ad0a 003e 488e 12bc 7808 5d3d
000003f0: c61a 0dbd 4571 96bd 7cad 5fbc 879f 0cbe

rnn.bias_ih_l1 f4 [204]
-0.0014062102 0.085783154 0.019837875 0.13317722 0.05924352 0.1592693 0.11587645 0.0032181172
0.040357653 0.08133312 0.06747136 -0.08075858 0.18581812 0.1437436 0.16993658 -0.091932185
0.12221186 0.085825674 -0.011726293 0.15896583 0.11238846 -0.049887553 -0.042207878 -0.083751164
0.13684522 0.18256246 -0.03527217 0.07379494 0.15930328 0.018916847 0.10789781 -0.035252098
0.1145346 -0.053045627 -0.059441503 -0.0811339 0.18059996 0.15521403 -0.021766294 -0.08555462
-0.052857727 -0.102927946 -0.0503764 0.096485354 0.054581493 0.10629413 0.11284674 -0.079201706
-0.1184691 0.15513302 0.116876975 -0.023023367 -0.053122986 0.011789163 -0.04079749 0.16549097
0.17030306 0.117075324 0.00060752855 0.09756271 -0.048153218 -0.08921315 -0.008937448 -0.08801979
0.15398912 0.07095577 0.04381904 -0.059040613 0.05025262 0.009498698 0.09422844 0.0966973
0.09009404 -0.07431669 -0.04994036 0.021464538 0.09710055 -0.05928009 -0.0049943808 -0.01417481
-0.089163676 -0.02291113 0.00729398 0.06765819 -0.073409386 0.096074395 0.13719624 0.050877023
0.07030607 0.009057323 -0.06141411 0.0773678 -0.077940516 -0.094751775 0.004678738 -0.102757715
-0.029468415 0.1030329 0.09410082 0.038800497 0.11823559 0.14421983 -0.17432007 -0.1046702
-0.105509035 0.0059483857 -0.03823727 -0.14763889 0.09431027 0.16301635 0.14274187 0.033536367
-0.11098309 0.12997466 0.021488106 -0.0051173256 -0.07711983 -0.13529973 0.08703186 0.061185278
-0.048934355 0.101886846 -0.053566642 -0.15468612 0.12355933 0.100293964 -0.109514214 -0.100326054
-0.020182956 -0.076123595 -0.05301729 -0.06698827 -0.12679875 0.0037567783 0.11289254 -0.115204975
-0.13670816 -0.11538673 0.03167807 0.09297878 0.032864925 -0.12951009 0.06494827 -0.148415
0.02431984 0.06584378 0.08978376 0.07922858 -0.09166762 -0.07976805 0.107447885 -0.01583698
0.009602921 0.04705023 0.13272849 0.19214317 0.1423086 -0.06333893 0.10167953 -0.08747503
0.11435377 0.14036083 0.038639378 0.14368856 0.1533887 -0.010829385 -0.018705808 0.03588634
-0.048991166 -0.073430024 0.0593868 0.061050575 -0.025354821 0.1281013 -0.06809246 -0.01493089
0.033567317 0.18122546 -0.061559744 0.114203215 0.1005776 0.15954736 -0.03348824 0.18481506
0.03778606 0.0834403 -0.08989461 -0.056618314 -0.063784435 0.120089225 0.13558319 0.12807432
0.016478151 0.05945175 -0.042177293 -0.0033044175 0.098923266 0.023071527 0.053420387 -0.052884128
-0.079801016 -0.104991965 -0.032924917 0.032219123
00000000: 9650 b8ba 14af af3d 0a83 a23c 9c5f 083e
00000010: 55a9 723d 7e17 233e a250 ed3d 0ce7 523b
00000020: 114e 253d fb91 a63d 6d2e 8a3d c164 a5bd
00000030: 1b47 3e3e 8631 133e db03 2e3e f146 bcbd
00000040: 364a fa3d 5fc5 af3d a31f 40bc f0c7 223e
00000050: ec2b e63d e456 4cbd 2be2 2cbd bb85 abbd
00000060: 2721 0c3e a7f1 3a3e 8d79 10bd cd21 973d
00000070: 6620 233e 81f7 9a3c 87f9 dc3d 8164 10bd
00000080: 1e91 ea3d 5f46 59bd ef78 73bd 8829 a6bd
00000090: 32ef 383e 6df0 1e3e 3a4f b2bc 4337 afbd
000000a0: 5881 58bd e3cb d2bd 7c57 4ebd 1d9a c53d
000000b0: d890 5f3d bdb0 d93d 311c e73d 8134 a2bd
000000c0: ed9f f2bd 31db 1e3e 325d ef3d 809b bcbc
000000d0: 7d97 59bd 5527 413c 451b 27bd 7776 293e
000000e0: ed63 2e3e 30c5 ef3d 8d42 1f3a f5ce c73d
000000f0: 4f3c 45bd 62b5 b6bd 606e 12bc b843 b4bd
00000100: 53af 1d3e 4251 913d 987b 333d 92d4 71bd
00000110: b1d5 4d3d 6da0 1b3c d7fa c03d 3c09 c63d
00000120: 3983 b83d 5933 98bd 438e 4cbd 66d6 af3c
00000130: a7dc c63d aecf 72bd e7a7 a3bb 763d 68bc
00000140: 729b b6bd 1fb0 bbbc 5702 ef3b 6190 8a3d
00000150: a957 96bd a7c2 c43d 2c7d 0c3e 6d64 503d
00000160: a1fc 8f3d 2b65 143c 5d8d 7bbd 0273 9e3d
00000170: 479f 9fbd 380d c2bd 1950 993b a372 d2bd
00000180: bf67 f1bc ea02 d33d eeb7 c03d 45ed 1e3d
00000190: 8025 f23d 5dae 133e f680 32be 545d d6bd
000001a0: 1f15 d8bd adea c23b af9e 1cbd a62e 17be
000001b0: be25 c13d c2ed 263e ed2a 123e 6e5d 093d
000001c0: 1a4b e3bd 1418 053e d307 b03c 3daf a7bb
000001d0: 00f1 9dbd 038c 0abe c33d b23d 6a9d 7a3d
000001e0: 646f 48bd 0daa d03d b268 5bbd 0a66 1ebe
000001f0: ad0c fd3d ec66 cd3d fd48 e0bd bf77 cdbd
00000200: ba56 a5bc b0e6 9bbd a828 59bd 2531 89bd
00000210: 88d7 01be 4834 763b 3434 e73d 96f0 ebbd
00000220: 39fd 0bbe e14f ecbd ddc0 013d a96b be3d
00000230: 5f9d 063d 4b9e 04be 9903 853d 1afa 17be
00000240: 673a c73c 1bd9 863d 8ce0 b73d 9842 a23d
00000250: 3cbc bbbd 6e5d a3bd a30d dc3d 8ebc 81bc
00000260: 9255 1d3c beb7 403d fae9 073e 2ec1 443e
00000270: 58b9 113e d7b7 81bd 5c3d d03d 1c26 b3bd
00000280: 4f32 ea3d c0ba 0f3e 5344 1e3d 1823 133e
00000290: ed11 1d3e bc6d 31bc ec3c 99bc 8efd 123d
000002a0: f6aa 48bd 7b62 96bd 933f 733d 2b10 7a3d
000002b0: eab4 cfbc fd2c 033e 0f74 8bbd b1a0 74bc
000002c0: e27d 093d 2b93 393e 1226 7cbd 60e3 e93d
000002d0: a1fb cd3d 6260 233e f72a 09bd 2940 3d3e
000002e0: 8ec5 1a3d bfe2 aa3d aa1a b8bd 9be8 67bd
000002f0: 6aa1 82bd 57f1 f53d 52d6 0a3e ea25 033e
00000300: 30fd 863c ae83 733d 19c2 2cbd ed8e 58bb
00000310: 4898 ca3d 8000 bd3c 56cf 5a3d 079d 58bd
00000320: b76e a3bd 0706 d7bd 47dc 06bd 33f8 033d

rnn.bias_hh_l1 f4 [204]
-0.08003928 -0.098242566 0.076269574 0.10874539 0.049139697 0.032732986 0.14295696 0.14149867
-0.026749993 -0.003486617 -0.04990349 0.041710522 0.088238634 -0.06794896 0.14376369 0.00507399
-0.031419463 0.11448013 0.163729 0.1651147 0.083963975 0.15116216 0.12517227 0.0063517713
0.017995311 -0.05921038 -0.061407667 0.1806539 -0.022679154 0.123112075 0.06247691 0.020512076
-0.06332479 0.13671973 0.12451386 -0.093600765 0.12578195 0.017913884 0.079384305 0.06339335
0.017905533 0.095570214 0.1602492 0.07856361 -0.02557676 -0.016215451 0.020928027 -0.031801514
-0.047036998 -0.01451538 -0.07047953 0.11293785 0.0027774079 0.032970477 0.035955258 -0.06226222
-0.03398738 0.02196122 -0.022257596 0.1253046 0.06353011 -0.07587722 -0.048675023 0.04879251
0.04828943 0.022787068 -0.050836597 0.095570296 -0.08447344 -0.0008343456 -0.06458535 -0.056116536
-0.08205533 -0.054990593 0.051533453 0.13940889 0.13774055 0.09846214 0.11037126 0.097569175
-0.030700209 -0.15184651 -0.07646124 0.14074306 0.012790283 0.06209381 0.055820756 0.14531942
0.057996 -0.00043254203 0.09662294 0.16179202 0.026191797 0.16133735 0.098225504 -0.042964835
-0.10517187 0.17652276 0.101775736 -0.08746636 0.116502404 0.04545334 -0.12824118 -0.06190779
0.038957383 0.031270407 -0.04972004 0.08517166 0.107072115 -0.090582356 0.020352244 0.09455665
-0.114271805 0.12407722 0.07620376 -0.0953883 -0.03440549 -0.16415969 -0.049944285 -0.055715207
-0.03524669 0.10562382 0.14808433 -0.049892224 0.047455955 -0.15437609 -0.1271006 0.01727912
0.093520954 0.12887606 0.09411548 0.025591794 -0.07853959 -0.07965098 -0.05472749 0.055257842
-0.080201656 0.041180756 -0.031125305 -0.047457922 0.047144562 0.008056729 -0.09673349 -0.08894699
-0.010539202 -0.1255964 0.044105 -0.07218355 -0.04506278 -0.06571773 0.011906067 -0.050435558
0.04048734 -0.032989856 -0.054635525 0.14180036 0.09185175 -0.0010445537 0.11478963 0.18366623
0.06626325 0.06494906 0.19527408 -0.04204371 0.17599326 0.0772762 -0.022570575 0.120813675
0.011015917 0.15720023 0.0018810936 0.043793123 -0.08543303 -0.0654698 0.051970497 -0.05901766
-0.026168892 0.010636497 0.041477695 -0.11172863 0.18174064 0.09763767 0.16691107 0.02006979
-0.027205551 0.01071923 0.15618917 0.047737315 0.15638186 -0.055419814 -0.023501921 0.16022363
-0.011512192 0.1578968 -0.07200714 0.023375127 0.097164065 -0.092240244 0.015159423 0.08323567
-0.05881243 -0.10301201 -0.055895593 0.12040332
00000000: a2eb a3bd 6633 c9bd 3933 9c3d e7b5 de3d
00000010: b546 493d 0613 063d 4f63 123e 07e5 103e
00000020: cd22 dbbc ba7f 64bb 9a67 4cbd a7d8 2a3d
00000030: 75b6 b43d d328 8bbd ca36 133e b743 a63b
00000040: b2b1 00bd 8f74 ea3d 93a8 273e d413 293e
00000050: 4ef5 ab3d 41ca 1a3e 292d 003e 8522 d03b
00000060: e76a 933c 9586 72bd 9b86 7bbd 56fd 383e
00000070: a2c9 b9bc 2f22 fc3d cae7 7f3d f108 a83c
00000080: 6db0 81bd 4200 0c3e 1f01 ff3d c2b1 bfbd
00000090: fccc 003e 23c0 923c 3d94 a23d 5fd4 813d
000000a0: a0ae 923c 51ba c33d 5e18 243e f5e5 a03d
000000b0: 5a86 d1bc 44d6 84bc 4171 ab3c 4e42 02bd
000000c0: dea9 40bd ebd1 6dbc 9257 90bd f64b e73d
000000d0: 2c05 363b 0d0c 073d d245 133d ab06 7fbd
000000e0: 5a36 0bbd 04e8 b33c 9055 b6bc d94f 003e
000000f0: 131c 823d 8465 9bbd 765f 47bd a8da 473d
00000100: 23cb 453d f2ab ba3c 093a 50bd 5cba c33d
00000110: 6900 adbd fcb7 5aba 5345 84bd 74da 65bd
00000120: a00c a8bd d13d 61bd be14 533d 34c1 0e3e
00000130: dc0b 0d3e 85a6 c93d 540a e23d 59d2 c73d
00000140: 017f fbbc a77d 1bbe b697 9cbd f31e 103e
00000150: 568e 513c 1456 7e3d 4ea4 643d 9dce 143e
00000160: 378d 6d3d cfc6 e2b9 3fe2 c53d cfac 253e
00000170: 2e90 d63c 9e35 253e 742a c93d e5fb 2fbd
00000180: 5964 d7bd 62c2 343e cc6f d03d 9021 b3bd
00000190: d098 ee3d 482d 3a3d a851 03be 0693 7dbd
000001a0: c791 1f3d 6615 003d 3ea7 4bbd 7b6e ae3d
000001b0: a048 db3d 3e83 b9bd c0b9 a63c eba6 c13d
000001c0: 5607 eabd 331c fe3d b810 9c3d f15a c3bd
000001d0: c5ec 0cbd 7a19 28be 6192 4cbd a135 64bd
000001e0: d55e 10bd 4d51 d83d 6ba3 173e ca5b 4cbd
000001f0: 2d61 423d c414 1ebe a926 02be f18c 8d3c
00000200: ea87 bf3d 16f8 033e 9ebf c03d e2a5 d13c
00000210: 5dd9 a0bd 0e20 a3bd ef29 60bd 0c56 623d
00000220: c440 a4bd 27ad 283d 7ffa febc 3d63 42bd
00000230: a81a 413d 5f00 043c 351c c6bd d729 b6bd
00000240: 9eac 2cbc 589c 00be 72a7 343d f8d4 93bd
00000250: c093 38bd 0497 86bd aa11 433c 8495 4ebd
00000260: 0ed6 253d 5f20 07bd 80c9 5fbd 1d34 113e
00000270: c51c bc3d 68e9 88ba d316 eb3d 0013 3c3e
00000280: 07b5 873d 0304 853d eef5 473e 0636 2cbd
00000290: 9437 343e fc42 9e3d ede5 b8bc 296d f73d
000002a0: 1b7c 343c 19f9 203e 078f f63a 6b60 333d
000002b0: 83f7 aebd 0815 86bd 04df 543d 80bc 71bd
000002c0: 2560 d6bc b444 2e3c 84e4 293d fbd1 e4bd
000002d0: 381a 3a3e 42f6 c73d bcea 2a3e 6669 a43c
000002e0: 2dde debc b69f 2f3c 0ef0 1f3e 3488 433d
000002f0: 9122 203e e3ff 62bd 1a87 c0bc aa11 243e
00000300: a29d 3cbc b3af 213e 7b78 93bd 327d bf3c
00000310: f4fd c63d 74e8 bcbd 3b5f 783c 7777 aa3d
00000320: 4de5 70bd f6f7 d2bd c7f2 64bd 0496 f63d
