tmp/aa_models/2.pt (torch_old, 701929 bytes, 36 tensors)

rnn.weight_ih_l0 f4 [204, 60]
00000000: f4c6 9bbd e8bc 0bbd 198a 1a3d 05e6 823d
00000010: 22aa 463d f5e6 2fbd 6a62 90bd 3ce6 a83d
00000020: 9119 3abc 4e73 eabd 2226 be3d 3324 2d3d
00000030: e295 b13d 8de1 093e ce52 8f3d 5255 01be
00000040: 71f5 703d 11fc b13d cf59 00be 924c d5bd
00000050: 2c69 3a3c ef6a ebbd ef87 1dbd 5b84 ba3b
00000060: 9d22 72bb 407c 2abc 9695 28bd ab3c bfbd
00000070: 3aad cabd b8ec cb3d 9aa4 4fbd b7d3 643b
00000080: 3423 ddbd d5e8 31ba 612b f43c 2d50 193d
00000090: 1a87 00bd 8d9a ec3d e7c3 e4bd 0fb4 eabd
000000a0: 002c a03d fef7 d0bd 6394 9d3d d11a 92bc
000000b0: 780e 0fbc c6c0 e5bd bdbc d9bd d912 673d
000000c0: b801 b2bd 95ed 8fbd a04d 8c3d 026d e43d
000000d0: b6ed 0fbd be90 903d fd3d 043e 10e0 913d
000000e0: e8cb ecbc 5891 633d 5355 afbd 8809 4e3d
000000f0: b00a f53d 1d26 7c3d 1937 84bd 869d 0a3c
00000100: 413e 03be 548b 763d 77f1 96bd d7e4 d73d
00000110: 2b3f 05bd 4138 753d 2ba9 203c 1fcd 56bd
00000120: b4ee f43c 1f7e d9bd 68d4 8c3a eba6 94bd
00000130: b7fa e43d 2e29 bf3d 8124 883d 669e 913c
00000140: 90ee 2e3d 9514 e13d a1a5 613d 8d1b 463d
00000150: 1861 d4bd cd60 663d 8fae e43d 2828 91bb
00000160: 5fd5 08be 245d 89bd 542e e8bc 0101 84bd
00000170: 4b7a 003e fb4c 853b 28e4 d1bd 6cfc 2a3d
00000180: 5e33 cfbd f0af a3bd a67c c73d 0a1e f53d
00000190: 3909 81bd d37b d1bd 6a45 15bd 71a1 bfbd
000001a0: b03e dfbc 1a7b a3bd 0ed5 c5bd f0e1 45bd
000001b0: 5822 e4bd 9cab 7bbd c82d c23d 704b ce3c
000001c0: 0271 96bd fefe 963d c011 a3bb cad1 e73d
000001d0: c41a 06be f431 4a3d 0ad7 e23d 70b6 fbbc
000001e0: f21a b63d 6c3f ae3d 861b 0f3d 427b efbd
000001f0: 9faa 883c 6437 f9bd ba0a 963d 301c c7bd
00000200: f3b8 003e d662 84bd 6b53 c0bd 5fc3 a4bd
00000210: 56aa 30bd 4f67 bdbd 3e36 e4bd b2b8 243d
00000220: 6fa6 103d 6d59 00bd f0b3 07be c20e 90bc
00000230: df98 cf3d fb53 27bd f9c7 0d3e 178b 633d
00000240: 98f7 19bd 1a47 8a3c b7b1 073e 03b1 be3d
00000250: 803d b33c 7ca0 7fbd 5e0b c93d c4ab d03d
00000260: 60af cdbb d0e0 b03d 909f 683d 00d1 363b
00000270: 543e 9b3d e885 153d d48e b7bd 4c98 4b3d
00000280: 6e1b dd3d 1e4e 75bd 0019 2b3b 51a3 94bd
00000290: 99f0 063e ec9e b83d 101e bb3d a0cb 923c
000002a0: 879f 013e 3aba d3bd a0ce b1bb 949d 233d
000002b0: 1ccb 833d 0078 c5b8 62fd 03be 8cd0 c93d
000002c0: 082d bb3c 8bba 053e b2ea ee3d 0254 a93d
000002d0: 5ffd ebbd fb44 06be aaa1 7f3a c4ad a1bc
000002e0: 6bc8 babd 661d f53c 6e6c 043e dd2e e0bc
000002f0: be08 b43d 2fc8 f6bd fb75 d33d 2d31 b63d
00000300: f503 8fbd 5f7f ebbc 4a26 033e da9e b43c
00000310: fd1b ccbd 31ff 00be e97d 01be d0c4 0b3e
00000320: 2def a6bc ef3d b23d aa21 09be b114 5b3d
00000330: 1bec 013d f915 9a3c a6d6 e93d 765f 6abd
00000340: 8230 2e3d 5b9f a83d dbee d23c f1ff 43bd
00000350: 3751 7abd 76a0 913d ada8 b13c 00f6 8f3d
00000360: 59a8 013d 78dd c83d 07d1 78bd 700d 73bc
00000370: 5cad 493d 88f4 353d 1608 f53d 7884 c23d
00000380: 2cd3 89bc 3fcb 8fbd 895b 07be f8b3 febd
00000390: 32aa c2bd 197e 033e 9cca 413d 8a86 c73d
000003a0: 77a6 093e 5a0b 98bd e0ad 313c d064 f2bd
000003b0: 18e2 9f3c 84a8 6c3d f87e e0bc b266 13bd
000003c0: 9af3 2bbc 37d5 d7bd f7f2 91bd 5528 2fbb
000003d0: efea 9d3d f7d6 8a3d 52bf c4bd 5bbd d7bd
000003e0: 95c9 1f3d f64c 39bd 0ffd ac3c fc5f 5bbd
000003f0: 0510 8f3d af47 793d 0890 07be e662 07be
-0.07606307 -0.034115702 0.037729356 0.06391529 0.048502095 -0.042944867 -0.07050021 0.08247039
-0.011358635 -0.11447774 0.09284617 0.04227085 0.08671166 0.13464947 0.069982156 -0.12630203
0.05882782 0.08690656 -0.1253426 -0.10414995 0.011377614 -0.11495005 -0.038459715 0.0056920475
-0.00369469 -0.0104056 -0.04115828 -0.09337743 -0.098963216 0.0995726 -0.050694086 0.003491623
-0.1079773 -0.0006786709 0.02980584 0.037429977 -0.031378843 0.11552916 -0.11170178 -0.11460125
0.07820892 -0.10203551 0.07694318 -0.017835053 -0.008731477 -0.11218409 -0.10631702 0.05641446
-0.08691734 -0.07027737 0.06850743 0.11153604 -0.03513881 0.070588574 0.12914272 0.07122815
-0.028905824 0.055558532 -0.08561196 0.05030206 0.11964929 0.061559785 -0.064558215 0.008460408
-0.12816717 0.060191467 -0.073702745 0.105416946 -0.032530945 0.0598681 0.009805958 -0.052441712
0.029898979 -0.10619759 0.0010744454 -0.072583996 0.111806326 0.09334026 0.066475876 0.017775726
0.04270798 0.10990254 0.055089597 0.04836612 -0.10370082 0.05624466 0.11166107 -0.004429836
-0.13362645 -0.06707218 -0.028342403 -0.06445504 0.12546651 0.0040680147 -0.102485955 0.041744635
-0.101172194 -0.07992542 0.09740572 0.1196862 -0.06300587 -0.10228696 -0.03644315 -0.093569644
-0.027251571 -0.07982464 -0.096597776 -0.048311174 -0.11139363 -0.061442956 0.09481388 0.025182456
-0.07345773 0.07372855 -0.004976481 0.11319311 -0.13096148 0.049364045 0.11076172 -0.030726641
0.08891858 0.085081905 0.034938358 -0.116934314 0.016682921 -0.12168768 0.07326265 -0.09722173
0.12570553 -0.06464164 -0.09390911 -0.080450766 -0.043131195 -0.0924822 -0.111431584 0.0402152
0.035314973 -0.031335283 -0.13252234 -0.017585162 0.1013658 -0.040851574 0.13845815 0.05555257
-0.03758964 0.016879607 0.13251387 0.09311106 0.021879911 -0.06240891 0.09816621 0.10189012
-0.00627701 0.086366296 0.056792796 0.002789557 0.075802475 0.036504656 -0.08962789 0.04970579
0.107962474 -0.05988895 0.002610743 -0.07257713 0.13177718 0.09014687 0.09136593 0.017919362
0.12658511 -0.10338254 -0.005426243 0.0399452 0.064352244 -9.416044e-05 -0.12889627 0.0985423
0.022848621 0.13059442 0.11665858 0.08267976 -0.11522936 -0.13112251 0.0009751568 -0.019736178
-0.09120258 0.029921245 0.12931988 -0.027366096 0.0879073 -0.12049901 0.10325237 0.08896098
-0.069831766 -0.028747259 0.12807575 0.022048403 -0.09966276 -0.12597348 -0.12645687 0.13649297
-0.02037772 0.08703219 -0.13391748 0.05348653 0.03171931 0.018809306 0.11417894 -0.057219945
0.04252673 0.0823352 0.02574866 -0.047851507 -0.06111261 0.071106836 0.021686876 0.07029343
0.03165469 0.09807867 -0.06074622 -0.014834747 0.049237594 0.044422656 0.11964433 0.09497923
-0.016824327 -0.07021188 -0.13218512 -0.1243667 -0.095051184 0.12841071 0.047312364 0.09742458
0.13442408 -0.0742404 0.010844678 -0.11835635 0.01951699 0.057777897 -0.027404293 -0.03598661
-0.010495091 -0.105387144 -0.0712642 -0.002672692 0.07710826 0.067792825 -0.09606804 -0.105341636
0.039010603 -0.04523941 0.021116761 -0.053558335 0.06985477 0.06085938 -0.13238537 -0.1322132

rnn.weight_hh_l0 f4 [204, 51]
00000000: 86a5 02be 4828 04be 6b91 013d 08fe f63c
00000010: cbd0 08be 41bb 063e 2e13 f7bc 5b39 e03c
00000020: 9384 a0bd 732c 0bbe 7f3b 0c3d 7e43 9b3d
00000030: 0372 08be 2b14 b33d 2b96 9f3d 2584 ccbd
00000040: b616 073e 86eb b4bd ee3f 97bb 08f5 cb3d
00000050: 18c5 b8bd cf52 073e 353e b53d 3d1d ec3c
00000060: 9b20 f33b 7831 b33d 3857 113c 95f7 d33c
00000070: f281 a2bc d115 9a3d eaee 61bd 49ed 95bd
00000080: 5362 6f3c cf4e fe3d 41ac 24bc f1d6 9c3c
00000090: d68f 8bbd a2ef c0bd eed0 f6bd 222a dfbd
000000a0: 73dc 81bd f493 b43d 3daa ac3c 5a59 91bd
000000b0: 9517 1f3c fe5d ef3b 1c38 1bbd 9cba f9bd
000000c0: 0858 7e3d 5722 c3bd 1c94 dfbd d04a e73d
000000d0: 8e5b 98bc 15de 813d 963e a93d 0ae8 96bd
000000e0: f30c a6bd 458d e73c 5fb5 883c a98b 9cbc
000000f0: fc2f 0cbd 7523 8dbc 7b76 c7bd ceea 15bd
00000100: 9f3f 1bbd 3bb6 e6bd 0487 f0bd ae60 123d
00000110: 0db5 24bd 825c fbbd e263 db3d c851 b73d
00000120: 3999 cfbd 9fbf d6bd 5bdf 083e 9dc9 e7bd
00000130: c546 a039 392a a6bc dded e9bd 370e 05be
00000140: ebf9 9a3d 71a4 febd 39de 07be 2971 a03d
00000150: 799d 4f3c a186 b6bd 20ff 9e3c bc73 75bd
00000160: d9ce 713d 7ef7 a5bd 82c0 a7bd ea7f d4bd
00000170: e94d dc3b 6a67 853d 6142 1fbd cd35 17bd
00000180: 2b9c aa3d 6d8e a3bc b239 c5bd f7b7 133d
00000190: d6ff a13d 8db5 d4bc 5baf 1d3d d95a 52bd
000001a0: 7972 dabd 06b7 08bc b96f 52bd b1a3 05be
000001b0: 7aa8 c63c 9fd4 fdbd e613 92bd c8c6 d5bd
000001c0: 714d cd3d abc8 e7bb a98c 973d 3cac d03d
000001d0: 536c 66bd d146 e53c 8ee9 ed3d faf2 893d
000001e0: cdf3 99bd d9b8 bf3d f3e1 c1bc e2d6 0d3d
000001f0: 34af babd 6c91 0cbd b2d8 f93d 94ad ff3c
00000200: 6028 c23d c2a0 c1bd 7f0d 05bd e762 73bd
00000210: 7338 cabd 84b0 963d fda2 ffbc 10b4 783d
00000220: 3147 7ebd af0e c4bd e93a 8cbd 369e 2ebc
00000230: 2ac0 343c 74af c83d ccfe dd3b b3bc 97bd
00000240: 2566 0c3e 0669 f9bd 835d 263d d73f 8fbd
00000250: 0028 7e3d a03a c43d 093c d4bc b235 b53c
00000260: e275 ea3d 0323 a7bd 2671 8c3c 1011 4f3d
00000270: 7303 edbc 24aa a9bd 5d4f 8ebd 5d8a a7bd
00000280: 2e64 9b3d 79fd 83bc a7bc d2bd 3792 3cbd
00000290: fbee eabd d9ed aabd 9882 f03c ee75 f1bc
000002a0: 6897 b93d 91ae bf3d 7487 d53d 2a02 e93b
000002b0: 903f 643d ff06 80bd 49fe 41bd 24bb 833a
000002c0: 6199 6abd c472 41bd 969e 91bd 476c d63c
000002d0: dac9 82bd 3dd7 033e 5c87 d1bd dc31 ed3d
000002e0: d5ee d23d 38e8 aabd 00b3 d73c 204b afbd
000002f0: 8d30 0dbe c416 bdbd d8c0 913d 0dde 083e
00000300: faff 323d c582 c2bd cf68 4d3d fcfd 073e
00000310: 3343 8c3d 3eed a13d 48a2 863d 955b 013d
00000320: 6022 0ebe 693d c33c 24fd 7a3d 4055 0b3d
00000330: 254c 50bd df34 3dbd 4e1e 25bc aea1 c8bc
00000340: fd8e 8dbc 7488 77bd 2e16 92ba 2bfb 093b
00000350: 3de0 ecbd 9476 c6bd 4646 5d3d e9cc 0d3c
00000360: 3fc5 f53d 0f54 05be 54c7 91bd ead7 04bc
00000370: a5e6 233d 0f7d dbbd 4ece b43d a606 d43d
00000380: 9327 fe3d 77da 08be bd6f f7bd a8fc 503d
00000390: 37e8 093e d4f9 f43d 1792 0a3c 2852 ac3d
000003a0: 5cd3 2d3d 0bf6 0c3e c6c4 33bd cde2 723c
000003b0: dd35 a13d 6b51 8d3d cf0e dabc 5ddb 46bd
000003c0: ab14 6abd bb1d 8ebb c1b8 a73c 2098 e7bd
000003d0: dfe3 bfbd a1a6 02be f618 003d cd1e 8a3a
000003e0: e896 bcbd 3155 e73c 1c36 fdbd 9f61 afbd
000003f0: f1fa f63d c31d d03b 64cf d1bc 5569 843d
-0.12758455 -0.12905991 0.031632822 0.030150428 -0.13360898 0.13157369 -0.030160513 0.0273711
-0.078377865 -0.13591175 0.034236427 0.075812325 -0.13324742 0.08744081 0.07792314 -0.09986142
0.13192257 -0.08833985 -0.0046157753 0.099588454 -0.09021968 0.13215183 0.08849756 0.028822536
0.0074196584 0.0874967 0.008870892 0.025874892 -0.019837353 0.075236924 -0.055159487 -0.07320649
0.014610845 0.12417375 -0.010050834 0.01914546 -0.06814544 -0.09420706 -0.12051569 -0.10896708
-0.063408755 0.08817282 0.02107727 -0.070971206 0.009710212 0.007304906 -0.037895307 -0.12193796
0.062095672 -0.09528034 -0.109169215 0.11293566 -0.018598344 0.06341187 0.082638904 -0.07368477
-0.081079386 0.028265605 0.016688047 -0.019109564 -0.03422545 -0.017228821 -0.09739395 -0.03660088
-0.03790247 -0.112652265 -0.11744502 0.035736732 -0.040211726 -0.12273504 0.107124105 0.089511454
-0.10136647 -0.104857676 0.13366453 -0.113177516 0.00030570306 -0.020283805 -0.11422322 -0.12993704
0.07567199 -0.124337085 -0.13268365 0.078340836 0.012671822 -0.08912397 0.019408762 -0.059924826
0.059035156 -0.08103846 -0.08191015 -0.1037596 0.006723155 0.06513865 -0.038881663 -0.036916543
0.08330568 -0.019965375 -0.09630145 0.036064114 0.07910125 -0.025965476 0.03849731 -0.05135617
-0.10666365 -0.008344417 -0.05137608 -0.13050725 0.024250258 -0.1239407 -0.071327016 -0.10438305
0.100245364 -0.007073482 0.07399876 0.10189101 -0.05625565 0.02798787 0.11616813 0.06735797
-0.075172044 0.09361429 -0.023667311 0.034628756 -0.091154486 -0.034318373 0.121995345 0.031210698
0.09480357 -0.0945449 -0.032483574 -0.059420493 -0.09874048 0.073578864 -0.031205649 0.060718596
-0.062079612 -0.09573113 -0.06847174 -0.010657838 0.011032144 0.0979909 0.006774759 -0.074090384
0.1371084 -0.12178235 0.040616523 -0.06994598 0.062049866 0.09581494 -0.025907533 0.02212033
0.114482656 -0.08160975 0.017143797 0.05055338 -0.028932309 -0.08284405 -0.06948731 -0.081806876
0.07587467 -0.016112076 -0.10289889 -0.04603788 -0.11471363 -0.08346147 0.029359147 -0.029475179
0.090620816 0.09359468 0.10426226 0.0071108537 0.05572468 -0.062513344 -0.047361646 0.0010050279
-0.05727518 -0.04722859 -0.07110326 0.026174678 -0.063861564 0.12875076 -0.10230896 0.115817755
0.1029946 -0.083450735 0.026330471 -0.08559251 -0.13788052 -0.09232858 0.0711686 0.13365956
0.04370115 -0.094975986 0.05014878 0.13280481 0.06848755 0.079065785 0.065739214 0.03158148
-0.138803 0.023832994 0.06127657 0.034016848 -0.050853867 -0.046193 -0.010078026 -0.024491157
-0.017280096 -0.060432866 -0.0011145526 0.0021054249 -0.115662076 -0.09690586 0.054022096 0.008654811
0.12000512 -0.13020347 -0.07118097 -0.008108119 0.04001488 -0.107172124 0.08828412 0.103528306
0.12409892 -0.13364588 -0.12081859 0.0510222 0.13467489 0.119617134 0.008457682 0.084141076
0.042437896 0.13765733 -0.04388883 0.014824581 0.07871602 0.06900295 -0.02661839 -0.048549045
-0.057148617 -0.0043370402 0.02047384 -0.113083124 -0.09369635 -0.12758876 0.031273805 0.0010537744
-0.092084706 0.028238865 -0.12363836 -0.085635416 0.12059582 0.006351204 -0.025611587 0.06465403

rnn.bias_ih_l0 f4 [204]
00000000: 8288 bc3d 49af 04be e500 563d ef50 ffbc
00000010: d350 02be e5b0 cc3d 77ae a6bd 6585 d33d
00000020: 73c4 003e 96ef 003e d0da ea3c c453 8a3d
00000030: 3e11 a7bd a9bf fc3d 8509 e83d 7f8f b0bd
00000040: e616 49bd 99a8 23bd c900 0c3e 9e96 02bd
00000050: 0ddf f23d 1b6e adbd 3038 9cbd 0c25 83bd
00000060: eb2f 12bd d67e bf3d 25e4 b33c f43b c73a
00000070: bbaa b03d 9d88 1a3d 2bcf e13d 3000 b9bd
00000080: cdcc 71bd 3ac8 0b3e 8ff6 6d3a 3f81 0c3e
00000090: 0132 823d b9c8 04be d1d4 d33b 8fdc dc3d
000000a0: 806f 0f3e 73e5 813d f7ea 55bc 6587 f6bd
000000b0: 2176 fbbd 407b e93d 183e 68bc f965 8f3d
000000c0: c926 d73d bfd3 563d c14d 37bd c014 8ebc
000000d0: 814f 3fbc f515 0bbd 5da1 9bbd 175b 0a3e
000000e0: b09b 55bd 6def b4bd 707f 813c 7b00 083e
000000f0: 03e2 ef3b 3d4d 2b3d 7b40 003e e385 b8bd
00000100: 9dac debd 4654 5cbd 71d6 0d3e 39e3 05be
00000110: 0381 cdbc 963c 0a3e c229 a3bc 4de4 a43d
00000120: f88f 8bbd d84a 573d 4112 86bd fe37 0ebe
00000130: 13eb e73d 2796 8cbd 3345 8b3d 6c5c 1b3d
00000140: 6f67 f3bd 75fc d9bd 8fb7 dbbd 67f8 eabd
00000150: a72f 91bc 8293 a73d a388 4b3d dd54 993d
00000160: a875 99bd 17e9 a0bd 95fa d4bd 9dc4 813d
00000170: 97c2 0d3d e3b4 fbbd 17b5 023e 199b f8bc
00000180: fb18 b8bd a3c6 efbd 5317 033e 78e2 41bd
00000190: 6428 f0bb b25b 0a3e 351e 1cbc 7691 093e
000001a0: 8383 783b 29e7 d23d 604d 783c 90fa 5ebc
000001b0: dd6b 20bd a5a6 91bd 5d45 9fbd 8110 5abd
000001c0: bbeb dfbd 5a84 16bd 5cc1 cc3c 1b92 89bd
000001d0: 5db0 eebd fe4a 2b3d fb20 843d 8a46 76bb
000001e0: 008e afbd 6018 fcbd 582b cbbd 819a c9bd
000001f0: 5525 003e cd23 cdbc 4b92 55bd 025d 06be
00000200: 1b5a cc3b f75e 1fbd b90c 013e f007 0b3d
00000210: f6a6 c63d a3db 5b3d ce44 2c3d 2487 fb3d
00000220: 567a 103d 238c 0bbe 0716 0bbd 62e1 f0bd
00000230: 5ac0 ea3d a2d5 bb3d a74e d0bc 3ffe 1bbd
00000240: 2233 26bd 7e59 fc3c 91a8 28bd f44b d43d
00000250: 7687 80bd 1a5d a0bc 94e8 f63d bd26 453d
00000260: 3fb1 d63d efd4 88bd 7a4d 77bd 319d f3bd
00000270: 409a cdbd af73 8c3d 792f 91bb d52d bbbd
00000280: 189f e5bd da95 0fbd 2713 94bd 64ac adbd
00000290: 94bc 8cbc 28e3 613d 5e94 4a3c 2e1b bbbd
000002a0: 6a8c 473d aec4 073c cbbf dc3d 91d3 6fbd
000002b0: a992 b33d bdb3 913d 577e a9bd 9fd2 853d
000002c0: c965 ef3c 707f 0dbe 10ce 9f3d 93a4 15bd
000002d0: d995 ca3d b5c8 93bd 602c 3bbd 2b08 08bd
000002e0: 59b6 533c 6a5c 01be 82fe 253d 0bc7 fd3d
000002f0: c140 0b3e 8c65 c8bd 52a2 13bd dd4e 84bd
00000300: fd8c 213d 99bc f53c c26d 0bbd f242 7abb
00000310: bdcc 09be d265 033e 5620 e13d 1f15 0b3d
00000320: 31fa 8dbd 10f4 5f3c 11ca bdbd 7550 58bd
0.09205724 -0.12957491 0.052246947 -0.031166522 -0.12726144 0.099946775 -0.08138745 0.10328177
0.1257494 0.12591395 0.028668791 0.06754258 -0.081575856 0.12341244 0.11329941 -0.0862112
-0.049094103 -0.03995571 0.13672175 -0.03188192 0.1185895 -0.084682666 -0.076279044 -0.064035505
-0.03569023 0.09350364 0.021959374 0.0015200363 0.08626314 0.03772794 0.11025842 -0.09033239
-0.059033204 0.13650599 0.00090775726 0.13721178 0.06357194 -0.12967195 0.0064645787 0.10784256
0.14007378 0.06342592 -0.013056508 -0.12037543 -0.12278391 0.11400461 -0.014174961 0.070018716
0.105054446 0.05244803 -0.044751886 -0.017343879 -0.01167667 -0.033956487 -0.07599137 0.1351131
-0.05215043 -0.08834729 0.015807837 0.13281433 0.007320644 0.041821707 0.12524597 -0.09009912
-0.10872767 -0.053791307 0.13851334 -0.1307496 -0.025085932 0.13499674 -0.019917373 0.080513574
-0.06814569 0.05256161 -0.065464504 -0.13888547 0.11324134 -0.06864577 0.06800308 0.037929937
-0.11884963 -0.106438555 -0.107283704 -0.1147316 -0.017722918 0.08182432 0.049690854 0.074868895
-0.07493144 -0.07856958 -0.10399357 0.06336329 0.034609403 -0.12290361 0.12764393 -0.030347394
-0.0898914 -0.11707809 0.12801866 -0.047335118 -0.0073290337 0.13511541 -0.009528686 0.13434395
0.0037920184 0.102979966 0.015155166 -0.013609543 -0.039165366 -0.07111863 -0.07776902 -0.053238396
-0.10933634 -0.036747314 0.024994545 -0.067173205 -0.116547324 0.041819565 0.06451603 -0.0037578666
-0.08572006 -0.12309337 -0.099203765 -0.098439224 0.12514241 -0.025041485 -0.05214147 -0.13121417
0.0062363273 -0.038908925 0.1260251 0.033943117 0.09699814 0.05367626 0.042057805 0.122816354
0.03527292 -0.13627677 -0.033956554 -0.11761738 0.114624694 0.091716066 -0.02542813 -0.038084265
-0.040576108 0.030804392 -0.041176382 0.103660494 -0.06275837 -0.019575644 0.120560795 0.048132647
0.10483026 -0.06681239 -0.06037662 -0.11895216 -0.100391865 0.068580024 -0.004430708 -0.09139601
-0.11211985 -0.03505502 -0.072302155 -0.084801465 -0.017179765 0.055148274 0.012364475 -0.091360435
0.048717894 0.008286638 0.10778769 -0.058551375 0.087682076 0.071143605 -0.082760505 0.065343134
0.02922334 -0.13818145 0.07802975 -0.036533903 0.098918624 -0.07216016 -0.045696616 -0.033210915
0.012921893 -0.1263291 0.04052592 0.1239148 0.1359892 -0.097849935 -0.036043473 -0.064603545
0.039441098 0.029997157 -0.03404022 -0.0038186875 -0.13457008 0.1283181 0.10992496 0.03395569
-0.06932486 0.013669029 -0.09267057 -0.052811105

rnn.bias_hh_l0 f4 [204]
00000000: 7674 fc3d 0a9f 31bc 3466 a03d 9ca9 333d
00000010: 688e 43bd 9925 ce3d bdd6 4abd c45a 50bd
00000020: 3c87 48bd ce8c 093e 05e1 a1bd 94bf d1bd
00000030: 7076 033d 010d 25bd bbc3 f53c f11c db3c
00000040: 2c26 06be 658c ee3d bd66 043e 12e5 66bc
00000050: f426 c23c f7db 8bbd 8fca dc3d 12a9 0c3e
00000060: cb49 2fbc 1199 1d3c ae62 de3a bf36 0ebe
00000070: 902a 09be ca03 e7bd 10e6 c0bd 2275 f43d
00000080: 6b60 8d3d cb6e c73d 74f6 df3d a452 fcbd
00000090: bd9c 34bd 9752 d0bd f134 85bd f943 e43d
000000a0: e1e9 3b3c d76d 853d a6fa f2bc 2833 d63d
000000b0: 8512 cc3d 0f91 113d e713 51bd b408 adbc
000000c0: 2952 3fbd 734a fc3b b9c9 e3bc b29b 0a3e
000000d0: 1dcd 44bd f533 05be 5261 003e e273 df3d
000000e0: 1e3d 0abc 11fb 093e 8b5e 163d 6b43 2cb8
000000f0: cac6 8fbd 0781 f43d 1d1e 7f3d 987f 8f3d
00000100: 43e6 e93d b1f7 b7bd 4b5a ca3d 32b2 b43d
00000110: b406 5abd f65f a13d 34aa bcba 47c8 0dbd
00000120: 3a21 243d bd2a 03be 0909 cb3d 7ad7 7a3d
00000130: 5879 7bbd 638f 833d b6ec bfbd 4076 c63d
00000140: f157 ea3d 865c 233d 3b88 01be aaa9 cbbc
00000150: 7b15 d4bd 26d8 ec3d 2a46 00be 265e 763d
00000160: 4478 11bc 21cb 2cbd 2f46 c43d 9f7f 913d
00000170: 7c39 fcbd 1741 7cbd bd9e f63d 75b6 9abc
00000180: 7915 3b3d e920 35bc 41d6 983d 06f7 1e3d
00000190: 99a9 6bbd c62c ff3d e003 acbd 994e c63c
000001a0: a31d b8bd e187 d33d 98cf ebbc e682 0d3d
000001b0: 30d5 ceb9 7804 cebc 2df3 e6bd 67a1 d2ba
000001c0: becc 8fbd c445 f33d f18e e63d ca37 d23d
000001d0: a945 d13d 4622 84bd 3db3 73bd 73e0 b1bd
000001e0: d741 ca3d 846c 7e3d 2065 91bc fb07 593d
000001f0: 3aaf 03be 02c1 d3bd 29dd 843d 24cb 1e3d
00000200: 9921 19bd 9525 07bd f56b 0d3e 82a8 f9bd
00000210: d52d d5bd 7b2b 2a3d 4ccf 2abd 31ce 97bd
00000220: e072 7abc db4e 9ebd c748 c5bc a90e b03d
00000230: e141 99bd 565c 77bb c83e f73d b2cd 08be
00000240: 6a69 0d3e e6b1 993d aae4 a1bd 6adc e9bd
00000250: ad2b f3bd fec6 2f3d b29c 91bd 1d4c 09be
00000260: 2987 0ebe ffb8 c63d 5c30 05be 46da e4bd
00000270: c433 61bc 35bf 8fbd 60b4 e93c 8a5a e13d
00000280: c0b9 0cbd cb34 deba e7a4 9e3d 5493 a13d
00000290: 3073 8e3d 0b09 0f3a 1bfb 82bd fc96 babd
000002a0: f55b 91bb 81e5 12bd 9d46 a3bd c394 ed3d
000002b0: 19a3 bcbd c6da 753d 10b4 b2bd f167 cb3d
000002c0: 8f74 30bd e81d fe3d 9912 b43c d4e7 01bc
000002d0: 49a5 02be f376 e53c 460f 03be c679 b3bd
000002e0: 4c5d 54bd f480 0f3b b6bd c2bd 2dbe 9f3d
000002f0: ab74 053e 54bc c83d 69ed f53d 816e aabd
00000300: 4d11 bd3d 4812 67bc cd0e b23c a4d5 fa3c
00000310: d7e7 0b3e 2e5b d43c 2f2a 0a3b 427d e93d
00000320: e179 0ebd 2524 0b3e 0b6f d3bc c1dc 1c3d
0.12326901 -0.0108411405 0.07831994 0.043862924 -0.04774323 0.10065765 -0.049521197 -0.05086781
-0.048957095 0.13432619 -0.07904247 -0.10241619 0.032095373 -0.040295605 0.030000558 0.026747199
-0.13100499 0.11647872 0.12929817 -0.014092701 0.023700215 -0.06829064 0.107808225 0.1373637
-0.010698746 0.009619013 0.0016966665 -0.13888071 -0.13395143 -0.112800196 -0.09418881 0.11936404
0.06903156 0.09737929 0.10935679 -0.1232045 -0.04409479 -0.10172003 -0.065042384 0.11145777
0.011469335 0.06515091 -0.029660534 0.10458976 0.0996447 0.03553873 -0.05104437 -0.021122314
-0.046709213 0.0076993047 -0.02780615 0.13535956 -0.048047174 -0.13008101 0.12537125 0.10910775
-0.008437423 0.1347468 0.036711257 -4.1070783e-05 -0.07020338 0.119386725 0.062284578 0.070067585
0.11420872 -0.0898279 0.09880503 0.088230506 -0.05322905 0.07879631 -0.0014393986 -0.034614827
0.04007075 -0.12809272 0.09913833 0.06124065 -0.06139502 0.06423833 -0.09371321 0.09690523
0.11442555 0.03988316 -0.12649624 -0.024861176 -0.103556596 0.115646645 -0.12526765 0.06014838
-0.008878771 -0.042185906 0.09583699 0.0710442 -0.12315652 -0.061585512 0.12041996 -0.01888583
0.045674775 -0.01105521 0.07462741 0.0388098 -0.057534788 0.12459712 -0.083991766 0.0242074
-0.08990028 0.10328651 -0.028785512 0.034548663 -0.0003945022 -0.025148615 -0.11276851 -0.001606983
-0.07021473 0.11878541 0.11257733 0.10264547 0.10218365 -0.0645185 -0.059497107 -0.086853884
0.09875839 0.062115207 -0.017748415 0.052986126 -0.12859812 -0.10339548 0.064874955 0.03876795
-0.037385557 -0.032994825 0.13810714 -0.121903434 -0.104091324 0.041545372 -0.0417016 -0.07412375
-0.015286177 -0.07729884 -0.024082555 0.08596546 -0.074832685 -0.0037744245 0.120725214 -0.13359717
0.13809744 0.075046346 -0.07904942 -0.11418994 -0.11873565 0.042914383 -0.071099654 -0.13407941
-0.13918747 0.09703254 -0.13006729 -0.11174445 -0.013745252 -0.07018892 0.028528392 0.11003597
-0.034356833 -0.0016952989 0.077462964 0.07889429 0.06955564 0.00054563646 -0.06395551 -0.09110829
-0.004436011 -0.035863403 -0.07972453 0.1160064 -0.09210796 0.06002309 -0.087257504 0.099319346
-0.04307991 0.12408048 0.021981524 -0.007928807 -0.12758364 0.028010821 -0.12798795 -0.08763461
-0.051846787 0.002189693 -0.09508841 0.07799945 0.13032787 0.09801546 0.12008173 -0.08321858
0.092318155 -0.01410348 0.021735573 0.03061945 0.13662659 0.025922384 0.0021082272 0.11400844
-0.0347842 0.13588007 -0.025809785 0.038296465

rnn.weight_ih_l1 f4 [204, 51]
00000000: ce4e 643c e655 b23d a9e6 45bd a8ab 9bbd
00000010: f017 d7bd 4c09 c2bd d861 313d 9785 023e
00000020: 1b25 5dbc 28bd 1fbd 8c06 9a3c 5439 45bd
00000030: 726f 2a3c ff2a b3bd 96db 953b e7fa 4abd
00000040: 0c0d ecbd 643d b5b8 9139 dc3d 2695 c4bd
00000050: 3215 b23b d53c 0dbe d51e 70bd 703e 06bd
00000060: 77d5 7cbd a530 be3a 47c8 1abd a861 0a3e
00000070: 9e0f c23d 51e5 31bd d206 b6bd fc64 c83d
00000080: 4019 efbc 36fa ec3d 0e5d 7f3d b467 cebd
00000090: c9b5 cfbd f189 443d 2b3d 79bd 3de3 473d
000000a0: 7dc1 203c 6580 37bd 1d5a d43c 7e84 93bd
000000b0: 09f9 8a3d e022 503d 8777 8b3d f8cd 24bd
000000c0: cc17 a2bc b8df 733c f215 19bc fc01 de3d
000000d0: 09bd 57bd e4de 64bd b5f3 0bbe aa19 623c
000000e0: 8387 753b 651d f4bd 3b97 e13d 2242 7ebd
000000f0: 8ded db3c 3c68 29bd e9f2 a0bc a08a f3bd
00000100: 5848 7bbd 94c7 153d b2cb 813d 7eed 423d
00000110: 1825 0cbe bdc5 09bd 4f71 403c 3385 843c
00000120: e588 d73d 3d07 fcbd 9d7c 07be 0575 57bc
00000130: 8bfc 37bd a303 043e 5b36 913d 7bc4 723d
00000140: d911 0abe f89d fbbd f267 373c 599a 043e
00000150: 8d48 32bd df43 5bbd e111 d93c 60b2 c93b
00000160: 04f1 32bc 0921 b43d c01d 033d cfe1 da3d
00000170: b088 f33d 0386 21bc c719 5e3d 2f2e 32bd
00000180: 3292 b8bd bd16 3bbc f808 6bbd 7bf9 c1bd
00000190: bc2a 053e acdf ba3d ec65 0dbc b904 ec3c
000001a0: 3e7f 183d 1383 62bc af49 3a3d 1f7f 043e
000001b0: 461a f8bb c59b 253d 5bc4 a63d f954 abbc
000001c0: cc12 0a3e ffaa ea3d c332 47bc 02cf ef3a
000001d0: 9de8 413d f0fb f2bd 5f93 65bd 34e3 bdbc
000001e0: 0c65 dabd 46f4 acbc c7c1 7cbc 2c2d e43c
000001f0: 7de1 553c 58d4 163d c1de 0dbe b757 0e3e
00000200: e932 abbd f8ca a83d 395a 213d 1485 be3c
00000210: 8eda 343c 9588 9cbd b710 a33d 626b 4e3d
00000220: 29fb 69bd 5cab 883d 5f31 84bd 4563 643d
00000230: 105c 583d 8add a73d ba4a 9f3d f096 87bc
00000240: 819a e23d f129 01bc cdac b73d da6a db3d
00000250: aa43 a4bb c318 15bd 84ca 4fbd 2d38 083e
00000260: 8638 ab3d ad81 dbbd aa15 4fbd 6cbf 393d
00000270: 050a b4bd f8e6 a13d 7dc7 cd3d 207a ebbd
00000280: 3328 463d 20a0 e63d 4587 213d 3458 073c
00000290: 8e93 a63d 7f03 0a3c 0580 c4bc e1a4 0ebe
000002a0: 9ee0 acbd 8d2b 49bd b61d 30bd 3bf4 53bd
000002b0: 2d80 58bc f680 e3bc cabc 0d3e a02c 3cbd
000002c0: c66e 2e3d 1acb c5bc e2af e5bb c6d5 033d
000002d0: de96 bbbd a112 493b 9bb2 923d 2ea0 85bc
000002e0: 0698 03bd 98e3 dd3d 7e5b 07be 44f1 c8bc
000002f0: 9126 f6bd 82c0 00bd dc84 393c 7ad4 a1bd
00000300: 42b7 02be 664b c43d e56c f6bc a88f aebc
00000310: dc4e 8d3c da03 1ebb a9a7 ed3d 6823 9cbd
00000320: b0e8 fdbd dbfa 83bb 6511 9e3d d9dd a83c
00000330: 080a d1bc 1a03 e9bc 5f06 8fbd 8bbe ef3d
00000340: 4134 663d 92e3 e1bb 56ee dcbd d795 c53d
00000350: 736d 0bbe 5f4e c3bd 8139 f23d 3b1c 9abd
00000360: 6030 35bc 8f5f d13d d3b5 1a3d 00c2 85bd
00000370: 9a0d 5fbd 792e b83d 3eca 093e bc9a 0bbd
00000380: 640e 3ebd 96be 8bbc 2597 f13d faca b83b
00000390: 4552 c9bd d491 003e ae8f a6bd 0184 1b3d
000003a0: 6354 d93d d563 1dbc 37b9 f73d e5ab c63d
000003b0: 21c9 933c a890 c33d 4e30 093c db35 4f3c
000003c0: a8cc 75bb 4e77 23bd 66db 03be 161a a73d
000003d0: 2530 aa3d 8af8 b2bc 5175 e2bc 99bf c23d
000003e0: 9578 c0bd 8042 3ebd a3ba e9bd cc9c 233d
000003f0: 85d9 41bd 4183 a63d 0219 e8bd e677 4bbd
0.013934804 0.0870779 -0.048315678 -0.076011 -0.105026126 -0.094744295 0.0433062 0.12746273
-0.013497616 -0.038998753 0.01880195 -0.048150375 0.010402547 -0.08748435 0.004573296 -0.049555685
-0.11525926 -8.6421875e-05 0.107531674 -0.0959876 0.0054346556 -0.13792737 -0.058623154 -0.03277439
-0.061727013 0.0014510347 -0.037788656 0.13513815 0.09475635 -0.043431584 -0.088880196 0.09784886
-0.029186845 0.115711614 0.062344603 -0.100783736 -0.10142095 0.047983114 -0.06084935 0.048800696
0.009811756 -0.04480018 0.025921876 -0.07203005 0.06785781 0.05081451 0.068099074 -0.04023549
-0.019786738 0.014884882 -0.009343611 0.10840222 -0.052670512 -0.055876628 -0.13667186 0.013800064
0.0037464804 -0.11919669 0.11015173 -0.062074788 0.026846671 -0.04135917 -0.019647079 -0.11891675
-0.06134829 0.036567286 0.0633768 0.04758977 -0.13686025 -0.033635844 0.011745765 0.016176796
0.105241574 -0.12306068 -0.1323113 -0.013150458 -0.044918578 0.12892012 0.070904456 0.05926941
-0.13483371 -0.122859895 0.011194216 0.12949504 -0.04352622 -0.053531524 0.026497783 0.006155297
-0.01092172 0.087953635 0.032010794 0.10687601 0.118913054 -0.009858611 0.054223802 -0.043501075
-0.090122595 -0.011418995 -0.0573816 -0.09471413 0.13004583 0.09124693 -0.008630257 0.028810846
0.037230723 -0.013825196 0.045480426 0.12939118 -0.0075714914 0.040431757 0.081429206 -0.020914542
0.13483733 0.11458396 -0.012158099 0.0018295946 0.047340978 -0.118644595 -0.056048747 -0.023179628
-0.106638044 -0.021112572 -0.0154270595 0.02785357 0.013054249 0.0368236 -0.13854505 0.13900648
-0.0835932 0.08241838 0.039392684 0.023256816 0.011038436 -0.076432385 0.079621725 0.050395377
-0.05712429 0.06673309 -0.06454729 0.055758733 0.052822173 0.08196552 0.07777925 -0.016551465
0.110646255 -0.007883535 0.08968506 0.1071374 -0.005012949 -0.036400568 -0.050730243 0.1330268
0.0836039 -0.10718093 -0.05055777 0.04534857 -0.087909736 0.07905382 0.10047815 -0.11497903
0.04837818 0.1126101 0.039435644 0.008260775 0.081336126 0.008423685 -0.023986826 -0.13930084
-0.0844128 -0.0491138 -0.042997085 -0.05174659 -0.013214153 -0.027771454 0.13841549 -0.045940995
0.04258611 -0.024144698 -0.0070094923 0.032186292 -0.09159635 0.003068127 0.071629725 -0.016311731
-0.032127403 0.10834426 -0.13218495 -0.024529107 -0.12019075 -0.03143359 0.01132318 -0.07901855
-0.1276522 0.095846936 -0.030081222 -0.021308735 0.017249517 -0.0024111182 0.11604244 -0.07623941
-0.12397897 -0.004027707 0.077181615 0.020613598 -0.025517479 -0.028443862 -0.06983637 0.11706265
0.056202177 -0.0068935836 -0.107876465 0.0964772 -0.1361597 -0.095364325 0.11827374 -0.07524916
-0.011058897 0.102233045 0.037771057 -0.06531143 -0.05445633 0.08993239 0.13456056 -0.034083113
-0.046400443 -0.017058652 0.11796407 0.005639431 -0.09830145 0.12555629 -0.081328735 0.037967686
0.106117986 -0.009606321 0.12095874 0.09700755 0.018040242 0.09549075 0.008373333 0.0126471175
-0.0037506018 -0.0399087 -0.12876663 0.081592724 0.08309964 -0.021847028 -0.027643831 0.095092006
-0.09397999 -0.046450138 -0.11412551 0.039944455 -0.047326583 0.081305034 -0.11332895 -0.04967489

rnn.weight_hh_l1 f4 [204, 51]
00000000: a4a2 e33d 7fb1 8cbd 5e9b c7bd d440 f5bc
00000010: 8965 d3bc c53b b43b a07c 3c3d 8e9b 973d
00000020: b472 81bd 0499 b5bd db99 cfbd 1ef8 7dbc
00000030: 5af0 d93c 06c8 d93d 4e8c 853d 94b9 023d
00000040: 469e 983d a2f1 bcbd 8702 07be c1a7 043d
00000050: df62 053e bd0d 073e ccc6 f03d 2b7d 053e
00000060: ae5e b5bd 4d39 463c 0cbd eabd 8bfc 8d3b
00000070: 8309 0f3e b57a 34b9 7094 08be bbfe 8ebd
00000080: 0633 903c ac71 84bd e191 c1bd 4d72 26bc
00000090: f4a1 e3bc e64b 3fbd 03c4 d93d 27bf ffbd
000000a0: b48f 883d ab58 fcbc 4ba4 d03d fc65 ca3c
000000b0: 19a6 ed3c c822 bf3d f0db bb3d 0395 803c
000000c0: ed05 91bd 7141 fa3d d274 f9bc 5b4c c2bc
000000d0: 5652 e03c f24a dcbd 702f 0ebe 9588 0f3c
000000e0: 2b51 033c bb87 14bd fe5c 023e 0fff 8fbd
000000f0: 8f13 ee3d b05b 16bd d313 9abd e589 b83d
00000100: 2a69 823d 7d84 953c ddea 54bd 856c 21bd
00000110: 3a21 0bbe 4b1a c5bc af10 223d 45a6 53bd
00000120: 28c6 fabb d5d8 fabd 5136 963d 2b34 943a
00000130: 5ca7 86bd c1ec 09be 799e 8fbd 2b3e 2f3d
00000140: e764 01be 4f5c 05bd 7400 9abd da4e 03bc
00000150: e3fd c43d a6ec edbd 3c72 913c 505b 8f3c
00000160: 6f80 07be 6296 1dbd 54d0 2fbd 1444 f73d
00000170: c125 a5bd 53c8 ef3d d94a 49bd e275 ffbc
00000180: e03f df3d e46f 1ebd e57c b9bc e079 043e
00000190: 5a51 853d 8a87 08be a73d aabd 2440 a7bd
000001a0: bde7 033d 16ed 0abe c04c e23d 7ce8 ecbd
000001b0: fd00 03be 269a 803d bed2 b13d 3dc1 1bbd
000001c0: 6053 5d3d ba2a 023e 8366 0fbe 736a 3a3d
000001d0: bc28 913b 8cf5 48bd 7f49 99bd 14b6 07bd
000001e0: c1c2 683c d660 123d 737c c93d 3aa5 f9bd
000001f0: 3ed7 9f3d e242 b53b 6376 16bb 44e3 05be
00000200: 866d 75bd 709f a93d a2ac 54bc f053 3ebd
00000210: d31d ee3d 4fc1 f4bb 5bf6 fb3d 0882 7ebd
00000220: 02d3 ec3d c049 fb3d 9485 833c e7e9 f63c
00000230: 9829 693d eafc 06be 41eb 0abe 89b7 773c
00000240: 39b2 77bc b67d 573d 627c 8dbd c2ed a4bd
00000250: 9033 94bd d11b 593c e5e3 0abe 4215 143d
00000260: 0411 be3d 6764 e23b 90c1 06be 7761 393d
00000270: 5ac3 213d 639a af3d eb11 053d 601a d4bd
00000280: 7546 883c 82fb ebbd 0727 bbbd 3cb0 eb3d
00000290: 69b8 76bd 36b5 073d 6737 cf3d bee1 a8bb
000002a0: 2c4d 83bd 5dae 073e 01ec 7bbc a382 313d
000002b0: dad8 a23b 911e 92bd b4f8 873c adac 4abd
000002c0: 3742 ecbd 257e 5e3d fafd 0e3d 5484 0cbe
000002d0: 429f a13d 2901 06be 207e 02bd d900 d1bd
000002e0: e21b b13d a875 6b3d 5105 85bd 4c0b 263d
000002f0: 84ee 003d 3fbb 37bd d4ee 8dbc f4f2 ffbd
00000300: 615c cd3d c3d1 b5bc c73f c6bc d217 063d
00000310: 8a3e c43c ac6c 31bd 809e 34bd 75ef 83bd
00000320: 0907 83bd db05 90bd 5535 0e3e 145b b0bd
00000330: 539c e1bc 38aa b33d 596b 5bbd 2a80 d13d
00000340: 6f7b 243d e7aa 1c3d 5cb8 f13d 052f 933d
00000350: 8d51 2e3d 5593 9dbd 282a a4bd 1288 acba
00000360: 031b 5ebd e797 923d 78c5 d7bd 026a b7bd
00000370: ca34 f1bd 8b89 ae3d 3377 84bd d58a 0ebe
00000380: 56a7 c3bd e99a 65bd 266b 0d3d d1b2 05bd
00000390: 0f21 003e 64c4 a5bc fa24 20bd dc97 84ba
000003a0: fc5c 2fbd 6d1d c7bd 7294 8dbd bd28 7cbd
000003b0: 3684 2d3c 5243 c93d 891b fbbd 67ba 833d
000003c0: b862 d33d c00b b0bd d238 f83c 9183 e43c
000003d0: bc85 c63d 47e4 013e b4bd 83bc 0551 0abd
000003e0: 7991 5aba beb0 e7bc 585f 77bc 11e0 8dbd
000003f0: ce34 a8bd f053 ff3d a227 1ebd b18d ab3d
0.111150056 -0.06869792 -0.09746431 -0.029938139 -0.025805252 0.005500289 0.04601729 0.074027166
-0.06320706 -0.08867076 -0.101367675 -0.01550105 0.026603866 0.106338546 0.065209016 0.031915262
0.07452063 -0.09225775 -0.13184558 0.032386545 0.13025998 0.13188834 0.117566675 0.13036029
-0.08855949 0.0120986225 -0.11461839 0.004333084 0.13968472 -0.0001721185 -0.13337874 -0.0698218
0.017602455 -0.06466994 -0.09451652 -0.010159087 -0.027787186 -0.04670324 0.106330894 -0.12487631
0.06668034 -0.030803999 0.101875864 0.024706833 0.029009866 0.09332806 0.09172809 0.015696054
-0.070812084 0.12219513 -0.030451212 -0.02371805 0.02738301 -0.10756482 -0.13885283 0.008760591
0.008014957 -0.036262255 0.12730786 -0.070310704 0.11624824 -0.036708534 -0.075233124 0.09010676
0.06367715 0.018251652 -0.051981796 -0.039410133 -0.13586894 -0.024060389 0.039566692 -0.05167224
-0.0076530166 -0.12248389 0.07334579 0.0011307051 -0.0657489 -0.1346922 -0.07012648 0.042783897
-0.12636147 -0.032558735 -0.07519618 -0.008014405 0.096187375 -0.11617403 0.017754667 0.017499596
-0.13232587 -0.038473494 -0.042923287 0.12073532 -0.080638416 0.11708131 -0.049143646 -0.03118414
0.10900855 -0.038680926 -0.022642562 0.12937117 0.06509657 -0.13332954 -0.083125405 -0.08166531
0.032203425 -0.13567004 0.11049795 -0.115677804 -0.12793346 0.062794015 0.08682774 -0.038026083
0.05403459 0.12711611 -0.14003949 0.045511674 0.0044299047 -0.049062297 -0.074847214 -0.033132628
0.014206589 0.03573688 0.0983819 -0.121897176 0.07804726 0.0055316547 -0.0022958748 -0.13074976
-0.059918903 0.082823634 -0.012980612 -0.046466768 0.11626782 -0.0074693332 0.12302848 -0.062135726
0.11563684 0.12269926 0.016054906 0.03014083 0.056924433 -0.13182417 -0.13566305 0.015119442
-0.015118175 0.05261012 -0.0690849 -0.08053161 -0.07236397 0.013251261 -0.13563497 0.036153086
0.09280589 0.0069089415 -0.13159776 0.045258965 0.039492942 0.08574369 0.03248779 -0.10356593
0.016635159 -0.11522581 -0.09138303 0.115082234 -0.06023446 0.0331318 0.10117989 -0.0051538637
-0.06411204 0.13250108 -0.015376092 0.043337476 0.0049696984 -0.07134736 0.016598083 -0.049481083
-0.11536067 0.05431952 0.03491018 -0.13722354 0.07891704 -0.1308638 -0.031858563 -0.1020524
0.08647896 0.057485253 -0.06495155 0.040538117 0.031477466 -0.044856306 -0.017325796 -0.124975115
0.100273855 -0.022194749 -0.024200333 0.03273756 0.023955602 -0.04331653 -0.04409647 -0.06442157
-0.06397826 -0.07032367 0.13887532 -0.08611122 -0.027540362 0.08772701 -0.05356917 0.102295235
0.040156778 0.038248923 0.11802742 0.07186703 0.04255824 -0.07694117 -0.08015853 -0.0013163111
-0.05422498 0.07157879 -0.10535711 -0.08955766 -0.11777647 0.08522328 -0.06468048 -0.13920148
-0.09553401 -0.056055937 0.034526013 -0.032641236 0.12512611 -0.020235248 -0.039097764 -0.0010116058
-0.042813286 -0.097224094 -0.06913079 -0.06156229 0.010590604 0.098272935 -0.12261111 0.06432038
0.103215635 -0.08595991 0.030300532 0.027894767 0.096934766 0.12684737 -0.016081668 -0.033768672
-0.0008337717 -0.02828252 -0.015098415 -0.06927503 -0.08213197 0.12467182 -0.038612016 0.08376635

rnn.bias_ih_l1 f4 [204]
00000000: 81fc 2f3c 3d13 843d 41bd 3b3d 2088 3f3d
00000010: 774e 08be c528 f63d 8c69 f53d ce31 6dbd
00000020: 7f92 4bbd 7397 0d3c 7431 a83d 063a 8dbd
00000030: 597d 033e 3976 283c d439 543b 3eba c1bc
00000040: c67a 56bd 9e5c c13c 24b7 c53d e067 403c
00000050: e291 c6bc 1026 05be 45cc 003e ea54 3d3d
00000060: f1ce a83d 75fc 0abe 446b e6bc 3974 2dbc
00000070: a7c9 88bc 7d2b b23d f38e f0bd 76bc edbd
00000080: fee6 243d 1ff5 db3c a4d4 593d 347d 3d3d
00000090: 5393 e73d e6aa f43d ae25 c2bc 046b e1bc
000000a0: e1a8 8ebd a8c1 3fbd a3b6 eabc e928 21bd
000000b0: 61f7 0f3d e8a4 b6bd 54bf 92b8 fa61 ed3d
000000c0: 897a ae3d 446d 01be 7289 893d c739 063e
000000d0: 10a3 c53d 2b6a 5fbd c99c 0a3d 01f7 643d
000000e0: 307b 94bd decf 933d 0a41 02be 4afa f5bd
000000f0: 3aa8 84bc f201 c3bd a6b3 633d 2248 e63d
00000100: 009b a0bd a601 d8bd b413 133d 5a28 bfbd
00000110: 50ba 60bd d72c 0fbd 2a43 0b3e c56e a3bd
00000120: d60c 2d3c 5880 48bd c48b cc3c ccbe 3a3d
00000130: 449f f6bd a622 adbc 8ce7 b5bd bd4b 8abb
00000140: a8d4 483d 67c9 ccbb 89a2 a5bd 41d5 89bc
00000150: 28be 82bd 4dec 86bd 442b dfbd 5179 f43d
00000160: dcea 9a3d 6fb8 d6bd 6eca 05bd 8178 82bd
00000170: 1b2b 96bd ec70 dfbc cfc3 acbd dc7b b6bd
00000180: c020 0fbe 9c15 973d ad26 eb3d ba47 f33b
00000190: 13f6 8e3b 9511 afbd 1dd5 6d3d 3ff5 d03a
000001a0: 7074 d83d 80e1 103d a47a d3bd 2e8c f73d
000001b0: 14ec e33d ea25 b43d fada 52bc 5abe 19bd
000001c0: 14e8 673d d04d 12be e714 3b3d 8a83 00be
000001d0: 6f5e c13d 1405 e9bd dbcb 3b3d f51e db3c
000001e0: 2937 353d 4929 afbc 86c2 f33d ff0c e0bd
000001f0: 88dd f43c ac36 e2bd 828a eb3d 1329 73bd
00000200: 0946 51bd b69b 3cbd ffd1 5e3d 64dc ddbc
00000210: f435 e2bd 8bc2 92bd 1d55 073e 1720 a6bc
00000220: 4091 bf3d 4e1d a3bd cade 863d 976b cdbd
00000230: b139 9a3d f525 8abd fa7b da3d f0d4 c33c
00000240: 7ddb 4dbd 9074 1bbe a706 e0bc b021 93bc
00000250: 7005 0f3d a4d9 053c f2f8 0c3d c078 3abd
00000260: d2ad da3c d4bc 743d 9692 d93d 50fb b93d
00000270: 9e90 eabd 643c 23bd faf1 d5bd 7c18 87bd
00000280: 6a4d d9bb 5b28 a33d 4e96 f5bd 6d9e cf3d
00000290: 2afd b1bd caa6 613d 23f8 023e cedb d13c
000002a0: 5333 b4bd aa28 09be 3211 bc3c c97b 03be
000002b0: dc95 85bc 11ed d53d b0b9 aabd a8ea a03d
000002c0: bbc8 9d3d 0d3e f33d 9ed2 d4bd 9e6d f0bd
000002d0: 2b72 cf3d d20c 3e3d e414 06be 9cfc a83d
000002e0: 58e0 2d3d a542 513d 9cf6 f43d d454 05bd
000002f0: 0d64 123c 74a5 df3b ffed f23d 3b36 7dbc
00000300: 8e6f de3b 723d 5b3d 3952 60bd d1c7 b63d
00000310: 4fe9 fcbd 8b72 72bd ee4e 65bd 44ab 57bd
00000320: b5e2 c0bd ee62 7d3c 30b3 d4bd 28db cbbc
0.010741354 0.06448982 0.045834783 0.04676068 -0.13311182 0.12019495 0.11983022 -0.057908826
-0.049700256 0.008642065 0.082125574 -0.06895833 0.12840785 0.010282093 0.00323831 -0.023648378
-0.05236318 0.023603734 0.09654072 0.011743516 -0.024239484 -0.13002801 0.12577923 0.04622356
0.08242596 -0.13572867 -0.02812732 -0.010586792 -0.016697718 0.08699701 -0.117460154 -0.11608212
0.040259354 0.026850281 0.053181306 0.04626198 0.11307397 0.11946659 -0.023699608 -0.02751685
-0.06965805 -0.046815544 -0.028651541 -0.039345656 0.03514803 -0.08918172 -6.99746e-05 0.11590953
0.085194655 -0.12639338 0.06715669 0.13107978 0.09650242 -0.05454461 0.03384093 0.055899624
-0.07250059 0.07217382 -0.12720123 -0.120106295 -0.016193498 -0.095218554 0.055591248 0.11244227
-0.07842064 -0.105471894 0.035907462 -0.09333868 -0.05486518 -0.034954872 0.1359984 -0.07980112
0.010562142 -0.048950523 0.02496899 0.045592114 -0.12042096 -0.021134686 -0.08882055 -0.0042204545
0.04903093 -0.006249595 -0.08087642 -0.01682532 -0.06383926 -0.065880395 -0.10896924 0.11937202
0.07564327 -0.10484397 -0.032663755 -0.063706405 -0.073324405 -0.027275525 -0.08435785 -0.08910343
-0.13977337 0.073771685 0.11481986 0.007424322 0.0043628304 -0.085482754 0.05806457 0.001594223
0.10569084 0.035371304 -0.10326126 0.12087284 0.11129013 0.08796294 -0.012869591 -0.03753505
0.05661781 -0.14287496 0.04567423 -0.12550178 0.0944184 -0.11377922 0.04584871 0.02674816
0.044242058 -0.021381991 0.11902337 -0.10939979 0.02989079 -0.11045584 0.11501028 -0.059365343
-0.05109218 -0.046046935 0.054399487 -0.02708263 -0.11045447 -0.071660124 0.13216062 -0.020278974
0.09353876 -0.07964574 0.065854624 -0.10030287 0.07530535 -0.06745521 0.10668178 0.023905247
-0.05025815 -0.15181184 -0.027346922 -0.0179604 0.034917295 0.008169565 0.0344171 -0.045525312
0.026694212 0.059750393 0.10623662 0.09081137 -0.11453365 -0.039852515 -0.10446544 -0.06596467
-0.006631543 0.079666816 -0.11991559 0.10137639 -0.08690865 0.055090703 0.12789969 0.025617506
-0.08798852 -0.13394418 0.022957418 -0.12840189 -0.01630681 0.104456075 -0.08336198 0.07857257
0.07704302 0.118770696 -0.103917345 -0.11739658 0.10129198 0.046398945 -0.13093907 0.082513064
0.04245028 0.051088948 0.119610995 -0.0325516 0.008934987 0.0068251435 0.118618004 -0.015454824
0.0067882007 0.053525396 -0.054765914 0.08924831 -0.123491876 -0.059191268 -0.055983476 -0.052653566
-0.09418241 0.015465481 -0.1038574 -0.024884775

rnn.bias_hh_l1 f4 [204]
00000000: 11bd a53d c777 76bc 966b cdbd baba 1fbd
00000010: 32de 7dbc 2369 be3d cb22 06be c484 e23c
00000020: 5e7a 8c3d b2d0 863d 4780 7b3d dbac 19bb
00000030: 85fb 973d 16c1 d6bd 1a83 4e3d d5f4 d5ba
00000040: e85a 6c3d 5ebf 4a3d aeb7 d43d 58d8 9f3d
00000050: ea04 88bd 9e9b 4c3b 110a ad3d a5cd 093e
00000060: 9ca6 f6bc 28f0 853d cbd0 7c3d 466d e93d
00000070: 2a29 b63d b5b6 ca3d e49f b83d 44fa a73d
00000080: 0115 a9bc e158 91bc f659 e73d 1e90 643c
00000090: df2a 543d cfda 09be d0b3 ad3a 3ce3 fd3d
000000a0: a0a1 783c 423e dbba 6964 c83c 9ed2 85bd
000000b0: 426c b5bd a469 65bd b186 163d 7a88 f0bd
000000c0: df3b 1d3a 6226 463c 2f7e f33c c95d a93c
000000d0: 607b ed3d fd97 59bd 41cd 823d 0bda e1bd
000000e0: 9ea5 4ebd ef09 0a3e 2f06 fc3d e36e 473d
000000f0: e4aa 783d 2a70 de3d 952c e6bb e6d6 e03d
00000100: 0e90 e7ba d515 353d 6424 91bd afb4 f43d
00000110: 451e 97bd e604 bbbd 0929 36bd b9d2 443d
00000120: 55ae 023e 5f84 0e3e cc01 d13c f63d 823d
00000130: 3c57 5cbb 841b 8abd b416 12bd 0bd6 923d
00000140: 8628 f1bc 0819 d5ba 33cd 5ebd 40da 4b3c
00000150: 88e8 ed3d 15f5 fabd cad8 fb3d 75fc fc3d
00000160: 7164 e43c 9c09 ddbb 9c9b b83d 2f86 a6bc
00000170: 68ad 2d3c 3d6a 443d 9ce2 88bd 94f6 383b
00000180: 1d63 ac3d 6dcf 4c3d cebf 0ebb 1603 45bc
00000190: 5340 9b3b 6996 b13c c71a 81bd f323 9fbc
000001a0: 60fb d03d 46e0 e8bd 4c35 89bd 470f ba3c
000001b0: cbf2 c1bd c009 c13d 114b fc3c 8321 81bd
000001c0: 7830 c6bb 761f 1b3d 0fea 0bbd b35d f4bd
000001d0: 20ab 823d 52c1 9dbd fa6f d5bd f9d0 a03d
000001e0: 0256 edbd c8df 90bd 3dd0 a83b f10d 77bd
000001f0: 5997 333d b04d 8a3d 8bf6 85bd 2c85 9e3d
00000200: 2f38 b9bd cbc3 0e3e b7d5 e23c e34c 20bd
00000210: 4d9d 10be 80ea afbd 966d a83d 756f eb3d
00000220: 81de 0fbd bc22 06be b60c 613d 3f1c f5bc
00000230: a168 8f3d a479 1abd 06ef 973d 8f27 a5bd
00000240: ad93 8e3d 8d1e 913d 7432 77bd f22a a5bd
00000250: e2d1 59bd 6cfa ae3c ae5c e83d f46b c03d
00000260: 7f7e 3c3d c300 c53d a35c 7bbb acf8 393d
00000270: 4558 0e3e a004 29bd cc12 293d c6f4 46bb
00000280: 77d7 95bd c577 9dbd fca7 d239 4b40 d1bd
00000290: e7a6 043e 4b02 babd bb93 d4bd d413 d2bd
000002a0: 07df 003d e3ad b4bc cdee e0bd 760e a0bb
000002b0: 7e59 aa3d fb6a b83d ecc1 003e 12e4 813d
000002c0: cb8a f2bd 1550 0dbe 3cb4 813c 9078 ae3c
000002d0: 6f89 30bd 42f7 a7bd df41 9f3d 3c17 d83d
000002e0: d6a8 a1bd 3012 a13d 9491 99bd 350b e6bc
000002f0: 5c81 fe3d 8316 7abd 627d 0fbd 2561 3fbc
00000300: 9c21 ddbd 0818 aebc 9d03 c0bd d2d3 0e3e
00000310: 562e a4bc 4b0b 943c ad29 0fbe a47a b139
00000320: b5d5 adbc c960 903d e7ad 83bd 857c b43d
0.08092702 -0.015043206 -0.10030286 -0.038996436 -0.01549487 0.09297397 -0.1309921 0.027651198
0.06859277 0.06582774 0.06140163 -0.0023448977 0.074210204 -0.10486047 0.050417997 -0.0016323576
0.057703882 0.04949891 0.103865966 0.07804936 -0.06641562 0.0031220685 0.08449186 0.13457353
-0.030108742 0.06539947 0.061722558 0.113977954 0.0889457 0.0989813 0.09014872 0.08202031
-0.020639898 -0.017742576 0.112964556 0.013950376 0.051798698 -0.13462375 0.0013252441 0.12396857
0.015175253 -0.0016726928 0.024461942 -0.06534313 -0.08858539 -0.05600895 0.036749545 -0.11744781
0.0005997996 0.012094112 0.029723255 0.020674603 0.115957975 -0.053123463 0.06386805 -0.110279165
-0.050450914 0.13480352 0.12305867 0.048689734 0.06070985 0.10861237 -0.0070243576 0.109784886
-0.0017666833 0.044210274 -0.07087019 0.11948525 -0.0737882 -0.09131794 -0.044472728 0.048052523
0.12761815 0.13917683 0.025513552 0.06359474 -0.0033621332 -0.067435294 -0.035666183 0.07169732
-0.029438268 -0.001625807 -0.054394912 0.012442172 0.116166174 -0.12253777 0.122972086 0.1235284
0.027879925 -0.0067455303 0.09014055 -0.020327656 0.010600425 0.04795288 -0.06683847 0.0028223144
0.08417342 0.050002504 -0.0021781805 -0.0120246615 0.0047378927 0.021678166 -0.063039355 -0.019426322
0.10204196 -0.11370902 -0.06699619 0.022712363 -0.09470137 0.09425688 0.030797513 -0.0630522
-0.0060482584 0.0378718 -0.034158763 -0.11931934 0.06380296 -0.077028885 -0.104217485 0.07852358
-0.1158867 -0.07073933 0.005151777 -0.06031603 0.04384551 0.06753099 -0.06541165 0.07740244
-0.09043919 0.13941877 0.027689798 -0.039135825 -0.14122505 -0.08589649 0.08224027 0.11495868
-0.035124306 -0.13099188 0.054943763 -0.029920695 0.07002378 -0.03771366 0.07418637 -0.08064186
0.06961761 0.07085905 -0.06035085 -0.08064832 -0.053178675 0.021359645 0.11345802 0.093955904
0.046019074 0.09619286 -0.0038354776 0.045403168 0.1390086 -0.041264176 0.04127769 -0.0030358299
-0.07316487 -0.0768886 0.0004017948 -0.10217341 0.12954293 -0.090824686 -0.1037974 -0.10257688
0.031462695 -0.022055572 -0.10983048 -0.0048845364 0.083178505 0.0900478 0.12573975 0.06342329
-0.11842879 -0.1380008 0.015833013 0.021297723 -0.043099817 -0.082014576 0.07776236 0.105513066
-0.07893531 0.07864797 -0.0749847 -0.028081516 0.12427017 -0.061056625 -0.035031684 -0.011680876
-0.10797426 -0.021251693 -0.09375689 0.1394799 -0.020041626 0.018071791 -0.13980742 0.00033851445
-0.021220068 0.0704971 -0.064296536 0.08812813
