tmp/aa_models/2.pt (torch_old, 539708 bytes, 30 tensors)

rnn.weight_ih_l0 f4 [204, 60]
0.098375626 0.081893764 -0.09871589 0.091265135 0.06892893 -0.007652864 0.08930684 0.035223152
0.022371383 0.07667525 0.009206741 -0.087028466 -0.034740534 0.034682423 0.037817452 -0.0767257
-0.017420689 0.12728566 0.013562384 0.09493173 0.0896454 0.09883015 -0.069533326 -0.10077107
-0.10702955 -0.12699763 0.0017361536 0.06549161 0.072073676 0.05283857 0.098666266 -0.122577325
-0.086970724 -0.048331633 -0.07339877 0.13358477 -0.011838278 -0.13823543 0.11910308 0.13951017
-0.13212568 0.05509623 -0.04711393 0.07664201 0.073825225 -0.08180475 0.09685181 0.102995455
0.016501427 -0.11582651 0.119314745 0.12524076 0.095825434 0.09412572 0.113641426 0.13430698
0.02332826 0.039233133 0.007358432 0.07416728 -0.021471675 0.01345034 -0.011178923 0.03773292
-0.025093665 0.07375343 -0.15749332 0.084617876 -0.13225606 -0.14569235 -0.080227405 -0.024470001
0.09025431 0.13768959 -0.050502993 -0.07132692 -0.11988596 -0.035391904 0.10786263 0.028620793
-0.06542938 0.15151367 -0.082096174 0.091413334 -0.002218521 0.12812355 -0.010799953 -0.051648922
0.108586885 -0.004897247 0.089240685 -0.102700636 0.031635985 0.07712704 0.12067569 -0.072131045
-0.111260206 0.119363315 -0.11655203 -0.13454181 0.0661386 0.08962793 0.11416035 -0.005692813
-0.13897301 -0.08020556 0.0946164 0.05704066 -0.018312007 -0.07696359 -0.06577663 0.08386302
-0.087953776 -0.101598606 0.1302938 0.072580785 -0.09924482 -0.034321167 0.021719933 -0.06321461
0.06418774 0.18592578 0.029993646 0.0469347 0.089887984 0.046831626 0.124523595 0.17265573
0.0137173375 -0.0473718 -0.00907269 0.008661602 -0.08181678 0.058574226 0.049346946 -0.01986312
-0.10373031 -0.07580836 0.11274641 0.06167776 -0.08168141 -0.08813894 -0.07106199 0.03010506
-0.046401184 -0.11440488 0.06497592 0.12540916 -0.06828452 0.0077627692 0.046758085 0.046870556
0.1015948 0.1075198 -0.02465764 0.108044334 -0.080343455 0.050026227 0.018217912 0.07091315
0.055037394 0.12156142 0.021525487 -0.093966745 -0.0073219985 0.01437439 0.10441485 0.10707198
-0.014444023 0.081537575 -0.044475555 -0.09343205 -0.122525096 0.05822298 -0.13794972 0.11086799
-0.13871701 0.107684925 -0.011909977 -0.070290305 -0.09498704 -0.032605063 0.22612976 0.02797722
-0.040091474 0.023781542 0.101299025 0.006593942 -0.0630322 -0.11862023 0.0081074415 0.12116218
0.061052293 -0.059685048 0.014085494 0.12422534 0.114948325 -0.09367707 0.08909765 -0.087397255
-0.15225075 -0.11644785 -0.009767654 -0.08297129 -0.01752712 -0.078887135 0.10341926 0.036141843
-0.059945744 0.028553816 -0.16750002 0.03034473 -0.15914011 0.028554905 0.07686166 -0.12784463
-0.015232054 -0.11592165 -0.1311965 -0.08404331 -0.0025227112 -0.13355345 0.067775175 -0.13928065
-0.09378621 -0.098244414 -0.017729387 0.02826795 0.051468432 -0.11352374 -0.07853381 0.020063221
0.01867494 -0.07733488 -0.11607069 0.06736189 0.006677106 0.123502925 -0.11643522 -0.006513834
-0.09867789 -0.15611352 0.113469966 0.004641387 0.13475288 0.15285397 0.05048351 -0.01461909
-0.07100423 0.030312575 -0.03861602 0.11590903 -0.074816324 0.10422368 0.07594229 0.026122743
00000000: 2979 c93d ebb7 a73d 8e2b cabd 37e9 ba3d
00000010: 9c2a 8d3d e0c4 fabb 81e6 b63d 2746 103d
00000020: 3144 b73c ea07 9d3d dfd7 163c fb3b b2bd
00000030: 174c 0ebd 280f 0e3d 79e6 1a3d 5d22 9dbd
00000040: d5b5 8ebc 2c57 023e c334 5e3c 916b c23d
00000050: 0298 b73d 7667 ca3d 7d67 8ebd 1061 cebd
00000060: 4f32 dbbd ab0b 02be a68f e33a 7720 863d
00000070: 5d9b 933d 426d 583d 8a11 ca3d d209 fbbd
00000080: b51d b2bd 64f7 45bd 1852 96bd 72ca 083e
00000090: 56f5 41bc 978d 0dbe 51ec f33d c1db 0e3e
000000a0: f44b 07be 96ac 613d 89fa 40bd 7cf6 9c3d
000000b0: ae31 973d 4089 a7bd 3e5a c63d 48ef d23d
000000c0: 002e 873c 7336 edbd 4a5b f43d 1d3f 003e
000000d0: 2040 c43d fcc4 c03d d6bc e83d c587 093e
000000e0: e81a bf3c ecb2 203d 001f f13b 04e5 973d
000000f0: 5ee5 afbc d15e 5c3c cd27 37bc d68d 1a3d
00000100: 3b91 cdbc 0a0c 973d ee45 21be 234c ad3d
00000110: 226e 07be 6030 15be 444e a4bd 5075 c8bc
00000120: 40d7 b83d 80fe 0c3e 3adc 4ebd d913 92bd
00000130: c586 f5bd 1af7 10bd 15e7 dc3d 2776 ea3c
00000140: d7ff 85bd 6626 1b3e 0a22 a8bd ea36 bb3d
00000150: 9b64 11bb d232 033e 49f2 30bc d28d 53bd
00000160: cd62 de3d 1679 a0bb d2c3 b63d b654 d2bd
00000170: bc94 013d c8f4 9d3d d124 f73d 71b9 93bd
00000180: 64dc e3bd c174 f43d d5b2 eebd 54c5 09be
00000190: ad73 873d d98e b73d e7cc e93d c78a babb
000001a0: f14e 0ebe d042 a4bd 3ec6 c13d 78a3 693d
000001b0: 1003 96bc 169f 9dbd e6b5 86bd 60c0 ab3d
000001c0: 1c21 b4bd ee12 d0bd bd6b 053e 3ca5 943d
000001d0: de40 cbbd 5a94 0cbd 00ee b13c a976 81bd
000001e0: dd74 833d 5463 3e3e 3cb5 f53c 9a3e 403d
000001f0: 3117 b83d 85d2 3f3d 3a06 ff3d aacc 303e
00000200: afbe 603c ef08 42bd 9fa5 14bc 64e9 0d3c
00000210: 8e8f a7bd 87eb 6f3d 0620 4a3d fbb7 a2bc
00000220: 8f70 d4bd 6a41 9bbd 97e7 e63d d2a1 7c3d
00000230: 9548 a7bd 3082 b4bd f388 91bd e39e f63c
00000240: 2b0f 3ebd 1b4d eabd 1812 853d 426b 003e
00000250: c1d8 8bbd d45e fe3b 6885 3f3d 57fb 3f3d
00000260: ef10 d03d 5733 dc3d d2fe c9bc 5946 dd3d
00000270: 1c8b a4bd 4de8 4c3d bb3d 953c ea3a 913d
00000280: e46e 613d 32f5 f83d 3856 b03c a371 c0bd
00000290: 60ed efbb 9082 6b3c 74d7 d53d 8e48 db3d
000002a0: a0a6 6cbc 2cfd a63d 002c 36bd 4d59 bfbd
000002b0: 70ee fabd 387b 6e3d b142 0dbe c20e e33d
000002c0: d50b 0ebe ea89 dc3d 1022 43bc 5df4 8fbd
000002d0: 9188 c2bd e38c 05bd 8f8e 673e 7c30 e53c
000002e0: f536 24bd 82d1 c23c dd75 cf3d ff11 d83b
000002f0: 0717 81bd 2aef f2bd 13d5 043c e123 f83d
00000300: f811 7a3d 4f78 74bd d8c6 663c db69 fe3d
00000310: 076a eb3d c4d9 bfbd d478 b63d 55fd b2bd
00000320: 9fe7 1bbe 367c eebd 8308 20bc daec a9bd
00000330: 0995 8fbc 948f a1bd 7acd d33d 7809 143d
00000340: ab89 75bd b1e9 e93c 2085 2bbe 8395 f83c
00000350: a0f5 22be faeb e93c a569 9d3d b4e9 02be
00000360: dd8f 79bc 5468 edbd 6058 06be e61e acbd
00000370: 1254 25bb 3cc2 08be b6cd 8a3d 969f 0ebe
00000380: fc12 c0bd 5e34 c9bd 383d 91bc 3092 e73c
00000390: 90d0 523d 227f e8bd 56d6 a0bd a05b a43c
000003a0: 30fc 983c c061 9ebd 78b6 edbd 08f5 893d
000003b0: a0cb da3b 1aef fc3d 9775 eebd 0072 d5bb
000003c0: a217 cabd 39dc 1fbe f162 e83d c716 983b
000003d0: a9fc 093e c085 1c3e ccc7 4e3d e884 6fbc
000003e0: aa6a 91bd 1452 f83c d52b 1ebd b761 ed3d
000003f0: 4d39 99bd 3a73 d53d a287 9b3d 5dff d53c

rnn.weight_hh_l0 f4 [204, 51]
-0.16194153 0.09140422 -0.06921329 -0.095933706 -0.04660599 0.100688726 0.124658726 -0.14858243
-0.054458935 0.10339852 -0.15755378 0.09699145 -0.08846579 0.07433963 -0.112784475 -0.04174133
0.013318726 0.03168706 0.096865214 0.13042961 -0.0900627 0.04031218 -0.121360205 -0.030672487
-0.05785477 -0.07121149 -0.058017384 0.020588575 0.12773462 -0.11984839 -0.20954306 -0.08925829
0.03042314 -0.12970272 0.11272055 0.045580916 0.037801832 0.05636717 -0.03064571 0.041065957
-0.050569914 -0.08856242 -0.03777246 -0.15356816 -0.012191232 -0.07530511 0.0043832166 -0.097249165
0.07905912 0.06917404 0.1105771 -0.100893885 -0.09745732 -0.04088934 0.08167913 0.097603075
-0.09653658 -0.095532395 -0.12638898 0.04685322 -0.06457278 0.035866555 0.16695231 0.025359537
-0.18227208 0.07085021 0.13939106 -0.13950105 0.09189855 0.08407578 0.12331347 -0.08377051
-0.18074013 -0.020965494 -0.0029507717 0.076012194 0.04456781 -0.045252692 -0.049146436 0.056552794
0.047938004 -0.23157749 -0.027698651 0.10418633 -0.13321772 -0.08942993 -0.022776129 -0.064076
0.11981005 0.16588515 0.12482307 0.13231933 -0.030220728 0.078975536 -0.07582156 -0.10639641
0.03719349 -0.14432357 0.06371993 0.024315923 0.012455479 0.05358293 -0.10441049 0.12249148
-0.09218455 -0.025212716 0.081767604 0.041172445 -0.029545134 -0.054001033 -0.014554199 0.039950352
0.052987043 0.026602335 -0.089131914 0.025949981 0.015310042 0.13023096 -0.075552925 0.04933518
0.18824637 -0.07823914 -0.0778666 0.060966536 0.0385701 0.13547915 -0.045361146 0.1341816
-0.09830423 0.004389874 0.094513014 0.09262135 -0.057168998 -0.093777195 0.06354011 -0.09024608
-0.028883003 -0.09102422 -0.06539905 0.013836697 -0.07907142 -0.03175169 -0.04625746 0.15374249
-0.121517584 -0.096842684 0.05783452 0.049774505 -0.009235044 -0.10284165 0.12034164 -0.08945031
0.038659833 0.017943932 -0.039418746 -0.04838341 -0.11112033 -0.059177022 0.044186655 0.22891161
0.020034438 -0.04158676 0.14323834 0.01042395 -0.09569038 -0.13182531 0.08786451 -0.12431565
-0.0716896 -0.1152502 0.06982153 0.10424328 0.12495916 -0.028859088 -0.14847367 -0.15310562
0.1043937 0.029768068 0.13245493 -0.124242745 -0.021135684 0.016131664 -0.047105603 -0.107728876
-0.17221609 -0.05552814 0.031175042 -0.15379667 0.029172678 -0.14963712 0.01276844 -0.06574323
0.038506452 -0.036280777 0.05745238 -0.085547335 0.067881875 -0.11122471 0.11517508 0.13964833
0.02345333 0.097851686 -0.20350291 -0.12467623 -0.014573401 0.056889683 0.012705419 -0.20721309
0.10186197 -0.12980366 0.21114121 -0.2149268 -0.14663392 0.065846056 -0.13326257 0.09369554
0.043378703 -0.07119759 -0.12547162 -0.01970792 -0.08189256 0.21137378 0.14484662 0.06391907
-0.12354697 0.0069986326 -0.20003727 -0.017214058 0.1587079 0.052188266 -0.045302067 -0.058005653
0.13605884 0.09038156 -0.21403266 -0.123262085 0.13547045 -0.084544696 -0.066408135 0.031767387
-0.067635395 0.02305328 0.17728993 0.11064723 0.14726463 0.105910204 0.040229525 -0.038571928
0.0035548296 0.005223735 -0.16262417 -0.04207348 0.2003887 -0.06833867 0.06675388 -0.12833858
00000000: 00d4 25be 2332 bb3d b3bf 8dbd e478 c4bd
00000010: ece5 3ebd e435 ce3d 134d ff3d fe25 18be
00000020: 5510 5fbd 9ac2 d33d c755 21be 74a3 c63d
00000030: 8d2d b5bd 603f 983d 8cfb e6bd f5f8 2abd
00000040: c936 5a3c 4aca 013d 4561 c63d 578f 053e
00000050: cb72 b8bd 621e 253d b38b f8bd de44 fbbc
00000060: 20f9 6cbd 54d7 91bd a3a3 6dbd 5fa9 a83c
00000070: ddcc 023e 1373 f5bd 7592 56be 0dcd b6bd
00000080: f339 f93c cad0 04be 08da e63d 0eb3 3a3d
00000090: 18d6 1a3d 43e1 663d b60c fbbc c734 283d
000000a0: 6622 4fbd 3760 b5bd 4cb7 1abd f940 1dbe
000000b0: bcbd 47bc 9139 9abd 16a1 8f3b 922a c7bd
000000c0: bfe9 a13d 1eab 8d3d 3f76 e23d 74a1 cebd
000000d0: b497 c7bd 957b 27bd 6347 a73d 1fe4 c73d
000000e0: f8b4 c5bd 7da6 c3bd 1d6c 01be 29e9 3f3d
000000f0: bc3e 84bd cfe8 123d 8cf5 2a3e cebe cf3c
00000100: 88a5 3abe ea19 913d 88bc 0e3e 5dd9 0ebe
00000110: 4f35 bc3d ec2f ac3d c68b fc3d e08f abbd
00000120: f113 39be d4bf abbc bc61 41bb 48ac 9b3d
00000130: bc8c 363d e35a 39bd c64d 49bd e7a3 673d
00000140: a45a 443d a622 6dbe 48e8 e2bc a55f d53d
00000150: 3a6a 08be 0a27 b7bd 0195 babc 473a 83bd
00000160: f95e f53d ccdd 293e 3da3 ff3d b87e 073e
00000170: 7691 f7bc edbd a13d 5648 9bbd 5ce6 d9bd
00000180: 3358 183d 8fc9 13be 987f 823d 3032 c73c
00000190: 1112 4c3c c679 5b3d 2bd5 d5bd d0dc fa3d
000001a0: 41cb bcbd e68a cebc c675 a73d 70a4 283d
000001b0: a308 f2bc 3030 5dbd bc74 6ebc fba2 233d
000001c0: f108 593d 24ed d93c cb8a b6bd 0e95 d43c
000001d0: f8d6 7a3c 445b 053e 7ebb 9abd b013 4a3d
000001e0: a8c3 403e d83b a0bd 8678 9fbd 0cb8 793d
000001f0: aefb 1d3d 0cbb 0a3e 9ccc 39bd e766 093e
00000200: ba53 c9bd efd8 8f3b 0a90 c13d 43b0 bd3d
00000210: 0a2a 6abd 420e c0bd 5121 823d f0d2 b8bd
00000220: 0c9c ecbc e86a babd f0ef 85bd 50b3 623c
00000230: 32f0 a1bd 0f0e 02bd 7678 3dbd ac6e 1d3e
00000240: 36de f8bd 7555 c6bd e4e3 6c3d 5ae0 4b3d
00000250: 954e 17bc a59e d2bd ae75 f63d b931 b7bd
00000260: c659 1e3d 27ff 923c 8d75 21bd af2d 46bd
00000270: 0e93 e3bd 9b63 72bd 11fd 343d ce67 6a3e
00000280: 431f a43c e156 2abd 12ad 123e 37c9 2a3c
00000290: 51f9 c3bd 37fd 06be 4ff2 b33d 3499 febd
000002a0: ffd1 92bd 4c08 ecbd 97fe 8e3d 807d d53d
000002b0: 97ea ff3d e569 ecbc 7b09 18be b8c7 1cbe
000002c0: 5dcc d53d 2adc f33c 44a2 073e fb72 febd
000002d0: be24 adbc 8d26 843c cef1 40bd f5a0 dcbd
000002e0: 6a59 30be 7a71 63bd cd62 ff3c e07c 1dbe
000002f0: 8afb ee3c 793a 19be b832 513c 63a4 86bd
00000300: f1b8 1d3d 279b 14bd 3053 6b3d 7133 afbd
00000310: a705 8b3d c8c9 e3bd eae0 eb3d f9ff 0e3e
00000320: 3321 c03c 7766 c83d 1163 50be 4056 ffbd
00000330: 46c5 6ebc 2805 693d 642a 503c ab2f 54be
00000340: 029d d03d 40eb 04be 6735 583e c515 5cbe
00000350: 3427 16be 4cda 863d fc75 08be 73e3 bf3d
00000360: dead 313d 0bd0 91bd a27b 00be 8172 a1bc
00000370: 49b7 a7bd 5e72 583e ac52 143e 00e8 823d
00000380: 3206 fdbd c954 e53b 92d6 4cbe 7f04 8dbc
00000390: 5384 223e 5dc3 553d a98e 39bd 5697 6dbd
000003a0: 0253 0b3e f819 b93d 612b 5bbe d570 fcbd
000003b0: c4b8 0a3e c525 adbd fd00 88bd 851e 023d
000003c0: 6d84 8abd 3bda bc3c 7e8b 353e 049b e23d
000003d0: 8acc 163e 73e7 d83d b7c7 243d 99fd 1dbd
000003e0: 25f8 683b dd2b ab3b f386 26be 3e55 2cbd
000003f0: b232 4d3e 25f5 8bbd 42b6 883d 306b 03be

rnn.bias_ih_l0 f4 [204]
0.002520696 0.08081121 0.15655152 -0.0019192543 0.022194566 0.12799364 0.030114045 0.18268666
0.17358351 0.024423743 0.0625561 0.044827178 0.09798997 0.16164663 -0.0025694636 0.13085319
0.07754108 0.1158334 0.16597211 0.1700684 0.17938939 0.08550148 0.0442059 0.1563686
0.04958999 -0.05835002 -0.0846641 0.010896497 0.017891841 0.033504274 0.085979395 -0.00072155806
0.08503267 0.11351613 0.0027568806 0.07793974 0.13515921 -0.07536074 0.13053714 0.12945937
-0.09199082 -0.01825233 0.068090945 0.11255943 -0.048431147 0.19925928 0.0800059 0.020299025
0.12560071 0.102906935 0.0830029 0.021673884 0.16767457 0.109498 -0.039448097 0.13183776
0.15432686 0.038264014 -0.057589572 0.053331736 -0.045414098 0.12708977 -0.08040085 -0.07154469
0.17090759 0.0075773587 -0.004214701 0.028734919 -0.009853388 -0.0781983 -0.05410867 0.10034809
0.057282377 0.020223938 -0.017162992 0.036935832 -0.115047984 0.10879404 0.13742977 0.14501873
0.067133375 0.026721066 0.08373021 -0.0946074 0.028555471 0.086180225 -0.06781903 -0.08100028
-0.09753241 0.008151975 -0.08047652 -0.07924349 -0.04927714 0.021068748 0.12771033 -0.017339934
-0.035142038 0.08047124 -0.010046809 -0.055180907 0.10272482 0.025018131 -0.123145014 0.06803158
0.10746553 -0.11229616 0.033916663 -0.07375842 0.122483216 -0.08714976 -0.09330563 0.025280293
-0.06856172 0.060617156 0.11358176 -0.14292638 -0.09213268 0.16445404 0.03016427 -0.032435603
-0.10182059 -0.02774301 0.08119819 -0.112323485 -0.023073675 -0.03676532 0.09715212 0.00086604524
-0.064413 0.017072743 0.050268073 -0.07566518 -0.011929671 -0.1313302 -0.039012708 -0.16724217
0.1542659 -0.025841476 -0.15177488 -0.03198472 0.14646894 0.078728296 -0.013359652 0.16021939
-0.071126625 -0.1723252 -0.09514298 0.09554886 -0.064311266 -0.0060386304 -0.00040972736 -0.015286198
0.07073337 0.06078492 -0.020536432 0.067490764 0.021404242 0.1683826 -0.05928799 -0.06171266
0.010582204 0.056361567 0.06637362 0.14547636 -0.04026529 0.11429908 0.16170892 0.03191882
0.07451812 0.045304168 0.14968081 0.035988327 0.03241841 0.032748606 0.048865713 0.15684047
0.06788184 0.04837092 0.18680987 -0.027065232 0.18066758 -0.091059044 -0.048750293 -0.030815426
0.09844463 -0.07868378 -0.06911889 0.009522249 0.0219056 0.13363303 -0.08801576 -0.0102461185
0.06915966 0.08190048 0.088115014 -0.12746273 0.1223809 -0.06375203 0.12640093 -0.0033204805
0.051558774 -0.023619859 0.14965704 0.045952275
00000000: 4332 253b 5980 a53d 0b4f 203e 7d8f fbba
00000010: 61d1 b53c c410 033e bbb1 f63c 3612 3b3e
00000020: e0bf 313e 4d14 c83c 6a1d 803d b49c 373d
00000030: f7ae c83d b286 253e 7264 28bb 61fe 053e
00000040: dccd 9e3d 103a ed3d 98f4 293e 6926 2e3e
00000050: dab1 373e 661b af3d 3f11 353d 171f 203e
00000060: e01e 4b3d 6e00 6fbd 5f64 adbd 3987 323c
00000070: e991 923c c73b 093d f715 b03d f126 3dba
00000080: 9c25 ae3d 257b e83d c8ac 343b df9e 9f3d
00000090: 2d67 0a3e bb56 9abd 87ab 053e ff90 043e
000000a0: af65 bcbd e985 95bc 4473 8b3d 8f85 e63d
000000b0: bd5f 46bd a00a 4c3e 22da a33d 244a a63c
000000c0: 799d 003e dfc0 d23d 6dfd a93d 6e8d b13c
000000d0: e2b2 2b3e 7d40 e03d 5494 21bd 7a00 073e
000000e0: dc07 1e3e baba 1c3d 0be3 6bbd 6172 5a3d
000000f0: 2204 3abd d223 023e 33a9 a4bd 0686 92bd
00000100: 6602 2f3e 7e4b f83b 791b 8abb 7e65 eb3c
00000110: 1b70 21bc 6e26 a0bd 0ea1 5dbd 4d83 cd3d
00000120: eda0 6a3d acac a53c 6799 8cbc 074a 173d
00000130: 479e ebbd 69cf de3d 64ba 0c3e ca7f 143e
00000140: 397d 893d 23e6 da3c bf7a ab3d 86c1 c1bd
00000150: 2aed e93c 427f b03d b4e4 8abd 7ae3 a5bd
00000160: 12bf c7bd dd8f 053c e0d0 a4bd 694a a2bd
00000170: d4d6 49bd 5e98 ac3c 7fc6 023e 7a0c 8ebc
00000180: 19f1 0fbd 1bce a43d 5f9b 24bc 6005 62bd
00000190: 6461 d23d d3f2 cc3c 7433 fcbd 2454 8b3d
000001a0: e316 dc3d 87fb e5bd 33ec 0a3d a80e 97bd
000001b0: 7bd8 fa3d 937b b2bd 0617 bfbd 9e18 cf3c
000001c0: 166a 8cbd b249 783d 8e9d e83d 4b5b 12be
000001d0: 0fb0 bcbd a466 283e 0f1b f73c 32db 04bd
000001e0: 5087 d0bd 4f45 e3bc 3d4b a63d db09 e6bd
000001f0: 0105 bdbc 3b97 16bd b1f7 c63d 5007 633a
00000200: f7ea 83bd 23dc 8b3c e5e5 4d3d 59f6 9abd
00000210: ab74 43bc 6d7b 06be cacb 1fbd 8841 2bbe
00000220: e1f7 1d3e 81b1 d3bc e06a 1bbe 6902 03bd
00000230: f4fb 153e 4d3c a13d 71e2 5abc 8d10 243e
00000240: d6aa 91bd 0476 30be 53da c2bd 1faf c33d
00000250: a0b5 83bd b4df c5bb add0 d6b9 f672 7abc
00000260: a8dc 903d 9cf9 783d 053c a8bc 9938 8a3d
00000270: f357 af3c 7d6c 2c3e f7d7 72bd 6ac6 7cbd
00000280: fb60 2d3c 63db 663d e4ee 873d c1f7 143e
00000290: 37ed 24bd a315 ea3d 0697 253e 4fbd 023d
000002a0: f59c 983d dd90 393d ed45 193e 7f68 133d
000002b0: 2bc9 043d 6723 063d 6a27 483d ca9a 203e
000002c0: a205 8b3d 9620 463d 164b 3f3e e8b7 ddbc
000002d0: ec00 393e 2a7d babd 63ae 47bd a270 fcbc
000002e0: 579d c93d f624 a1bd 348e 8dbd 3503 1c3c
000002f0: 5f73 b33c 19d7 083e 9b41 b4bd 56df 27bc
00000300: 94a3 8d3d 70bb a73d a575 b43d 9785 02be
00000310: d6a2 fa3d 6d90 82bd 3f6f 013e 6b9c 59bb
00000320: 4b2f 533d 6f7e c1bc b23f 193e 7438 3c3d

rnn.bias_hh_l0 f4 [204]
0.0116218 0.17973775 -0.057666305 0.14967743 0.07387239 0.054236036 -0.07618691 0.010074628
0.09793139 -0.063013345 0.09584705 0.07009863 -0.01263838 0.07801826 0.010688751 0.10784973
0.2266199 -0.02217138 0.019820279 0.011461043 0.19206947 0.092778504 -0.009811308 -0.005240137
-0.08331225 0.0017151879 0.121649124 0.06187258 0.15956531 -0.03632656 0.00040542666 0.10045444
0.14439455 -0.07954679 0.13140994 0.100139245 -0.053128093 0.0486761 -0.0802961 0.019323759
0.006898603 0.103955425 0.14177123 -0.012008597 0.16993883 0.135215 -0.036683764 0.057562258
0.11234778 0.08347535 0.06838458 0.07273139 -0.09993914 0.094452165 -0.01665157 0.08518241
-0.026534664 0.10959655 0.018403245 0.029853972 0.03319697 0.02714451 0.04670685 0.12805702
-0.08543447 0.0064123673 0.140671 0.031250834 -0.049136605 -0.009206061 0.102591366 0.049656942
0.12026577 0.043890662 0.16028276 0.16452369 0.12569004 -0.03921904 0.018959442 0.10452414
0.0879465 -0.07472501 0.15323693 0.082960576 0.058113378 0.082146235 0.005512205 0.114295855
-0.08584441 -0.09414902 0.07246747 0.16303505 0.024117095 -0.058844678 -0.0545758 0.05713662
-0.1265057 -0.012779126 0.018330535 0.062104836 0.038866688 -0.07183534 -0.15834352 0.15689397
-0.0064208596 0.016262494 0.13304666 0.005350808 0.05028501 0.015642785 -0.13091157 0.06724069
-0.05196499 -0.010186283 0.096403845 0.03696427 0.011821784 0.007925775 -0.070576474 0.16692264
0.16340722 0.01942384 0.0062818876 -0.011518918 -0.12591696 0.14774019 -0.07606372 0.1409223
-0.118402824 -0.15976124 0.149626 0.019078068 -0.075510465 -0.069316074 -0.00990795 0.08721225
0.082596555 0.0626685 0.025641978 0.13284506 0.14703017 -0.003770001 0.05571992 0.013225572
-0.020239132 0.013754134 -0.05595032 -0.11686089 -0.05614155 -0.17785202 -0.0019244651 -0.1076956
0.09365452 -0.09615461 0.035881575 0.0404508 0.11936928 0.032760255 -0.06378789 0.17432925
0.037176367 -0.068422295 0.16742413 0.13379693 0.033060253 0.1298032 -0.086694315 0.010352669
0.061638575 0.103334524 0.07733783 0.15432356 -0.0301874 -0.03692101 0.10964553 -0.003153843
0.020445429 0.039637912 0.112511374 0.028437847 -0.04690948 0.13664238 0.16377261 0.052511167
-0.030157376 0.10439172 0.09276113 0.13268568 0.10915692 -0.0029098745 -0.018078981 0.15281156
-0.016963191 0.15595824 -0.00842728 0.0910873 0.08860198 -0.08007137 0.005570327 0.16252035
0.048110113 0.06572854 -0.102761835 0.14282793
00000000: 5d69 3e3c 2c0d 383e 8133 6cbd 0a45 193e
00000010: 684a 973d 9b26 5e3d e207 9cbd 0d10 253c
00000020: 4190 c83d 240d 81bd 754b c43d df8f 8f3d
00000030: 3511 4fbc 0ac8 9f3d df1f 2f3c 52e0 dc3d
00000040: 0c0f 683e c1a0 b5bc 235e a23c 19c7 3b3c
00000050: dcad 443e a802 be3d 9cbf 20bc 75b5 abbb
00000060: 9d9f aabd 28d0 e03a 2d23 f93d 1a6e 7d3d
00000070: 1765 233e 29cb 14bd 728f d439 0fbb cd3d
00000080: 2adc 133e 6de9 a2bd 5490 063e ce15 cd3d
00000090: d89c 59bd 9760 473d 4872 a4bd dc4c 9e3c
000000a0: ad0d e23b 95e6 d43d 7a2c 113e b5bf 44bc
000000b0: 7204 2e3e cd75 0a3e b741 16bd 67c6 6b3d
000000c0: 9816 e63d 20f5 aa3d 370d 8c3d 32f4 943d
000000d0: e4ac ccbd 2370 c13d e068 88bc 1e74 ae3d
000000e0: 395f d9bc 2874 e03d 67c2 963c 5190 f43c
000000f0: 8cf9 073d 2a5e de3c af4f 3f3d 6121 033e
00000100: 44f8 aebd d61e d23b 0f0c 103e e000 003d
00000110: 7743 49bd 05d5 16bc 6c1b d23d 1465 4b3d
00000120: e64d f63d b2c6 333d 2a21 243e e678 283e
00000130: e4b4 003e 25a4 20bd d550 9b3c c110 d63d
00000140: 4b1d b43d 6d09 99bd 24ea 1c3e 3ce7 a93d
00000150: 4b08 6e3d 493c a83d ba9f b43b f213 ea3d
00000160: 32cf afbd 34d1 c0bd d369 943d a9f2 263e
00000170: 3791 c53c 1e07 71bd e08a 5fbd 1708 6a3d
00000180: b68a 01be 8a5f 51bc eb29 963c a461 7e3d
00000190: ad32 1f3d 681e 93bd ce24 22be d0a8 203e
000001a0: 1366 d2bb ec38 853c 623d 083e d555 af3b
000001b0: a8f7 4d3d 4c25 803c af0d 06be 7db5 893d
000001c0: 3ed9 54bd 5ee4 26bc 616f c53d d967 173d
000001d0: 28b0 413c 1cdb 013c 668a 90bd c5ed 2a3e
000001e0: 3954 273e bf1e 9f3c 4bd8 cd3b d8b9 3cbc
000001f0: 60f0 00be 3449 173e 4cc7 9bbd ef4d 103e
00000200: 2e7d f2bd 7398 23be 8f37 193e 9c49 9c3c
00000210: 3ba5 9abd 96f5 8dbd f454 22bc 569c b23d
00000220: 6228 a93d 5858 803d 200f d23c 8908 083e
00000230: 148f 163e 1f12 77bb 923a 643d 12b0 583c
00000240: 89cc a5bc 0559 613c 2a2c 65bd c354 efbd
00000250: aff4 65bd d71e 36be 553e fcba 838f dcbd
00000260: f1cd bf3d b5ec c4bd 8ff8 123d bdaf 253d
00000270: e277 f43d 9e2f 063d 3aa3 82bd 5e83 323e
00000280: 3f46 183d fd20 8cbd 3b71 2b3e 1002 093e
00000290: 306a 073d 21eb 043e ca8c b1bd 3e9e 293c
000002a0: bb78 7c3d 0da1 d33d 4c63 9e3d ff06 1e3e
000002b0: 914b f7bc 7c3a 17bd d68d e03d b5b0 4ebb
000002c0: 2c7d a73c 5d5b 223d 5d6c e63d 7df6 e83c
000002d0: 2824 40bd fbeb 0b3e 02b4 273e f315 573d
000002e0: 9a0c f7bc 53cb d53d 8cf9 bd3d c1de 073e
000002f0: aa8d df3d 98b3 3ebb 5f1a 94bc a27a 1c3e
00000300: 64f6 8abc 84b3 1f3e 9312 0abc fa8b ba3d
00000310: f474 b53d 75fc a3bd 4a87 b63b bc6b 263e
00000320: 1c0f 453d af9c 863d cc74 d2bd 7c41 123e

rnn.weight_ih_l1 f4 [204, 51]
0.0051239403 0.09065815 0.09671748 -0.17584486 0.096031874 -0.057417285 0.02423667 -0.025739443
-0.12266321 0.004544279 0.028919708 -0.024469165 -0.007142041 -0.027235432 -0.049563628 0.07705846
0.105312526 -0.020209488 0.13849269 -0.1601157 -0.12347013 -0.10844915 -0.09404683 -0.051977195
0.17102925 -0.05208544 -0.022801232 0.013559221 0.1991932 0.03443713 -0.26153684 0.06441474
0.15041095 -0.0030316499 -0.027160965 0.08674905 -0.1400909 0.07642291 0.19350538 -0.23356684
0.1337214 -0.05733597 0.28313813 0.15194884 0.083641015 -0.03814164 0.084818594 0.07347515
0.15947014 -0.25200167 -0.13457818 -0.16729261 0.0013042574 0.025289802 0.12562233 0.17172869
-0.049691953 0.020510068 -0.17928702 -0.01797591 0.20057613 0.08115321 -0.06477579 -0.06821665
0.034467462 0.059835136 0.16352472 0.010320774 0.120874256 0.038953092 -0.1017425 -0.026389996
0.0387736 -0.18719433 0.113964766 0.06322995 -0.033631656 -0.0481625 -0.07987579 0.121231735
0.12947685 0.071138315 0.005728977 -0.076573774 0.06736386 -0.09571586 -0.14378414 0.047195736
0.16705243 0.17251046 -0.04952552 -0.037326656 -0.057080984 0.107609436 0.02768002 0.08850478
0.18967296 0.08112257 -0.13044381 0.109688796 -0.04827039 -0.056801684 -0.14105822 0.10127585
0.095681965 -0.02908962 0.052207418 0.004258494 0.1254996 -0.025757762 -0.10919075 0.09716112
-0.016657019 0.08380998 -0.079302676 -0.026757551 -0.034079704 -0.087333314 -0.04609621 0.17291549
0.22372583 0.052438647 -0.135219 0.0012035712 -0.13687032 -0.07356497 -0.045641944 0.12552193
0.08910254 -0.008886545 0.12323949 0.08066591 -0.16106503 0.057216246 0.06269579 -0.088049576
0.08972376 0.0072160657 0.0034451683 0.10641797 0.13544048 0.012763435 0.027218789 -0.00022665792
0.14172599 -0.1117768 -0.029624034 0.011650248 -0.13359837 0.08095419 0.15708122 -0.032121383
-0.1049319 -0.023800448 0.124029346 0.06237221 -0.17821798 -0.044358764 0.043177262 -0.034886137
-0.16813523 -0.01670706 0.14300725 -0.06492227 -0.07173176 0.03527729 -0.20219451 -0.15453026
0.050677802 -0.06402127 0.2127022 0.07222135 0.06338905 -0.04554469 -0.1563186 -0.14272428
-0.030013813 0.078762285 -0.09251307 0.060646452 -0.09990671 0.18541884 -0.023866644 -0.20936175
-0.16013594 0.03258575 -0.06926283 -0.010567865 -0.027881056 -0.16669513 0.061537895 0.05036867
0.04327007 0.03039645 -0.03629538 -0.0006702835 -0.04954669 -0.09246812 0.048591174 -0.024423687
-0.16878378 0.111477695 -0.11228956 0.008332665 -0.084392294 0.089393824 0.038015086 -0.0742608
0.067253426 -0.12505816 -0.01212566 -0.025200082 0.008487053 0.099011175 0.006779635 0.033036903
0.08360727 -0.30647543 -0.117397875 0.07230451 -0.05926161 0.079228796 0.15746939 0.027203362
-0.11710706 0.024848852 -0.17435811 -0.014510891 -0.0026092292 0.05105721 -0.06443009 -0.09525661
0.15938902 0.08444917 -0.0974337 -0.23515184 0.00706462 0.050883047 -0.121193565 0.103836134
-0.27722698 -0.024168458 0.012858293 -0.12744507 0.14252757 -0.012761562 -0.062495336 -0.0643946
-0.034598887 -0.019805105 -0.040148348 -0.15203924 0.11049558 -0.053588685 0.054399583 -0.16267356
00000000: bae6 a73b fbaa b93d d013 c63d ad10 34be
00000010: 5cac c43d 632e 6bbd fb8b c63c 86db d2bc
00000020: d936 fbbd 2de8 943b 06e9 ec3c 8f73 c8bc
00000030: c807 eabb d71c dfbc 3b03 4bbd d3d0 9d3d
00000040: 18ae d73d 5e8e a5bc 07d1 0d3e 5ff5 23be
00000050: e8dd fcbd 971a debd a09b c0bd 0ae6 54bd
00000060: 4b22 2f3e 8b57 55bd a6c9 babc 7f27 5e3c
00000070: 4df9 4b3e f30d 0d3d 28e8 85be e0eb 833d
00000080: 5405 1a3e a5ae 46bb ac80 debc 7ca9 b13d
00000090: fd73 0fbe 9d83 9c3d 4626 463e 252c 6fbe
000000a0: 43ee 083e 1fd9 6abd 7bf7 903e 7a98 1b3e
000000b0: fb4b ab3d 693a 1cbd 5fb5 ad3d 247a 963d
000000c0: 244c 233e 5d06 81be ddce 09be c14e 2bbe
000000d0: 9ef3 aa3a 8f2c cf3c 24a3 003e a5d9 2f3e
000000e0: ca89 4bbd bb04 a83c 0497 37be 3742 93bc
000000f0: d463 4d3e a733 a63d 2ba9 84bd 2cb5 8bbd
00000100: c12d 0d3d b015 753d 0673 273e 7718 293c
00000110: ec8c f73d 478d 1f3d 5f5e d0bd d52f d8bc
00000120: 11d1 1e3d dfaf 3fbe 5c66 e93d b47e 813d
00000130: 59c1 09bd 0b46 45bd eb95 a3bd 5848 f83d
00000140: 9495 043e f7b0 913d 24ba bb3b b6d2 9cbd
00000150: 10f6 893d ad06 c4bd 263c 13be 5150 413d
00000160: cb0f 2b3e 95a6 303e 46db 4abd d6e3 18bd
00000170: c0cd 69bd 5662 dc3d 36c1 e23c fe41 b53d
00000180: a139 423e 9723 a63d 1093 05be 85a4 e03d
00000190: 2cb7 45bd e2a8 68bd 9171 10be b669 cf3d
000001a0: e8f4 c33d 5b4d eebc 72d7 553d d68a 8b3b
000001b0: f882 003e f101 d3bc 669f dfbd 69fc c63d
000001c0: 4d74 88bc 91a4 ab3d 7169 a2bd a732 dbbc
000001d0: 2997 0bbd cfdb b2bd 61cf 3cbd c210 313e
000001e0: 6218 653e e8c9 563d d976 0abe 26c1 9d3a
000001f0: bc27 0cbe 3ba9 96bd 0cf3 3abd d288 003e
00000200: 647b b63d df98 11bc fc64 fc3d 2b34 a53d
00000210: 3bee 24be 955b 6a3d a666 803d 5653 b4bd
00000220: 17c1 b73d bf74 ec3b 55c8 613b aaf1 d93d
00000230: e9b0 0a3e ba1d 513c f0f9 de3c 06ab 6db9
00000240: 9e20 113e 3ceb e4bd 1aae f2bc afe0 3e3c
00000250: 03ce 08be 4fcb a53d e6d9 203e b691 03bd
00000260: 89e6 d6bd 28f9 c2bc 1903 fe3d 017a 7f3d
00000270: c67e 36be 89b1 35bd a4da 303d c4e4 0ebd
00000280: a42b 2cbe 3fdd 88bc 7e70 123e f8f5 84bd
00000290: 1ae8 92bd eb7e 103d 140c 4fbe 2e3d 1ebe
000002a0: 8793 4f3d 951d 83bd 9bce 593e cae8 933d
000002b0: 1ed2 813d 128d 3abd fc11 20be 5026 12be
000002c0: 87df f5bc 1f4e a13d 7e77 bdbd 6a68 783d
000002d0: e49b ccbd 70de 3d3e fb83 c3bc ed62 56be
000002e0: adfa 23be a378 053d acd9 8dbd d724 2dbc
000002f0: d066 e4bc 21b2 2abe 290f 7c3d 614f 4e3d
00000300: f53b 313d fa01 f93c 77aa 14bd f7b5 2fba
00000310: 78f1 4abd ed5f bdbd 8a07 473d 2f14 c8bc
00000320: a8d5 2cbe 6b4e e43d 12f8 e5bd bb85 083c
00000330: ded5 acbd 1c14 b73d b5b5 1b3d 0c16 98bd
00000340: 2abc 893d 3f0f 00be b4aa 46bc 6770 cebc
00000350: 480d 0b3c 5fc6 ca3d b327 de3b b451 073d
00000360: 4a3a ab3d 59ea 9cbe 4c6e f0bd 6314 943d
00000370: 4dbc 72bd b542 a23d a83f 213e 96d9 de3c
00000380: d4d5 efbd d28f cb3c ef8a 32be 17bf 6dbc
00000390: 9aff 2abb 5d21 513d ecf3 83bd e615 c3bd
000003a0: e036 233e b0f3 ac3d 528b c7bd a5cb 70be
000003b0: 547e e73b be6a 503d 5534 f8bd 0aa8 d43d
000003c0: b2f0 8dbe eefc c5bc 97ab 523c f680 02be
000003d0: bff2 113e df15 51bc 1cfb 7fbd 51e1 83bd
000003e0: 90b7 0dbd 513e a2bc 9872 24bd 2db0 1bbe
000003f0: 824b e23d cf7f 5bbd 19d2 5e3d e693 26be

rnn.weight_hh_l1 f4 [204, 51]
0.09939822 0.084078796 -0.07812865 0.1695969 0.05827776 -0.08599811 -0.013749446 -0.1337248
-0.095508106 -0.16139925 0.16130753 -0.055341173 -0.07189966 -0.14886527 -0.059534196 -0.0058388007
0.06690521 -0.08648536 -0.116296776 -0.04528761 -0.016397959 0.09474051 -0.03910057 0.06095362
-0.12021137 0.05510903 0.019306645 -0.08166906 0.004209438 -0.0076583326 0.093695305 -0.029115142
-0.058799118 -0.031759042 -0.010418686 -0.15932028 0.060199898 -0.105141655 -0.051444452 -0.07449933
0.080440395 0.049815223 -0.053880475 -0.17682691 0.026684646 -0.017345907 -0.11638864 0.10403068
0.1453458 0.024507072 0.11314559 -0.024073511 -0.07209055 -0.06405152 -0.097678386 -0.028161189
0.027063793 -0.070202775 -0.1044921 -0.06878886 -0.016383171 0.116410606 -0.11519518 0.15964551
-0.16136883 0.0039044763 -0.0004466815 -0.14387758 0.047791936 -0.03474201 0.08565018 0.16079016
0.082146145 -0.11175243 0.1539901 -0.022710625 -0.07957436 0.09469596 0.063011475 -0.01935282
-0.09387217 -0.09633744 0.04436363 -0.008020726 0.08022927 -0.046925873 0.09031216 -0.07434874
0.11231856 0.0014086537 0.07287229 -0.08823492 -0.08383044 -0.06256469 -0.12255934 -0.03478747
0.09404761 -0.015456492 -0.14164618 -0.12310863 -0.041442517 -0.092019126 -0.0708264 0.087362714
-0.1294553 0.09780074 -0.03193291 0.101092055 0.08038213 0.05313812 -0.09585453 -0.13328636
0.09619751 0.05463413 0.17077565 -0.12240894 0.09501099 0.09917421 -0.14247271 0.020558698
0.09026287 0.044326063 -0.0870261 0.06280519 -0.17122391 -0.004238877 0.082449496 -0.005835937
-0.008326122 0.11822437 0.016451538 -0.096799165 -0.014878549 0.126199 0.052280415 -0.029032808
0.020994376 0.028953783 0.060328804 -0.00068561087 -0.03868719 -0.032038223 0.13368857 0.16273442
-0.0043386156 -0.045207877 -0.035827413 -0.1392022 -0.15934268 0.06766391 -0.14783862 -0.10639822
0.047284443 -0.05778148 0.14923242 -0.1271592 0.16940649 -0.049210906 -0.20319788 -0.115667775
-0.052799013 0.19441028 -0.17998591 0.008681328 0.07885835 0.15293661 -0.14931382 0.05059925
0.07926633 0.008590842 0.1365637 -0.073274426 0.13779129 0.0018469786 -0.014591296 0.058978666
0.11479066 -0.06385962 -0.00084702857 -0.04170418 0.1299639 0.08839539 0.11511803 -0.054034047
0.026329039 0.14732169 0.160561 -0.13571991 0.046670407 0.10043334 0.123036996 -0.16364785
0.10777615 -0.06914225 -0.035596907 0.09491588 0.036968365 -0.08236963 -0.08621311 -0.035243116
0.10804992 -0.02309764 0.1228234 -0.21710567 0.070967145 0.16186462 -0.1566683 -0.14188991
0.057046693 -0.1396025 -0.21032709 -0.09400074 0.15695973 0.06660338 -0.108225234 -0.03267954
0.0076116705 -0.098187536 -0.031708803 -0.07438537 -0.03770619 -0.093666926 -0.08869134 0.1549797
-0.034131307 0.0031890583 -0.09425583 -0.20792289 -0.0076809484 -0.027648281 -0.031811826 -0.02388207
0.15226816 0.19908214 0.020168846 -0.1549712 -0.033715535 0.13671331 -0.022721853 -0.119745694
0.1563556 0.19071916 -0.052992925 0.10911767 -0.013080561 -0.050015002 -0.04781699 0.029212862
-0.05193449 -0.09890147 -0.02482636 -0.02340017 0.08250757 0.26484895 -0.15433012 0.1513987
00000000: 4b91 cb3d 8131 ac3d ea01 a0bd cfaa 2d3e
00000010: a9b4 6e3d c71f b0bd 5b45 61bc 27ef 08be
00000020: c199 c3bd d845 25be cd2d 253e 6dad 62bd
00000030: 2140 93bd 2370 18be 21da 73bd 6953 bfbb
00000040: 9905 893d 3d1f b1bd 012d eebd 807f 39bd
00000050: 0355 86bc 5007 c23d eb27 20bd 81aa 793d
00000060: 6131 f6bd 02ba 613d f828 9e3c 1c42 a7bd
00000070: 53ef 893b c0f2 fabb 53e3 bf3d e182 eebc
00000080: 58d7 70bd c515 02bd 23b3 2abc db24 23be
00000090: 2b94 763d 8254 d7bd 6bb7 52bd 1b93 98bd
000000a0: efbd a43d 0c0b 4c3d c6b1 5cbd 1d12 35be
000000b0: c299 da3c 0119 8ebc 2b5d eebd 0a0e d53d
000000c0: 88d5 143e 0ec3 c83c e0b8 e73d d035 c5bc
000000d0: 36a4 93bd 712d 83bd 9b0b c8bd 4bb2 e6bc
000000e0: e3b4 dd3c 79c6 8fbd f4ff d5bd 2de1 8cbd
000000f0: 0036 86bc af68 ee3d 73eb ebbd 1d7a 233e
00000100: df3d 25be 3ee2 7f3b 9330 eab9 a554 13be
00000110: 7ac1 433d a34d 0ebd 5d69 af3d 2da6 243e
00000120: 3d3c a83d 75de e4bd 95af 1d3e a20b babc
00000130: e2f7 a2bd f5ef c13d 290c 813d ce89 9ebc
00000140: 0d40 c0bd 904c c5bd a3b6 353d 5d69 03bc
00000150: 3e4f a43d 5835 40bd 95f5 b83d 2744 98bd
00000160: 4607 e63d 93a2 b83a 113e 953d 82b4 b4bd
00000170: 4baf abbd eb21 80bd 6400 fbbd 4e7d 0ebd
00000180: 099c c03d 3a3d 7dbc b20b 11be 6120 fcbd
00000190: a1bf 29bd 8674 bcbd 6e0d 91bd 39eb b23d
000001a0: ee8f 04be c14b c83d 15cc 02bd 5a09 cf3d
000001b0: 639f a43d 5ba7 593d 614f c4bd 387c 08be
000001c0: 3303 c53d 0ac8 5f3d d0df 2e3e 8ab1 fabd
000001d0: 1f95 c23d d91b cb3d 5ee4 11be b76a a83c
000001e0: bddb b83d 3f8f 353d bd3a b2bd 02a0 803d
000001f0: 5255 2fbe 47e6 8abb 48db a83d 633b bfbb
00000200: 496a 08bc 9e1f f23d 60c5 863c a43e c6bd
00000210: 28c5 73bc 503a 013e fd23 563d 36d6 edbc
00000220: 66fc ab3c 7c30 ed3c 561b 773d 91ba 33ba
00000230: 7576 1ebd 833a 03bd a8e5 083e daa3 263e
00000240: f22a 8ebb e52b 39bd c4bf 12bd 068b 0ebe
00000250: ba2a 23be 6093 8a3d 0263 17be 4fe7 d9bd
00000260: 55ad 413d 46ac 6cbd 62d0 183e 0536 02be
00000270: e578 2d3e 6091 49bd 1b13 50be 3ae3 ecbd
00000280: c743 58bd 7d13 473e 3a4e 38be 213c 0e3c
00000290: 7d80 a13d 6a9b 1c3e b9e5 18be 2941 4f3d
000002a0: 6356 a23d 9ac0 0c3c 5bd7 0b3e e710 96bd
000002b0: 2919 0d3e 5116 f23a 5510 6fbc 9d93 713d
000002c0: 5e17 eb3d d5c8 82bd 200b 5eba 01d2 2abd
000002d0: 4215 053e a408 b53d 00c3 eb3d ce52 5dbd
000002e0: ffaf d73c 7fdb 163e 1a6a 243e 29fa 0abe
000002f0: 7829 3f3d ffaf cd3d d2fa fb3d 4d93 27be
00000300: beb9 dc3d 749a 8dbd 10ce 11bd 4263 c23d
00000310: 246c 173d 69b1 a8bd 8090 b0bd 165b 10bd
00000320: 4749 dd3d 4337 bdbc d68a fb3d f350 5ebe
00000330: 3957 913d d7bf 253e a86d 20be 974b 11be
00000340: cba9 693d f5f3 0ebe fc5f 57be 7683 c0bd
00000350: 0dba 203e 5a67 883d 31a5 ddbd fbda 05bd
00000360: 526b f93b 8c16 c9bd 17e1 01bd 5b57 98bd
00000370: ce71 1abd 72d4 bfbd cea3 b5bd 00b3 1e3e
00000380: 45cd 0bbd 85ff 503b 3309 c1bd bde9 54be
00000390: 77b0 fbbb a67e e2bc 1e4d 02bd 55a4 c3bc
000003a0: 2fec 1b3e 30dc 4b3e 2339 a53c c5b0 1ebe
000003b0: 4d19 0abd 93fe 0b3e 2e23 babc 3b3d f5bd
000003c0: af1b 203e e24b 433e 1c0f 59bd 1679 df3d
000003d0: d94f 56bc 88dc 4cbd c0db 43bd d04f ef3c
000003e0: 43b9 54bd db8c cabd a760 cbbc b7b1 bfbc
000003f0: bbf9 a83d 489a 873e b708 1ebe 4308 1b3e

rnn.bias_ih_l1 f4 [204]
0.09079081 0.03493137 -0.060246646 0.11566383 -0.006623089 0.04124638 0.15169637 -0.050864507
0.03285897 0.10193473 -0.036169473 -0.050158102 0.07934609 0.10504343 0.031360533 -0.09652294
0.13574797 -0.0028107283 0.17631009 0.0075639035 0.13284981 0.10121071 0.099032104 0.10318188
0.009186448 -0.06471384 0.064018294 0.05020832 -0.063787974 0.081841946 0.19311023 -0.00061675964
-0.0437161 -0.0131914625 0.09503984 -0.020641202 0.03965049 -0.071424164 0.11278967 0.044481046
0.13043079 0.18245734 0.17250116 -0.0073124636 -0.03949646 -0.024214854 -0.034785785 -0.026133982
0.06219396 0.10320101 -0.08160614 0.009141438 -0.032090873 0.1029764 0.056892864 -0.09585786
-0.06934585 0.118372515 -0.0065642055 -0.0036743605 -0.06574452 -0.03797966 0.11276976 0.04075261
0.007592019 0.033998583 0.03997327 -0.04796567 0.15835482 0.058569018 -0.020090632 -0.027096832
-0.08778573 -0.052827094 -0.06715476 0.073960826 0.070441835 0.05490907 0.12184948 -0.082349986
0.14358094 0.110058956 -0.000862017 0.0003743258 -0.07536325 0.075630456 0.12798797 0.007091144
0.150226 0.10002353 0.13549682 -0.01951311 0.050335687 -0.09807687 0.07496157 -0.07695104
0.13018754 -0.09170159 -0.07093736 -0.051770914 0.023535455 0.0742909 0.1665053 0.10251203
-0.09111257 0.1685271 0.08026647 -0.020630779 -0.1583921 -0.17274815 0.085410014 -0.10455817
0.055208527 0.018358808 0.0052017383 -0.15484753 -0.071514525 0.069684684 -0.062115557 0.1138471
-0.08619585 0.0856742 0.032126702 0.1209784 0.031807642 0.043863762 -0.048787024 -0.083078034
0.09682796 0.10193514 -0.075743325 0.17277803 0.15509744 0.05283851 0.029249277 0.0045745037
-0.09690745 -0.06633471 0.03919176 0.12685667 0.01023772 0.16665357 -0.011339803 0.023153037
0.054217618 0.017247139 -0.079465754 -0.06900413 -0.09711754 -0.01989155 -0.04637286 -0.087634906
-0.07494406 0.10062863 0.15789106 -0.06608225 0.034117363 0.14902501 0.20047049 0.05648739
0.18580472 0.05992002 0.037630014 -0.024771128 -0.012438216 0.084185205 0.034052044 -0.03136339
0.04779319 -0.048103027 -0.043541964 -0.09451855 0.041635953 0.057549413 0.12502444 0.043342903
0.09751477 0.14527364 0.17455645 0.118025735 -0.01862042 -0.008926551 -0.035324436 0.16104801
-0.065114714 0.05686157 0.036029674 -0.032239195 -0.08724304 0.059837908 0.04887815 0.14412269
0.05440219 0.18745577 0.14138791 0.20079751 0.15821905 0.13604301 -0.04069104 0.1330186
0.049576063 0.18582053 0.018967748 0.0043991623
00000000: 88f0 b93d 3214 0f3d 30c5 76bd 28e1 ec3d
00000010: 7f06 d9bb f7f1 283d 4b56 1b3e 4d57 50bd
00000020: 2197 063d 28c3 d03d 7126 14bd 9572 4dbd
00000030: 3480 a23d 0321 d73d e773 003d d2ad c5bd
00000040: 8401 0b3e 3234 38bb a28a 343e 9fda f73b
00000050: c809 083e 9047 cf3d 58d1 ca3d 0651 d33d
00000060: c182 163c b188 84bd 061c 833d 3da7 4d3d
00000070: 45a3 82bd c09c a73d b0be 453e 0aae 21ba
00000080: a70f 33bd 0121 58bc 3fa4 c23d bd17 a9bc
00000090: 8d68 223d d546 92bd 45fe e63d c231 363d
000000a0: a68f 053e 19d6 3a3e 25a4 303e 649d efbb
000000b0: 0ac7 21bd 3b5e c6bc 8a7b 0ebd ef16 d6bc
000000c0: 18bf 7e3d 0d5b d33d 1f21 a7bd f8c5 153c
000000d0: b871 03bd 4ae5 d23d 7e08 693d 2051 c4bd
000000e0: 3205 8ebd 4a6d f23d 8c18 d7bb 8acd 70bb
000000f0: 10a5 86bd 8f90 1bbd d5f3 e63d 35ec 263d
00000100: 79c6 f83b 1942 0b3d 03bb 233d a677 44bd
00000110: c427 223e 11e6 6f3d 1c95 a4bc 2dfa ddbc
00000120: 01c9 b3bd 3961 58bd 6f88 89bd c678 973d
00000130: cf43 903d 55e8 603d 388c f93d 1ca7 a8bd
00000140: e206 133e 9766 e13d fbf8 61ba 2941 c439
00000150: 0c58 9abd 24e4 9a3d 470f 033e d45c e83b
00000160: d8d4 193e 23d9 cc3d aebf 0a3e f5d9 9fbc
00000170: cb2c 4e3d 87dc c8bd 7485 993d 8298 9dbd
00000180: e24f 053e 0bce bbbd 9b47 91bd bd0d 54bd
00000190: 6dcd c03c d425 983d 5e80 2a3e d4f1 d13d
000001a0: 3a99 babd 5e92 2c3e bf62 a43d e101 a9bc
000001b0: 8a31 22be e4e4 30be 72eb ae3d 9822 d6bd
000001c0: 5622 623d 3665 963c 5873 aa3b 5a90 1ebe
000001d0: 3576 92bd d8b6 8e3d e26c 7ebd ab28 e93d
000001e0: 7387 b0bd f475 af3d 4a97 033d 86c3 f73d
000001f0: bb48 023d 7daa 333d e7d4 47bd d124 aabd
00000200: bd4d c63d 5fc3 d03d 511f 9bbd b9ec 303e
00000210: ddd1 1e3e 326d 583d 2e9c ef3c b8e5 953b
00000220: 6a77 c6bd 7eda 87bd 8a87 203d b7e6 013e
00000230: 1cbc 273c 3ca7 2a3e 95ca 39bc 70ab bd3c
00000240: 4b13 5e3d df49 8d3c f1be a2bd 0a52 8dbd
00000250: 90e5 c6bd 9bf3 a2bc 78f1 3dbd ee79 b3bd
00000260: 457c 99bd 6216 ce3d 32ae 213e 2156 87bd
00000270: a6be 0b3d 039a 183e 2348 4d3e 525f 673d
00000280: 9843 3e3e b26e 753d ee21 1a3d d2ec cabc
00000290: a9c9 4bbc 4b69 ac3d 287a 0b3d e676 00bd
000002a0: cbc2 433d ae07 45bd 0f59 32bd f192 c1bd
000002b0: 768a 2a3d efb8 6b3d 6806 003e 5488 313d
000002c0: d3b5 c73d 9dc2 143e edbe 323e 7ab7 f13d
000002d0: da89 98bc ab40 12bc 5bb0 10bd c5e9 243e
000002e0: dd5a 85bd ade7 683d da93 133d 3f0d 04bd
000002f0: 7bac b2bd 9818 753d 7434 483d e694 133e
00000300: d5d4 5e3d 68f4 3f3e fec7 103e dd9d 4d3e
00000310: 2d04 223e dc4e 0b3e a6ab 26bd 0736 083e
00000320: 4510 4b3d bd47 3e3e 4062 9b3c d926 903b

rnn.bias_hh_l1 f4 [204]
0.062278215 -0.048117246 -0.04646025 0.16690114 0.01611418 0.21051773 0.13880304 -0.04700981
-0.03794786 -0.10375884 0.010692312 0.15698662 -0.0806966 0.10270126 -0.047531743 0.056797422
0.050052576 -0.05069583 0.16671772 -0.018489165 0.05268152 0.05240693 0.12405324 -0.06772636
0.043264918 0.017907783 -0.08348573 -0.07672688 0.10987494 -0.020650536 0.033587378 0.12827459
0.1150141 0.0374961 0.12455101 -0.07703174 -0.022600947 0.14680111 0.115681045 0.13584192
-0.08082261 -0.07707308 -0.02942799 -0.049698863 -0.055393677 0.14496687 -0.08732527 -0.051225472
0.06424409 0.15565413 -0.0010756409 0.15825208 0.1744958 -0.06010442 0.15867761 0.08933647
0.108073026 -0.09133255 -0.065313965 0.08238691 0.09566051 -0.071964696 -0.09225548 0.030168314
0.18134025 0.13711235 -0.049286027 0.17001447 -0.06056661 -0.013004595 0.15871039 0.06510242
-0.08532081 -0.05087306 0.052488755 -0.024682168 -0.1117137 0.034371722 -0.07050556 -0.010311846
0.017729351 0.0625741 -0.038784347 -0.12995607 0.09765831 0.017926162 0.09068657 -0.11906522
0.10590087 0.100577496 -0.04986545 -0.10053966 0.04698084 0.072254516 0.15434004 0.09963201
-0.103215314 0.1479961 0.0033541727 0.14519766 0.10270874 -0.092268705 -0.06877603 0.093254484
0.022303166 0.13774705 0.11855646 0.055938978 -0.0031175087 -0.09312065 0.058291517 0.052998025
0.17155215 -0.11550536 0.06992913 -0.06786422 0.015200522 0.09260619 -0.1377744 0.08404343
0.042784017 -0.0256745 -0.06922582 0.143959 -0.12064892 0.11348118 0.050168 0.1359486
-0.060527727 0.08946897 -0.13514878 0.16189708 -0.008845551 -0.10295393 -0.025005091 0.010414737
-0.048211116 -0.13282937 -0.054015335 -0.04452767 -0.0033982822 0.16084278 -0.100405544 0.112459
0.052081686 -0.10623233 0.09970517 -0.07399488 -0.07338805 0.02406437 0.05684989 0.00016754025
0.033125177 -0.04422053 0.044298112 0.08383166 0.010222062 -0.009887409 0.1388088 0.015219774
0.15681984 0.015799148 0.08565005 -0.002633771 0.1441288 0.015660241 0.11867161 -0.0019459284
-0.009239933 0.07588725 -0.08740595 0.16660501 -0.094653115 0.14085099 0.15196724 -0.07311056
0.17774786 -0.0053842664 0.19418342 -0.009078473 -0.0169414 0.05740798 0.17546615 0.19279309
0.10280178 -0.05335509 -0.011856675 0.13879889 -0.026726559 -0.07248495 -0.08721906 -0.00094958156
-0.059643332 -0.06859911 0.17202029 -0.04358577 -0.004115051 -0.11227627 0.089616306 0.03199263
0.034924418 0.09083944 0.016859757 -0.10136806
00000000: 7117 7f3d 9716 45bd 1a4d 3ebd 22e8 2a3e
00000010: e301 843c f691 573e 6222 0e3e 5c8d 40bd
00000020: 376f 1bbd 847f d4bd cf2e 2f3c 1ac1 203e
00000030: 4244 a5bd 0a55 d23d a5b0 42bd 6aa4 683d
00000040: ee03 4d3d 6ea6 4fbd 0db8 2a3e 9776 97bc
00000050: 94c8 573d a6a8 563d a00f fe3d 1eb4 8abd
00000060: 8e36 313d 58b3 923c 91fa aabd fc22 9dbd
00000070: 1d06 e13d 502b a9bc eb92 093d 6a5a 033e
00000080: 838c eb3d 8395 193d 9a14 ff3d d1c2 9dbd
00000090: 9f25 b9bc 0853 163e 2fea ec3d 251a 0b3e
000000a0: 5386 a5bd 7ed8 9dbd f812 f1bc 0991 4bbd
000000b0: 7be4 62bd 3272 143e 97d7 b2bd cdd1 51bd
000000c0: 6892 833d cc63 1f3e 85fc 8cba d50c 223e
000000d0: 07af 323e 0d30 76bd 627c 223e 0af6 b63d
000000e0: 6455 dd3d 8f0c bbbd 54c3 85bd 78ba a83d
000000f0: a8e9 c33d 3a62 93bd 71f0 bcbd 8a23 f73c
00000100: 42b1 393e 2e67 0c3e 25e0 49bd 4618 2e3e
00000110: b214 78bd 3a11 55bc fa84 223e 6b54 853d
00000120: adbc aebd 4560 50bd 73fe 563d 4232 cabc
00000130: 27ca e4bd 5dc9 0c3d 3865 90bd 04f3 28bc
00000140: 253d 913c da26 803d 56dc 1ebd 3413 05be
00000150: 1401 c83d e3d9 923c e1b9 b93d 77d8 f3bd
00000160: 8ee2 d83d 93fb cd3d b73f 4cbd bde7 cdbd
00000170: fb6e 403d 2dfa 933d 510b 1e3e de0b cc3d
00000180: 8d62 d3bd 4a8c 173e aed1 5b3b b2ae 143e
00000190: f658 d23d 60f7 bcbd 72da 8cbd 35fc be3d
000001a0: 21b5 b63c 900d 0d3e bbcd f23d 4520 653d
000001b0: 1e4f 4cbb 0ab6 bebd 16c3 6e3d 7514 593d
000001c0: 5eab 2f3e 138e ecbd 0137 8f3d 65fc 8abd
000001d0: 9c0b 793c 50a8 bd3d bb14 0dbe f61e ac3d
000001e0: 4b3e 2f3d 5453 d2bc 44c6 8dbd fd69 133e
000001f0: c816 f7bd d268 e83d f67c 4d3d 1c36 0b3e
00000200: eceb 77bd 823b b73d 7164 0abe 59c8 253e
00000210: eeec 10bc 83d9 d2bd 7ad7 ccbc 93a2 2a3c
00000220: 0579 45bd 6c04 08be 2f3f 5dbd a562 36bd
00000230: b7b5 5ebb f8b3 243e 6ca1 cdbd e750 e63d
00000240: 9b53 553d 5690 d9bd 3932 cc3d a18a 97bd
00000250: 794c 96bd a422 c53c 6edb 683d bead 2f39
00000260: 44ae 073d 9620 35bd f071 353d efaf ab3d
00000270: 6f7a 273c cdfe 21bc e523 0e3e 5c5c 793c
00000280: 6195 203e 376d 813c 4b69 af3d 589b 2cbb
00000290: 8096 133e e849 803c 1a0a f33d 860e ffba
000002a0: 1763 17bc c66a 9b3d e401 b3bd 819a 2a3e
000002b0: 7ed9 c1bd 3e3b 103e 4d9d 1b3e fdba 95bd
000002c0: 8903 363e 806e b0bb 05d8 463e e0bd 14bc
000002d0: b1c8 8abc a124 6b3d 66ad 333e 8d6b 453e
000002e0: bd89 d23d de8a 5abd 8042 42bc 4c21 0e3e
000002f0: a8f1 dabc fd72 94bd e89f b2bd 57ed 78ba
00000300: 914c 74bd b17d 8cbd 1626 303e fe86 32bd
00000310: 8dd7 86bb 1af1 e5bd c188 b73d b40a 033d
00000320: e80c 0f3d 070a ba3d 791d 8a3c 0f9a cfbd
