tmp/aa_models/4.pt (torch_old, 539706 bytes, 30 tensors)

rnn.weight_ih_l0 f4 [204, 60]
00000000: 6a14 be3d 6550 513e bef2 dd3d 92a0 ad3c
00000010: c784 c93c 5007 193e ca28 3d3c f95c ac3a
00000020: ec6f 233e ef21 a7bd abb7 103e 5f43 fc3d
00000030: 53ef c03d 5984 233d 4afb 97bd b0a8 a6bc
00000040: 253a 87bd f37b cbbd 4604 8cbc ec6f 1d3e
00000050: 1a23 b7bd 97a5 f83d 5162 1bbd a9e7 dc3d
00000060: 7c48 45bd 4836 3b3d e76a 263e 9893 113e
00000070: 1e38 01bd ad3b e83d f573 983d cd57 ca3d
00000080: 0812 2d3d 1b94 d7bd ce09 0c3d afc7 81bd
00000090: d752 873d e891 d13c 0c9a 643c a505 de3d
000000a0: ce5f 693d ac15 e9bd f842 d73d 4cab d73d
000000b0: 58a8 e53c a0cb 0ebc 402a 41bb 46ea eb3d
000000c0: 4a60 b0bd 58ee 1a3d 36d5 7bbd a490 a8bd
000000d0: c8d6 0e3d 9062 a3bd 944c 5bbd 5ca7 983d
000000e0: b801 883d d5c4 93bd 2833 abbd c466 cdbc
000000f0: b83f 8cbd bb9e 493e 271b 033d 51e0 cf3d
00000100: d3cb 013d bd74 82bb d0c7 bf3c 763d df3d
00000110: 8af0 323d 52e5 05bd bfb0 2b3e f7ed 03bd
00000120: 9cab 52bd ddc4 7e3d 486f 083e 42f5 1b3e
00000130: 8c6e 0dbc df43 a7bd 1b20 6c3d 9d91 793c
00000140: 1cc6 2bbc 3f78 c93c d349 0c3e 441b 023e
00000150: 8350 01be 7573 98bc 75ee fa3d 9447 893c
00000160: ae4e 8d3d b655 f73d 7683 4bbd 6ab9 e0bd
00000170: cbac 8fbc ce10 02bd 8113 c83b f16f 97bd
00000180: 90d2 fe3c 3899 b7bd c023 d7bc d2a5 fb3d
00000190: b8c3 3c3d 861a e93d 00d9 b53c 545c 84bc
000001a0: 7c3f ccbd 7355 b8bd 40f2 5d3d 0c29 4a3d
000001b0: 94f8 1a3d e48b c1bc 6cf1 113d eda3 01be
000001c0: ba6c e43d c0d6 7fbc c25f 0ebe f4ef c2bd
000001d0: ea8f ff3d 2ab1 d6bd d19f ebbd 783e eb3c
000001e0: 474c fc3d ac71 2f3e 2c54 483e ae26 223e
000001f0: ae77 183d bde4 023d a38d 0bbd 7b81 babc
00000200: 77ff 063e 761d 143e 394d 613d cf94 a13d
00000210: 9638 173e 3e78 d3bd 8a12 9ebd a380 20bd
00000220: 4b6a 83bd 9dc0 b63d 7c18 c03d b60d 8a3d
00000230: 7140 de3c 7ff7 6a3d 92b3 42bc df8b e23c
00000240: 6be1 fabd b186 1b3d 9c39 8b3d 8e0e 45bd
00000250: 904c 35bc 70f3 863c efd7 fdbc 00c2 1ebd
00000260: 4491 803c 037f 68bc 2fdd ccbd 52c3 da3d
00000270: 670b 383d db3b 58bd 1556 b53d 5ecf 49bd
00000280: 7ae9 eb3c 41da f6bd ad76 debd ff78 f6bd
00000290: 9900 da3c bda8 30bb 3519 bdbd d457 8d3d
000002a0: c82d b4bd 1352 043e f0d9 e93c c008 f7bb
000002b0: 48b5 48bd bcdb edbd c8ca 963c 505d dd3d
000002c0: f417 4a3d 7633 13bd 184b 0b3d e934 85bd
000002d0: 50b9 453d ac76 6dbe 89d2 59bd 273e 403e
000002e0: f0ea 1a3d d5ce 703d 3ca0 333c de5e 4dbe
000002f0: 3368 19bd 04ab e53d fbb3 673e c9fd f2bd
00000300: df7c 463e d702 b83d 6c4c 6dbd 38e4 19bd
00000310: 754e 8abd 50a9 973d b695 dabc e64e f83c
00000320: 8371 a33c 8de8 0b3e c91c e03d 9be5 393e
00000330: ad0e 123e 4071 e23c a246 a33c f3ff 97bc
00000340: a5b1 83bd d2c5 a43d 25fc ac3d b6df 49bd
00000350: 92c7 b7bd dae4 75bd 727b 3fbd 73ef 25bd
00000360: 0f17 bc3c ba3e 35bd 23a3 523d f93c 17bd
00000370: a111 a7bb 9b5f 9c3d 218f 733c e0d3 b8bb
00000380: 5a79 af3d 53cd cebc c3ae b0bb 7d13 1a3e
00000390: f4bf 823d 800f 30bb 0eca ed3d 38e8 153d
000003a0: 552a fcbd 303d 7f3c 40e6 ddbd 009b 7eba
000003b0: 1051 85bc 8206 e6bd eaf8 973d f4f4 d1bc
000003c0: c80b 023d d04e 683d cba5 1d3d 3b75 1d3e
000003d0: 2b8e ae3d 36e9 183e 9e51 333e ac74 063e
000003e0: d32b 7238 4409 853d 41cc d13d 7c41 93bd
000003f0: 0e27 98bd 6aae 063e fa77 b0bd 9e0f 1f3e
0.092812374 0.20440824 0.10837315 0.02119473 0.024599446 0.14944196 0.011545369 0.0013150267
0.15960664 -0.08160769 0.14132564 0.123175375 0.094206475 0.03992114 -0.074209765 -0.020344108
-0.06602887 -0.09935751 -0.017091881 0.15374726 -0.08942242 0.12140959 -0.03793556 0.10786373
-0.04816483 0.045706064 0.16251718 0.14216459 -0.03154766 0.11339507 0.07443992 0.09880028
0.042253524 -0.10526296 0.034189038 -0.06336915 0.06607597 0.025582269 0.013952743 0.1084092
0.056976132 -0.11381087 0.1051082 0.10530719 0.028034374 -0.00871554 -0.0029474646 0.115192935
-0.08612116 0.03782496 -0.06148263 -0.08230713 0.0348728 -0.07977784 -0.053539827 0.07453796
0.06640953 -0.07215277 -0.08359367 -0.025073417 -0.06848091 0.19689457 0.032008316 0.10150207
0.031688523 -0.0039812014 0.023410708 0.109003946 0.043686427 -0.0326894 0.16766642 -0.032209363
-0.05143319 0.062199462 0.133237 0.15230277 -0.008632313 -0.08167242 0.057647806 0.015232471
-0.010484245 0.02459347 0.13700037 0.12705714 -0.12628369 -0.018609742 0.12252513 0.016757764
0.068997726 0.12076895 -0.049685918 -0.10972865 -0.017538449 -0.031754307 0.0061058407 -0.07394398
0.031106263 -0.08964771 -0.026262164 0.12287487 0.04608509 0.11382012 0.0221982 -0.016157307
-0.09973046 -0.09000673 0.054186106 0.04935555 0.03783472 -0.023626275 0.03563063 -0.12660189
0.111535504 -0.015615165 -0.13903716 -0.09518424 0.12478621 -0.1048301 -0.11505092 0.02871631
0.12319236 0.17133206 0.19563359 0.15835068 0.03722351 0.031956423 -0.034070622 -0.02276682
0.1318339 0.14464363 0.055005286 0.07889711 0.1476768 -0.10325669 -0.0771838 -0.039185178
-0.06416758 0.08923457 0.0937967 0.067408964 0.027130337 0.057364937 -0.011883633 0.027654586
-0.12250026 0.03797025 0.067980975 -0.048109584 -0.011065617 0.016473502 -0.030986754 -0.03875923
0.015694268 -0.014190438 -0.10003125 0.10681786 0.04493275 -0.052791458 0.088543095 -0.049270026
0.028797854 -0.120533474 -0.10862479 -0.12034797 0.026611613 -0.0026956045 -0.092333235 0.069015175
-0.087977946 0.12921934 0.028546304 -0.007538885 -0.04900101 -0.11614177 0.01840724 0.108088136
0.04933925 -0.03593775 0.03400716 -0.065042324 0.04827243 -0.23189801 -0.053179298 0.18773709
0.03782171 0.058791 0.010963496 -0.2005572 -0.037452888 0.11214259 0.22627251 -0.11864812
0.19383572 0.08984917 -0.05793421 -0.037571162 -0.06753246 0.07405341 -0.026682716 0.03031106
0.019951588 0.1366293 0.1094299 0.18153994 0.14263411 0.027641892 0.019931141 -0.018554663
-0.064303674 0.08045544 0.0844653 -0.049285613 -0.08973612 -0.060032703 -0.046748586 -0.04051156
0.022960214 -0.044249274 0.05142511 -0.036923382 -0.005098537 0.07635423 0.014865668 -0.005640492
0.08568068 -0.02524439 -0.005391927 0.15046497 0.063842684 -0.0026864707 0.116108045 0.036598414
-0.12312762 0.015578553 -0.10834932 -0.0009712428 -0.016274005 -0.1123171 0.074205235 -0.025629498
0.031749517 0.056715786 0.03848819 0.15376751 0.0852321 0.14932713 0.17511603 0.13130444
5.773811e-05 0.06495908 0.102440365 -0.071902245 -0.07429324 0.13152471 -0.08616634 0.15533301

rnn.weight_hh_l0 f4 [204, 51]
00000000: 55c8 5fbd b0c7 d33a a31e 073c e574 cf3d
00000010: bc93 fe3d 9653 643d f3c3 a83d e01f 343e
00000020: 1894 753c cffe 31be 153f 243e c9b2 113c
00000030: d8a5 bfbd 1f70 bebd b3e4 cf3d 8faa 4c3d
00000040: 10c7 ee3d c0ea 123c 36b6 47be 9eac c93d
00000050: 856e a33d 861a 88bd f561 2b3c 140d 2fbd
00000060: e046 823d 1660 6ebc 4b30 7c3d 7c23 8d3d
00000070: 2734 90bd 065a 493d df90 9dbd d397 c1ba
00000080: 6b8e 2dbc 6592 303d 5a3a 90bc 18f6 253e
00000090: e15e 363e 23fb c63c 8aed f73c 17bb 15bb
000000a0: 9780 513d de9a 73bd 89b9 87bd f024 e93d
000000b0: e0a2 123e 94e8 1abe 5849 87bd d3c0 d8bc
000000c0: 4a29 a73d 16f9 9d3d bb57 25be c04e 33bd
000000d0: 951e 343d cf39 aebd 9cd8 7e3b 5470 a1bd
000000e0: 37e3 153e ea63 39bd 84b8 e73d 6ad1 4dbe
000000f0: 5523 523d 5968 a73d 394f 4abc b162 dbbc
00000100: f0bc 44bd ce78 7b3d 87d0 243d 8490 8f3d
00000110: 3dc6 b3bd 0b71 ecbd 69cb 023e 82b8 c43d
00000120: 061c 6abd f923 ccbc 92bb 453d 77e6 11be
00000130: 4a4d 083d 5515 7cbd 297b babd b235 e3bd
00000140: 0479 713c 105e 813d 4a7b 7dbc b3a0 9f3d
00000150: 4115 bdbd 3099 b3bc f45f 0dbe 810a e43d
00000160: be36 5e3d cfa6 b9ba aec7 a9bd bc7f 3cba
00000170: 806a 88bc 7941 74be 06cd 0c3e 2b9f 413d
00000180: d274 cd3c a16b 19bb b881 8bbd 04cf 573d
00000190: c636 dabd 51f6 c93d a433 15be 75b3 573e
000001a0: 2354 aabc 9665 583e 1354 2cbe 5c67 3bbc
000001b0: 3bdf 05be 65ca f6bc f2c2 89bd 8cbe a1bd
000001c0: 5958 5c3c 8768 0a3d 17a4 3f3e b2df ea3d
000001d0: c2a8 023d ddeb 0abe 89d9 2a3e 3f67 973b
000001e0: dde3 d0bc f370 8d3d ece7 eabd 2862 11be
000001f0: 4ee7 05be 4328 08bc dbc7 df3d 6105 703e
00000200: b68c 1bbe 1bc0 18be cf5e 853d f456 4fbc
00000210: a9c4 58bd 370e 123e e49b 80bc 667b d83c
00000220: 0208 3cbd 32e5 033e 4c0a 74bd eef3 ed3d
00000230: c202 8e3d 6c02 b73d 28b5 953d ff2e d9bd
00000240: c151 c6bd bc40 4e3e 61c2 123e 9cc8 c3bc
00000250: b024 683e c3fb 1ebd 7add d8bc 8660 76bd
00000260: d1f7 07be 8f90 2bbe 4aba 1f3e d640 bb3c
00000270: 1336 e03c 2133 5f3d 5d2c b7bd d3cb 443d
00000280: c8f0 153e 4ddd a93d e13f 1ebe 23ae 9f3d
00000290: ed06 463d 7c35 083d a67e e43d 6b2f 363d
000002a0: 8d19 0b3e 6480 d23c 1d90 c43b 1f39 1fbe
000002b0: 52f6 59bd fe44 d8bc 08a7 fdbc 09c9 23be
000002c0: d8b2 9fbd c19a 103d a33b 8dbd 516e b0bc
000002d0: 62ac f73b e777 e9bd dc04 4cbd 167b 07bd
000002e0: ba40 3d3e 52b8 a4bc 64f3 403c 4ce0 c83d
000002f0: c706 1a3d 94ac 67bc f384 353d f806 e03d
00000300: bc52 7b3d cd6f b23d aea9 053c cb0c debc
00000310: 3e94 583e 4667 9a3d cd28 99bd 9239 1dbd
00000320: 582e 7b3c 93ae 8d3d 6c13 d3bd 814b 40be
00000330: 956c 0fbe b4c1 ebbb 4bbf 49be 10ac 85bd
00000340: 7249 b4bd f0e2 e73d 39b7 6abd ddaf fd3c
00000350: 1478 f1bd 650f 16be ff48 1cbd d6f4 63bd
00000360: 1e6e 7dbc ded6 12be 6190 543e 967b 3c3d
00000370: a0a4 ba3c ff8c d5bd 90e7 84bc 3597 49be
00000380: 9c2f b13c 1f0c 223d 0941 c6bd 2c37 6d3e
00000390: a7e3 c73c 78b8 4c3e e4fb 58be 9b6a 50be
000003a0: 0a49 6dbd d8a8 89bd 8aa4 c8bb c497 013e
000003b0: 6caf 87bd 084f 98bd 8232 adbc 1255 83bd
000003c0: edb6 943b 76ed 6a3e 8c2b 8a3e fc31 ffbd
000003d0: 9a5a 1a3e 5023 c63d 50c6 aa3d 1d0d 713c
000003e0: 4e8b 2e3e e8be f5bd 0cd8 3539 decc 2a3e
000003f0: 5d4d 3cbe 8e15 023e 7829 6ebe 0560 a43d
-0.05463441 0.0016157534 0.00824705 0.10129718 0.12430522 0.055743776 0.08240499 0.17590284
0.014988922 -0.17382358 0.16039689 0.008892723 -0.09357804 -0.09298729 0.10151043 0.049967345
0.11659062 0.008967102 -0.19503102 0.09847377 0.07980064 -0.06645684 0.0104603665 -0.04273708
0.063611746 -0.014549276 0.061569493 0.06891534 -0.07041197 0.04915812 -0.076936476 -0.0014769979
-0.010593037 0.043108363 -0.01760595 0.16207159 0.17809631 0.024289673 0.030264635 -0.002284711
0.051148023 -0.059473865 -0.06627185 0.113839984 0.14319944 -0.15127784 -0.06605786 -0.026459133
0.08162172 0.07713525 -0.16146748 -0.043776274 0.043974478 -0.0850712 0.0038886433 -0.07882753
0.14637457 -0.0452613 0.113144904 -0.20099416 0.051303227 0.081741996 -0.01234799 -0.026780458
-0.048031747 0.061394505 0.04023793 0.07009986 -0.08778045 -0.11544999 0.12772907 0.096055046
-0.05715563 -0.024919497 0.048274584 -0.14248072 0.033276834 -0.06154378 -0.09105522 -0.11094226
0.014738325 0.06316769 -0.015471289 0.07794323 -0.092325695 -0.021923631 -0.13806134 0.11134816
0.054251425 -0.0014164093 -0.08290039 -0.0007190665 -0.016652346 -0.23853101 0.13750085 0.047270935
0.025080118 -0.00234101 -0.06811851 0.05268766 -0.106549785 0.09861434 -0.1457048 0.21064551
-0.020792073 0.21132502 -0.16828947 -0.011438217 -0.13073437 -0.030125806 -0.06726636 -0.07897672
0.013448798 0.03379109 0.18714939 0.11468448 0.03189922 -0.13566537 0.16684546 0.004620462
-0.025499279 0.06906309 -0.11470017 -0.141976 -0.13076517 -0.00831038 0.10926791 0.23439552
-0.15190396 -0.14917032 0.06512224 -0.012655009 -0.052921925 0.14263235 -0.015699334 0.026426028
-0.045906074 0.128804 -0.059580132 0.116187915 0.0693412 0.08936009 0.073099434 -0.10604667
-0.09683562 0.20141882 0.14331962 -0.023899369 0.22670245 -0.038814317 -0.026472796 -0.060150646
-0.13278128 -0.16754363 0.15598407 0.022858065 0.027369535 0.05449212 -0.089440085 0.048045944
0.14642632 0.08294163 -0.15454055 0.07796886 0.04834645 0.03325413 0.11156969 0.044478815
0.13583966 0.025695987 0.005998625 -0.15549134 -0.053213425 -0.026400086 -0.030963436 -0.15994658
-0.077977836 0.035303835 -0.068961404 -0.021536978 0.0075583914 -0.11399823 -0.04980932 -0.03307637
0.18481722 -0.020107422 0.011776779 0.09808406 0.03760412 -0.014140267 0.044316243 0.10938829
0.0613582 0.087127306 0.008158131 -0.02710571 0.211503 0.07539229 -0.07478485 -0.03838498
0.015330873 0.06918063 -0.10306439 -0.18778802 -0.14006265 -0.007194722 -0.19701879 -0.06526959
-0.08803071 0.11322582 -0.05730364 0.030967647 -0.11790481 -0.1465431 -0.038155552 -0.055653416
-0.0154681485 -0.14339778 0.20758201 0.0460163 0.022783577 -0.104272835 -0.016223699 -0.19686587
0.021629147 0.03956234 -0.09680373 0.23165578 0.024400545 0.19992244 -0.21189839 -0.20353167
-0.057930984 -0.067216575 -0.00612313 0.1265555 -0.06625256 -0.07436949 -0.021142248 -0.0641271
0.004538408 0.22942147 0.2698635 -0.12460706 0.15073624 0.09674704 0.08338606 0.014712599
0.17045328 -0.11999303 0.00017341989 0.16679713 -0.18388887 0.12703535 -0.23258007 0.08026127

rnn.bias_ih_l0 f4 [204]
00000000: 7717 2a3e f34a e33d 18ca f13d 63f0 1ebd
00000010: ba3d ce3d 045c 163e 8c53 0bbd d393 8d3c
00000020: 27d2 5c3d a1c9 1f3d 71fd ee3d 6fd2 2d3e
00000030: 3082 1f3e 808d d43d b703 b9bd da52 85bd
00000040: 644a 50bd 53d1 103e b55e af3d 190a a03d
00000050: c50e b83d 070f 2b3e f8df e83d f9b7 523d
00000060: 049b fe3c 1308 cab9 4f98 d2bc 8d90 eb3d
00000070: f2b9 043e f4c2 093e 83fb 9dba 7f3e 513d
00000080: 746c 0a3c 91f7 41bc 0ed5 cc3d 0e99 b2bd
00000090: 21de c6bd d352 803c 929f aebc f2cc 263e
000000a0: 8673 273d d372 113d eb74 a73c 1670 97bd
000000b0: ce78 1d3e 65bf 8b3d a8dc 86bb 916f 61bc
000000c0: 647b 8c3d 3211 d53d 7bf3 b7bd 2883 0e3e
000000d0: 94eb 0e3e 77ce 8cbd eda0 8cbd 4d5d 00be
000000e0: f49d 81bd 300d e4bd 3d85 ddbc 7608 f43d
000000f0: 9782 84bd fa70 823d 1acc 043d 2602 a43d
00000100: b3a8 603d a8d9 f83d fe2c d7bc 42f2 583d
00000110: 88ac e63d f975 313d 3a33 8f3d 054a 993c
00000120: cf7f 003e c5a9 66bc 10e3 a6bc 3c68 c83c
00000130: 2ee2 b8bd 0e11 dfbd c537 b03d 8f9d ecbc
00000140: 1d76 033d 413c 1d3e c529 11bd 917f 863d
00000150: acd2 7d3c 2a95 183e c7f2 5dbd d626 923c
00000160: a45e cd3d 414d d0bd 4440 8fbd 3629 ba3c
00000170: 4988 83bd ac88 2dbc d755 143e 3962 643d
00000180: a5f4 6bbd c74a dfbd a409 efbd 335d 85bd
00000190: 6d00 ee3d c837 2b3e 52fd 09be 6294 a9bd
000001a0: 14ca dfbd f136 563d bccb bf3d ddea e13d
000001b0: 19c5 cabc 8013 7c3d 051f f4bd 4ddb 85bc
000001c0: dfd8 3f3e c6c8 273d e62b 6b3d 7ed3 033e
000001d0: 140f b03c 1009 b93d 1ab5 2a3e 304a 0f3d
000001e0: 9af1 bc3d 4c7c 503d f37a 0dbd ad36 323c
000001f0: 6e06 a4ba cf68 8ebd fa9c cebd f050 e73c
00000200: bf6c 3ebd 99be 14bc 3293 533c 5ef9 73bd
00000210: 0600 fd3d b94f b0bd 3abe 0f3d 2c8f 693d
00000220: 92dd 2a3e 5213 0f3e 2f7d 563d 014a 5ebd
00000230: f3d2 9f3d e496 6fbd f49a 16be b0fd 07be
00000240: 653e debd 6c34 c43d 9c86 dd3c 261d 58bd
00000250: 706e 04bd 4642 7fbd 2a32 1ebe f66f afbd
00000260: 015d 35be 0b98 333e 0120 acbd 9a88 7a3e
00000270: 50d8 903c e0b3 083d 6560 883c 4074 443e
00000280: 3d6b 1c3e 9992 383e 185e b73d 557a 8e3c
00000290: 3720 71bd df86 113e 062b a5bd 6d62 153e
000002a0: f046 b73d f6cd 003e 9fcc 25bd 163c 1a3e
000002b0: ca43 1a3e 5ab4 81bc 7a99 aebc 119b e33d
000002c0: 5415 4bbb 1e03 8dbd 1c99 c03d cf30 68bd
000002d0: df55 aa3d 76ab debc 7c28 f13c d3fe 76bd
000002e0: 9824 fd3d 2474 a3bc fb25 433e 3b9f 38bb
000002f0: 66da 1f3d f9ef 2e3e c927 72bd c989 3e3e
00000300: 3be8 023e ba0e 30bd 9918 e63d c66b 6f3c
00000310: f9df 3c3e 6610 2e3e dcc4 303c 40e6 863d
00000320: ff75 ca3c 23c9 d13c 82e4 0c3d 352e b73d
0.16610514 0.1109828 0.118061244 -0.03880347 0.10070367 0.14683539 -0.034015223 0.017282402
0.053911354 0.039010648 0.11669434 0.16974805 0.15577006 0.103785515 -0.09033912 -0.06509943
-0.050852194 0.14142351 0.08562986 0.07814426 0.08987192 0.16704951 0.11370844 0.05144498
0.031079777 -0.00038534458 -0.025707392 0.1150218 0.12961558 0.13453275 -0.0012053106 0.05108499
0.008448709 -0.01183881 0.100015745 -0.08720599 -0.097103365 0.015664494 -0.021316323 0.16289118
0.040881656 0.035509896 0.020441493 -0.073944256 0.15378115 0.06823615 -0.0041156597 -0.01375951
0.068594724 0.1040367 -0.08981987 0.1391722 0.13957053 -0.068753175 -0.06866632 -0.12535591
-0.06328955 -0.11135328 -0.027041072 0.11915676 -0.064702205 0.06369205 0.03242121 0.08008222
0.054848384 0.1215089 -0.026266571 0.05296541 0.112633765 0.043325398 0.069921926 0.018712053
0.12548755 -0.014078562 -0.020371944 0.024463765 -0.09027515 -0.10891925 0.08604387 -0.028883724
0.032095063 0.15355016 -0.035440225 0.065673 0.015492123 0.14900652 -0.05418661 0.017840784
0.10027817 -0.10170985 -0.069946796 0.022724729 -0.06422479 -0.010591667 0.1448587 0.055757735
-0.057606358 -0.109029345 -0.11671761 -0.06511917 0.11621175 0.16720498 -0.1347554 -0.08280255
-0.10927215 0.05229849 0.09365031 0.11031125 -0.024752187 0.061542034 -0.11919979 -0.016339922
0.18735074 0.040962957 0.05741491 0.12873647 0.021491565 0.09034932 0.16670647 0.03498286
0.09225769 0.05089979 -0.03454108 0.010877294 -0.0012514123 -0.069535844 -0.10088535 0.028236836
-0.046490427 -0.009078645 0.012913512 -0.059563987 0.1235352 -0.08608956 0.035093524 0.057021305
0.16686085 0.13972214 0.052365478 -0.054269794 0.07803907 -0.05849351 -0.14707547 -0.13280368
-0.108517446 0.09580311 0.027041726 -0.052762173 -0.032331884 -0.062319063 -0.15448824 -0.08566277
-0.1771126 0.17538469 -0.08404542 0.24466172 0.01768127 0.033374667 0.016647527 0.19184971
0.15275283 0.18024673 0.08953494 0.017392317 -0.058868613 0.14211605 -0.08064847 0.14588328
0.08949077 0.12578568 -0.040478345 0.15061983 0.15064922 -0.015833069 -0.021313418 0.11113561
-0.0030988054 -0.0688536 0.09404203 -0.056687173 0.0831716 -0.027181368 0.02943825 -0.060301613
0.12360495 -0.019952841 0.19057457 -0.002817108 0.03902664 0.1708373 -0.059119973 0.18607248
0.12783901 -0.042982794 0.112351604 0.0146130975 0.18444814 0.16998443 0.010789122 0.065868855
0.024714468 0.025608605 0.03439761 0.0894436

rnn.bias_hh_l0 f4 [204]
00000000: b55d 84bd 38ab 553d 2a1a 153e e37c 103e
00000010: 1d20 153e d00a e93d 9917 d43d 784c 1f3e
00000020: d381 103d 9cbb 123d 9cec 823d 30d0 733d
00000030: e42b 573d a776 c33b 99f3 293e c409 783c
00000040: 0ea4 2e3d 2d34 1e3d 2e7d 453e 9e7a 3e3e
00000050: 48f1 8dbd 2320 8b3d 2d67 e83d 50e3 85bd
00000060: e5f4 27bd 0117 a73d ff16 71bd 168c 843d
00000070: cca7 9ebd 74a0 263d a69d b4bc 2364 15bd
00000080: 2701 683d 0499 66bd dabc 1b3e b93c 573d
00000090: cd72 353e 7216 183e db30 debd 5925 2d3e
000000a0: 8bc1 173e 539f b5bd 897c 133d df21 a9bd
000000b0: 40d1 2f3e be1f 8dbd f703 77bd d6c7 333e
000000c0: 6d29 19bd bb9a 373e 7c5f 093e e815 d83c
000000d0: f02e 193e 9d0f 833c fe07 993d a3a0 a53d
000000e0: 0be2 e63c 4afc cfbd 98fa 293c 5a27 b2bd
000000f0: 87f8 cdbc f385 22bd 19b2 9a3d d556 8dbd
00000100: 8fd0 8f3d ca95 52bb 36f9 1bbe 8a81 6c3d
00000110: 0abf 8a3d bd32 0f3e 6be5 123e 27bf e4bd
00000120: 4f13 b8bd 372d e4bd 79c5 dabd c8b4 1b3e
00000130: 6814 123e f275 d63d 09d6 693d 4a46 453d
00000140: 9460 053e 6a07 99bd 114a 9abc fea0 b0bc
00000150: 491b f53d a7a8 583d 31d5 d3bd 4adb 15bd
00000160: 8b47 c7bd c9ba 9a3d 35a5 da3d 293f 503d
00000170: 42bf 47bd 29d1 45bb 41da 96bd 7601 f93d
00000180: 1c46 d4bc c248 403c 7866 f63c 7cb7 94bc
00000190: df77 8f3d 1a18 213e eaa6 fbbd facb 9a3d
000001a0: bb5a 3d3d 2f11 8b3d 38e5 c33d 0555 003e
000001b0: cb39 193e 878c a13d 1766 f8bd 4d15 01be
000001c0: aca9 54bd 250e f6bd c480 57bd 3fa0 213e
000001d0: 10b2 803d b69d 9bbd 9ccb 5abd 0b57 d9bc
000001e0: e4e6 2fbe 2662 d33d 5139 84bd 3387 f4bd
000001f0: 48f5 a6bd c134 bd3c 438f 17be 801b b43d
00000200: 0209 043e 46c3 87bd aa88 183e 9e23 a7bd
00000210: 6313 de3c fbe4 163e 60f9 923d 3a25 0cbe
00000220: 5eb4 fcbc fe32 143e b81d 833d 579b 1b3e
00000230: 0986 fa3c 4e06 b1bc 0fb4 e83c 6f4c 16be
00000240: 0bff 403c 99b4 0a3d 93f0 843d 4d46 403d
00000250: 0a27 143e 019f 0abd 2947 6ebd 6865 a2bd
00000260: 30b7 4e3c 4819 253d 3f1b d13d 52dc 063e
00000270: b32a f43d a6d5 503d c92c 36bc 8661 adbb
00000280: 56da ab3d 39e1 76bd f8cf 2d3e c510 763c
00000290: 0a5e 133e af4a 52bc e08b 183d d10b 163b
000002a0: 18bc 98bd 6aad a3bd cea7 1a3c b571 a3bc
000002b0: 20ef b6bd ae29 4cbd b196 863d beaf 373d
000002c0: 36e8 863d a57e 923d 684e bb3d 5f89 aebd
000002d0: 1500 6e3d f021 1cbc 7349 64bd cb1b 8f3d
000002e0: 7ea4 1c3e 2bf7 a5bd 4e59 c43c 3b2c c03c
000002f0: 409b e83c 4cab d1bc 7587 993d b2f5 6abd
00000300: ae80 ea3d bac2 493d a5a9 a6bd 4116 9d3d
00000310: 0a4b 413e 46af 173e 0076 44bd 48aa 163d
00000320: e856 813d cf23 ce3d 4d8d 873d b530 a83d
-0.06463186 0.05216524 0.14560762 0.1411014 0.14563031 0.113790154 0.103560634 0.15556514
0.03528006 0.03582345 0.06392786 0.059524715 0.05253209 0.005965072 0.16596831 0.015139047
0.042636923 0.038623977 0.19286034 0.18601462 -0.06930786 0.06793239 0.11347804 -0.06537497
-0.041005034 0.081586845 -0.05885982 0.06472032 -0.077468485 0.040680364 -0.022047829 -0.03647245
0.056641724 -0.05629827 0.1520876 0.052548144 0.17719574 0.14852312 -0.10849162 0.16908778
0.14819925 -0.08868279 0.036007438 -0.082584135 0.17169666 -0.0689082 -0.060306516 0.175567
-0.037393022 0.17930119 0.1341533 0.026377633 0.14959311 0.015998656 0.074722275 0.0808728
0.028183958 -0.10155542 0.010374688 -0.08698912 -0.025142921 -0.039678525 0.07553501 -0.069013275
0.07022201 -0.0032132738 -0.15231785 0.057740726 0.06774719 0.13984199 0.14345329 -0.11169272
-0.08988058 -0.111414365 -0.10682196 0.15205681 0.14265597 0.10471715 0.057088885 0.048162736
0.13025123 -0.07472117 -0.018834146 -0.021561142 0.11968095 0.052895214 -0.103433974 -0.036586083
-0.097304426 0.07555158 0.10676042 0.050841484 -0.048766382 -0.0030184484 -0.073658474 0.12158482
-0.025912337 0.011736097 0.030078158 -0.018153898 0.070052855 0.1573185 -0.12287696 0.07558437
0.046229105 0.06790387 0.095652044 0.12532432 0.14963453 0.078881316 -0.12128847 -0.12605782
-0.051919624 -0.120144166 -0.052613035 0.15783785 0.06283963 -0.0759844 -0.053416833 -0.026530763
-0.17177922 0.10321455 -0.06456245 -0.1193985 -0.081522524 0.023096444 -0.14800744 0.08794308
0.12894061 -0.06629042 0.14895883 -0.0816109 0.027108854 0.14735787 0.07176471 -0.13686076
-0.030847725 0.14472577 0.06402153 0.15195976 0.030581491 -0.021609452 0.028406171 -0.14677595
0.011779557 0.033863638 0.064911984 0.046942044 0.14468017 -0.033843044 -0.058173332 -0.07929498
0.0126169175 0.040307313 0.10210275 0.13169983 0.11922207 0.050985 -0.011119076 -0.0052911667
0.08391254 -0.060273383 0.16973865 0.015018647 0.14391342 -0.012835189 0.03724277 0.0022895227
-0.07457751 -0.079920605 0.009439422 -0.01995168 -0.08932328 -0.049844436 0.06571711 0.044845335
0.065872595 0.07153062 0.09145814 -0.08522295 0.058105547 -0.009529576 -0.05573411 0.06987723
0.15297124 -0.08103784 0.023968365 0.02345859 0.028394341 -0.025594376 0.074965395 -0.05736322
0.11450325 0.04925797 -0.08137826 0.0767026 0.18876281 0.14812955 -0.047964096 0.036783487
0.06315404 0.10065424 0.06618748 0.08212415

rnn.weight_ih_l1 f4 [204, 51]
00000000: 5c10 94bd 7822 d5bd f704 523d db50 b83e
00000010: 8735 043e 7a8a ba3d 396b 083e 79a8 7d3d
00000020: 2f0c 0bbe 24b1 febd 49d7 25bb fd88 c2bc
00000030: 0ce7 f9bb 90b1 00bc 8350 9c3d 4f5b de3d
00000040: e258 153e 2705 09bd 3c42 1f3d 8942 c1bd
00000050: 2af7 d73c b14c d93d 9801 17be 98ac 2bbe
00000060: 7aa4 8ebd 58ad 253c d930 3d3e 5eed ebbd
00000070: a8bd c53d d56b c6bd c935 003e ac51 fbbc
00000080: acfe 93bd 4782 37bd 30b4 75bc bf3b 56bd
00000090: e68a 9d3d 8c8c 0c3e 762c 74bc 9b76 aa3c
000000a0: 533a d9bd c8ba 29bd a72c 0cbd 574d 7e3e
000000b0: 8d5e 0cbd 240a 0ebd 7cc3 d33e 0bc5 5f3d
000000c0: 23b8 04be aad4 1a3d 3cf2 013d 376f 59be
000000d0: 2c3b 83b9 0466 1abd af56 a3bd f256 40bd
000000e0: bfa5 8d3e 876f 033d 803c f93b d80b 7f3d
000000f0: c2e4 b3bd 9dc3 563e db63 9abb 4df3 0d3d
00000100: 37bb a9bb 46db 143e 300b 48be c983 583e
00000110: c0c8 5bbd 246d 88be 9c9e 36be 9d79 43bc
00000120: 8cdb 713e bd06 7dbe 839f ea3d 6141 ce3c
00000130: 2c2e 4a3d 4351 7bbd 47d6 6bbe ca7c 23bc
00000140: 409a 41be 2d97 3bbe 2cc2 5f3e 536f ecbd
00000150: 2820 383e 8db0 8cbd 9c0b 68be 3b4d b8bd
00000160: 1559 f6bc 838f 763e 4409 6e3e 4af2 ba3d
00000170: fef8 7cbc 57ac 16be 36b6 203c 42ff 783c
00000180: bbda 56be 423a 993d 39ef df3d ecbf 72be
00000190: e9ab 123c 2bd0 033b 1cb2 5cbc ac04 fe3d
000001a0: dfed 59bd 3ace c5bb 6055 c6bd 2c0f 6c3d
000001b0: 1628 74be 4749 2e3e f43b 15be da1b 0a3c
000001c0: b4a5 3e3e d989 96be 2e36 013c 50c9 a8bd
000001d0: b3be 823c 432a cbbc 5852 2f3e 901c 6dbd
000001e0: 4c46 08be b2fd 243d f3cc 1ebd bac7 203e
000001f0: 202b 8cbe 0b37 d93d 98de e2bd ee2f c3bc
00000200: b266 cebc c4f0 be3c bcfb 7ebd 5b15 1cbe
00000210: 5eb1 7cbe 0f33 053e 3891 0fbe c63b 05bd
00000220: 8cd2 7fbe 0327 e6bd 09bd 99be aa13 7d3d
00000230: 6aa1 803c 40b7 073e 6e9e 8e3e cce2 9cbc
00000240: a944 05be 2d45 413e b6be e33d 21cc 2cbb
00000250: 73f0 85ba 4e3d b93e 4c0a 5fbe e57a 893d
00000260: f8c3 f8bd 0d3e 2fbe 3d29 873e a8aa edbd
00000270: 829f a43d c83e 81bd 3251 903d 6062 81bd
00000280: 06fb 2a3d af1c 9e3d 80f6 90bd ccbd 813e
00000290: bd5b 27bd 5497 8b3d 715b dbbd a5e6 84bb
000002a0: 0d74 cebd f295 cb3d 811d 9ebd 377c 8dbe
000002b0: 5737 853c 8fd3 833a bc78 97bd 0f67 95be
000002c0: 6c8d d4bd 4bd8 56bd d74d 1b3e ecaa 14bc
000002d0: 74c4 44be b00a 143d af21 1abd 09c3 03be
000002e0: dc08 a23e 84a4 c43c 5bd8 91bd b443 f7bb
000002f0: b89e 173d 2fb2 f0bd 544d e03c cdd3 783e
00000300: 7f21 943d 69e0 a93d 442d 543d da1c 923d
00000310: 491f b93d c69c 453d 8d69 38be a989 8ebd
00000320: cff4 f03d 538b d4bd 90ec 1d3d ca6b 3bbe
00000330: 2d70 853b db65 45bd c607 0e3d 1d29 713d
00000340: e664 5ebe 1707 0a3e 5a8d 27be 29fd 743d
00000350: 0718 bb3a a2a5 093c 64e6 a03d 4c7a 70bc
00000360: 7a73 493e 4786 03bd 48f5 623d 66d8 ccbc
00000370: 4314 123e 1785 4ebd 0bd2 26be 8fcb d33c
00000380: 32af a03d efb5 213e 97c6 06be c0c2 3b3c
00000390: 157e 253d cf73 6e3d 54b7 ceba 9c50 5dbe
000003a0: 6cb9 4fbe 9020 c6bd 82d0 b6bd 803e 963d
000003b0: b1ea 7bbe 8a67 48bd c4df 0b3d e182 9fbd
000003c0: a980 44be e2e1 1dbe a6aa cebb dcc5 f33d
000003d0: 13ab 7d3e c82c 6dbd 0545 ddbd 4ead 393e
000003e0: ad05 023e 3cf8 dfbc f76f e3bc dc28 a93e
000003f0: 7dd3 6abc 79bf 663e 1a11 53be df12 bcbd
-0.07229683 -0.10406965 0.051274266 0.35999188 0.12911044 0.091084436 0.13322152 0.061928246
-0.13578866 -0.12436131 -0.0025305322 -0.023746962 -0.00762642 -0.007854834 0.07632544 0.108572595
0.14584687 -0.03345218 0.038881525 -0.09436519 0.026362974 0.10610331 -0.14746702 -0.16765058
-0.06964965 0.010112129 0.18475665 -0.115198836 0.09655315 -0.09688536 0.12520517 -0.030678593
-0.07226309 -0.044801977 -0.014996573 -0.052303072 0.076925084 0.1372549 -0.014903178 0.020808509
-0.106068276 -0.041437894 -0.03422227 0.2483419 -0.03426986 -0.03467764 0.4136008 0.054631274
-0.12960868 0.03780047 0.031725153 -0.21233831 -0.00025030354 -0.037694946 -0.07975518 -0.046957918
0.27665517 0.032088783 0.007606089 0.062267154 -0.087838665 0.20973058 -0.0047116107 0.034655858
-0.0051797885 0.14536771 -0.19535518 0.21144022 -0.053658247 -0.26645768 -0.17833942 -0.01193085
0.23618907 -0.24709602 0.11456206 0.02517766 0.04936044 -0.061356794 -0.23030959 -0.0099784825
-0.18906498 -0.18319388 0.21851414 -0.11544671 0.17981017 -0.06869612 -0.22660679 -0.089991055
-0.030071774 0.24078183 0.23245722 0.09128244 -0.015440224 -0.1471418 0.0098090675 0.015197577
-0.20981877 0.07481815 0.109343 -0.23706025 0.008952119 0.0020113091 -0.013470199 0.12403235
-0.053205367 -0.006036547 -0.09684253 0.057631657 -0.23843417 0.1702014 -0.14573652 0.008429492
0.18617898 -0.29402044 0.007886453 -0.08241522 0.015960073 -0.024800425 0.17121255 -0.057888567
-0.13308066 0.040281005 -0.038769674 0.1570119 -0.27376652 0.10606202 -0.11077613 -0.023826566
-0.025195453 0.023308165 -0.06225179 -0.15242521 -0.24677035 0.13007759 -0.1402024 -0.032527708
-0.24982661 -0.1123791 -0.30027035 0.06178633 0.015701968 0.13253498 0.27855247 -0.019151114
-0.13014473 0.18874045 0.111203596 -0.0026366787 -0.0010218754 0.36179584 -0.21781272 0.067128934
-0.12146753 -0.17113514 0.2639865 -0.11604816 0.08038236 -0.06310803 0.07046737 -0.06317592
0.0417433 0.07720315 -0.07078266 0.25340116 -0.040858973 0.06815973 -0.107108004 -0.0040558153
-0.10080729 0.09940709 -0.07720471 -0.2763383 0.01626174 0.0010057556 -0.07396075 -0.2918019
-0.103785366 -0.052452367 0.15166412 -0.009073954 -0.19215566 0.036143005 -0.03762978 -0.12867369
0.31647384 0.024004228 -0.07121345 -0.0075459126 0.0370166 -0.11752736 0.027380623 0.24299546
0.072329514 0.08294756 0.05180098 0.07134409 0.0903917 0.048245214 -0.18009014 -0.0695985
0.117654435 -0.103781365 0.03855568 -0.18302837 0.0040722103 -0.04819284 0.034675382 0.0588771
-0.21718177 0.13479267 -0.16362515 0.059811745 0.0014274128 0.008401306 0.078564435 -0.014677595
0.19672957 -0.03211048 0.0554097 -0.02500553 0.14265542 -0.050419893 -0.16291063 0.0258539
0.07845916 0.15792058 -0.13161694 0.011460006 0.040403444 0.058215912 -0.0015771189 -0.21612781
-0.20285577 -0.096741796 -0.089264885 0.0733614 -0.24601246 -0.048926868 0.034148946 -0.07788635
-0.19189705 -0.15418199 -0.006306964 0.11902973 0.24772291 -0.057904035 -0.1080418 0.18132517
0.12697478 -0.027340047 -0.02776335 0.33038986 -0.014332649 0.22533979 -0.20611992 -0.09183287

rnn.weight_hh_l1 f4 [204, 51]
00000000: 2f9f 0fbe af66 c83c eb10 c5bd 9fe2 843d
00000010: 1991 8f3d 89a8 233e e6fe b8bd 78b1 c6bd
00000020: ca93 0d3d 2891 b23c ef1f 16be 4017 d53d
00000030: 768a 093e 04f6 6ebd ce4f 8d3d d10a 74bc
00000040: 13a3 fcbb 9748 1f3e ae05 163e 07a2 123c
00000050: 4e26 2a3e 1d7b 0ebd e7e7 09be a69c f13d
00000060: cc33 82bd 650a c6bd 8efb 3f3d 4c75 36bd
00000070: 0b6e e63d e43a 33bd edd4 18be 761f 7a3d
00000080: fb28 c3bc 9980 50bb f2ea cc3c 5d1a 7ebd
00000090: 406d 023d 57e0 ccbd 25ea c9bd 3ab5 25be
000000a0: 2c6e 19be 0351 ddbc fcaa 5dbd c130 fdbd
000000b0: dece 0a3e 9744 2abc 867c 87bd 05bb efbd
000000c0: 5905 aabc e0d4 003c ec61 ac3d 0ec5 533d
000000d0: 72d6 a53d ebb1 273e 0cbe 2c3e 083d e43b
000000e0: bcef a73d 64af 863d 5ae6 39bb 7575 51bc
000000f0: 28ba 20be 1675 d23d 18ae 9bbd b88c 5b3c
00000100: 8c0d aa3d b143 423e 356c 033e ec71 f03c
00000110: cf59 74bd e3a4 153e 94f6 1a3e 1de3 433b
00000120: 99b6 fc3c c430 abbd a090 00be 03cb 9dbb
00000130: 0871 bbbd 8446 afbd 4fb6 d8bc cedf 5b3c
00000140: 053c 00be 4b90 81bc a7ab 213c a369 203e
00000150: d81f 4cbd fd0f f13c 2751 f23c 2741 08be
00000160: 3d8a 1b3c 7183 0ebe c0f9 41bd 3003 1fbb
00000170: 65cd 483d c8cf 123c 917c 34bd 11b3 b6bd
00000180: b5e1 883d 5623 073e 55f2 6fbd 6488 8abd
00000190: c002 45be 7004 963d a976 0abe cef4 38be
000001a0: 9c4f 58bd b437 0e3e 31dd 8c3d 88f2 babc
000001b0: 158b 1fbc 878f 0fbe ae42 a0bd 46d1 f03d
000001c0: 4b47 833c c835 00be c88d 013d 82f8 d73d
000001d0: 7662 06bd 7bb0 01bc ed90 943d 5968 333e
000001e0: cb4b 663d 8e6e b2bd 2558 b6bc 649d 7bb9
000001f0: 24df c1bc 85e0 cabd ab57 8b3c cbc3 1e3d
00000200: fc66 b1bb bfff 9b3d bed3 0f3e 6538 96bd
00000210: ae6e 4f3d f03a 4b3d 1397 31bd 48a6 fd3d
00000220: e3bf 08be b691 0cbe 5611 c1bd 0076 2dbe
00000230: 221c 2a3e c45c 0dbd 5f85 47be 9dc4 5a3d
00000240: 1f99 aa3d a9e5 893b 8238 80bd 45a6 513d
00000250: 4748 53bd c6dc a23c 8438 a63d a600 44bd
00000260: 8222 df3b 2415 68bc 9c96 65bd e487 823e
00000270: 396b dfbd 2d73 403e 1714 ff3b f7fd dd3d
00000280: 9232 32bd 041a cbbd 4e6f c3bd e976 42be
00000290: 35c6 223d 49aa 813d 9e15 21be 33b4 c33d
000002a0: 9263 953c 6cf3 a5bd 5b92 99bc 4fbe c6bd
000002b0: 87fc f4bb 34ca b5bd 17d7 64bd 68fb 32be
000002c0: fe44 f03c 6609 85be 3ec6 4fbd 5fdc b8bc
000002d0: e52b c13d 39de 933d d6da 96bc 6048 39bd
000002e0: 19b5 f13d 5979 8ebc 71aa 76bd ef19 833d
000002f0: 1b6d 21bd 6f8f 29be ee05 3abe d378 ba3d
00000300: 7292 74bc 97e5 dc3b c0a3 a93d 4442 5e3e
00000310: 01cb 9c3d 9d63 d8bd 1c43 733c 095c 86bd
00000320: 51ae 0a3d 00be 88bc 7c04 2ebe 58a2 92bc
00000330: b0bd a0bd 0491 99bc dda6 26bd b677 883d
00000340: 8a98 7e3c f81b f5bc 004e 2f3e d837 1fbe
00000350: 3b47 f8bc b2df a83c b211 fdbc ae86 57bd
00000360: d4e1 193e d2c8 59bd 0120 523d c5b2 8cbd
00000370: 08a1 9fbc b2d7 b0bc 7807 c63d 86a9 1ebd
00000380: e11d 693d 611d 97bd 44f7 73bd 41a2 f1bc
00000390: 5531 30be 094e 99bd a4bc b7bd a5c5 e73b
000003a0: 2527 483d 5aab 123e 3bd8 28be 10f4 c03d
000003b0: 7257 88bd 3dca 3cbd 063e bb3b db3a 50bd
000003c0: dd0d 913d 5d29 d5bd 4633 93bd 3c74 d2bd
000003d0: 60e0 d6bd a168 343d 1f00 80bc 43ce f83c
000003e0: c4ef 05be ba50 933d a1c8 4f3c 6ca1 063d
000003f0: 7d5b dbbc 2314 23bd 3e90 86bd df6a d4bd
-0.14025567 0.024463026 -0.096223675 0.06488537 0.07010097 0.1598226 -0.09032993 -0.09701818
0.03456477 0.021797732 -0.14660619 0.10404825 0.13431725 -0.058340088 0.06899987 -0.014895157
-0.0077098696 0.15555035 0.14650604 0.008949763 0.16616175 -0.03478538 -0.1346737 0.117974564
-0.06357536 -0.09669951 0.04687076 -0.044545457 0.11251458 -0.043757334 -0.14924975 0.06106516
-0.023823252 -0.0031814931 0.025014374 -0.06203686 0.03184247 -0.10003727 -0.09859113 -0.16182414
-0.14983433 -0.027016168 -0.05411814 -0.12362815 0.13555476 -0.01039233 -0.06615548 -0.11705593
-0.020754503 0.007863253 0.084171146 0.051701598 0.08097543 0.16376464 0.16869372 0.0069652833
0.082000226 0.06576422 -0.002836606 -0.012784352 -0.15696013 0.102762386 -0.07601565 0.013400249
0.08303365 0.18971135 0.12834246 0.029351197 -0.05965596 0.1461368 0.15133125 0.0029890009
0.030848788 -0.08358911 -0.1255517 -0.0048154606 -0.091524184 -0.08558372 -0.026454119 0.013420058
-0.12522896 -0.015815875 0.009867585 0.15665297 -0.049835056 0.02942657 0.029579712 -0.13306104
0.009493408 -0.13917328 -0.04735732 -0.0024263375 0.049024004 0.008960672 -0.04406411 -0.08920873
0.06683675 0.13197073 -0.058580715 -0.06764296 -0.1923933 0.07325065 -0.13521828 -0.18062136
-0.052810296 0.13888437 0.068781264 -0.022820726 -0.00973775 -0.14019595 -0.07825218 0.11758666
0.016025206 -0.12520516 0.031629354 0.10545446 -0.032808743 -0.007915611 0.07254205 0.17520274
0.056224626 -0.08712493 -0.022258827 -0.00023995858 -0.023665972 -0.09906105 0.017009577 0.03876094
-0.005413888 0.07617139 0.14045617 -0.07334975 0.05064266 0.049616754 -0.043356966 0.12385231
-0.13354449 -0.1372746 -0.09427135 -0.16939545 0.16612294 -0.034512296 -0.19484471 0.05341016
0.08329987 0.004208286 -0.06260778 0.051183958 -0.0515826 0.019880664 0.08116248 -0.04785218
0.0068095336 -0.014165197 -0.056051835 0.254943 -0.10909123 0.18793936 0.0077843773 0.108394556
-0.04350526 -0.099170715 -0.09542714 -0.18990673 0.039739806 0.063313074 -0.15730903 0.09555855
0.018235955 -0.0810307 -0.018746546 -0.09704267 -0.0074763927 -0.08876458 -0.05586919 -0.17478716
0.029329773 -0.25983733 -0.050726168 -0.022566019 0.094322 0.0722012 -0.018414896 -0.045235038
0.1180212 -0.017391847 -0.06022114 0.06401431 -0.03941069 -0.16558622 -0.18166324 0.09105077
-0.014927493 0.0067412364 0.08283186 0.21704966 0.076559074 -0.10565875 0.014847543 -0.06560523
0.033857647 -0.016692162 -0.16993898 -0.017899677 -0.0784868 -0.018745907 -0.040686477 0.06663458
0.015539298 -0.029920563 0.17119598 -0.15548646 -0.030307403 0.020614479 -0.030892227 -0.052618675
0.15027553 -0.053170033 0.051300053 -0.06870035 -0.019485965 -0.021587227 0.09669393 -0.03873589
0.05691326 -0.073786505 -0.059561983 -0.029496314 -0.17206319 -0.07485587 -0.08971527 0.0070731216
0.048865456 0.14323178 -0.16488735 0.09421551 -0.06657304 -0.046091307 0.005714181 -0.05083738
0.07082722 -0.1040828 -0.07187514 -0.10276076 -0.10492015 0.044045094 -0.015625058 0.03037179
-0.13079745 0.07193132 0.012682111 0.032868788 -0.026777023 -0.039814126 -0.06570481 -0.103719465

rnn.bias_ih_l1 f4 [204]
00000000: eefb 7a3b 4fb7 ae3c 41d7 923d ba84 223e
00000010: 0098 fe3d 9532 14bc c45a fabc e956 133e
00000020: 6de0 1c3e 0ece cd3d 418e ddbc 7afe aebd
00000030: 6f25 003e 159a 013e 5f44 7ebc 1641 3fbc
00000040: 1860 d33d 4e91 243d 14af c73d b8d6 a3bd
00000050: b78f 033b 4c41 97bd 3795 483e bda2 a439
00000060: 6160 ed3d 6035 1e3e 3b69 f3bc 0eec 053e
00000070: 045f 83bd 20e9 4c3e 5747 25bc 29d7 2a3e
00000080: 86f1 1a3e 1cbb 853c 5bb4 45bc d3fa d13d
00000090: 9941 a8bd 78e3 9fbd 0717 f23d 778f 11bd
000000a0: fa5d b6bd d64e 383e 4ff5 083d 2d40 86bd
000000b0: d27b 4b3d 5de8 e53c 0d13 a33d 5b17 c1bd
000000c0: b16c 02bd d487 f03d 6b8e 8b3d 508c 0a3d
000000d0: 1f80 95bc 4303 dd3c 672f babd 9d07 013e
000000e0: 812d 473d cf71 c03c 049e 483d 42ee 69bd
000000f0: 4c46 aa3d ea7f 86bd cbe1 1a3e ea58 483d
00000100: 0c1d b23c ae19 a03c 5299 023e a2b7 073e
00000110: 13e5 0b3e 9515 f3bb 1ad1 ad3d 4a48 e1bd
00000120: 4b79 c13d 6062 cb3d 6d26 f0bc af5e 343d
00000130: 2c70 c13d 9b55 92bc 5b93 053e d154 8a3d
00000140: 1820 c63c 58a0 a5bb 90e1 ef3d 561e 923d
00000150: 66bf 5abc ae2b d23d ad76 743d 5712 68bd
00000160: 3d2a af3d d351 3b3d 7b8f 2a3e 311c 7ebd
00000170: 3189 1a3c f669 553c 0e73 0b3e ba59 f13d
00000180: 1f0e ccbd 099c 9f3c 46de 3abd 03c7 303e
00000190: 8c36 113c 2c54 233e 23c4 f7bd 52cd 023d
000001a0: c76e d7bd 5422 5dbd 6be4 143e 3e8b 9c3d
000001b0: bca1 3ebd a73e d5bd 82ce bcbd 64f7 d03c
000001c0: 1566 0b3e a7cc 703c 957c af3d 358e e7bd
000001d0: 3e1c c13d 6dc3 bb3d c613 0c3d ebd8 0e3e
000001e0: afab a93d eb03 903d f0b6 1c3e 8ca7 8b3d
000001f0: 9407 25be 428b 063d ecab 0ebc d138 a7bc
00000200: 1cb4 88bd 1b22 263e 4b7c ba3d d801 073d
00000210: 1770 29be 271f e53d 3c7a 2d3e 8f2a af3c
00000220: a3f9 f53d 02db b1bc 2c27 e0bd e5c2 a9bd
00000230: 29ae 01be afb7 13be 14b3 13be 03d3 14be
00000240: 3d9b c2bd 0d1f cbbc bdb3 633c b085 453d
00000250: d286 b23d 5418 2fbd e22b 363d 6e53 72bd
00000260: fd36 08bc 6366 9c3c e431 503d feb9 033d
00000270: 961b c53d 18e4 ba3b 9867 0d3e fb4b 703d
00000280: 4978 d43d cc48 313d 460d abbc 2fea 4a3e
00000290: 3fe3 2ebd e4f6 b43d 63bc 113e abb4 1b3e
000002a0: 5a84 d63d 24f1 ae3d a0c9 ea3d d448 0f3d
000002b0: b824 8ebd 47c8 96bd 8d56 183c a221 4d3e
000002c0: b15b 013e 3763 063e 9f7b 9d3d 066c e1bc
000002d0: a3ad 173b e899 25bc 8dc4 063e 5e30 8bbd
000002e0: 04d6 413e e9f4 ba3d af2f 363e b356 e03d
000002f0: adf1 8b3d 1d24 203d 87e6 56bd 65fa 523d
00000300: 992b 613c 806f a63c 3ba9 3d3d fad0 323d
00000310: 7a9a f43d 8f2f 1a3d 33a1 e23a e99e 9a3c
00000320: e2db cabd 14cd 373e 9b91 363d 8bfa 7f3c
0.0038297134 0.021327643 0.07169963 0.15870944 0.124313354 -0.009045263 -0.030560859 0.14388622
0.15319987 0.100490674 -0.027045371 -0.08544631 0.1251428 0.12656434 -0.015519231 -0.011673233
0.10321063 0.040177636 0.097501904 -0.07999939 0.0020074674 -0.07385501 0.19588171 0.00031401767
0.115906484 0.15450048 -0.029713264 0.13078329 -0.06414607 0.20010805 -0.0100878095 0.1668364
0.15131196 0.016324572 -0.012066926 0.10252919 -0.08215637 -0.07807058 0.11820798 -0.03553721
-0.08904643 0.17998824 0.03343707 -0.06555209 0.04967863 0.028064901 0.07962618 -0.09428283
-0.031841937 0.11744657 0.068142734 0.03382522 -0.01824957 0.026979094 -0.090910725 0.1260056
0.04862738 0.023491768 0.04897882 -0.057111986 0.08314189 -0.065673664 0.15125196 0.04891292
0.021742366 0.019543495 0.127538 0.13253644 0.13661604 -0.0074183443 0.084871486 -0.11000116
0.09446963 0.09930873 -0.029315198 0.04403561 0.09445223 -0.017863085 0.13044493 0.06754459
0.024185225 -0.005054515 0.117129445 0.07134692 -0.013351297 0.102622375 0.05968349 -0.056658115
0.08552978 0.04573233 0.16656296 -0.062038604 0.009432123 0.013025751 0.13618109 0.11784692
-0.09963631 0.019483583 -0.045622133 0.17263417 0.008863103 0.15950078 -0.12097957 0.03193409
-0.10519176 -0.053987816 0.1454026 0.07643746 -0.04654096 -0.104123406 -0.09219076 0.02550859
0.1361316 0.01469723 0.08568684 -0.11306421 0.09429215 0.09168134 0.034198545 0.13949935
0.08284699 0.07031997 0.1530416 0.068190664 -0.16116172 0.03284765 -0.008707982 -0.020412834
-0.06674978 0.16223948 0.09105738 0.032960743 -0.16546665 0.111875825 0.1694116 0.021382598
0.12010505 -0.021710876 -0.109449714 -0.08289126 -0.12664093 -0.14425538 -0.14423782 -0.1453362
-0.095022656 -0.02479508 0.013897833 0.048223197 0.08717121 -0.04274781 0.044475444 -0.059161596
-0.0083138915 0.01909179 0.05082883 0.032159798 0.09624402 0.0057034604 0.13809049 0.05866621
0.10374505 0.043282315 -0.020880353 0.19815896 -0.042697188 0.08836153 0.1423202 0.15205638
0.10474463 0.08542088 0.11464238 0.034981564 -0.06940597 -0.073624186 0.009297979 0.20032361
0.12632634 0.13123785 0.076895945 -0.02751733 0.0023144267 -0.010107495 0.13160916 -0.06796335
0.18929297 0.09128744 0.17791627 0.109540366 0.06833205 0.03909694 -0.05246594 0.051508326
0.013743305 0.02031684 0.04630397 0.043656327 0.119435266 0.03764301 0.0017290473 0.018874602
-0.099052206 0.17949325 0.044572454 0.015623699

rnn.bias_hh_l1 f4 [204]
00000000: d753 043e 558a 3fbd f120 873d c86c 5e3d
00000010: 0961 0c3e 6b6a 1c3c a020 9c3d 3020 27bd
00000020: 9c51 d4bd 8d39 c0bc 6f34 a8bc 5a63 33bd
00000030: 5b87 073e 305c c93c b2e3 2ebd e924 213e
00000040: 1a39 47bd bf45 e43d d35d 343e 0a84 42bd
00000050: ba2a d13d 317f 9ebd 9a52 c63d 37fb a3bc
00000060: 1dcd e43c 24d3 613d 495d 633c cbaf aabd
00000070: 782e b53d 8e69 103e 9b64 373d 80f9 c73d
00000080: a8a0 54bd 6e09 3e3e ad17 333e b160 37bd
00000090: 16dc 87bd ecf8 a8bd 070d 23bc ee42 6c3d
000000a0: d39d 4fbd 7ebf 75bc 860a d1bc ffa7 023e
000000b0: 488d 473c ccad 1f3d 2715 223e 9a9f 103d
000000c0: 7081 263e 1c5c 2a3d 1aec 183e 4c79 44bb
000000d0: 8e2f 853d 2192 91bd 7608 8c3d 2edc 923d
000000e0: f7b3 21bd b057 75bd d619 8abd fe46 c2bd
000000f0: 85d2 ccbd ee8a 88bd 65f3 233e 4f85 58bd
00000100: 6a48 21bd 790a 2d3e 33ea 203e f5ef a83d
00000110: bea8 b33d a770 c6bd 47f0 9e3d f59c c23d
00000120: 64d0 0f3e a0ce 58bd 75ab aa3c 4bfe 06be
00000130: 13d6 5dbd c2a6 083e 0305 0a3e 26e5 073e
00000140: 2c4c fb3d 13a9 f4bc 8988 c83d 1473 223c
00000150: 7f8d 843c 14f9 a23d 74ce 5c3d 2ef6 833c
00000160: c906 93bd 5d30 3dbd 6385 5cbd 6c39 2fbd
00000170: 0301 ec3d 19c0 fd3c a425 d73d 65c1 d6bb
00000180: 0062 283d fe07 88bd fea9 c9bd c860 e13c
00000190: 7531 2dbd cae0 a5bd 1ecb f4bd 9f1b 0cbd
000001a0: e7eb 87bd 643b c33d c116 533d 8f03 1f3e
000001b0: 2362 91bb c4d1 28be 795f 483d a15f a6bd
000001c0: 3a94 d7bd c4a7 e13d a2d6 2e39 ba72 45bc
000001d0: e07b c83d f5eb 9ebd 126c db3d d1dd 9dbd
000001e0: f3a4 bb3d 1ed8 95bc c8db bb3d a2fc 0abe
000001f0: 0fca 92bd 1c65 95bd c7cd 00be 0a8c 28bd
00000200: 667e 9cbc c3d0 d43d 348e 1d3e 469b b3bd
00000210: c34a 0d3d 6306 d33c 98ee 0f3e b8d9 143e
00000220: b45c 133e c4b9 26be b95f 20be ac8a c73c
00000230: 5b4d c4bd 5370 07be 34cd cb3d 4baf b73c
00000240: 59ce a3bd 5184 05be cbe0 c23d 29c1 88bd
00000250: 4c3b b23d 2229 6abd 37f6 a43d 6f7f 883c
00000260: 74a5 d8bd f428 cd3d db2b 833d 70e5 283e
00000270: 33f0 0f3e aaaa ea3d 7e29 92bd 75c2 ea3d
00000280: 9f5f 1c3e 5dc3 393d fb1c 443e cba4 ad3a
00000290: 55b4 c8bc d573 8ebd 62a5 f43d 05d7 3f3e
000002a0: a167 0b3e 1cf1 423d 6239 b53b 6128 3a3e
000002b0: 3217 ec3a 299e dc3d dd10 01bd f289 bdbc
000002c0: 5269 083e c296 cdbd ca85 493e 4d4e a33d
000002d0: eb0e da3d f959 223e e65d 073e 2a78 adbd
000002e0: 797f 23bd a9b0 b03c 4651 2cbc bba0 293c
000002f0: 5449 c23d 1d2f 153e e1e0 5abd 8f4e 923b
00000300: 6bb3 073e 3805 39bd 1de6 243e 6aa3 0ebe
00000310: 59ab cd3c b67f 7f3d 30a5 c0bd 9860 c7bc
00000320: cbcd 023e 742b 5d3d 0080 55bc a550 043e
0.12922607 -0.046762783 0.0659808 0.05430296 0.13708891 0.009546856 0.0762341 -0.04080218
-0.10367128 -0.023464942 -0.020532815 -0.04379592 0.13235228 0.024580091 -0.042697616 0.15736736
-0.04863844 0.111461155 0.17613916 -0.047489204 0.102132276 -0.077391036 0.09683724 -0.02001725
0.027929837 0.055133 0.013877221 -0.08334311 0.08846754 0.14102766 0.04477368 0.09764385
-0.051911026 0.18558285 0.174895 -0.044769946 -0.06633775 -0.08250603 -0.009951836 0.057681017
-0.050687622 -0.014999269 -0.025517713 0.12759398 0.01217968 0.038984105 0.15828381 0.035308458
0.16260314 0.04159175 0.14933816 -0.0029979525 0.06503211 -0.0710795 0.06837551 0.07170902
-0.03947827 -0.05989808 -0.06743209 -0.09486197 -0.10001091 -0.06667124 0.16010816 -0.052861508
-0.0393757 0.16898526 0.1571434 0.08248893 0.087724194 -0.096894555 0.07760673 0.095025934
0.14044338 -0.052931428 0.02083371 -0.13182943 -0.054159235 0.13344863 0.13478474 0.13271007
0.12270388 -0.029865777 0.09791667 0.009915132 0.016180752 0.07957664 0.053907827 0.016108599
-0.071790285 -0.0461887 -0.053838145 -0.04277937 0.115236305 0.030975388 0.10505226 -0.006553816
0.041109085 -0.066421494 -0.098468766 0.02751197 -0.042283494 -0.08099516 -0.11952804 -0.03420603
-0.06636792 0.09532812 0.05153537 0.15528701 -0.0044367476 -0.16486269 0.048919175 -0.081237085
-0.10526319 0.11018327 0.0001667389 -0.012051279 0.09789252 -0.07759849 0.10713972 -0.07708324
0.09162321 -0.01829153 0.09172779 -0.13572934 -0.07167446 -0.07294676 -0.12578498 -0.041149177
-0.01910324 0.10391381 0.15386277 -0.087698504 0.034495126 0.025759881 0.1405586 0.14536178
0.14390832 -0.16281801 -0.15661515 0.024358116 -0.09585067 -0.13226442 0.09951249 0.022422453
-0.07998342 -0.13038756 0.09515532 -0.066774674 0.08702716 -0.057168134 0.08054774 0.016662328
-0.10578433 0.10017577 0.06404849 0.16493773 0.14056472 0.11458333 -0.0713682 0.11462871
0.15270852 0.04535233 0.1915168 0.0013247965 -0.024500052 -0.06955687 0.11945607 0.18734367
0.1361375 0.04759322 0.005530522 0.18179466 0.0018012284 0.10772354 -0.031510223 -0.023137067
0.13321427 -0.100385204 0.19679943 0.07973919 0.106473766 0.15854634 0.13219413 -0.08470185
-0.03991649 0.021568613 -0.010517424 0.010353263 0.094866425 0.14568754 -0.053437117 0.0044649313
0.13252036 -0.045170993 0.16103406 -0.13929525 0.025106119 0.062377654 -0.09406507 -0.024338052
0.12773816 0.05399652 -0.013031006 0.12921388
