tmp/aa_models/4.pt (torch_old, 539898 bytes, 30 tensors)

rnn.weight_ih_l0 f4 [204, 60]
000000 5b bf d9 3d ca 93 ba bd 4f d2 45 be 68 7e d4 3d
       0.10632201 -0.0911022 -0.19318508 0.103756726
000010 6c 66 17 be a5 4e 4c bd 02 6d 29 3e 37 e9 55 3d
       -0.14785165 -0.04987969 0.1654549 0.052224364
000020 84 49 42 3e 2b 39 95 3d 50 41 e6 3d b6 bd 1d be
       0.18973356 0.072862945 0.11242926 -0.154044
000030 50 ca 4a 3e 0e 03 23 3d 1e 03 a2 bd 96 10 34 3e
       0.19803739 0.039797835 -0.07910751 0.17584452
000040 a8 92 71 3e 7a 6d ab 3d b1 ae dc 3d 2a 05 ca bb
       0.23591101 0.0837049 0.10775507 -0.0061651664
000050 65 a1 bb 3d 33 02 b1 bd 90 91 47 bd 1f b1 0d 3e
       0.09161643 -0.086429976 -0.048722804 0.13837098
000060 47 1e 8f 3d f4 ae de bd 39 c3 3b 3d 14 c1 f6 bd
       0.06988197 -0.108732134 0.045840476 -0.120485455
000070 ba 75 0f 3e 2c c0 84 bd 6d a0 df 3d 63 8a ba 3d
       0.14009753 -0.064819664 0.10919271 0.091084264
000080 45 a3 59 3d 8f 96 7b bd 08 cb f5 bd 6d f8 e9 3d
       0.05313422 -0.06142288 -0.12001616 0.114243366
000090 8f b6 7f 3c c1 54 f0 3b 0b 9f 69 bd b2 02 c7 bd
       0.01560749 0.007334322 -0.05703644 -0.09717311
0000a0 23 35 ad bd 8c dd 1b bd 2c 0b 67 bd 01 8f 5d 3d
       -0.08457401 -0.03805308 -0.05640714 0.054091457
0000b0 29 62 a7 3d 7d 2c 98 3d ec df 02 3e 5b c6 ed bd
       0.081730194 0.074303605 0.12780732 -0.11610099
0000c0 d4 94 03 be 38 9e 48 bd 2e ef ee 3d 5c 09 97 3d
       -0.12849742 -0.048979014 0.11666714 0.07374832
0000d0 d1 c7 f3 bd 14 c6 e5 bd 92 33 a4 3d 9a 72 d1 3d
       -0.11903346 -0.11219421 0.08017649 0.10226937
0000e0 9a 43 0a be 4e 07 96 bd 40 22 ea bc 48 ab 88 3c
       -0.1350235 -0.07325612 -0.028580785 0.016683236
0000f0 a3 5b 22 3e 60 16 0c 3d e5 8a 8e 3d f4 42 72 3c
       0.15855269 0.034201026 0.06960086 0.014786471
000100 43 a6 9c 3d 31 fb 0b 3d 5d 26 ab 3d de 32 78 39
       0.076488994 0.0341751 0.083569266 0.00023670073
000110 b9 6a eb 3b d4 57 f8 bb 13 bb 11 3d c6 a6 2a 3e
       0.007184353 -0.0075788293 0.0355788 0.16665182
000120 c3 54 9f 3d d8 b6 0e 3e 53 86 8e bd 8a 4a 03 3e
       0.07779839 0.13936937 -0.06959214 0.12821403
000130 c7 26 bf bb 61 00 0a bc c8 5a 0f be f3 11 d1 3d
       -0.00583348 -0.008422942 -0.13999474 0.10208502
000140 78 a4 06 bd bc 2d c8 3d 96 03 7a 3b 81 61 48 bd
       -0.032871693 0.09774348 0.003814911 -0.048921112
000150 51 36 95 bd f4 ea fe 3d c6 11 c0 3c a5 11 59 3d
       -0.07285751 0.124471575 0.023445975 0.052995343
000160 29 13 6d bd 89 1a 9a 3d ac a7 ac bd da ad 7b bd
       -0.0578796 0.075245924 -0.08430418 -0.061445095
000170 69 44 20 be 0a 1e 35 be a6 03 02 bd dd 11 5b 3d
       -0.15651096 -0.1768724 -0.03174176 0.053483833
000180 38 68 93 bd 58 8c 01 3e 11 de 1b 3c c0 2f dc bd
       -0.071976125 0.12651193 0.009513394 -0.10751295
000190 13 7d f7 bc ac c9 2e bd ec 66 27 3d 30 f0 04 be
       -0.030211007 -0.042672798 0.04086964 -0.1298225
0001a0 90 78 01 bd ca 14 e7 3d 10 1a 12 3c 43 54 98 bd
       -0.031609118 0.11283262 0.008917347 -0.07437947
0001b0 b8 b4 03 3d f2 ee 32 bd 5a d2 84 3d a0 76 f6 bb
       0.03215477 -0.043684907 0.06485434 -0.0075214654
0001c0 40 eb 29 bb 8b a1 08 3e 4c 5b ec bd 09 40 0b be
       -0.0025927573 0.13342874 -0.11540851 -0.13598646
0001d0 2a 07 0b bd fc fd f9 bc 23 65 8d bd 0b 75 0c 3e
       -0.03394238 -0.030516617 -0.06904056 0.13716523
0001e0 9f 3b e4 3b 40 bc 86 3d 84 e7 8f 3d f8 e2 0d 3e
       0.006965115 0.065788746 0.0702658 0.13856113
0001f0 88 75 14 bd b5 00 d8 3d 74 11 f6 3d 11 95 dc 3d
       -0.0362449 0.1054701 0.12015048 0.1077062
000200 b4 04 d5 3d 72 5d 8c bd c5 9b 1b 3d ce 6e 86 3d
       0.10401288 -0.06853761 0.03799035 0.06564103
000210 4a db a3 3d 13 26 cb 3d da 2c 08 be b7 2a bd bd
       0.080008104 0.099193715 -0.1329836 -0.09236663
000220 bf 49 af 3d 42 83 91 bd 04 0d 41 3c ed 4a 15 3e
       0.08558988 -0.071051136 0.011782888 0.14579363
000230 17 55 ae bc ed cd 57 3d 15 29 46 3d 83 4b 40 3e
       -0.021280808 0.05268662 0.048379023 0.18778805
000240 08 f7 61 3d 4e 45 00 bd 6b 17 8f bd 4b 40 bc 3d
       0.055167228 -0.031316094 -0.069868885 0.091919504
000250 1f 37 72 3d 29 ad b6 3d 96 d8 79 3d 73 c8 81 3c
       0.0591346 0.089197464 0.060997568 0.015842652
000260 9a dc f3 bd b5 e6 f3 3d 1d 47 b2 3d 4a ee cf bd
       -0.11907311 0.11909238 0.0870497 -0.10152872
000270 6b 94 09 be 90 50 b7 bb c0 61 bd bd 57 ae 04 bd
       -0.13435523 -0.0055943206 -0.0924716 -0.032392826
000280 04 af ee 3d f6 9b f6 3d 6c a2 13 3d c0 cc 3f bd
       0.11654475 0.12041466 0.03604357 -0.046826124
000290 d6 6c ff 3d 54 a0 ce bd 00 87 0c 3c fc 59 8b 3d
       0.12471931 -0.10089174 0.008577108 0.068042725
0002a0 a0 2c 1a 3c 7e 65 be bd 48 b9 6a 3d c8 44 a1 3c
       0.0094100535 -0.09296702 0.057305604 0.019686118
0002b0 b8 35 0d 3d 24 61 20 bd 90 53 52 bc 6c a3 c5 bd
       0.03447506 -0.03915514 -0.012837306 -0.09650311
0002c0 11 fc 87 bd c4 ff 32 3d 74 f2 e1 bc 40 8d b2 3c
       -0.06639875 0.04370095 -0.027581431 0.021795869
0002d0 ee f3 f9 3d 39 69 54 3e 6a 38 a0 3d 23 78 d4 3d
       0.12204729 0.20743264 0.0782326 0.10374477
0002e0 07 c1 8c bd 80 f9 06 3c f5 96 e4 3d c6 ce 96 3b
       -0.068727545 0.008238196 0.11161605 0.004602286
0002f0 bb 70 00 3b e1 b6 1b bd 10 d9 88 3d 76 c1 63 bd
       0.0019598443 -0.038016204 0.066820264 -0.05560442
000300 d5 eb ad 3d 5a 42 10 be 6b b3 1c bd 96 78 2b be
       0.08492247 -0.14087811 -0.038257044 -0.16745219
000310 ef 3f 8d 3d 1c 9b b6 bd 05 29 5b 3d 7e 1c 32 be
       0.0689696 -0.089163035 0.053505916 -0.17393681
000320 77 20 05 be 50 80 4b be 02 9c 16 be 65 b1 c8 3d
       -0.13000666 -0.19873166 -0.1470795 0.0979946
000330 83 bb e5 3d 51 d2 66 3d 7a 0c a9 3d 07 b1 9f bd
       0.11217406 0.056352917 0.08254333 -0.07797437
000340 03 38 31 be d8 1b 97 bc af ac 76 3d 14 34 12 3e
       -0.17306523 -0.018445894 0.060223278 0.14277679
000350 8a 4c 07 3e 2e dc 0b bc 34 27 fe 3c a8 0a 75 3d
       0.13212791 -0.008536382 0.031024553 0.059824616
000360 b7 a2 e4 3c f3 cb a5 3d 63 e3 09 bc 20 dd f0 bd
       0.02790962 0.08095541 -0.00841603 -0.11760926
000370 d0 0d 57 3c df e9 0a 3e 90 f0 9a 3d ca 65 51 bd
       0.013125852 0.13565777 0.07565415 -0.051122464
000380 22 8a 07 be 85 98 03 3e e3 88 8e bd a2 7f cc bd
       -0.13236287 0.1285115 -0.06959703 -0.099852815
000390 b8 28 9d bd 80 df ff 3a 04 52 50 bd a6 64 ea 3d
       -0.07673782 0.0019521564 -0.050859466 0.114449784
0003a0 44 63 e0 bc 46 e8 db 3d 87 e4 8a bd 24 a3 62 bd
       -0.027391084 0.10737662 -0.067818694 -0.055331364
0003b0 a8 e8 a8 bc 76 e8 e4 3d f3 01 80 bd 76 cb 8e bd
       -0.020618752 0.11177151 -0.06250372 -0.06972401
0003c0 89 1a d3 3d 27 3b 64 3e cb e3 92 3d 0e 5b 37 3e
       0.103077956 0.2228819 0.07172354 0.17905828
0003d0 6a 86 53 bc 0e 2e 22 bd 21 fc 08 3e 4b c3 13 3d
       -0.012910465 -0.039594702 0.1337743 0.036074918
0003e0 1b 8b 0a 3d 1b 1a 7e bd fd b6 c8 3d d9 b2 be 3d
       0.033824068 -0.062036615 0.09800527 0.09311456
0003f0 af f6 77 3b 17 b4 13 3d e0 73 f7 3c 5e 81 a9 3d
       0.0037836244 0.03606042 0.03020662 0.08276628

rnn.weight_hh_l0 f4 [204, 51]
000000 bf c3 1d 3d 4b 3a 2b bd 39 91 31 3d 51 fc 92 bd
       0.038516756 -0.04180364 0.043351386 -0.07177032
000010 fb 67 b7 3d 59 32 10 be d7 79 50 bd 4f 67 81 3d
       0.089553796 -0.14081706 -0.050897446 0.06318533
000020 36 48 74 3d 8a 8a 8c 3e 43 71 6f 3d 25 e8 60 3d
       0.05963918 0.27449447 0.058457624 0.05490889
000030 46 ad 92 3c a0 53 e8 bd e0 b4 ea bd a7 81 35 bd
       0.017904889 -0.11344075 -0.114602804 -0.0443131
000040 1d f4 fc bd 93 f4 18 3d 80 be 17 3d 17 1a 05 bd
       -0.123512484 0.03734262 0.03704691 -0.032495584
000050 4e e4 08 be bd 0b 26 be de 13 c9 3d 15 02 c8 3d
       -0.13368341 -0.16215415 0.098182425 0.09766022
000060 1a 66 8e 3d f0 2c b8 3d 8c 61 57 bc e5 68 0a be
       0.06953068 0.08992946 -0.013145816 -0.13516577
000070 37 13 b8 bd 78 f1 c8 bd fd 9b a1 3d f7 67 54 be
       -0.0898804 -0.098116815 0.078910805 -0.20742784
000080 f1 54 9b 3e 30 62 17 3e 17 fa 98 3d b7 77 48 be
       0.30338243 0.1478355 0.07469576 -0.19576918
000090 bf a2 12 3e 81 3e 47 be 1e a6 13 3e b7 86 30 bd
       0.14319895 -0.19457437 0.14418837 -0.043097224
0000a0 79 bf 38 3e 4c e7 2e 3e 8b fc a2 3d dd 9b b5 3e
       0.18041791 0.1708042 0.07958325 0.35470477
0000b0 b0 f2 14 be f6 f2 e7 3d f1 12 ad bd 7a 08 39 3e
       -0.14545703 0.11325638 -0.084508784 0.1806964
0000c0 d0 ec 01 be b1 d9 dc bd 77 e3 c6 ba 8a 08 43 3e
       -0.12687993 -0.10783709 -0.0015173991 0.19046226
0000d0 fb 05 6e 3b ce f2 36 3e fa 40 c3 bd 38 1d 0c be
       0.0036319483 0.1786606 -0.09533878 -0.13683021
0000e0 2d 4c 0c 3e 47 89 09 bd e4 c2 58 bd 17 1f 64 3e
       0.13700934 -0.033578184 -0.052920237 0.22277485
0000f0 a7 79 59 3e ec cd 90 bc f1 b1 48 3d 60 76 29 be
       0.21237813 -0.017676316 0.048997823 -0.16549063
000100 68 f3 bc bd 44 c1 5f be 06 19 c6 bc 2a a5 27 be
       -0.092261136 -0.21851069 -0.024181854 -0.16371599
000110 4b 9c cc bd e6 ef 4e 3e 2a 31 09 bd 69 86 91 3d
       -0.09990748 0.20208701 -0.033494152 0.07105715
000120 75 62 6a be 00 9a f4 3d 05 dd 2a 3d b9 b3 62 3d
       -0.22889121 0.11943436 0.041714687 0.055347178
000130 bc 6e 3e 3d 52 93 f2 bd 14 91 2c bd ed 11 28 3b
       0.046492323 -0.11844505 -0.042130545 0.002564545
000140 b3 29 33 be 37 f7 d3 3d 50 23 60 be 9a 87 03 bc
       -0.17496376 0.10349887 -0.2188847 -0.008027935
000150 13 90 ba bb ba 5c a1 bd dd c4 30 be 27 65 38 3d
       -0.0056934445 -0.07879014 -0.17262597 0.04501834
000160 98 fc 75 be 48 78 83 bd 5d 25 a6 bd 92 1d dd 3d
       -0.24022138 -0.06419426 -0.08112595 0.10796656
000170 5f a9 b3 3d d7 ac 3d bc 55 46 9f 3e 80 78 01 be
       0.08772539 -0.011576853 0.31108347 -0.12643623
000180 4c 25 59 3e 2a 1b 4c be 52 f7 ce 3d 0c f8 69 be
       0.21205634 -0.19932237 0.10105766 -0.22848529
000190 b2 12 fc bd b5 17 da bc c3 2c ce 3d eb da 89 3d
       -0.12308253 -0.026622633 0.10067131 0.067312084
0001a0 7f 96 a1 bd 70 84 f2 3d ad ba a6 bd b4 86 c2 bb
       -0.07890033 0.11841667 -0.08141074 -0.005936468
0001b0 dd 48 75 bb 57 4a e6 ba 67 bc 23 be 7b e9 50 b8
       -0.0037427463 -0.0017569762 -0.15989839 -4.980851e-05
0001c0 89 a8 c6 3d 7f ec e0 3d 4d ba 2c bd a8 d6 f8 bd
       0.09700114 0.10982608 -0.042169858 -0.121503174
0001d0 13 21 ab bc 82 9c a5 3d c1 7f 65 3d d8 cc e9 3b
       -0.020889794 0.08086492 0.05603004 0.007135015
0001e0 51 e6 e8 3b ff e5 8e 3d 1d fb 22 3e 14 f2 32 3c
       0.007107534 0.06977462 0.15916105 0.010921974
0001f0 aa 58 c1 bc 2e 52 91 3d 38 a2 cf bb e8 71 c5 bd
       -0.023601849 0.07095753 -0.0063364767 -0.096408665
000200 a4 80 de 3d 83 43 95 3d 76 65 1d 3d 42 5d f9 bd
       0.1086438 0.072882675 0.03842684 -0.12175991
000210 7d cb c6 bd 03 3f aa bd 24 f3 f0 3c e5 65 6b bd
       -0.09706781 -0.083128 0.029412813 -0.05747022
000220 7d 27 3e 3d 78 89 2b be ee 6a 87 3d 6b 14 23 bd
       0.046424378 -0.16751659 0.06612192 -0.039814394
000230 ce e9 91 bd 6c 26 ce bd 3a 03 a0 3c bb ca 95 bd
       -0.07124673 -0.10065922 0.019532789 -0.073140584
000240 ac 74 db bd 73 a8 1d 3e 2f 5f b3 3d 14 31 49 bd
       -0.10715613 0.1539629 0.08758389 -0.04911907
000250 12 fa e2 3a f4 33 24 bd 27 4f 21 3d 2b 77 3c be
       0.0017316958 -0.04008861 0.039382126 -0.18404834
000260 e8 c8 df bc 50 76 07 bd c5 02 ce bd 83 01 9f bb
       -0.02731748 -0.033071816 -0.10059122 -0.004852475
000270 66 ae 2e bd 05 dd 77 bd db 1c 81 3d 38 3b 6a 3d
       -0.042646788 -0.060513515 0.06304332 0.05718538
000280 c3 b0 07 3e aa 3f df 3d 80 17 97 3d 39 cd 27 be
       0.13251023 0.10900815 0.07377529 -0.1638688
000290 de 36 07 3e 89 17 b1 bd d8 e6 8a 3c 2c bc 89 3d
       0.13204524 -0.08647067 0.016955778 0.06725344
0002a0 11 78 da bd 13 28 01 be 80 2b e8 bd c1 ce 87 3c
       -0.10667432 -0.12612943 -0.11336422 0.01657808
0002b0 71 68 b3 bd 23 df 66 bd 1b 36 01 be 1f 20 d1 bc
       -0.08760155 -0.056365144 -0.12618296 -0.025528012
0002c0 fd 53 b3 bc 2e 11 26 bd be 84 5a 3d 8f 74 d6 bd
       -0.021890635 -0.040543728 0.05334925 -0.104714505
0002d0 57 69 3f bd 8c 84 0c 3e f3 6a cb bd fa 0e 88 3c
       -0.04673132 0.13722438 -0.09932508 0.016608704
0002e0 b0 2a 9f bd 48 b0 0a 3e 94 38 93 3d 4a 67 d6 3d
       -0.07771814 0.13543808 0.07188526 0.104689196
0002f0 70 84 32 be 3d 50 75 3d dc 6e 20 bc de e1 c0 3c
       -0.17433333 0.059890974 -0.009792056 0.023545202
000300 d7 90 ec bd 9a 4d e8 3c 49 09 b6 3d ab d2 8a 3d
       -0.115510635 0.028357316 0.0888849 0.06778463
000310 80 c7 47 3e fb 35 07 bd 52 b7 df bc 7a cd 82 bd
       0.19509697 -0.033010464 -0.027309094 -0.06386848
000320 fd d6 81 bd a5 c2 62 3c 12 92 7d bd 87 f5 b1 bc
       -0.06339834 0.013840352 -0.06190688 -0.021723522
000330 d6 d5 2d bd e1 46 e0 bd 99 5b 02 bd 4c 8c 1d 3d
       -0.042440258 -0.10951019 -0.031825636 0.038463876
000340 25 46 97 bd af 8c 89 3d c8 04 2c 3e 09 59 ef 3d
       -0.07386426 0.067162864 0.16798699 0.11686904
000350 5b b9 33 be 76 d2 a9 3c 4e 8c 56 bd e8 0d 5f bd
       -0.17551176 0.020730238 -0.0523799 -0.05445662
000360 19 4a ac bd d9 64 04 be ef a9 b5 3d 23 09 9e bd
       -0.084125705 -0.12929095 0.08870303 -0.077165864
000370 71 3c c1 bd a5 7d c8 bd af c5 18 3e 75 15 3e 3b
       -0.094353564 -0.0978959 0.1491916 0.0029004489
000380 50 d8 9f 3d b9 a0 87 3d 4e 41 d2 bd ad 59 4b bd
       0.0780493 0.06622452 -0.10266362 -0.04964607
000390 ea 35 1a be de 03 89 3c 2f 71 c8 3c 84 f3 8a 3d
       -0.15059629 0.016725477 0.024468033 0.06784728
0003a0 be c2 12 3e 3f 5f fe 3c eb 5d 1d be 30 01 17 3c
       0.14332101 0.031051276 -0.15367858 0.009216592
0003b0 86 df 43 3e d3 6d 94 3d 73 a4 49 bd bf 2e 24 be
       0.19128236 0.0724751 -0.049229097 -0.16033457
0003c0 f2 47 e7 bc ab ee bc 3c e7 9c 4a bd 5a dc 14 3d
       -0.028232548 0.023063025 -0.04946604 0.036342956
0003d0 a0 bd 4f 3c 33 dd bb 3c 47 eb a5 3d 0e 95 d7 bb
       0.0126794875 0.022932624 0.08101516 -0.006579048
0003e0 90 e0 3a be 84 d4 ff 3d 1d ef 0a 3e 42 4d ff 3d
       -0.18249726 0.12491706 0.13567777 0.12465908
0003f0 34 5e 98 3d d8 6a e0 bc 95 25 ff bd 56 2a 45 3e
       0.07439843 -0.027394697 -0.1245834 0.19254431

rnn.bias_ih_l0 f4 [204]
000000 7f 43 55 3d c9 7d 00 3e a0 45 59 bb 71 a2 b6 bd
       0.052066322 0.12547983 -0.0033153072 -0.08917702
000010 3b a8 26 bd c8 60 05 3e 26 02 b6 bc 85 fa ba 3d
       -0.04068778 0.130252 -0.022217821 0.09129814
000020 61 c4 eb bc 0e ac 48 3e 34 eb 84 3e d3 e0 d1 bc
       -0.028780164 0.19596884 0.25960696 -0.0256199
000030 a3 ef 2f 3e c1 fd ef 3d ce 6f 67 3d fd 3b 90 bd
       0.17181258 0.117183216 0.05650311 -0.07042692
000040 85 1d c2 3d d0 22 2a 3e 8c e7 1b 3e c8 60 32 3e
       0.09478287 0.16614842 0.15225047 0.17419732
000050 26 c9 9d bd ee 46 fa 3d df a1 4d 3d a3 63 8e ba
       -0.07704382 0.1222056 0.0502032 -0.0010863434
000060 41 d5 54 bd be 70 26 bd 0a b3 35 3e 23 40 a7 bd
       -0.051961187 -0.040634863 0.17744079 -0.0816653
000070 46 60 46 3e 8c cf bc bd 1a fc 1e 3e 09 c6 86 3d
       0.19372663 -0.09219274 0.15525857 0.06580741
000080 65 20 4b bc d3 2a 04 3e dd f9 27 3e f4 0b 1f 3e
       -0.01239786 0.12906961 0.16403909 0.15531904
000090 5c be d3 bc a9 0d 25 bd 5a 38 7f 3d 7f 31 f4 3d
       -0.025847606 -0.04029623 0.0623096 0.11923503
0000a0 77 69 26 be ee 02 12 3e a9 bc 2f 3e 6e 87 ad bc
       -0.16251169 0.1425893 0.17161812 -0.021182742
0000b0 62 10 df bc cb 1a 99 3c e1 4b 25 3e fc 46 39 3c
       -0.027229492 0.018689534 0.16142227 0.011308428
0000c0 c0 1e 72 3c 1d 2e 2c bb 9e 8f 73 3d db 46 94 bc
       0.014777839 -0.0026272603 0.059463136 -0.018100193
0000d0 aa 69 a9 bd 91 d0 a1 bd 71 cc 77 bb e5 6b bc 3c
       -0.08272107 -0.07901109 -0.0037811066 0.023000667
0000e0 c2 2a e5 bd 86 ab 4c 3d b4 c2 0b be 4d 8d c3 3b
       -0.11189796 0.049968265 -0.13648492 0.005967772
0000f0 4a 4b 2d 3e de 3e d5 3d 9f e2 01 bd 4c 6b 1c be
       0.16923252 0.104123816 -0.031710263 -0.15275306
000100 5b 38 05 3c 38 30 03 3e ac c7 53 bd 6e 7f 15 3e
       0.008131112 0.12811363 -0.051704094 0.14599392
000110 18 3b f7 bc ae 9c 00 bd 26 74 68 bc 7c 16 f1 3d
       -0.030179545 -0.03139942 -0.014187848 0.11771867
000120 87 60 45 3e 6f 1f 95 bd 33 ae a6 3d 12 4e ec 3b
       0.19275104 -0.07281386 0.081386946 0.007211455
000130 ab 7e 1f 3e 8f df ff 3c 6c d7 72 3d 13 aa 44 3d
       0.15575664 0.03123453 0.059287474 0.048013758
000140 0a fa bb 3d b0 40 f8 bd 4f 0b 8a 3d e0 76 06 be
       0.091785505 -0.12121713 0.06740438 -0.13131285
000150 07 b0 76 3d b2 10 ee 3d c8 8a 44 3e 6b 4d 01 3e
       0.060226467 0.11624278 0.19193566 0.12627189
000160 4e 09 c0 3d 15 06 1a bd 6b b0 d5 3d a9 2a 58 3c
       0.09376775 -0.037603457 0.1043404 0.013193765
000170 e3 a6 c1 3c b3 89 3c 3d 42 71 ac 3d 06 74 8f 3d
       0.023639148 0.046029758 0.0842004 0.070045516
000180 6e 86 3f 3e 34 34 05 3e 5e f6 cb bc be d2 c1 bd
       0.18703625 0.13008195 -0.02489775 -0.09464024
000190 19 43 ee bc 01 45 b6 3c d2 20 20 3e e7 01 b9 3d
       -0.029084729 0.0222497 0.1563752 0.09033566
0001a0 63 8d 28 3e 6c 94 a1 3d 27 8f 6f bc a8 b8 1f be
       0.16460185 0.07889637 -0.0146215325 -0.15597785
0001b0 04 c9 02 bc fc 59 9e 3d aa d0 a2 bd 43 14 d7 3d
       -0.007982496 0.07732007 -0.07949956 0.105019115
0001c0 7f b2 14 be 8d ad b1 3d 8c e5 be 3d 5f 53 d2 bd
       -0.14521216 0.0867568 0.09321126 -0.10269808
0001d0 ae 9b 7e bd 11 ee 1e 3e a5 b6 96 bd 6b 18 9c bd
       -0.062160186 0.15520503 -0.073590554 -0.07621845
0001e0 ac 24 23 3e 67 f9 3c be 69 58 49 bc 2e af 1e be
       0.15931958 -0.18454514 -0.012289145 -0.15496513
0001f0 e2 eb 30 be 10 cb 36 3e 60 8f 2c be 19 42 36 3d
       -0.17277482 0.178509 -0.16851568 0.04449663
000200 a7 0a 9d bd e7 25 3d be 3e 27 f1 3d 40 f7 85 3c
       -0.076680474 -0.1847149 0.11775063 0.01635325
000210 59 8a 74 bd e4 67 8b 3c 9c cc 10 3d 9a 55 02 3e
       -0.05970225 0.017017312 0.03535138 0.12727967
000220 e0 70 f1 3d df e3 8b bd 5c 0f 92 bb d7 1f 79 bd
       0.11789107 -0.06830572 -0.0044573974 -0.06082138
000230 9d f1 a8 3d db 56 86 bd 32 5f f7 3d 1b 1c 1d 3e
       0.08249209 -0.06559535 0.12078704 0.15342753
000240 3c 59 f4 bd 19 81 69 bd 8e 3c d4 bb ad 0b 73 3c
       -0.119310826 -0.057007883 -0.0064769452 0.014834327
000250 93 bb a4 3d 65 a2 c2 3d a3 6e 9c 3d 41 a0 12 be
       0.080435894 0.095036305 0.0763829 -0.14318945
000260 de d6 01 bd 57 8d 3c 3e a1 8e dc 3d 6b 52 ef 3c
       -0.031699054 0.18413292 0.10769392 0.029214105
000270 09 0c b1 3d eb 52 03 3e ec f4 3f bd 9f 87 13 bd
       0.08644874 0.128246 -0.046864435 -0.03601801
000280 de cc cc 3d 2e 13 f4 3b 7e ff 28 3e c5 87 5d 3d
       0.10000013 0.0074485755 0.16503713 0.054084558
000290 d2 00 04 3e 10 ad dc 3d ce fb 2b 3e 27 25 fd 3d
       0.12890938 0.107751966 0.16795275 0.12360602
0002a0 f6 0a b3 3b 28 b2 b3 3d e2 5b d2 3d db 1c 41 3e
       0.005463953 0.08774215 0.102714315 0.18858664
0002b0 f9 0a 14 3d a8 01 04 3e 1b 9f a6 3d 7f 28 83 bc
       0.036143277 0.12891257 0.08135816 -0.016010521
0002c0 ba a8 28 bd 56 68 45 bd d9 8c 20 3e 8d 18 68 3c
       -0.041176535 -0.048195206 0.15678729 0.01416601
0002d0 bd f5 19 3e 47 ae 2c bc 9d 08 fa 3d 91 d6 29 bd
       0.15035148 -0.010539598 0.12208674 -0.041464392
0002e0 1a fd 84 3d 25 15 1b 3e 52 bb df 3d 66 e8 4d 3e
       0.06493588 0.15144785 0.109244004 0.20108184
0002f0 38 a7 8f bd 07 67 29 3c 31 03 14 3e 8a bc eb bc
       -0.07014316 0.010339505 0.14454342 -0.028776426
000300 7d c4 d5 3c 87 69 b3 bd 3b 61 27 3e 68 a7 37 3d
       0.02609467 -0.08760362 0.16345684 0.044837385
000310 01 96 b5 bd 7e e8 8d 3d 87 ca 00 3e cd 6f 9e 3c
       -0.088665016 0.0692911 0.12577258 0.01934042
000320 db 56 00 3e f5 9f 1f 3d 9c 87 6d bc 27 30 5e 3d
       0.12533133 0.038970906 -0.014497664 0.05424514

rnn.bias_hh_l0 f4 [204]
000000 f7 d1 af 3d 0d 2f 02 3d 79 3d e2 3d 03 28 fd 3b
       0.085849695 0.031783152 0.11046881 0.007725717
000010 23 2e 87 bd 49 34 d9 bd 3b 76 cd 3d b3 eb 23 3e
       -0.06600597 -0.10605676 0.10032316 0.16007881
000020 50 ef 04 3e 0a 4a 19 3d 26 54 c4 3e b8 85 b1 3d
       0.12981915 0.037424125 0.3834545 0.08668083
000030 c1 47 20 3d 77 f5 ae bb 5b 4a 27 3e 3f 78 18 3c
       0.03913093 -0.0053393203 0.16336958 0.009306013
000040 6f b8 5a bc 68 8b 1f 3e 54 ce 17 3e 52 03 bc 3d
       -0.013349636 0.15580523 0.14824802 0.09180321
000050 cc bf 2b bd 18 3d f3 bc 8b b8 0e 3e 3e 1d 18 3e
       -0.04193096 -0.029692218 0.13937585 0.14854905
000060 76 4b 9c 3d 98 f0 d9 bc cb c8 38 3e 6b bb ad 3d
       0.076315805 -0.026603982 0.18045346 0.08483013
000070 3a 03 4f 3e 8f 3e 69 3b 21 30 31 3e 1d ea d1 3d
       0.20216075 0.0035590266 0.17303516 0.10249732
000080 5c 2b 84 3d 0a 2c 93 bc 0e bc 1e 3e 96 07 af 3d
       0.06453583 -0.017965335 0.15501425 0.08546369
000090 a6 a3 a9 3d 9e 7a 94 3d a6 0e 07 be 15 0a 1a 3e
       0.082831666 0.0724995 -0.13189182 0.15042908
0000a0 14 2a 0d bd ab 22 bf 3d 0f 9d 88 bd 81 74 04 3e
       -0.034463957 0.09332784 -0.066705815 0.12935068
0000b0 f4 5a c1 3b b3 ff b6 bd c6 40 2e bc 93 23 c0 3a
       0.005900735 -0.089354895 -0.01063556 0.001465904
0000c0 03 63 ac bc 44 3e b6 bc 25 2e 60 3d ea 8e 24 3e
       -0.021043306 -0.022246487 0.054731507 0.16070142
0000d0 2f f9 3d be a6 77 3c 3e 85 fb 3e 3e 55 16 21 3e
       -0.18552087 0.18405017 0.18650635 0.15731175
0000e0 4e 54 10 3d de 84 85 3d 7d da 9e 3d 36 3b f6 bd
       0.03523665 0.06519483 0.07756517 -0.12023012
0000f0 0e 7a c5 3d 90 c5 7a bc 89 70 e2 bc 00 af 0a 3c
       0.09642421 -0.015305892 -0.027641552 0.008464575
000100 50 6f 87 3d 0c 43 1f 3d 5b 88 ad 3d 15 b8 41 3d
       0.06613028 0.0388823 0.08473273 0.047294695
000110 77 6c b3 3d fe 29 a9 bd 87 40 00 3d 71 bb 0a 3e
       0.087609224 -0.082599625 0.031311538 0.13548066
000120 de 94 be 3d 76 5f 92 3d de d4 53 bd 59 35 a5 bc
       0.09305738 0.07147114 -0.051716678 -0.02016704
000130 d0 53 2a 3d fe c8 f6 3d 9e 5f 3a 3e d6 a8 74 bd
       0.041583836 0.12050055 0.18200538 -0.059731327
000140 08 6a 24 3e 58 37 93 bc b6 1e 8f 3d 25 ab 61 be
       0.16056073 -0.017970726 0.069882795 -0.22037943
000150 dd 1b 2c 3d 57 6e 8a 3d 94 af 1d bb 7a 3d 53 3d
       0.04201876 0.06759327 -0.0024060952 0.0515723
000160 0b 9f 50 3d ff 44 ac 3d 2b 8e 9c bd 3c 06 a4 bd
       0.050932925 0.084115975 -0.07644304 -0.080090016
000170 59 8a 2a 3e 47 0c 85 3c 33 e6 8a 3d 98 fd 4e 3d
       0.16654338 0.016241206 0.06782188 0.050534815
000180 99 62 c5 3d 46 21 84 3d 64 e7 0b 3e f4 59 db 3c
       0.09637947 0.06451659 0.13662487 0.026776291
000190 ee c7 6e bc 06 c3 cc 3d ce 9a 3d 3e cd 00 0e 3d
       -0.014574034 0.09998135 0.18516085 0.034668732
0001a0 72 d8 10 ba d2 0e 22 3e 14 97 67 bd 26 09 23 be
       -0.0005525417 0.15825966 -0.056540564 -0.15921459
0001b0 fa f5 8d 3d cd 16 10 3e a1 53 97 bd d2 a5 66 3d
       0.06931682 0.14071198 -0.07388998 0.056310482
0001c0 77 b0 2f bd e2 03 a1 3d 3b d6 e6 3d 16 83 7e bd
       -0.0428929 0.07862069 0.1127133 -0.062136732
0001d0 91 a5 1d be 4b 7e 1c 3e 96 6f 35 be 97 5b cc bd
       -0.1539519 0.15282552 -0.17718348 -0.09978407
0001e0 89 c5 54 3d 75 9d 1a be ae 33 1e 3e c5 b2 ea 3c
       0.051946197 -0.15099128 0.15449402 0.028649697
0001f0 ac f0 be 3c 94 2e 3b 3e f7 3e 5b 3d d6 cf 11 3e
       0.02330812 0.18279487 0.053526845 0.1423944
000200 fb 26 91 3d 67 b6 35 be a8 31 2d 3e 2a 7b 12 be
       0.07087513 -0.17745362 0.16913474 -0.14304796
000210 1f 84 0d bc a9 1c 05 be e9 62 7a bd ed d6 9c 3d
       -0.008637457 -0.12999214 -0.061129484 0.07658181
000220 a9 76 fd 3d a6 95 21 3c ac 6c 23 3e dd 73 a4 bd
       0.12376148 0.009862339 0.15959424 -0.08029912
000230 a0 fa cf 3c 98 50 ee bd 08 da a6 bd 7b 0c 28 3e
       0.025388062 -0.11636466 -0.08147055 0.16411011
000240 27 2f 3d be b9 f5 ce 3d e3 ba 12 be 7c 28 91 3d
       -0.18475018 0.101054616 -0.14329104 0.070878
000250 1a 1f 19 3e 17 14 d6 3c 77 b4 06 3e 8b aa 23 bd
       0.1495327 0.026132626 0.1315478 -0.039957564
000260 04 f7 25 be f1 c3 38 3e 12 e6 51 3e 7d bc 51 bd
       -0.1620751 0.18043496 0.20497921 -0.051205147
000270 75 d9 8a 3d 83 80 70 3e 38 06 3a 3e f9 09 12 bd
       0.06779758 0.23486523 0.18166435 -0.035654042
000280 e1 fa 44 3e 21 9e 89 bd 29 0c 91 3e d0 e5 a4 3d
       0.19236328 -0.06719614 0.2832959 0.08051646
000290 a7 3e 01 3e 33 32 b8 3c 4e 56 0e bc ca 02 37 bd
       0.12621556 0.022484874 -0.008687569 -0.044680394
0002a0 7f 4b 93 bd 80 74 57 3d ea a0 1f 3e 57 1e e9 3d
       -0.07192134 0.052601337 0.15588728 0.1138274
0002b0 66 c5 48 3c a7 26 00 3e 82 62 8b 3a a3 4f 02 3e
       0.012254095 0.12514745 0.0010634216 0.12725691
0002c0 ed 65 84 bd c0 5f 2a 3e a0 ac 8c bd 42 66 63 bd
       -0.06464753 0.16638088 -0.06868863 -0.055517443
0002d0 cf 91 a4 3c c2 1c 02 3e 5a 26 9d bd 2a 4b f9 bb
       0.020089058 0.12706283 -0.076733306 -0.007607837
0002e0 8d b9 42 be a3 e7 1e bb d6 4d 14 be 6c 5d 89 bd
       -0.19016095 -0.0024246953 -0.14482817 -0.06707272
0002f0 24 40 65 bd 27 9c f7 bc 8b 43 17 3e 9e 5c 82 3d
       -0.055969372 -0.030225826 0.1477186 0.063653216
000300 b3 66 57 bc d7 68 e0 bc 11 a1 b4 bc 63 e6 a6 bd
       -0.013147044 -0.027393742 -0.022049459 -0.081494115
000310 3a 6e f3 bc 56 3f bf bc 9a b8 af 3d 1d 9c 40 3d
       -0.029715646 -0.02334563 0.08580132 0.04702388
000320 cf 8b 1d bd 1c fb 1b 3e 50 22 30 3e e3 2e b3 3d
       -0.03846341 0.1523251 0.17200589 0.08749177

rnn.weight_ih_l1 f4 [204, 51]
000000 ef 46 53 bd ea f1 54 be 83 a0 88 3e ef ec df 3d
       -0.05158132 -0.20795408 0.2668496 0.10933863
000010 d0 56 75 be 7f 43 40 3e 07 08 05 3c ad 59 0c bc
       -0.23958898 0.18775748 0.00811959 -0.008566302
000020 2f dd 6b 3e 27 5f 92 3e 00 d8 08 be 49 b2 f8 3d
       0.23033594 0.2858822 -0.13363647 0.1214338
000030 8b 32 b9 3d bd b9 90 be c7 7e d8 bd b1 ce 60 be
       0.090428434 -0.28266707 -0.10571056 -0.21953847
000040 69 62 1a bd 11 43 b9 3d 17 49 37 3e 5a bb 27 be
       -0.037691507 0.09045995 0.17898975 -0.16380063
000050 6b 48 54 be 87 59 86 bc c2 b0 f8 3d f3 8f cb bd
       -0.2073075 -0.016400112 0.12143089 -0.099395655
000060 4b 9f 45 3d 89 ce 22 3e ba d4 8d be 98 f7 0b 3d
       0.048247617 0.158991 -0.2770136 0.03417167
000070 fb 1e 35 bd 21 a9 2a be e6 aa 7b 3e 4b 32 99 be
       -0.044219 -0.1666608 0.24576911 -0.29921183
000080 84 cf b6 3e 69 b6 82 3e 72 f9 02 3d 3c 47 4a bd
       0.35705197 0.25529793 0.03197617 -0.04938434
000090 46 5e 40 3e f7 4b b9 be ef 61 f8 3d d6 ee 3a 3d
       0.18785962 -0.3619077 0.12128054 0.045637928
0000a0 ab 41 b2 3e 8a 25 56 bc ee 8a 04 be 60 97 b3 3d
       0.34815726 -0.013070473 -0.12943622 0.08769107
0000b0 88 ac 82 be 38 72 71 3e 5d fd a6 3c 3f a1 87 3d
       -0.25522256 0.23578727 0.020384485 0.06622552
0000c0 6d 03 36 be f7 ce d6 bd 0f 49 38 bd 24 1f 95 bc
       -0.17774744 -0.10488694 -0.04499155 -0.018203326
0000d0 e8 31 6f be d4 0d 42 3e 6e 3f c3 bc e7 18 aa bd
       -0.23358881 0.18950588 -0.023833957 -0.08305531
0000e0 07 c0 d4 3d 0e 15 be bb 85 bb 76 be 9a 06 f0 3d
       0.10388189 -0.0058008498 -0.2409497 0.11720009
0000f0 fd 33 43 3e 2b 36 7a be cb 3c 0f 3e 95 44 36 3d
       0.190628 -0.24434726 0.13988034 0.044499
000100 e5 69 3a bd c6 18 a6 be e3 ac 42 be 21 9b 7f be
       -0.045511145 -0.32440776 -0.19011264 -0.2496152
000110 1d ed ea 3d bd 66 0b 3e 9c 0d bf bd 27 48 28 be
       0.11471007 0.1361341 -0.09328768 -0.16433774
000120 aa f8 e4 bd 2c c1 93 3d a2 35 01 be 71 4d 10 3e
       -0.111802414 0.07214579 -0.12618116 0.14092042
000130 5d 9f 30 3d 05 67 ff bd 94 1f 25 be c3 ee 41 3d
       0.04312073 -0.12470821 -0.16125327 0.04734684
000140 4f 89 5e bb 44 05 99 bd 85 82 c9 bd 9e 8b ca 3d
       -0.0033956354 -0.074717075 -0.09839348 0.09889911
000150 a7 1e 55 3e 03 a3 be bd 7a 03 2f be e1 cd a1 3e
       0.20812474 -0.09308436 -0.1709117 0.31602386
000160 c1 2f bd be e7 58 bb bd e1 a2 56 3e 99 6a 8a 3e
       -0.36950496 -0.09147816 0.20960571 0.27034453
000170 eb c1 50 be 21 3a 57 be 05 7e 6f 3d 02 ba d7 bd
       -0.20386474 -0.21018268 0.05846979 -0.10533525
000180 6f a4 de 3d bd 60 f2 bc aa ea 71 3d 8e bf 88 bd
       0.10871207 -0.029587144 0.059061684 -0.06677161
000190 b1 3e 34 bc dd e2 89 bc 53 72 14 3e 8a 61 04 3e
       -0.011001275 -0.01683181 0.14496736 0.12927833
0001a0 33 76 17 bd 64 6a 11 bd e3 bd 81 be 91 b4 00 bd
       -0.036977958 -0.035501853 -0.25340185 -0.0314222
0001b0 5e 30 71 3e d6 36 b5 bd d1 25 07 be de 66 57 3e
       0.23553607 -0.0884835 -0.1319802 0.21035334
0001c0 33 96 d7 bb e6 f8 03 3b 4c 0d d4 bc 84 9d da bd
       -0.0065791844 0.0020137369 -0.025885247 -0.10674575
0001d0 a6 fe 53 bd 3f 96 2b 3e ff d9 9a bd 37 a8 9d 3d
       -0.051756524 0.16756533 -0.07561111 0.076981
0001e0 0d 55 34 3e 7a ed 45 be a7 a7 a6 3d be 82 0f be
       0.1761057 -0.19328871 0.08137446 -0.14014718
0001f0 9c 1f 06 be 0c 13 3b 3e 84 52 5f 3d cc 7e 21 3e
       -0.13097996 0.18268985 0.054522052 0.15771025
000200 ed f1 fa bc 69 72 52 be 45 77 a9 3c b7 5f e1 bd
       -0.030632937 -0.20551457 0.020686755 -0.11004584
000210 fd fa 66 be ba c9 ba 3d f4 8f c9 3d 1e 07 1a bc
       -0.22556682 0.091205075 0.0984191 -0.009401111
000220 c3 2c 10 bd ef a1 71 3d 03 fd b1 3d b6 a9 25 be
       -0.035198938 0.058992323 0.08690836 -0.16178021
000230 36 f5 4e bc 7f 1f c7 3d ef bb d3 3c ce 26 58 bc
       -0.012631705 0.09722804 0.02584645 -0.0131928455
000240 4a 24 e0 bd cd 59 17 be c8 50 e9 bd 1c d7 15 bc
       -0.109444216 -0.1478035 -0.11392361 -0.009145524
000250 38 b0 1a bc dd fe 53 3e 19 3b 8f be 2e 0b 40 be
       -0.009441428 0.20702691 -0.27974775 -0.18754265
000260 85 c7 be bd d7 e9 51 3e 12 8e 42 3e 0e 5d 21 bd
       -0.09315399 0.20499359 0.18999508 -0.039395384
000270 9b 83 f3 3d 5a ee 3b be 8e e4 15 be b1 ab 11 3e
       0.11890336 -0.18352643 -0.14637968 0.14225651
000280 e0 bf 43 3d dc 68 d5 bd 9c 37 d2 3d c3 f4 a0 bd
       0.047790408 -0.10420391 0.10264513 -0.078591846
000290 11 65 4d bd 7b ce f2 3c a3 bc 1d 3a fa 9d 08 be
       -0.050145213 0.029639473 0.0006017184 -0.13341513
0002a0 4e 49 30 3e f8 e9 08 be c6 5e 4e be a2 04 3a 3e
       0.17215464 -0.13370502 -0.2015334 0.1816583
0002b0 be 0a 50 be e2 be b3 3d bd b0 d9 3d 3c 6a 26 be
       -0.20316598 0.087766424 0.10629413 -0.16251463
0002c0 9b 80 88 bc 12 df 3b be 65 6e ae bc ad b1 e9 bd
       -0.016662886 -0.18346813 -0.021292875 -0.11410842
0002d0 03 91 2a be 58 3e 23 bc 76 23 e3 bd c3 f4 26 be
       -0.1665688 -0.009963594 -0.11090748 -0.16304307
0002e0 75 ba e7 3d 46 60 18 be 96 05 85 ba c4 02 31 3e
       0.11314861 -0.14880475 -0.001014876 0.17286211
0002f0 a8 ba ad bd 82 09 10 3e 0e b3 81 bb ca 1a 5f 3d
       -0.084828675 0.14066127 -0.0039581126 0.054468907
000300 aa 95 36 be ff 7f 14 be 6f f1 86 bd a6 6e 0f be
       -0.1783053 -0.14501952 -0.065890186 -0.14007053
000310 a3 ea b6 3d 0b 5e c3 3d fa 3b f7 3d 94 d3 e1 3d
       0.08931472 0.09539422 0.120719865 0.110266834
000320 a7 0d 34 3e de a5 05 3e f2 66 e7 bc 64 56 e9 bd
       0.17583333 0.13051555 -0.02824733 -0.11393431
000330 52 b2 ce 3d 83 df 46 be be e2 45 3c a7 b1 e3 bb
       0.10092606 -0.194212 0.012077985 -0.006948668
000340 ba 99 40 be 47 36 0d bc 25 35 58 3d e9 65 5d be
       -0.18808642 -0.008618898 0.052785058 -0.21620907
000350 9b 83 c4 3d 6e 27 03 3f 39 a2 82 be 20 1a 0b 3e
       0.09595414 0.5123204 -0.2551439 0.13584185
000360 38 b9 59 3d f7 13 95 bd 78 a1 e6 bd ca 88 ab bd
       0.053155154 -0.072791986 -0.112612665 -0.083757
000370 1c 06 5a bd b5 74 06 3e 0e 50 0e 3e 2a 37 05 be
       -0.053228483 0.13130458 0.13897726 -0.13009325
000380 4e 7f 63 be 68 1a 5e be 96 91 d4 3c 76 88 04 3d
       -0.22216532 -0.2168976 0.025948327 0.0323567
000390 00 30 81 3e e7 42 cf 3d 9e c4 af bd 3c a4 41 be
       0.25231934 0.101201825 -0.085824236 -0.18910307
0003a0 ad ba a6 3c 11 2c b0 bb 6b bd fa bd 13 49 6f bd
       0.020352686 -0.005376347 -0.1224316 -0.0584193
0003b0 f2 39 44 3e 50 11 6e 3e 51 b2 0d bd e4 29 ce bd
       0.1916273 0.23248792 -0.034593884 -0.10066584
0003c0 ca 18 34 3d 17 78 b5 bd a2 29 01 be aa 61 6a 3e
       0.043968953 -0.08860796 -0.12613538 0.22888818
0003d0 ac 49 12 3c ac 9f 8a bd 8c a3 08 3d 58 31 27 3d
       0.008928698 -0.06768736 0.033359095 0.040818542
0003e0 2b f2 94 3d c6 ac 37 bd 37 8f 34 be ab 98 ba 3d
       0.072727524 -0.044842504 -0.17632757 0.0911115
0003f0 50 9c 15 be e8 98 10 3c fd 80 35 3d 3d e2 85 bd
       -0.1461041 0.008825518 0.044312466 -0.06537292

rnn.weight_hh_l1 f4 [204, 51]
000000 20 3a 68 bc a1 25 0b be f2 2d 47 be 62 9a fc bd
       -0.014174014 -0.13588573 -0.1945112 -0.12334134
000010 aa e5 03 3e da 0e 56 b9 1f d2 b8 3c aa 6d 7d 3d
       0.12880579 -0.00020414163 0.022561131 0.061872162
000020 d2 6b 98 bd fe 49 fd bc e6 9b 2a 3e 43 a6 9c bd
       -0.0744244 -0.030919071 0.16661033 -0.076488994
000030 5d c6 59 bd 43 00 d7 bd 47 32 0f bd c5 20 cc bb
       -0.05316769 -0.10498097 -0.034960058 -0.0062294924
000040 e9 91 01 3e 42 e8 d0 3d c1 5b 54 3d 33 12 85 bb
       0.12653317 0.1020055 0.051845316 -0.0040610074
000050 d1 ec 14 be f1 cd 01 bd 59 19 5d 3e 8a bb 75 bd
       -0.14543463 -0.03169054 0.215917 -0.059993304
000060 9d ea 0c 3d af 3c 1c be f8 fd 7d bd 3f 98 70 3d
       0.034403432 -0.15257524 -0.06200978 0.058738943
000070 97 0c 5e bd b2 c1 96 bc f8 51 50 3c 8d e1 60 be
       -0.054211225 -0.018402908 0.012714855 -0.21961041
000080 6c 89 fa bd b1 37 45 3c 6b e8 ff bc 38 fc 06 be
       -0.122332424 0.012037204 -0.031238755 -0.13182151
000090 65 12 4a 3e 85 3c 6c 3e 4d 11 b8 bd 79 4e 44 3d
       0.1973358 0.23069961 -0.08987675 0.0479264
0000a0 fb fc 42 3d 25 2c 70 3d 97 a2 e7 3d 67 76 f0 bc
       0.047604542 0.05863585 0.113103084 -0.029353334
0000b0 bd b2 6c bc 0d 1f 06 3d 8d 20 6c 3e 0a f4 13 bd
       -0.014446911 0.032744456 0.23059292 -0.036121406
0000c0 3c 88 a5 3c 2a 8e 63 3d b0 6e bc 3d 08 80 16 3e
       0.020206563 0.0555555 0.092007995 0.14697278
0000d0 2d 03 6c 3d 80 3a 08 bd f6 76 1a be df ec 55 bc
       0.057620216 -0.033258915 -0.15084442 -0.013056963
0000e0 66 4a 30 be 96 d6 8d 3d 21 6d cb bc 9c 1d b7 3c
       -0.17215881 0.06925695 -0.02483231 0.022352986
0000f0 e9 da f2 3c be 74 fd 3d f8 ff 42 3d 95 58 8a 3d
       0.0296454 0.123757824 0.047607392 0.06755177
000100 8e d7 1e 3d ba 7a 25 3d f4 0f 14 be 56 8a 4b 3e
       0.038779788 0.040400244 -0.1445921 0.1987699
000110 f0 a6 5d 3e 1f fb 9f bc 9d 7d 9d 3d 23 30 d2 3d
       0.21645713 -0.019528924 0.076899745 0.102630876
000120 ad 29 22 3e 0e 00 c8 3d aa 19 e3 3c d0 74 49 be
       0.1583621 0.097656354 0.027722199 -0.19673467
000130 4f 53 48 bc 37 a6 29 3e 61 4b d6 3d d1 3e d7 bb
       -0.012226894 0.16567312 0.10463596 -0.0065687676
000140 93 35 d9 3d 96 25 86 3d 19 c3 4f be c8 c0 1f bd
       0.106059216 0.06550138 -0.20289268 -0.03900221
000150 a0 fd 49 be e5 1f 7c bd 9c 4e cb bd 3b af 61 3c
       -0.19725657 -0.061553854 -0.09927103 0.013774688
000160 bd 06 0b 3e 53 3c 7a bd af 67 f3 bd b0 b5 dc bd
       0.13576789 -0.061092686 -0.118850105 -0.10776842
000170 a3 c6 b0 3b 02 e0 72 bb be 2c f8 3d 95 a9 9c 3b
       0.005394773 -0.0037059789 0.12117909 0.004780958
000180 c8 4b 0a bb 57 ce 6d 3e 95 7c 89 bd 52 7c 3a be
       -0.0021102298 0.23223244 -0.06713215 -0.18211487
000190 ef a7 e6 3d 64 6f 5b bd 49 b4 06 bc 93 66 a4 3d
       0.112624995 -0.053573027 -0.008221694 0.08027377
0001a0 47 8c 8e 3c d5 c7 47 3d 0e 47 a8 3d 43 68 37 be
       0.017400874 0.04877456 0.082166776 -0.17910866
0001b0 52 3f ad bd d1 17 bf 3c 6d 50 3f 3d ab 56 4e 3d
       -0.08459343 0.023326786 0.04670756 0.05037562
0001c0 7b 84 36 3d f4 5a 25 be ab 34 90 3d 12 7d 2f 3e
       0.044559937 -0.16147977 0.070412956 0.17137554
0001d0 a9 19 c4 3c 21 8f 79 3d 67 b0 15 3e 0f f2 cc 3d
       0.023938017 0.060927514 0.14618073 0.100071065
0001e0 90 57 96 3a f0 b6 54 bd ce 85 44 3d cb 32 d9 3d
       0.0011470187 -0.051932275 0.04797917 0.10605391
0001f0 80 08 72 bd 9f 3e e5 bd 0d 2c b2 bc 7c 50 cf bc
       -0.059090137 -0.11193585 -0.02174952 -0.025306933
000200 37 8b a4 bd 3c 9c 97 3d 9a f4 d9 3d 55 42 a7 3d
       -0.080343656 0.07402846 0.10642357 0.08166949
000210 1f 6f ea 3d 75 b5 5e 3b 3b 26 d9 3d b1 5c cf 3d
       0.11446976 0.0033982669 0.10602995 0.10125101
000220 af ff 8e 3c 2d 54 c4 bd 6b 2a 60 3c 87 bb af 3d
       0.017455904 -0.09586368 0.013681988 0.0858069
000230 1b c7 93 3c 13 72 83 bc 18 2b a1 3d cc 43 bc bd
       0.018039277 -0.016045606 0.078695476 -0.09192619
000240 0a 81 a6 3d e8 62 1d 3e 8d 26 56 3d 46 93 58 bd
       0.08130081 0.15369761 0.05228286 -0.052874826
000250 23 bd 2c bd 59 a7 0a bb 71 86 6f bd d0 af 59 bc
       -0.042172562 -0.0021156876 -0.058477823 -0.013286546
000260 24 df e1 bd 95 6a 98 3d a6 38 ae 3c 41 fc 93 bd
       -0.11028889 0.07442204 0.021267246 -0.07225848
000270 f8 98 b2 3b 8e e8 27 3d df 14 88 bd 8e 05 e6 bc
       0.005450364 0.040993266 -0.06644606 -0.02807882
000280 a1 e3 8a bc 5f db 33 bb 8d 5e 5c bc 08 16 09 3e
       -0.016954245 -0.0027443988 -0.013450277 0.1338731
000290 f5 eb ab 3d b6 0b 2e 3e ea 58 6c bd e8 74 00 be
       0.083946146 0.16996655 -0.057701983 -0.12544596
0002a0 d2 df 33 be ec 18 42 3d 5c 82 3d 3e e6 d0 1b 3d
       -0.1756585 0.04738705 0.1850676 0.038041018
0002b0 a9 e9 35 3e f0 4f b7 3d e7 10 44 bd fc fd a0 3d
       0.17764916 0.08950794 -0.04786768 0.07860944
0002c0 00 88 64 bc 4c 40 ec bc 9b 16 7c 3d 7f 77 30 3e
       -0.013948441 -0.028839253 0.061544996 0.17233084
0002d0 f7 31 89 3d 34 59 10 3e df 49 0b 3d 62 bc 06 3b
       0.06698983 0.14096528 0.034005996 0.0020559062
0002e0 b3 4a 0c be ec d6 01 3e 22 21 47 bd 8a 60 2f be
       -0.1370037 0.12679642 -0.048615582 -0.1712667
0002f0 67 52 01 be 89 6e 71 bd 92 2e 74 bc 66 c3 20 3e
       -0.1262909 -0.058943305 -0.014903681 0.15699539
000300 58 03 d0 3d e0 09 9a bd 03 ec e2 3d 69 dd c0 3d
       0.10156888 -0.07521415 0.11080172 0.09417231
000310 9c 0d 17 3e 59 94 f1 bd 87 2d 32 be 9b a2 13 3d
       0.14751285 -0.11795873 -0.1740018 0.036043745
000320 33 c5 3f bc 8e 1b 4d 3d f8 41 47 3d 08 6d e0 bd
       -0.011704731 0.050075106 0.048646897 -0.10958296
000330 2e dc 95 bc 0d 17 0e be 80 fb a9 bd aa ee 0d 3d
       -0.018293466 -0.1387598 -0.08299923 0.034651436
000340 8c 30 a0 3d 71 01 4b bd 4d b9 ed bc 17 13 ea 3c
       0.078217596 -0.04956192 -0.029019022 0.028573556
000350 48 16 d3 3b a9 10 b5 3d 1e e6 cf 3d eb ea 3d 3c
       0.006441865 0.08841068 0.10151313 0.011591653
000360 78 bc ac 3d 46 1b 30 3d 21 58 46 bd a8 cd cd bd
       0.08434385 0.04299476 -0.04842389 -0.100489914
000370 c0 7a 81 bc 3b 87 f8 3d e0 91 14 3e b8 60 d1 3a
       -0.015805602 0.12135168 0.14508772 0.0015974259
000380 f1 63 a8 3d 40 a7 1c 3e 32 5a 13 3d 28 17 4e 3c
       0.08222187 0.15298176 0.03597469 0.012578763
000390 00 6f fa bd cf c6 4f bd 8a 6c f7 3d 1f e6 82 bd
       -0.12228203 -0.050726708 0.12081249 -0.06391548
0003a0 a4 4d 6e 3d 6a c3 ad 3d 36 5a 1f bd 93 5c 4f bc
       0.058179513 0.08484538 -0.03890439 -0.012656349
0003b0 c9 1e 6e 3d 97 19 52 be a2 b2 2f be b5 ff 69 be
       0.058134828 -0.20517574 -0.17157987 -0.2285145
0003c0 3c f0 7d bc 52 f6 48 3e 9b 3f da 3d 2d f1 fc bd
       -0.015499171 0.19625214 0.10656663 -0.12350688
0003d0 b5 02 23 be 1f 44 18 3e 2a c4 b7 3d 0e 3d 3a 3e
       -0.15919001 0.14869736 0.08972962 0.18187353
0003e0 60 6b 78 bc 32 8d ee bd ce 3c 78 bc 8f b3 0f be
       -0.015162319 -0.116480246 -0.015151216 -0.1403334
0003f0 33 97 ec bd 6e 25 08 3e 1c 96 16 bd 59 e4 96 3d
       -0.115522765 0.13295528 -0.03676425 0.073677726

rnn.bias_ih_l1 f4 [204]
000000 f1 6f 3a 3e 78 7e 73 3c c2 2d a6 3c db 55 9a bd
       0.18206765 0.0148616955 0.02028549 -0.07535907
000010 9b ce 67 bc 63 3f 26 3e 8f 75 7a 3c 6f 33 ae 3d
       -0.01414838 0.16235118 0.015286817 0.08505904
000020 e6 bd 2b 3e a8 27 e3 3d 08 a1 bd bc a4 f8 34 3e
       0.1677166 0.11091548 -0.023148075 0.17672974
000030 99 46 65 3d 9c a8 47 3e bb 4d ef 3d 3f bb fe 3d
       0.05597553 0.19497913 0.11684748 0.12438058
000040 a3 24 3a 3e 5f 23 13 3e c7 fe 0a 3d 27 41 66 bd
       0.18178038 0.14368962 0.03393438 -0.056214478
000050 6e 63 03 3e d4 ef bf 3d b8 48 30 3d 5c 59 06 bd
       0.12830898 0.093719155 0.0430381 -0.032800063
000060 b5 61 2a 3e 6b 50 ce 3d 6d 21 17 3e e4 ad 8f 3d
       0.16638835 0.10073932 0.14758845 0.07015589
000070 e2 a4 17 bd 2b fd c0 bd 14 81 b1 bb 2e d1 5f 3d
       -0.03702248 -0.09423288 -0.0054169986 0.05464285
000080 35 cd 55 3e df 44 8e 3d c4 7e 8d bd 35 2d 55 3e
       0.20879062 0.0694673 -0.06908944 0.20818026
000090 2a e6 9f 3c 8d c9 0e 3e 7a 37 0f 3e a3 31 23 bd
       0.01951893 0.13944073 0.13986006 -0.03984226
0000a0 e7 e1 2a 3e 7a c3 04 ba 00 ce 02 3e 72 94 48 bc
       0.16687737 -0.00050645287 0.12773895 -0.012242423
0000b0 2c e6 4a bc fe 97 a1 3d 73 bf 69 3c 47 f2 55 3e
       -0.012383979 0.07890318 0.014266836 0.20893203
0000c0 90 b5 d7 bc bf 82 af 3d 3e df d8 bc d8 fd 82 3d
       -0.026331693 0.0856986 -0.026473638 0.06396073
0000d0 45 b0 eb 3d 0a 46 2b 3d ed 29 29 bc 0d af f1 bc
       0.1150823 0.04181484 -0.010324937 -0.029502416
0000e0 2b 00 1c 3e 3b 25 1c bd 13 57 1f 3c 30 d0 d6 bc
       0.15234439 -0.038121443 0.00972535 -0.026222318
0000f0 d8 b9 99 3b 1e d7 8a 3d 0e 5b bb 3c 7f 6c 98 3d
       0.0046913438 0.067793116 0.022870567 0.07442569
000100 a0 36 5f 3d 04 47 43 3b 04 80 0e 3e 8e 2f 14 bd
       0.054495454 0.0029796967 0.13916022 -0.036178164
000110 7a ad 16 3e 97 3e 7d bc 80 f2 5b 3d b9 18 14 3e
       0.14714614 -0.015456817 0.053698063 0.14462556
000120 ec 53 9c 3d d6 71 98 3d e8 12 ca 3c 48 f6 a5 3d
       0.07633194 0.074435875 0.024667218 0.08103615
000130 a2 b2 08 3e 45 dc 03 3e 07 42 b4 3d b8 57 3f 3d
       0.13349393 0.12876995 0.08801656 0.046714514
000140 d7 dd 26 3e e4 9f 0f bd cf 73 24 3e e8 c5 31 3d
       0.16295563 -0.035064593 0.16059802 0.04340163
000150 8a 03 80 3d 20 42 e3 3d 14 0e e9 bd 9c b2 81 3d
       0.06250675 0.11096597 -0.11379638 0.06332895
000160 92 c6 2d bd a4 3c f5 bd 83 c9 27 bd 0f 6d 09 bc
       -0.0424257 -0.11974457 -0.04096366 -0.008387818
000170 ca df 88 bd 17 40 b9 bd dd 0d a5 bd 71 6f 2a 3d
       -0.066833094 -0.09045427 -0.08059285 0.041610185
000180 d4 da 87 bd 86 6e 5f 3d d4 6b 02 bc 4a 10 eb 3c
       -0.06633535 0.054548763 -0.007960279 0.02869429
000190 55 f4 5b 3d 37 7a 1a 3e e4 bf fe 3d 58 b2 5f 3d
       0.05369981 0.15085684 0.12438944 0.05461344
0001a0 ae 04 db bc 57 60 18 bd de 66 f0 3d 18 87 26 be
       -0.02673563 -0.03720125 0.1173837 -0.16262472
0001b0 2d 36 2b 3e 1f c2 22 3e f7 ba 46 3c b9 ca 8d 3c
       0.16719885 0.15894364 0.012129537 0.01730858
0001c0 8e 52 b1 bd 3c a7 72 bd a2 a3 b7 3d 68 af 1e 3e
       -0.08658324 -0.05924152 0.08966757 0.154966
0001d0 d7 22 98 bd d0 a2 ed 3c 78 8f 10 3e 9a a0 15 3e
       -0.0742852 0.0290083 0.14117229 0.14612046
0001e0 4e 04 9a 3a 3f 2a 1b 3e b2 f1 8f 3b c1 dd d5 3d
       0.001175055 0.15152834 0.004392826 0.10442687
0001f0 dc e5 4a bd 48 9d a2 3c 50 a8 26 be 21 15 13 be
       -0.049535617 0.019850388 -0.16275144 -0.14363529
000200 dd 1f 3d 3e 07 80 c5 3d 1d 9a 03 3e 16 8c fe 3d
       0.18469186 0.0964356 0.12851758 0.12429063
000210 79 f1 25 3e c0 52 32 be b3 77 c2 3d c9 b2 6d 3d
       0.16205396 -0.17414379 0.09495487 0.05803183
000220 db a9 34 be d2 c2 88 3b 83 a9 0e 3e d5 4d d6 3d
       -0.1764292 0.004173615 0.13931851 0.10464064
000230 33 e5 a4 3a 40 e9 12 be 03 1d 13 3d 05 10 24 bc
       0.0012580514 -0.1434679 0.03591634 -0.010013585
000240 b0 78 27 3e f9 dd 06 3e 56 da de bc 34 1d 27 be
       0.16354632 0.13170613 -0.02720372 -0.16319734
000250 54 33 56 3d 5e 37 12 be f0 d1 1f be 66 c0 a6 3d
       0.052295044 -0.14278933 -0.15607429 0.08142166
000260 0f 67 70 bd 87 ed 42 3e 9b 89 fe 3d 6b 28 7c bc
       -0.058692034 0.19035922 0.1242859 -0.015390496
000270 a9 af d8 bc fa 43 92 bc 58 fc 09 3e d1 c3 35 3e
       -0.026450949 -0.01785468 0.13475168 0.1775048
000280 62 e9 47 bd e6 94 61 3d 7d 88 bb 3d 5a 42 3b 3d
       -0.048806556 0.05507364 0.091568924 0.045717575
000290 91 76 67 bd 66 1b 39 3e 24 32 e1 bc a0 f9 19 3e
       -0.056509558 0.18076858 -0.02748973 0.1503663
0002a0 4a 0e a8 3d 9e 41 c3 3d 46 5b bf 3d 34 3d 05 3d
       0.082058504 0.09534 0.09343581 0.03252907
0002b0 65 c7 25 3e 1c 82 96 bc 84 b5 9b bd 46 3f 40 3d
       0.16189344 -0.018372588 -0.07602981 0.046935342
0002c0 25 cc 2d bc bd 3d ad bc 1e 77 91 3c 83 6b 09 3d
       -0.010607754 -0.021147603 0.017756995 0.033549797
0002d0 8a 9d 47 3e 31 b8 ce 3d 04 9e 13 3e 0f 2f d5 3d
       0.1949369 0.100937255 0.14415747 0.10409366
0002e0 01 58 98 bc f1 64 4a 3e e2 2b a7 bc fc 5b 2a 3e
       -0.018596651 0.19765069 -0.020406667 0.16636652
0002f0 3e 4e 69 3d 95 8e a7 bd 35 2f 4d 3c 17 92 3e 3e
       0.056959383 -0.08181492 0.012523462 0.18610416
000300 86 60 b8 bb 50 70 2a 3e 7d aa 08 3d 9f a0 31 3d
       -0.005626741 0.16644406 0.033365715 0.04336607
000310 c0 ed 34 3d 86 d4 cc bc 73 07 b4 3d 9a ee a1 bc
       0.04417205 -0.025003683 0.08790483 -0.019767094
000320 92 88 8e 3c af 4a 97 3d 57 1d 90 3d ad f2 00 3e
       0.017399106 0.07387292 0.07036846 0.12592573
