tmp/aa_models/4.pt (torch_old, 539706 bytes, 30 tensors)

rnn.weight_ih_l0 f4 [204, 60]
00000000: 95d2 9a3d 13ed d83d 4aa4 2f3e d367 f33d
00000010: 9f76 30bd 5853 033d a8d4 c53d 7d83 66bd
00000020: 9546 f7bc 3096 023d f7b9 1f3d a011 52bd
00000030: 0283 cf3d 4497 b1bc 3e9e a33d 50bf 09be
00000040: 73b1 023e 2945 adbd ab41 0b3c 425c 1bbc
00000050: 2af7 b3bd 2224 d239 2047 cd3d 047e 0f3d
00000060: cfae 863c fe2d afbc 257b 7d3d 2f5e 943d
00000070: 5558 aebd 4f60 063e 7081 34bd 6efd 1dbd
00000080: b316 913d 8a4d 013e 6942 173c 9013 efbc
00000090: 8768 0c3e 5002 3dbc aa34 dfbb c0ba acbc
000000a0: 3f87 0d3e a3b9 31bd ca45 603d b51a 623d
000000b0: 1e03 fb3d e41f 50bd 0ccc 043d 12f1 85bd
000000c0: 2192 083e 1837 03bd 001e 1ebd 0434 cfbc
000000d0: dab6 933d 3098 28bc c8d6 00be ac8c 18bd
000000e0: c2a5 0cbe ae58 00bd c0e4 bcbc 3642 cf3d
000000f0: 5764 b93d bd25 023d f943 273c f112 133e
00000100: 55ff 293d 1fe5 e1bb 5735 e83d 9f93 ab3d
00000110: a6a5 813d d12a 19bc fd64 bc3d e586 103e
00000120: df8a 603b a1ad 6cbd 59b0 033e 9298 c33d
00000130: 8c08 a4bb f52b 97bd b2f7 073e cc52 77bd
00000140: 37e5 edbc 8a33 fd3c 6e61 063e 099f 9d3b
00000150: 8bec 9ebd c57e e33d c66b bcbd 803d 65bc
00000160: ca06 c7bd 350e 903c 0fac 7e3b 2c48 963d
00000170: 565c 82bd 2f38 c9bd d20a fd3d 309d d8bc
00000180: 9059 423d 88f1 383d 50a5 3d3d bcb6 55bd
00000190: 964a 70bd 56f7 f73d 1085 90bd 88cc 0b3d
000001a0: 007c fdbd f21d b13d 3a2c 55bd b83c 05be
000001b0: dab0 abbd b649 cebd 6ba0 0d3e b65f b43d
000001c0: f074 3c3d c184 083e d000 743c 6813 423d
000001d0: 08eb 58bd 4844 8fbc 973e 023e 4267 b9bd
000001e0: 3137 193e db74 e83d 73ec 3b3d aa8c 81bc
000001f0: 65c3 ce3c 3a0b 3f3e b022 3e3d a1aa 4a3d
00000200: 8b97 4bbc dfb0 e33c aae0 933d bf4e 293c
00000210: 78b4 7d3c df66 603c fd03 c2bd 74bc 18bd
00000220: b1e8 eb3c 5cfa dcbd 5c1e 223e f993 92bd
00000230: bb70 e93d 09cc 1d3d f411 debc 676f 413d
00000240: d1dd b83d 465d e83d e457 e83d 9d2d af3b
00000250: 5e03 a53d 7188 17bd e5fe c5bc afc1 92bd
00000260: b0bf 58bd 17bc 29bd 2d23 86bd b8aa b13d
00000270: 57d1 cdbd 37b7 e33d ee3a d7bc 4013 67bc
00000280: 8ed5 01be a93b 063e 22f0 b23d c05e 5bbc
00000290: f936 ffbd 2ecb ad3d a1ea f4bd 84db 9ebd
000002a0: d781 8bbd 8df1 0ebe 945b d93d acca 283d
000002b0: 00dd bebb 1247 803d 9c4f a0bd c45c a03d
000002c0: c4ce bdbc c4dd 28bd aa76 8b3d ccb9 c7bd
000002d0: 46dc 22bd 6cfc b93d 75cd 1cbb 4755 1d3e
000002e0: 841b db3b 5712 d83d 2068 a3bc 1ccc 4dbe
000002f0: 781d 6bbd 26c7 ac3d 4915 00be d554 ba3d
00000300: 1628 e03d 8bcf ac3c 6aad dabd 40b6 10be
00000310: 85dc 753c fc52 12be ba8f 0abd f9f7 3cbe
00000320: 7978 c43d 6dee d13c 6be8 873d 7a1c 2e3c
00000330: 2914 1f3e 99f8 16be 7fda 8e3d eb47 8fbd
00000340: 4f85 103e 1afd 45bd 853b 073e 2eba bcbd
00000350: 7611 a73d bc44 34bd 3c01 b4bb bab6 923c
00000360: 8e16 25be 28f6 edbd 2b1e ccbd 0a16 71bb
00000370: 201f 013e db23 91bd c0f2 d93c f14b 0bbe
00000380: ee7b 7bbd a47d b93d 71a8 03be b26f 0dbd
00000390: 48c9 2f3d a0a1 4e3d abc8 e1bd 4c61 efbc
000003a0: 119c 0cbe a003 bdbc 1aff b4bd ea3f 1cbd
000003b0: 721f 30bd f63b 36bd 8032 15bb a470 04be
000003c0: 5551 353d e148 aabd 018e b23d c888 413c
000003d0: 0ec6 1f3e 6f39 3dbc bca3 c23d 2367 163e
000003e0: d4b6 913d 045b 96bd 7ab9 68bd 6897 fb3d
000003f0: f33b 1bbe 6b3f 79bd de53 6ebd e80f 91bd
0.075596966 0.10592093 0.17152515 0.11885037 -0.043081876 0.032061905 0.096597016 -0.05627774
-0.030185023 0.03188151 0.03899571 -0.05128634 0.1013241 -0.021678574 0.07989167 -0.13451886
0.12763004 -0.08460457 0.008499543 -0.009482445 -0.08787377 0.00040081242 0.10023332 0.035032287
0.016440777 -0.021384235 0.061885018 0.072445266 -0.08512942 0.13122676 -0.044068754 -0.038571768
0.07084408 0.12627235 0.009232142 -0.029184133 0.13711749 -0.011536196 -0.006811698 -0.021085143
0.13821124 -0.043389928 0.054754056 0.05520125 0.12256454 -0.050811663 0.032421157 -0.06540121
0.13336994 -0.032034963 -0.03860283 -0.025293358 0.072126105 -0.010290191 -0.12581933 -0.03724353
-0.13735107 -0.03133457 -0.023058295 0.101200506 0.090523414 0.03177427 0.010209077 0.14362694
0.04150327 -0.0068937684 0.11338299 0.08377766 0.06330423 -0.009348587 0.091989495 0.14113958
0.003426246 -0.057782773 0.1286024 0.09550585 -0.0050059017 -0.07381431 0.13278082 -0.060381696
-0.029039962 0.030908365 0.13123104 0.0048102182 -0.07759961 0.11108164 -0.09200244 -0.0139917135
-0.09718092 0.0175849 0.003885988 0.073379844 -0.06365268 -0.09825169 0.123555794 -0.02644214
0.047448695 0.045152217 0.046300232 -0.052176222 -0.05866488 0.121077225 -0.0705663 0.034130603
-0.12377167 0.0864829 -0.05204413 -0.13011444 -0.08383341 -0.10072653 0.13830726 0.08807318
0.046009958 0.13331892 0.014892772 0.04738179 -0.05295852 -0.017488614 0.12719189 -0.09052898
0.1496246 0.113504134 0.045879792 -0.015814144 0.025239656 0.18656626 0.0464198 0.04947913
-0.012426267 0.0277943 0.07220586 0.010333716 0.015484922 0.013696401 -0.09473417 -0.037289098
0.02879748 -0.1078994 0.15831894 -0.0715713 0.11398455 0.03852466 -0.02710817 0.047225382
0.09026683 0.113459155 0.11344889 0.0053460137 0.08057283 -0.036995355 -0.024169395 -0.071658485
-0.052917182 -0.041439142 -0.06549678 0.0867514 -0.10049694 0.1111893 -0.026273217 -0.014103711
-0.12679121 0.13108696 0.08737208 -0.013389289 -0.12461657 0.08486019 -0.119588144 -0.07756713
-0.06811874 -0.13959332 0.1061317 0.041208908 -0.005824685 0.062635556 -0.07827684 0.07830194
-0.023169883 -0.041227117 0.06809743 -0.09752235 -0.03976085 0.09081349 -0.0023926173 0.15364562
0.0066866297 0.10550373 -0.019947112 -0.20097393 -0.05740115 0.08436422 -0.1250812 0.09098212
0.10945146 0.021095058 -0.10677607 -0.14132023 0.015006189 -0.14289469 -0.033828475 -0.18453969
0.09593291 0.025626386 0.06636127 0.0106269065 0.15535034 -0.1474327 0.069752686 -0.06996139
0.14113353 -0.04833708 0.13206299 -0.092151985 0.08157627 -0.044010863 -0.005493311 0.017909396
-0.16121885 -0.11619216 -0.099666916 -0.0036786818 0.1260953 -0.07086917 0.02660501 -0.13603188
-0.061397485 0.09057167 -0.12857224 -0.03453035 0.042916566 0.050447106 -0.110246025 -0.0292212
-0.1373141 -0.023073018 -0.08837719 -0.03814689 -0.04299874 -0.044490777 -0.0022765696 -0.12933594
0.044267017 -0.08314682 0.08718491 0.011812396 0.15602896 -0.011549338 0.09503886 0.14687781
0.0711495 -0.073415786 -0.05681751 0.12284738 -0.15159588 -0.060851496 -0.05818545 -0.07083112

rnn.weight_hh_l0 f4 [204, 51]
00000000: 5cc9 d43c 3bc3 733b 9bfb 5a3e 0435 4bbd
00000010: 8ea2 2f3d a018 00be 4440 77be ebba 7b3e
00000020: 82d2 9fbe 4479 ec3d 5180 8a3b 6739 adbd
00000030: 1901 db3b f283 963c cd09 a3bd cf60 babd
00000040: 6a30 c5bc 982c ebbd 1e56 b7bc e925 05bd
00000050: 9617 a63c 7b42 f53c 23cc f6bc 1850 ea3c
00000060: c199 b4bd 9c03 b8bd a4b0 743d 271e f33d
00000070: b486 15bd e234 d6bb 5db9 44be fe4c cdbc
00000080: da34 e5bd ef4e 20be 319c 96bd 579e a93c
00000090: 5ca3 9d3e da73 09be d177 ea3d 05ae 9a3d
000000a0: 3653 d5bc 33f3 91be fa14 c93d 9816 93be
000000b0: 1fbf 82bb 908e 073e 3c33 9e3c 0a00 463c
000000c0: 4e23 17bc e11c a4bd 79d9 403e 1e41 843d
000000d0: ec1e efbd 18f1 173e f39c cebd 3840 093e
000000e0: ae13 84bc 3b83 35be 62af e3bb 091a e1bd
000000f0: f04c be3d c8c0 2f3c 0320 7fbd 74ce 2e3d
00000100: 39be bebd c19b c5bd 37d3 b1bd eecb ebbd
00000110: a258 edbd 285e 0a3e 2f6d 91bd de71 133e
00000120: c51b 9a3d 8bfd 393c cc1a 053e 2d68 44bb
00000130: b60e 38be f47c 163e acdf b5bd a3aa d43d
00000140: 36a2 d6bb aabc a2bc a5fa 8c3d 804e 163e
00000150: 6348 a13c 98c2 35bd ed4f 0fbe 4a85 8e3d
00000160: cf6f 23be 8f64 523d fab9 5cbd 9db7 b5bc
00000170: 4702 e93c 63d8 84bd 6aab 22be dd7b 80bd
00000180: 3519 13bc 7070 67bd f8eb 85bc 543f 01be
00000190: dd07 6cbc 7079 293e 3302 80bd 67a5 5bbd
000001a0: c105 87bd c15e 2cba f39f 823d c78b 3e3c
000001b0: faec 793a 8c11 653d a33a bdbd c09f 8bbd
000001c0: f421 81bc 523e d73c 6d08 cdbb ad52 57bd
000001d0: 16b5 d5bd ca83 b9bc 844a 533c ff19 e43c
000001e0: 5a79 25be fad3 7d3d 8e77 a03d 6c3e 703b
000001f0: 648e 64bd 2baf ba3d 45b3 b8bc 4e67 80bd
00000200: 41ce 543e 45f4 bdbd b806 5cbc a1bc 89bd
00000210: 950e 37be 8000 b13c b969 06be 428f e5bc
00000220: 44a4 1e3e 1e70 c73d 071a cd3c 9e6b 6dbd
00000230: 4c03 203c 045c 143e 121f 1fbd 4470 0bbe
00000240: 96e1 1abd 6759 48be 8028 53bd 73ba 283d
00000250: 7888 e5bd 756f 1ebc 001d c03d 29f7 5bbd
00000260: c7c9 883b af98 b1bd 11da f7bd 06c7 4d3e
00000270: 87c8 0ebe 204a 8c3d 506b edbd 675c 31be
00000280: 1712 ffbd 6121 20bd d006 1e3e 1a98 cbbd
00000290: ebad 85bd f710 0a3d 892d 1cbc e8d2 91bc
000002a0: eaa4 b83d 2aa8 8f3d 2b9b 5eba 3a61 a63b
000002b0: d790 573d 4dd0 14bd 861e 91bd 3696 25be
000002c0: ad2c 063e f5fa 8bbd 8c9d a3bd eb66 90bb
000002d0: 7394 0c3d 16dd 263d 3b1f 62bc 6049 fbbd
000002e0: 24b5 49bd bb1c 80bc f74f 3abe 4ae2 98bc
000002f0: 526e 1abe 31b5 e33b ae5c e0bd 7e91 febc
00000300: bb5c 903d cc60 ee3d 9d99 27be 136a a3bc
00000310: bb52 7bbe dee1 823c 5c0c 0e3e 9318 9ebd
00000320: 6843 9f3b 66ee ef3d 45d0 33be 74b7 6abd
00000330: 4495 943d 558a babb 56bc c03d ba68 483d
00000340: efb3 273e 1e53 8cbd 819f 07be 6ab7 053e
00000350: 9001 743d 1140 9d3c 9451 f43d e2d2 2abd
00000360: 4161 96bc 0454 6c3d 8f4d bf3c bcd9 01be
00000370: e709 b2bd a7cb 933d 86e0 b6bd 0818 a73d
00000380: fff5 babd afd7 32be 363f 4c3d 2627 de3d
00000390: 5932 c23c df0c 33be dc11 b83d 2433 21bd
000003a0: 9dba cebc 9e9a 8d3d d621 cabd eea9 513d
000003b0: 5b05 53bc 91cf c4bd f7e7 14be 6d38 fcbc
000003c0: bb8e 10bb 7a67 c7ba d6eb ce3b e3a2 5f3d
000003d0: 3894 913d f838 debd e829 4d3d 3b61 043d
000003e0: 8ee8 f13d ccdb 5dbd 7344 0bbe 9a74 b83d
000003f0: 79d6 2a3e 58c6 89bd 1875 0b3e f989 85bd
0.025974922 0.0037195224 0.21385042 -0.049611107 0.042879634 -0.12509394 -0.24145609 0.24583022
-0.31215292 0.11546567 0.0042267223 -0.08458214 0.0066834805 0.018373463 -0.07960854 -0.09100496
-0.024070937 -0.11483115 -0.022379931 -0.032506857 0.020274919 0.029938927 -0.030126637 0.028602645
-0.08818389 -0.089850634 0.05973877 0.118709855 -0.036505416 -0.006537066 -0.19211335 -0.025061127
-0.11191721 -0.15655111 -0.0735401 0.020705385 0.30788696 -0.134231 0.114486344 0.07552723
-0.026040655 -0.2850586 0.09818454 -0.28728175 -0.0039900686 0.13237977 0.01931154 0.01208497
-0.009224726 -0.08013321 0.18832959 0.064577326 -0.1167582 0.14838064 -0.100885294 0.13403404
-0.016122665 -0.17725842 -0.0069483975 -0.10991294 0.092920184 0.010727115 -0.062286388 0.042677358
-0.09313626 -0.09648848 -0.08682864 -0.11513506 -0.11589171 0.1351248 -0.07100903 0.14398906
0.07524828 0.011351953 0.12998503 -0.002996932 -0.17974362 0.14696103 -0.08880553 0.10384109
-0.006550099 -0.019865353 0.06883744 0.14678383 0.019687837 -0.044375032 -0.13995333 0.069590166
-0.1596062 0.05136543 -0.0538883 -0.02218228 0.028443469 -0.06486585 -0.15885702 -0.06273625
-0.008978178 -0.056503713 -0.01634787 -0.12621814 -0.014406172 0.16550231 -0.062504195 -0.053624537
-0.06592894 -0.0006575399 0.06378164 0.011630005 0.00095339085 0.055924937 -0.092397 -0.06817579
-0.01576326 0.026274834 -0.006257108 -0.05256908 -0.1043493 -0.02264585 0.012896184 0.027844427
-0.16159573 0.061969735 0.07835303 0.00366583 -0.055799857 0.09115442 -0.02254642 -0.06269704
0.20781805 -0.09275106 -0.013429336 -0.06725431 -0.17876656 0.021606684 -0.13126267 -0.028022412
0.1549235 0.097381815 0.025036825 -0.05796396 0.009766411 0.14488226 -0.03884799 -0.13617045
-0.03781279 -0.19565354 -0.051552296 0.041193437 -0.1120767 -0.009670128 0.09380531 -0.053702507
0.0041744444 -0.086717 -0.1210214 0.20095453 -0.13943683 0.06850076 -0.11592734 -0.17320405
-0.12454622 -0.039094333 0.15432286 -0.099411204 -0.06527313 0.033707585 -0.009532341 -0.017800763
0.0901583 0.070144966 -0.000849175 0.0050775083 0.052628364 -0.036331464 -0.070859 -0.16170582
0.1310298 -0.06834976 -0.07989034 -0.0044068 0.03432126 0.040738188 -0.013801391 -0.122698545
-0.049245015 -0.0156387 -0.18194567 -0.01866259 -0.15081146 0.00694909 -0.10955177 -0.031075235
0.07048937 0.11639556 -0.16367193 -0.019948041 -0.24543278 0.015976842 0.13871902 -0.07719531
0.0048603304 0.11715393 -0.17559917 -0.05730386 0.07255033 -0.00569276 0.09410922 0.048928
0.16377233 -0.06851791 -0.1324444 0.13058248 0.059571803 0.019195588 0.11929622 -0.04170502
-0.018356921 0.05769731 0.023352413 -0.12680715 -0.08693295 0.07216578 -0.08929543 0.081588805
-0.09128951 -0.1746509 0.04986497 0.10847311 0.023705648 -0.17485379 0.089877814 -0.039355412
-0.025235469 0.069142565 -0.09869735 0.05118745 -0.012879695 -0.09609903 -0.14541613 -0.030788625
-0.002205773 -0.0015213334 0.006314735 0.0545987 0.071083486 -0.1085071 0.050088793 0.03231929
0.118119344 -0.054164693 -0.1360033 0.09006615 0.16683377 -0.06727284 0.13618886 -0.06520457

rnn.bias_ih_l0 f4 [204]
00000000: 6ba3 0bbd 365a 803c 698b af3d 9298 a43d
00000010: 20f5 2c3e 0c79 093e 1737 813d 21ed 3fbe
00000020: 93a3 55bd 2d6f 013e 0939 de3c e904 9c3d
00000030: d806 2d3e 2f38 ee3d a37d 05bd a117 4e3c
00000040: b281 00bc 50c7 abbd 30f1 96bd 1adf 053e
00000050: 4ed7 6fbd 8ef3 783d f43d 1e3e 68a0 28bd
00000060: d51c 073d 557a d9bd 5611 133e 2b1d 76bd
00000070: a48b 263e 8eca a73d 7f0e 38bc 0289 9b3c
00000080: c279 ce3d b00d 233e e88c 6abd 9997 92bd
00000090: d9f1 ce3d 43f8 7abc 8aa6 8c3d ba77 b23b
000000a0: ba1d 383e bf07 583e 8ba0 2a3e 25af b0bd
000000b0: 47bd 263b 4b23 8b3d fb3e c33d 901a 263e
000000c0: a58d 043e 7cb3 7abd a9ea 91bd 8ed3 2bbc
000000d0: 5940 b0bd 0b15 903d 15f9 09bd 6c7d bcbd
000000e0: 8908 89be 3a98 1f3e 9572 b93d 902a 963d
000000f0: b84a 1ebc e80e 36bd 8ffd 483c 2c68 aebd
00000100: 8507 ca3d 49c2 5abd ff64 92bd 7462 d73d
00000110: 4e2e b33d 60ac 45bb a207 98bd fca8 0abd
00000120: cd14 fe3d 0ad2 b73c 25c7 483b 0f06 53bd
00000130: 634c 1abd 7079 4a3d e791 70bc f3e0 bcbd
00000140: f9e6 bd3d 83dd 833d fb86 0ebe 43cd ff3d
00000150: bf28 e03d c769 e83d 7f89 e5bc 8f5b 2a3c
00000160: e13a 3bbd 4df7 543a 6136 0dbd 1332 803d
00000170: cb26 613d b33e 83bc 4c6f 383e 76bf ee3d
00000180: 7b4d be3c 5a23 a4bd 413e f03d b872 9bbd
00000190: 9aed 88bd ca79 5b3d 1171 de3c ce3c 00be
000001a0: fd6d 703d 33cc 2dbe a9da e73d ef41 163e
000001b0: 81da f8bd d590 c73d ada5 0fbe b548 7b37
000001c0: 0832 0abe 8add 253e b3c2 14be 33d1 fcbd
000001d0: 5215 813d 90ab 663d ae48 aabd 2ff5 07bd
000001e0: 7d3c 213d 276b 303e fab7 973a 37d1 2fbe
000001f0: 27e2 0b3c 75a0 94bd 8419 563d 775a dfbd
00000200: 86b1 08be af17 d43d ba12 6bbd 59be 2fbe
00000210: e8ae ddbd 9b06 fbbd 3cc2 813d 175f 42bc
00000220: a9e0 433c 7f19 f43c 36f1 56bd 0a4e e6bd
00000230: 53b4 bebd 6cdf a13d c57b 893d 629a 08bd
00000240: e351 21bd 6517 34be c420 17bc 53e3 f6bd
00000250: c495 14be b7f6 333e b2e9 9d3d ca9f eabd
00000260: f169 ea3d c2b3 ab3d 325d 2abd a9b0 883d
00000270: 1ea2 903d 1728 0b3e 95a0 403e 3ae8 ae3d
00000280: 39b1 ef3d 42ef 04be c05f bf3c 7267 1fbc
00000290: f6b7 89bd c9a7 313e 926e 863d c75f 063e
000002a0: 81d4 c73d c759 af3d ab7a 09bc 38ff b0bd
000002b0: 1d7f 2e3e 0d1f 3e3e d1fd bc3d 0f03 80bc
000002c0: 37d6 2cbd e197 1c3e 2573 4b3d 4c0a 0f3d
000002d0: 79b9 91bd 03e7 203d 5ff0 543d 2534 b33d
000002e0: be80 083e f461 8abd 6511 f3bc a49a b43d
000002f0: 3542 81bd acdd aa3d 78bc fabc 10f2 1fbc
00000300: 615b b03d 7560 65bd 3e3a 38be b7f6 d23c
00000310: 8b55 d2bb d885 8d3d 1681 c53c 09c4 a83d
00000320: 0000 bfbd 6629 d7bd ce7a b7bd 4049 9d3d
-0.034091394 0.015668016 0.08571512 0.08036913 0.16890383 0.13425082 0.06309336 -0.18742801
-0.05215795 0.12640066 0.027126806 0.07618124 0.16897142 0.1163181 -0.03259052 0.012578876
-0.007843422 -0.08387625 -0.073702216 0.13073388 -0.05855494 0.060779147 0.1545332 -0.0411686
0.03298648 -0.10619036 0.14362082 -0.06008641 0.16264206 0.08192931 -0.011233925 0.018986229
0.10081817 0.1592319 -0.057263285 -0.07157821 0.101047225 -0.015317979 0.06867702 0.0054464014
0.1798009 0.21096705 0.16662805 -0.08627156 0.0025442408 0.06793841 0.09533497 0.1622107
0.12944658 -0.061206326 -0.07124836 -0.01048745 -0.08606023 0.07035264 -0.03368481 -0.0920361
-0.26764324 0.15585414 0.09055058 0.07332337 -0.009661369 -0.04444781 0.012267484 -0.08515963
0.098647155 -0.05340794 -0.0714817 0.10516825 0.08749066 -0.0030162558 -0.07423331 -0.033852562
0.12406311 0.022439022 0.0030636278 -0.05151945 -0.037670504 0.049432218 -0.014683223 -0.09222593
0.0927257 0.064387344 -0.13918678 0.124903224 0.10945272 0.113483004 -0.028019665 0.010397806
-0.04571045 0.0008124009 -0.034475688 0.06259551 0.054968636 -0.016021108 0.18011206 0.11657612
0.023230305 -0.08014555 0.11730624 -0.0759024 -0.06685944 0.053582944 0.027153524 -0.12523195
0.058698643 -0.16972427 0.11321003 0.14673589 -0.12151051 0.097444214 -0.14028044 1.4977694e-05
-0.13495648 0.16197792 -0.14527397 -0.12344589 0.06302895 0.05631596 -0.08314644 -0.03319281
0.039364327 0.17228375 0.0011575215 -0.17169653 0.008537806 -0.07257167 0.052270427 -0.10905927
-0.1334897 0.1035608 -0.057390906 -0.17162456 -0.10824376 -0.12257119 0.063358754 -0.0118634915
0.011955419 0.029797314 -0.05247613 -0.112453535 -0.09311738 0.079039425 0.0671306 -0.033350356
-0.039384734 -0.1758705 -0.0092241205 -0.120550774 -0.14510256 0.17574583 0.077105895 -0.114562586
0.11445988 0.083838955 -0.041592784 0.0667432 0.070621714 0.13589512 0.18811257 0.085403875
0.117037244 -0.12981895 0.023361087 -0.009729253 -0.06724541 0.17349161 0.06564058 0.13122474
0.09757329 0.085620455 -0.008391063 -0.08642429 0.17040677 0.18566532 0.09228099 -0.015626458
-0.04219648 0.15292312 0.049670357 0.03492193 -0.07115454 0.03928281 0.05198705 0.0875018
0.13330361 -0.06756964 -0.02967138 0.08818558 -0.06311456 0.08343062 -0.030607447 -0.009762302
0.08611179 -0.05600019 -0.17990968 0.025752408 -0.006418889 0.06910294 0.024109405 0.08240516
-0.09326172 -0.10505943 -0.0895897 0.07679987

rnn.bias_hh_l0 f4 [204]
00000000: 528e 44bd ac22 043e 9466 7abc c428 c13d
00000010: f2ae f1bc 2027 5c3e 81a6 da3d 61f7 b73d
00000020: 7808 d3bd 8ac3 4d3d 7658 da3c 05e3 bf3d
00000030: a0ba 7dbd 25ed adbc 8028 31bd 5ec4 ee3d
00000040: d300 33bd a898 343e 7b95 1d3e 6daf 083e
00000050: 5f8c bc3a 7c96 4a3d bf87 343d 8209 413d
00000060: 241a 423e 8859 47bd 7923 e83d 79e1 bb3d
00000070: a911 1a3d 4219 9e3d 5b68 c0bc 012a ad3b
00000080: 6a87 c33c e85c cb3d 32aa d4bc ce8e 1c3e
00000090: 10f5 1d3e db83 173e a1b4 ce3d f15c ce3c
000000a0: 2d3a 8d3d 32dd 913d 143e 313e 450c eb3d
000000b0: b101 99bd a4ef 883d 1b7b 1e3d f92c 153e
000000c0: 6e79 a3bb e602 b2bd e020 013e 7762 843d
000000d0: 1393 f93d 2d18 c1bd 58a1 63bc efb3 e6bb
000000e0: 497f c33a 66b4 10bd 1b3e 283d 981a 063d
000000f0: 1061 0b3c 3a57 d7bb 5eec 343e 549d 0d3e
00000100: 9069 743d afe7 6e3b 24e1 383d e9b5 8f3c
00000110: fe4f d8bc 123f 5f3d 258e 173e 3ef2 b1bd
00000120: f8e4 4f3d 1b82 a2bd 041b 67bd f1b7 c6bd
00000130: 3f9f 243c 66e5 b13d 0b22 c9bd 543c b8bd
00000140: 54be 093d 20ce 20bd f8ee 80bd cff5 4cbd
00000150: 98ed afbd 28d2 2f3e 8d91 a33b 5ed6 9d3d
00000160: 0b97 653c 5648 9e3a 17eb 593c f119 e83d
00000170: f8d4 943d d2c8 0d3d c090 d73a 27f1 90bd
00000180: 0fff 9bbd 6427 3e3d d986 1c3e d7a6 bf3d
00000190: b5fa c8bd 0dc4 12bd d823 2d3e e8bd 12be
000001a0: 2073 fb3d a192 11be 5768 803d 30ff afbb
000001b0: 8a28 1bbe 69ff 933d 777d e7bd af56 0c3d
000001c0: 532e 913d 708d b33d 4946 b4bd 3a23 50bb
000001d0: c71a fc3d aca5 0dbe f89c ff3d 79ea 16be
000001e0: 8c82 193e 5a0c 513d c549 083e 0544 e9bc
000001f0: e90d 92bd 9299 143e fea4 103e c2fb 98bd
00000200: 42d3 e33d 5337 f03d 7474 1cbe 8186 6f3d
00000210: e440 e7bd 016f 823d c76b b2bc 0e81 83bd
00000220: 5f88 d2bd 0d79 e4bd e0ea 983d 0726 21be
00000230: 2aa3 263e 22b8 cdbd 49c5 2c3d 8118 c2bd
00000240: 3f38 debd 8316 e13c a9d9 243e 367e ba3d
00000250: 0b4c 98b9 d1cb 2f3e 7245 8ebd 9b34 95bd
00000260: 56ba 123e 025b 743d 35e4 e33d 2ff8 0f3b
00000270: d209 50bc 2f2b 54bc c5c8 5d3e 2b65 da3d
00000280: bf1b b5ba 4ef6 abbd 86c9 cd3d 7ed6 b13c
00000290: 131e 073e 04fe 74bc 7be2 d93d 1886 ae3d
000002a0: ad86 573e 9bf4 5c3d 53aa 0d3e b396 cb3b
000002b0: fa1f 233e c076 6ebd 339b 323e 1868 e23d
000002c0: 42b5 423e 35fb 19bd 858d 1cbc 1516 edbd
000002d0: eb4a f13c ac9b d3bc b79b 3d3e 7d12 ee3d
000002e0: 5534 5e3e 125b d63d 9353 1bbb dde8 a5bc
000002f0: ce56 9bbd 626a fa3c c19b 423d 030c a53b
00000300: e30a f93d 85b4 ba3d 3b17 09be 4a98 043e
00000310: dbe0 a6bd c73c 293d 6664 173e cb58 073c
00000320: 9693 b03d c769 fd3d 6c95 83bc b9b8 243e
-0.04798729 0.12903851 -0.015283246 0.094316036 -0.029502366 0.214993 0.10676289 0.08982731
-0.1030435 0.05023531 0.02665351 0.093694724 -0.061945558 -0.021231243 -0.043251514 0.11658548
-0.043701958 0.17636359 0.15389054 0.1334817 0.0014385096 0.04945992 0.04407477 0.047128208
0.18955284 -0.048669368 0.11334891 0.09173865 0.0376145 0.07719661 -0.02348726 0.0052845483
0.023868281 0.0992983 -0.025960062 0.1528885 0.15425515 0.14796393 0.10093046 0.025190802
0.06895862 0.07122268 0.17308837 0.114769496 -0.07471026 0.06686333 0.03869162 0.14567937
-0.004988841 -0.08691959 0.12610197 0.06464093 0.12186255 -0.09428439 -0.013893448 -0.0070404927
0.0014915253 -0.03532829 0.041074853 0.032740206 0.008507028 -0.0065716775 0.17668292 0.13829547
0.059670985 0.0036454012 0.045136586 0.017542796 -0.02640533 0.054503508 0.14800318 -0.08688782
0.05075547 -0.07934972 -0.05642225 -0.09703053 0.010047733 0.086863324 -0.09820946 -0.08995882
0.033628777 -0.039259076 -0.0629558 -0.05003911 -0.08590239 0.17170012 0.0049917162 0.07706903
0.014013062 0.0012076001 0.013300679 0.11333073 0.07267183 0.034615345 0.0016446337 -0.07077246
-0.07617008 0.046424285 0.15285815 0.09357994 -0.098134436 -0.0358315 0.16908205 -0.14330256
0.12277818 -0.1421609 0.06269901 -0.005370997 -0.15152183 0.0722645 -0.113032274 0.034262355
0.07088914 0.087672114 -0.08802468 -0.0031759278 0.12309795 -0.1383273 0.12481111 -0.14737882
0.14991206 0.05103717 0.13309391 -0.028474817 -0.071315594 0.14511707 0.1412544 -0.07469894
0.111242786 0.11729302 -0.15278798 0.058477882 -0.11291674 0.063688286 -0.021779908 -0.064210996
-0.10279917 -0.11155901 0.07466674 -0.15737163 0.1627318 -0.10044886 0.042180333 -0.0947733
-0.10850572 0.027476555 0.16098656 0.09106104 -0.00029048356 0.17167594 -0.069468394 -0.07285424
0.14328894 0.059657104 0.111275114 0.0021967997 -0.012697654 -0.012949749 0.21658619 0.106638275
-0.0013817473 -0.08396588 0.10048203 0.021708723 0.13195066 -0.01495314 0.10638901 0.0852167
0.21047468 0.05394421 0.13834505 0.006213033 0.15930167 -0.058218718 0.17442016 0.110550106
0.19014457 -0.037593085 -0.009555225 -0.115764774 0.029454669 -0.025831066 0.18516432 0.1162462
0.2169965 0.10466589 -0.0023700937 -0.02025264 -0.07584916 0.030568305 0.04751182 0.0050368323
0.121602796 0.091164626 -0.13387768 0.12948719 -0.081483565 0.041317727 0.14784393 0.008260916
0.086219 0.12373691 -0.01606246 0.16086091

rnn.weight_ih_l1 f4 [204, 51]
00000000: 3797 aa3d e721 bcbd 359a babd 4b28 743e
00000010: 9bce 7d3d 85b4 dc3e df12 493e c477 393e
00000020: 9b2d 05bb effe 8abe efda 19bd 9d28 83bd
00000030: b05a 92bd 175c 16be eddc 6ebd 8d45 83be
00000040: 2247 1a3b 6a5e 32be 20aa 85be 2e06 8e3e
00000050: 5ca0 a0bd 8b05 b9bd 87cc 66be aab1 b93d
00000060: d835 973e fb69 ae3c 9680 0e3d 87fd d33d
00000070: 88e8 3dbe 76d2 993d a9bf d8be c3d7 babd
00000080: 7771 673e 683e 043e f41c b0bd 66e9 2ebe
00000090: 2be4 a53d 5c85 42bd 89fe 88bd 0d6c c1bd
000000a0: 1a2a 1dbe dba5 6dbd 93b5 d93d 8be9 193d
000000b0: 3be2 383e daaa 68bd fbd8 14be 210c 6f3c
000000c0: 6d20 35be b94c 57bd ed9b 5f3e 6c50 543d
000000d0: f4b5 d73b eaab eb3d 3cb3 8f3c 7df0 b0bc
000000e0: e631 843e 90bb d63d 8b02 2e3e 24b3 c1bd
000000f0: 0a32 49be 09e5 b93d 990c 103e 06dc 0ebe
00000100: 320a 01be a62d 08be 7625 b5be b54b 8c3d
00000110: 5e1f 3bbe fe59 38be 583f 8d3e c182 21bc
00000120: 2d70 16be 523e 62be 9725 c73e cd2f ac3e
00000130: f7ab ec3d 9254 c3bd e4cd 83be cd75 debe
00000140: 74f7 ccbc e1a0 d3be 891b a83a bbed e13d
00000150: 44e1 593d 1bb3 f5bd ec32 fcbc 8b7c 07be
00000160: b22c e3bc cabb 3cbd a68d 46be ca72 32be
00000170: 42de 813d f50b 323e 27f6 d03d 8e2d 403e
00000180: d338 b5be a933 87be 260d b73b 3c84 23be
00000190: ac72 64be d0a7 203e 3269 b3bc 8794 45bd
000001a0: 3c0e cf3e 8eab 333d 3913 533e a775 2dbe
000001b0: 9635 ebbc cbba 263e 931a 94be 80e8 803d
000001c0: 7d4f e0bc f045 2c3c 1061 7d3b 121c ffbd
000001d0: 9798 1abe 04e9 a3be a5e4 0bbe fb59 17bb
000001e0: 6cce b93d 36fa 5d3d ad6f 293d a78e 053c
000001f0: 5705 283d 76b2 b23d 7553 59bd 044f 32be
00000200: 8fba 7d3e 99bd e53d a1e5 06be 128e 55be
00000210: 72de fd3d 3e20 65be 30cd cdbd 1f3c 90be
00000220: 30f1 19be 1b8f bebd efd3 e03e 0e28 8ebe
00000230: fc2e e4bc 6e51 553e bbf8 663c e1fc 9abe
00000240: 4eeb 18bd 5f0d cbbe 1276 463c 4e7a 293e
00000250: fb85 7abd db93 553e b089 cabd e989 7ebe
00000260: c618 893c 850f 87bd 9f80 bbbd 562f 4d3d
00000270: 78cc ddbd 10d8 023e 74dd 413e c31f e93c
00000280: 6ae1 943e ecd7 77be 2aed c43d dc3d f5bc
00000290: 75e8 e13d df73 4c3d eb9c 43bd c556 dbbd
000002a0: ae90 97bd 4a35 85bd f972 1cbe 3961 d4bd
000002b0: 80ce bd3c 67c8 313e 6c62 7bbe 9488 66be
000002c0: a95b ba3d 0c0d a73d da7d d5bd f30f fc3d
000002d0: 0453 3a3e fd8d 37be dd2c b0ba 8a64 dbbd
000002e0: 8006 6bbd ac0a f53d a5a6 45be 4c6e 1d3d
000002f0: 7079 38be 6309 713e 8255 8cbb 3528 78bc
00000300: 8a82 1c3e 1839 cabd 8212 87bd 3eae d4bd
00000310: 2c71 69bd 8e9e cdbc 178e 3abe b6c0 b9bb
00000320: b13b ca3d 4376 afbc ab97 46bd 16aa 14bd
00000330: 97ad f13d b1ed e3bd fbd1 323e ddd9 f7bd
00000340: e1b1 b93d 9272 583d abb9 34be e1bb 663e
00000350: 0c55 9c3d b165 1d3e 5649 da3d 6b9d 273e
00000360: 8bc8 98bd 16ac 0fbe b329 1d3e 7b8c 4b3e
00000370: 109c cbbd 5024 b93c d533 4e3e 246f 6dbb
00000380: 2fb3 423e 42d8 033d 58fb a3bc fbc3 343e
00000390: 1612 803d f57b 893d 1910 c03c f6de 603e
000003a0: 76d7 483c d103 6a3d 9e5f 9abd b363 d03d
000003b0: b08e 15be e934 8abc 972b e0bd 7d87 89bd
000003c0: 583e 593e da25 13be 6363 493e 62d9 e6bd
000003d0: a13d 3abc 66d2 1dbe 76d4 19be a848 ddbc
000003e0: 05d2 df3d 9aeb 2cbd 6156 a73d b2e4 573c
000003f0: 1f19 0b3e e30e 17be 9489 0f3e e877 ffbd
0.08329623 -0.09186154 -0.09111444 0.23843496 0.061964612 0.43106475 0.19636105 0.18112093
-0.0020321372 -0.27147624 -0.037562307 -0.06404231 -0.071462035 -0.14683567 -0.05831616 -0.25639
0.0023540934 -0.17418829 -0.26106358 0.2773909 -0.07843086 -0.0903426 -0.22538958 0.0906709
0.29533267 0.02129077 0.034790598 0.10351091 -0.18545735 0.07510845 -0.42333725 -0.091231845
0.22601877 0.12914431 -0.08599272 -0.17081222 0.0810016 -0.047490463 -0.06689174 -0.09444437
-0.15348092 -0.0580195 0.10630336 0.03757624 0.1805505 -0.05680356 -0.14535896 0.014590294
-0.1768815 -0.052563403 0.21836825 0.05183451 0.00658297 0.115073994 0.01754152 -0.021599049
0.2581932 0.104849935 0.16993158 -0.094579965 -0.19647995 0.09076888 0.14067306 -0.1395112
-0.12601545 -0.13298663 -0.35380143 0.068503775 -0.18273684 -0.1800308 0.2758739 -0.009857834
-0.14691229 -0.22094086 0.38895866 0.3363022 0.11556237 -0.09537615 -0.2574302 -0.4344925
-0.025020339 -0.41333678 0.0012825589 0.110316716 0.053193346 -0.11997052 -0.030786 -0.13231103
-0.027731273 -0.046077527 -0.19389972 -0.17426601 0.063412204 0.17387374 0.102032 0.18767378
-0.35394916 -0.264066 0.005586284 -0.15968412 -0.22309369 0.15689015 -0.021900747 -0.04823735
0.40440547 0.04386478 0.20612802 -0.16939412 -0.028712075 0.16282193 -0.28926525 0.06294346
-0.027381653 0.010514721 0.003866259 -0.12456526 -0.15097271 -0.32013714 -0.1366144 -0.0023094404
0.09072575 0.054193698 0.041366268 0.008151687 0.041020717 0.08725445 -0.053058106 -0.17412955
0.24778198 0.112178035 -0.13173534 -0.20854977 0.12395944 -0.2237558 -0.10048902 -0.2817087
-0.15033412 -0.09304639 0.43911693 -0.27764934 -0.027854435 0.20831844 0.014097388 -0.30271056
-0.03733378 -0.3965864 0.012113111 0.16550562 -0.06116293 0.20857184 -0.09889543 -0.24857296
0.016735446 -0.06594757 -0.09155392 0.05009397 -0.10830015 0.12777734 0.18932134 0.028457528
0.29078227 -0.24203461 0.09615548 -0.029936723 0.11030666 0.04991519 -0.04775707 -0.10709909
-0.07400642 -0.06504305 -0.15278234 -0.10370106 0.023169756 0.17361604 -0.24549264 -0.22513038
0.09099514 0.08156785 -0.10424395 0.123077296 0.1819573 -0.17925258 -0.0013441105 -0.10712536
-0.057379246 0.11964926 -0.19301851 0.038435265 -0.18015075 0.23538737 -0.0042826543 -0.015146305
0.15284172 -0.09874171 -0.06595327 -0.103847966 -0.056992695 -0.025100019 -0.18218265 -0.005668725
0.098746665 -0.021418696 -0.048484486 -0.03629502 0.11800688 -0.111293204 0.17462914 -0.12102101
0.09067131 0.052843638 -0.17648952 0.22532608 0.07633409 0.15370823 0.10658519 0.16368644
-0.074601255 -0.1403049 0.15347938 0.19877808 -0.09941876 0.022600323 0.2013696 -0.0036229575
0.19013666 0.03218866 -0.020017311 0.17652886 0.062534496 0.06713096 0.023445176 0.21960053
0.012258401 0.057132546 -0.07537769 0.10175266 -0.14605212 -0.016870933 -0.10945814 -0.067152955
0.21215189 -0.14369908 0.1966682 -0.11271931 -0.011367233 -0.15412292 -0.15022454 -0.027012184
0.1092873 -0.042216875 0.08170772 0.013177084 0.13583802 -0.14751773 0.14017326 -0.12474042

rnn.weight_hh_l1 f4 [204, 51]
00000000: 6457 7a3d c821 6dbd 2052 f0bd 144a 753e
00000010: 144e d7bc 28c7 edbb 3353 503d 157b 0f3d
00000020: 228b 08be c19f cc3d 1849 adbd 7930 bb3d
00000030: fae9 843d cf0e fc3d 73fc e13d c22e 743d
00000040: 334c c03d 2d50 9abc 71f9 e8bd 4035 603d
00000050: c9fa 38be 3a1c 3abc bcb6 4f3d 254e 0f3e
00000060: 4c1a 7b3d 7b58 323b f260 913c 2065 ccbc
00000070: 0411 093e 0818 d0bd 588d d23d 629b babd
00000080: 39fa ec3d c86b 173e 9d8b d73d 22a2 8d3d
00000090: 6dda a7bd f4ad df3c 3d24 993b 9b91 f4bb
000000a0: fd8c 9f3d 421b b0bd 707e fbbd 0cf0 123e
000000b0: 321b 58bd 2cef 55bd 1a70 b73d 063f 093e
000000c0: 4339 49bd 3589 103e 5692 103e 147c e33d
000000d0: 1673 4a3e 4827 8ebe d0f9 fe3d 0e67 a03d
000000e0: 126e 1d3e 5f8b 8bbd fe18 2b3d b0a3 9a3d
000000f0: 8018 37be c5de d3ba f384 d03d 7ef6 b3bd
00000100: 189a 27bd bca9 cabd 0bde 883d 45a3 263d
00000110: 56f4 f63b abc8 f0bc 3769 053d 2d0c 1bbd
00000120: 3055 bcbd 335f 103e ab6e f13d f7be d43d
00000130: 511f bdbd 5cd5 a6bd 1067 fc3c 25d4 c2bd
00000140: 3644 7dbd c217 633d 21e5 c9bc 350d ad3b
00000150: f5b2 983a 72e0 2ebd 3a15 3f3e a264 693d
00000160: a179 a43d 703b f338 64e6 5dbd 2e39 45bc
00000170: eddb acbd f406 5cbe 2668 de3d 84d5 aebc
00000180: 8b9a 543d e3af 1bbc 76ba 6cbd 9134 31bd
00000190: 5bfb 243e ed83 953d 7bcf d2bd f854 e43d
000001a0: 3736 95bd 8831 86bd ad18 433c ee83 793d
000001b0: 567b b9bc 9730 023e 3aa8 97bc c4ef 06be
000001c0: daf7 54bd 6d9d a2bd aa6a c7bd 06b8 0c3e
000001d0: 023b 633c 7235 e1bb cb45 3ebe 24c7 b6bd
000001e0: 6f12 403d 8d49 cf3d f048 373e 41d8 7f3a
000001f0: e0c4 cd3e 819f 21be 8239 913e 260a de3c
00000200: 471c 483e b1e1 24bc 0cf9 533d 1b78 26bd
00000210: dd2c 2cbe cad4 89bd 1505 033c 0d09 943d
00000220: f461 f73d d212 babd 11f0 e5ba b9a2 803e
00000230: ca54 153e b7da 083e 8359 23be 579a b8bd
00000240: 1c82 e0bd 2dea e4bc c90c 9cbd 2826 81bb
00000250: 2571 0bbd c3fe 31bd 23e4 dc3c 2876 eb3c
00000260: 5173 4dbd 062b b43d 3b6c 2f3d 00fd e7bc
00000270: 7016 f43d 427c a83d 8790 05be 04ce c3bd
00000280: 121e d03d a182 193e e6f0 0a3d 7ed3 2dbc
00000290: 2ae0 bebb c9a1 35bd f6db 483e dd56 793d
000002a0: 6c7c c8bd 47cc 98be a348 8f3d c4db 29be
000002b0: ba19 933d 3185 423e 570d 853e 8637 483e
000002c0: 21a8 12be 796a 0c3e 4b09 6c3e f334 1bbc
000002d0: a2f4 10bd 6860 0c3e be21 4abc f587 c0bc
000002e0: 326b c7bd e31a 7c3c 3901 ad3c 5c20 1d3d
000002f0: f94c 1dbd 767d 9fbc 2707 0e3e 9e6a aa3d
00000300: 7d1e fb3d 8998 69bc ec50 3a3d 77e0 b8bb
00000310: 1df2 7bbd 24b2 ad3c 4d65 d73d 067c 7e3d
00000320: 3035 83bd 1706 893d 8bfd aabd 1b14 18be
00000330: 3aa6 6abd fd1a 1e3e dbfe 07be 3e4b fa3d
00000340: 837b 1cbe cadf acbd 22ec b3bd 3a5a c1bd
00000350: 67b8 d53d 2ede 79bd 0646 0fbe fa29 153c
00000360: d431 82bb 9df8 ef3d 8d80 8cbc 08bb e3bc
00000370: a64d 14be 021d 25be 344a 22be d157 ee3c
00000380: 832b ab3d 19a6 e8bb 5791 07bd 07b7 563d
00000390: 33de 0e3e 1c60 14bd b83d ad3c b306 3dbe
000003a0: 738c 343e 70f4 88bc b012 b13c 6b23 78bd
000003b0: 8513 23be 56ba 85bd 13ad be3d 5138 a93d
000003c0: 5e0c cd3c dbe6 343e bc39 a53d dc04 a3bb
000003d0: 83ec 81bd b763 dbbb 6e10 883d 6039 8e3b
000003e0: ca58 6ebd 5340 583d a1cf 86bd dd35 a43b
000003f0: 4547 453d 9129 72bd 2c57 813d 9790 9d3d
0.0611185 -0.057893544 -0.11734414 0.2395404 -0.026282348 -0.0072564073 0.050860595 0.03502949
-0.13334325 0.09991408 -0.08461207 0.09140105 0.0648994 0.12307512 0.11034479 0.059614904
0.09389534 -0.018837059 -0.11375702 0.054738283 -0.18064417 -0.011359269 0.05071138 0.13994654
0.061304376 0.0027213383 0.017746422 -0.024950564 0.13385397 -0.101608336 0.102808654 -0.09111668
0.11571164 0.14787209 0.10524676 0.0691569 -0.08195958 0.027304627 0.0046735094 -0.0074636466
0.07790563 -0.08598949 -0.122799754 0.14349383 -0.05276031 -0.052230045 0.089569286 0.13402948
-0.049126875 0.1411484 0.14118323 0.111076504 0.19770464 -0.27764344 0.12449992 0.07832156
0.1537402 -0.06813692 0.04177188 0.07550752 -0.1788044 -0.0016164413 0.10181608 -0.08787249
-0.04091844 -0.098956555 0.06682976 0.04068305 0.0075364513 -0.029392561 0.032571044 -0.03785341
-0.09195936 0.14098816 0.11788686 0.10387986 -0.09234489 -0.08146164 0.030810863 -0.095131196
-0.06183263 0.05544258 -0.02464539 0.0052811154 0.0011650013 -0.042694516 0.18660441 0.056980737
0.080310114 0.00011598214 -0.054174796 -0.0120375585 -0.08440385 -0.21487027 0.108597085 -0.021342047
0.051905196 -0.009502384 -0.05779501 -0.04326302 0.1611151 0.073005535 -0.1029348 0.11149019
-0.07285731 -0.06552416 0.011907739 0.060916834 -0.022641819 0.12713848 -0.018512834 -0.13177401
-0.051994182 -0.07940183 -0.097371414 0.13742074 0.013869049 -0.0068728263 -0.18581311 -0.08924702
0.04689258 0.101214506 0.17898917 0.00097597024 0.40189266 -0.15783502 0.28364187 0.027104449
0.19542037 -0.010063575 0.05175118 -0.040641885 -0.16813989 -0.067300394 0.007996817 0.07228289
0.1207923 -0.09085621 -0.0017542859 0.25124148 0.14583126 0.13364683 -0.15952115 -0.09013813
-0.109623164 -0.027943695 -0.07619626 -0.003941316 -0.03404345 -0.04345585 0.026964253 0.028742865
-0.050158802 0.087972686 0.042827826 -0.028318882 0.11918342 0.08226825 -0.13043414 -0.09560779
0.101619855 0.14991237 0.033921145 -0.010609506 -0.0058250623 -0.044343743 0.19615158 0.060873855
-0.097893566 -0.2984335 0.06996276 -0.1658774 0.07182641 0.18996121 0.2598674 0.1955243
-0.14321949 0.13712491 0.2305042 -0.009473073 -0.03538955 0.13708651 -0.012337146 -0.02350233
-0.09737243 0.01538727 0.021118747 0.03836094 -0.038403485 -0.019469004 0.13869916 0.08321117
0.122616746 -0.014257559 0.04548733 -0.0056419927 -0.061510194 0.021203108 0.105173685 0.062129997
-0.06406629 0.06690615 -0.08349141 -0.1485142 -0.057287432 0.15439983 -0.13280813 0.122213826
-0.15281491 -0.08441122 -0.08785273 -0.094410375 0.104355626 -0.061002903 -0.13991556 0.009104246
-0.003973225 0.11717341 -0.017151142 -0.027799144 -0.14482746 -0.16124347 -0.15848619 0.029094609
0.083579086 -0.0070998785 -0.03309759 0.052420642 0.1395195 -0.03622447 0.021147594 -0.18459587
0.17631702 -0.01671812 0.021615356 -0.060580652 -0.15925415 -0.065296814 0.09310355 0.082626946
0.025030311 0.1766619 0.080676526 -0.0049749445 -0.06343939 -0.0066952365 0.06643759 0.0043403357
-0.058190145 0.05279572 -0.06582571 0.005011304 0.04816367 -0.059121672 0.06315455 0.07693594

rnn.bias_ih_l1 f4 [204]
00000000: e9ed 1c3e db05 653c 6ddc fc3c fb68 a13d
00000010: fe3c 25bd 6dfa 173d 835f 52bc 6085 313e
00000020: 9870 9b3d ecf2 2f3e 800a 5f3e 8858 913d
00000030: dcf5 3c3e b9d0 7f3d 8a32 2f3e fe36 e63d
00000040: affe 54bc fddf 83bc 41c9 913d 0aa2 bc3d
00000050: 4188 b83d 8580 3e3e 1e1c 16bb e669 ebbc
00000060: bac5 ca3d 3d50 be3c d238 88bd 33d6 a7bb
00000070: fc8b af3d 6f75 b9bd 3afc 71bb f853 97bd
00000080: c121 7cbc a4f7 69bd 0102 bfbc aa35 32bd
00000090: aa7c c23d eaf8 013e 246f 653e 7caa 24bd
000000a0: ffc5 a9bb c7bb e63d 68f1 92bd 131a ac3c
000000b0: 9615 5dbb 1166 8bbd 0572 65bd 3744 8abb
000000c0: 41eb 4fbd f000 7dbc b917 4b3e 3006 ecbb
000000d0: 7b12 cb3c b76b 0bbd 297c 90bd d48d d13d
000000e0: 5dc6 5b3d 9c01 bb3c 76a7 123e 2a7a 2dbd
000000f0: f2b3 d33c c959 cfbd 02a0 283e 2621 bcbb
00000100: 4fd1 13bd 0acc eebc ef3c 213c 6fe7 e9bd
00000110: 61a1 673d a7d0 67bd 6efb adbd ab7b f13d
00000120: 9df1 fd3d 8c7c acbd d4dc 7b3d 44ce 1a3d
00000130: 6b7c 193e d7ed a63d d335 083d 6cb2 243d
00000140: 8c14 57bd 289c 8b3d e58c 033e 1176 023e
00000150: a342 fc3d 87de 1c3e d28a 3b3d 9a97 a53c
00000160: b4d8 503d a6ec 99bd 301a 4bbd 0a43 d23c
00000170: 2721 cc3d 1cd1 db3c 91d2 523d cc4e 8b3d
00000180: 1925 e43b 6efe b43d c0bd ddbb a368 263e
00000190: b8b0 e0bb 7fe0 d2bd 7c99 0a3e 6794 cf3d
000001a0: dafd 11bc 77cf 1fbd adab c7bd dc39 913d
000001b0: 1330 f03d 5f65 adbd 323a 1ebe 31d5 b5bd
000001c0: a77c 6abd 7abe cb3d e7cb 3a3c 8fbe fdbc
000001d0: 87b5 c33d a063 cdbd 9edc f9bd c1a5 0dbe
000001e0: 52fc cabd fd52 a83b c2b7 c63d e517 c2bd
000001f0: 04fe b63d e864 fcbb 515e 903c c988 2c3e
00000200: 8664 283e ecb6 2e3c 950a 4fbd b10b 95bd
00000210: 32ab debd 9d2f bfbc 3ea7 d6bd 6f27 543d
00000220: 66bc a73d d946 3dbd 0a3a a4bd 5aa7 273e
00000230: d0ac b1bc 7ab7 6abd 90b4 0cbe c7d1 423d
00000240: 49e3 21bd dd4e e0bd c4ec c23c b270 d43c
00000250: 58e6 02be 57af 39bd 005d 243e b5c9 b53d
00000260: cb6f b33d 9a8b aa3c e92d 143e f498 283e
00000270: ed0f 7b3d e70d c23c ff5d 863d ccd5 223e
00000280: 604b 8fbd b93c cd3d c4ee de3b 437d 1c3e
00000290: e0b5 3e3e a330 96bd f473 ae3d ac95 af3b
000002a0: 16b2 a63c 886d 383e 33c6 45bd fce0 023e
000002b0: e8bb ca3d cdb1 233e 0d13 f23d 84c4 403d
000002c0: 3241 343e 505c a33d 1756 6b3c 1dcf 583d
000002d0: 6ce5 0dbc 5b98 a23d fef2 1b3e d326 3c3e
000002e0: 34e5 473e b2e1 70bd 4486 de3d 164a 6c3c
000002f0: 398c 46bd b87b 8ebc 5528 2bbc d140 4f3e
00000300: 27e3 0a3e 69c2 0f3e e411 4b3c 5632 d03c
00000310: e66e 563e 1a8d 97bd 82fc 863c 3cbe bdbc
00000320: 40b6 3d3e 550d 0c3d 385a d13d b884 d2bc
0.1532513 0.013978447 0.030866826 0.078813516 -0.04034137 0.03710406 -0.012840155 0.17336035
0.07589835 0.17182511 0.21781349 0.07096964 0.18453163 0.062454913 0.17109123 0.11240958
-0.013000174 -0.016098017 0.07118464 0.09210594 0.09010363 0.18603714 -0.0022904943 -0.02873702
0.099009946 0.02323162 -0.066514626 -0.00512197 0.08571622 -0.09055602 -0.003692402 -0.07389063
-0.015388907 -0.057120934 -0.023316385 -0.04350821 0.09496434 0.1269261 0.22405678 -0.04020165
-0.0051810737 0.112662844 -0.07174951 0.021008527 -0.003373479 -0.06806577 -0.05601694 -0.0042195576
-0.050761465 -0.015442118 0.19833268 -0.007202886 0.024789086 -0.03403827 -0.07054932 0.1023213
0.05365597 0.022827916 0.14321694 -0.042352833 0.02584264 -0.10124547 0.16467288 -0.0057412563
-0.036088284 -0.029150028 0.009841188 -0.114210956 0.056550387 -0.05659547 -0.08495222 0.11791166
0.123996 -0.08422193 0.061489895 0.037794366 0.14988868 0.08150833 0.033254456 0.04020922
-0.05250983 0.06816894 0.12846716 0.12740351 0.123173974 0.15319262 0.045786686 0.02021389
0.050987914 -0.0751584 -0.04958552 0.025666732 0.09967261 0.02683311 0.051470343 0.06802139
0.00696243 0.08837591 -0.0067670047 0.16250853 -0.006857004 -0.102967255 0.13535112 0.101357274
-0.008910621 -0.039016213 -0.097495414 0.07091114 0.117279194 -0.084666006 -0.15451887 -0.08878554
-0.057247784 0.0994844 0.011401153 -0.030974654 0.09556108 -0.100287676 -0.122002825 -0.13832761
-0.099114075 0.005136846 0.09703018 -0.09477214 0.089351684 -0.0077024586 0.017623099 0.16849054
0.16444597 0.010663729 -0.0505472 -0.072776206 -0.10872497 -0.023338133 -0.10481118 0.05179542
0.08190231 -0.046210144 -0.080188826 0.16372433 -0.021688849 -0.057303883 -0.13740754 0.04756334
-0.039523397 -0.10952542 0.02379454 0.025932644 -0.12783182 -0.045333233 0.16051102 0.08876363
0.08761557 0.02081852 0.14470638 0.16464597 0.061294485 0.02368827 0.06560897 0.1590187
-0.069967985 0.100213476 0.0068033654 0.15282159 0.18624067 -0.073334955 0.0851821 0.0053584184
0.02034859 0.18010533 -0.04828472 0.12781137 0.098991215 0.15985794 0.1182004 0.047062412
0.17602995 0.079765916 0.014363787 0.052931894 -0.0086606555 0.07939216 0.15229413 0.18374185
0.19521028 -0.05880899 0.10865453 0.01442196 -0.04847357 -0.017392978 -0.010446628 0.20239569
0.13563214 0.14039005 0.012394402 0.025414627 0.20940742 -0.0739996 0.016477827 -0.023162
0.18526554 0.034192402 0.10222286 -0.02569805

rnn.bias_hh_l1 f4 [204]
00000000: 0908 bebd 0cdc ed3d 4f2f a83b 5e78 933d
00000010: 2108 b43c 1934 92bb 1867 0bbd ebde e83d
00000020: 368a afbd 358e 343e ad31 993d a545 1f3e
00000030: a2b9 923d 1be3 4abd 9f4e a23d 847b de3d
00000040: 7c9f 69bd 997c 403d 03f7 15bc 3a9f 033d
00000050: 3b2f 5c3d 406d 1d3d a29f 25bd 920c f9bc
00000060: acaf cb3d 4454 003d 7cec 923d a9ca b03d
00000070: 3312 0e3c 99d7 a9bd 3e9b 1d3e ea46 5ebc
00000080: 3124 033d 3d79 f93c 063f 263d 3b07 0c3d
00000090: 87a1 5cbd 0ed5 1e3e e31c 6f3c a0d6 1cbd
000000a0: e9af cd3d 3dc6 8b3d f764 b23d 46bb 3b3e
000000b0: b933 42bd 5368 f03d da81 ecbb 1489 4d3c
000000c0: 04b5 263e e49a 443d 2cd0 c4bb 6976 3abd
000000d0: 0c0d 7dbc bb31 d7bb f37b ca3d 6ec5 7bbd
000000e0: a556 e83d 0a5b 2cbb ff47 fc3d 57c1 bbbd
000000f0: 4b47 213e 149f 81bd c8d6 b6bd 82cc a3bd
00000100: 96df e33d 68c3 863a 2d7a 033e 8b0b e8bd
00000110: f028 8fbd bd76 283e e2fc 04bd dc62 ec3d
00000120: 4ded 073e 256b 1ebd 79b2 8f3d ae78 c23a
00000130: 1553 ea3d e432 bd3d 3b22 68bd 058d 79bd
00000140: bd59 0f3e cf8c 063e 6e9c 0bbd ea49 023e
00000150: 5546 0ebd 2646 a7bd db00 b0bd 484f 8fbd
00000160: aaa1 9dbc 1388 a23d 48db 893c 03c6 4a3d
00000170: 5802 3ebd bc89 c4bd 8c34 143e eeac 603d
00000180: 30e9 15bd cc2b 253e c01d ed3d 770b e13c
00000190: a4ef 6f3c b72f b93d 1e3f e43d bcf0 713d
000001a0: d3c3 f93c 761e 8cbd 5c9a 2dbe ce3d d0bd
000001b0: 7fe4 183d a9ab af3c bb7b f1bd 199a ffbd
000001c0: 44b6 aebc 0676 b3bc 0e42 16be 6d1b d83d
000001d0: 63d1 3a3e 88be d0bd 0088 18bd dabf 30bb
000001e0: 7fbc cdbd 3844 d5bc c11f 2c3d 4825 0abc
000001f0: cd2d 0e3e 1894 26bd 900b 3a3d 9cf6 f13d
00000200: a32b 96bd db26 79bd cca5 c13d a7bc bbbd
00000210: ddba 863d fd2a a03c 8629 6d3d 68ab f73d
00000220: c491 1e3e 9365 1f3e fb2f 8d3c 3b54 dd3d
00000230: 94d3 d53d 0052 2d3e d465 5dbd 962a 23be
00000240: 309e 11bd 1fc7 ad3d 052d 393c bf9f 983d
00000250: 5ea0 f63c 8f65 b03d b59d 573d 0e44 163d
00000260: 85b1 763d bbab ef3d abed 9e3d a071 30bc
00000270: 8890 f13d 650b af3d d287 113e a4cb 84bd
00000280: 723f f83d eb2c 3c3e 5664 b53d 3d7f 673d
00000290: 557b f13d 8a46 6cbd 2fcb 133e 5d59 3e3e
000002a0: a914 083e f5dc 273e 66fd 2cbc 2a77 043e
000002b0: 8fd6 fd3c 89c0 ef3d 4bf8 563c e2c8 843d
000002c0: 9c1a 90bc 901f bf3d aa3b 5b3d b6cc 23bd
000002d0: de90 063d 5ad8 16bd f3e6 eabc 57aa 933d
000002e0: e57b 3cbd 144b acbc dec4 de3d c2ff 6c3d
000002f0: 957a e0bb cd38 37bd dccf 153e 11a7 2f3e
00000300: 97eb 50bd 1be2 c3b9 5fc7 0dbd 5d26 bd3d
00000310: 4b60 f13d 4b9a ec3c 39c9 593c bca6 523e
00000320: cdbd 2339 9e8a 9f3d 09a7 163e 07a5 283e
-0.09278876 0.11614236 0.0051325927 0.072006926 0.021976532 -0.004461777 -0.034033865 0.11370643
-0.085712835 0.17632373 0.07480178 0.15553911 0.07164313 -0.04953299 0.07925152 0.108634025
-0.05703686 0.046993826 -0.00915313 0.032134272 0.05375598 0.038434267 -0.04043544 -0.030401502
0.09945616 0.031330362 0.07174012 0.08632404 0.008671331 -0.08293075 0.15391251 -0.013566712
0.032016937 0.030453319 0.040587448 0.034186583 -0.053864982 0.15510961 0.0145942895 -0.03829062
0.10043318 0.0682492 0.08710664 0.18333158 -0.047412608 0.11738648 -0.007217628 0.012544889
0.1627999 0.047999278 -0.0060062613 -0.04552308 -0.015445005 -0.0065672076 0.09886923 -0.06146758
0.11344651 -0.002629938 0.1231842 -0.09167736 0.15749852 -0.0632917 -0.08927685 -0.07997991
0.1112663 0.0010281624 0.12839575 -0.11330327 -0.0699023 0.16451545 -0.03246773 0.115422934
0.13274117 -0.0386764 0.07016463 0.0014836991 0.11441628 0.09238222 -0.05667327 -0.060925502
0.13999076 0.13139652 -0.03408473 0.12723508 -0.034735043 -0.08167677 -0.08593913 -0.069975436
-0.019242126 0.0793611 0.016828194 0.049505245 -0.046388954 -0.09596583 0.1447317 0.05485242
-0.036599338 0.16129988 0.1157794 0.027471287 0.014644537 0.09042304 0.11144851 0.059067473
0.030488884 -0.068417475 -0.16953415 -0.10168038 0.037327286 0.021444159 -0.11791178 -0.12480564
-0.021327145 -0.021906864 -0.14673635 0.10552106 0.18243937 -0.10192591 -0.037239075 -0.0026969821
-0.100457184 -0.026033506 0.04202247 -0.00843174 0.13884659 -0.040668577 0.045421183 0.11814615
-0.07332542 -0.06082807 0.09455451 -0.09166842 0.0657861 0.019551748 0.057900928 0.1209324
0.15485293 0.15566091 0.017234793 0.10807081 0.10440746 0.16925812 -0.05405219 -0.15934214
-0.03555125 0.08485245 0.011302237 0.07452344 0.030105766 0.08613121 0.052640636 0.036685996
0.06022789 0.11702677 0.07760175 -0.010769278 0.11795145 0.08547095 0.14211968 -0.06484154
0.12121476 0.1837651 0.08857028 0.05651783 0.11791102 -0.05768446 0.14432977 0.18588777
0.13289131 0.16392882 -0.010558462 0.12936082 0.030986099 0.11706645 0.013120721 0.06483628
-0.017590813 0.09332192 0.053523697 -0.03999015 0.032853 -0.036827423 -0.028674578 0.07210224
-0.046016593 -0.021031894 0.10877393 0.057861097 -0.0068505504 -0.044731904 0.14630073 0.17153575
-0.051005926 -0.0003736176 -0.034613963 0.09235833 0.117859446 0.028882166 0.013292604 0.20571417
0.00015615598 0.07790111 0.14712156 0.16469203
