tmp/aa_models/6.pt (torch_old, 539708 bytes, 30 tensors)

rnn.weight_ih_l0 f4 [204, 60]
00000000: b8dc 2a3e 3b1a 1a3e 028c d0bd 69c0 d43d
00000010: f4da 1d3d abb8 e2bd 5681 18be ce34 e23d
00000020: d4d2 18be ef21 853d 0814 de3d a10e cbbd
00000030: e376 683e 4db6 803d a901 963c 6297 2d3e
00000040: bfd9 373d 07e8 bb3d d083 273d 8d7e 2a3e
00000050: ffc7 45bd 8231 5f3d 48f8 293e 7481 383c
00000060: 0903 b53b 7bf8 e63d f638 4f3d e899 093e
00000070: 2bc1 b73d 566f 2e3d c16a 0dbd 8ded 8ebc
00000080: 9a9a b53d e919 c4bd e72a 223c aa78 a6bd
00000090: bfa8 603d 9a7e a2bd 01aa f4bc 856e 863d
000000a0: eb57 dd3b 6cb5 313d 0a03 11bd 1946 053e
000000b0: becc c8bd 8ac9 983d eca5 a0bd 7b9b 013e
000000c0: 3e22 b53d 9756 ccbd c2ca c3bd 4048 6a3c
000000d0: 9017 ce3d 3a71 fe3d 367a f03d 8594 afbd
000000e0: c6c5 a6bd f06e 253c f26a e23d 4045 71bc
000000f0: 1f16 2e3d 84e1 cdbd bab6 9d3c f094 243d
00000100: 6624 123e f14c e13d 451c 8f3d 1441 4b3e
00000110: 5547 f73d f48d a03c 5b6c e53d a436 ff3c
00000120: e811 503d f522 163e e7ed cabc fbb3 a2bd
00000130: a153 243e a3b2 e73b 3254 adbc 9bc3 0d3c
00000140: 064e 863d deda d33d 4963 c139 6664 aabd
00000150: 4424 e7bd ce00 d53d 9452 c5bd 6c61 a13d
00000160: 843f ce3d dd38 38bc 7776 b7bd 4dea 86bc
00000170: bbb1 8fbc 8606 3ebd c710 0d3d b1d3 64bd
00000180: badf dabb d37b d9bd 25de 4cbc 5983 a83d
00000190: 5ae2 c1bd d865 c9bd 3723 cf3c d982 e63d
000001a0: 181b b33c d417 8bbc ca46 f13d e6b7 81bd
000001b0: 44b8 063d 5229 d2bd a07e ca3c 00f8 7c3a
000001c0: b4ae 973d 2062 02bc b07d 863d 08ec 1b3d
000001d0: 7afc 4cbd dce8 603d 2bb3 9abd 0842 07be
000001e0: 29de 923c 512d 1a3d 723a 383e 5754 b7b9
000001f0: 0248 1f3e 695b 9d3a 64cd c63d a63b 353c
00000200: 8d45 9f3d 41db af3d 7235 013c b880 7f3d
00000210: 3080 a23d dca2 173e b439 dbbd 7541 163e
00000220: 4e77 ef3d be89 933d 48e8 b6bc 5bd8 07be
00000230: cdf1 ed3d 6e61 69bc 72fe 163e 79db b43d
00000240: cb47 0a3e e41c fbbd 41cd 6d3d 7b15 b33d
00000250: e6d3 733d 3b30 a1bd 82e3 04be 5e2f 05be
00000260: 53a4 c03d 074a b23d 66cd 7fbd 8ebb 00be
00000270: 5d68 083e 5dd7 e3bd 7b9f 91bd 9ce0 6f3c
00000280: 2890 843c 25f3 08be 9168 13be 2d1e d6bd
00000290: 236b ecbc babb 91bd 927e 88bc 6fdf 7e3d
000002a0: 596e cbbd e92a a9bd eb8a 0e3e acf5 dc3d
000002b0: 7271 54bd 8018 253c 5029 733c b829 bfbd
000002c0: 10be 5c3d 80bf f0bd fc10 2b3d 39f9 d0bd
000002d0: d6a0 ffbd c01d e6bd af0f 003e 0ade 0d3d
000002e0: 10bc 14bc d5a0 ac3c e6ee 753e fa83 ae3d
000002f0: 595c 913e e221 073e 9817 883e 1f89 283d
00000300: 5629 2a3c 4ad0 69b9 5384 1c3d 7f1e 54bd
00000310: 5b86 ce3d 20e3 913d cfe1 0aba e140 00be
00000320: 71bc 953d 2aba da3b 827b 713c a32a 4c3d
00000330: 414f a83d 4a6b af3d 4f65 c93d 1b85 bf3d
00000340: 01e4 f63b 8c0d 74bd 91bc 033e c4d5 d3bd
00000350: e870 83bd 97d4 92bd 9f0a dfbd e238 b0bd
00000360: 6e88 273d a1d5 033e c9a4 fb3d bf70 02be
00000370: 2f8d e2bd 936b b9bd 9d1e 07bd b2d2 0a3e
00000380: 55ab 003e ff69 0e3d 41aa 24bd 5e6c 593d
00000390: d803 7c3d a4d9 93bc 6053 b8bc e55b 023e
000003a0: a92b efbd cc2e 5a3d 67c9 093e 681d 7a3d
000003b0: ee90 1bbd 7def cabd 28ce ccbd 88da dd3d
000003c0: baf9 b63c 8a85 cb3d 4b3f 0c3e 2c6d 47be
000003d0: 24b2 213c d26a 2c3b 13dd 6dbe 3faf ad3d
000003e0: 06fa 403c 17c4 873d db1e 6ebc 347f 303e
000003f0: bc0d f33d 4969 f53d 52b3 783e 9ddc a43d
0.1668576 0.15049069 -0.10182954 0.10388262 0.038538888 -0.11070379 -0.14893088 0.11045228
-0.14924175 0.06500613 0.108436644 -0.099148996 0.22701602 0.06284771 0.018311338 0.16952279
0.044885393 0.09175115 0.04089719 0.16649838 -0.048286434 0.054490574 0.16598618 0.011261333
0.0055240435 0.11277863 0.05059143 0.13437617 0.08972391 0.042586647 -0.034525637 -0.017447257
0.088673785 -0.095752545 0.009897924 -0.081284836 0.05484843 -0.079343036 -0.02986622 0.06564049
0.0067548654 0.043385908 -0.03540329 0.13015021 -0.098046765 0.074603155 -0.07844147 0.12656967
0.08844422 -0.09977453 -0.09560157 0.014299452 0.10063088 0.1242394 0.1174206 -0.0857325
-0.08143191 0.01009725 0.110555544 -0.014725983 0.042501565 -0.10052779 0.01925217 0.0401811
0.14271697 0.110010035 0.06987814 0.19849044 0.120741524 0.019598939 0.11202308 0.031153984
0.050798327 0.14661773 -0.024771644 -0.07944485 0.16047527 0.0070708557 -0.021158312 0.008652593
0.065578505 0.1034448 0.00036885802 -0.08319931 -0.11286214 0.10400544 -0.09634891 0.0787991
0.100707084 -0.011244026 -0.08958142 -0.016469145 -0.017540803 -0.04639294 0.03443983 -0.055865947
-0.0066795023 -0.10619321 -0.012504135 0.082281776 -0.09467001 -0.09833878 0.025285346 0.11255426
0.021863505 -0.016979136 0.1178108 -0.06333904 0.032890573 -0.102617875 0.024718583 0.0009649992
0.07406369 -0.007957965 0.06566942 0.038066894 -0.050045468 0.054909572 -0.07553705 -0.13208783
0.0179282 0.037640873 0.17991045 -0.00034967318 0.15554813 0.0012005392 0.09707144 0.011061585
0.07776938 0.08586741 0.0078862775 0.062378615 0.07934606 0.1480822 -0.107043654 0.14673407
0.116926774 0.072040066 -0.022327557 -0.13266127 0.116183855 -0.01424442 0.147455 0.088309236
0.1350395 -0.1226137 0.058057074 0.087443314 0.059528254 -0.07870527 -0.12977412 -0.1300635
0.09406342 0.08705526 -0.062451743 -0.12571546 0.13321061 -0.11125062 -0.071104966 0.014640953
0.01618202 -0.13374002 -0.14395358 -0.10454974 -0.02885968 -0.07115884 -0.016661916 0.0622248
-0.099331565 -0.082601376 0.1392018 0.10789046 -0.051866002 0.010076642 0.014841393 -0.09334129
0.053892195 -0.11755276 0.041764244 -0.102037854 -0.12481849 -0.11236143 0.12505983 0.03463558
-0.009078041 0.021072784 0.24016914 0.08521266 0.28390768 0.13196519 0.265805 0.041146394
0.010385832 -0.00022298205 0.03821213 -0.051786896 0.1008422 0.07123399 -0.00052979303 -0.1252475
0.07311333 0.0066750245 0.014738919 0.04984535 0.082182415 0.08565386 0.09833776 0.0935156
0.0075345044 -0.05958323 0.12864901 -0.10343507 -0.064180195 -0.071694545 -0.10890698 -0.086045995
0.040901594 0.12874462 0.1228729 -0.12738322 -0.11062085 -0.09053721 -0.03298818 0.13556936
0.12565358 0.034769055 -0.04020143 0.053081863 0.061527103 -0.018048115 -0.022500694 0.12730367
-0.116782494 0.053267285 0.13455735 0.0610632 -0.037980013 -0.0990896 -0.10000259 0.10832697
0.022335876 0.0993758 0.1369602 -0.1947524 0.009869132 0.0026308787 -0.23228864 0.08480691
0.01177836 0.06629198 -0.014533724 0.17236024 0.11867854 0.11982972 0.24287155 0.08049891

rnn.weight_hh_l0 f4 [204, 51]
00000000: 91fd 7a3d e7d9 69bd 8064 eb3d 4139 d5bc
00000010: e50f e1bd 5cea 0c3d 9949 003d b56f dd3d
00000020: d3d1 19bc 3724 8b3d 96ed 11be 5020 a93d
00000030: 2622 513d 41ef f1bd 8496 6ebd cd0e 60bd
00000040: 6f65 0ebe cc48 4a3d 754f 9d3b b5ed 60be
00000050: 94bc a33d 9ebb 8abd e272 f03d 7214 65bd
00000060: bd08 03bd 2e01 213e 30b4 3a3d 8fcb b73d
00000070: 5c91 113e 4772 36bd aa4e 843d 784e 583d
00000080: 1c0a 20bd 9cbe 8fbc 8b09 1dbd 3d4e e73d
00000090: 996e 0fbe 4ab5 f2bd a019 12be 1feb c7bd
000000a0: 94c4 55bd 15ab 99bd 09da ddbd cc34 8c3b
000000b0: 33f8 df3d d48a 95bd 5c24 723e b8e2 193e
000000c0: 40a1 cfbd 5130 4bbe d3c3 a5bd ff84 71bd
000000d0: c093 d4bc e9e9 c7bd 47ed d9bd 4efe 9a3d
000000e0: 11c0 13bd ba88 74bc c186 e3bd 7ec7 003d
000000f0: 8fcc b63d 5229 9f3c 57ae b3bd 2cca 183e
00000100: d12c 0ebe a078 4dbd bbbc 24be 67be 58bd
00000110: f3b1 73bd 4a65 c13c e85d 2bbe e5af c03d
00000120: c042 cdba 5f05 473d 1b52 5ebd 6399 36bd
00000130: 1651 9b3c a41b 92bd 5f63 c5bd 7282 57bd
00000140: 7f99 ecbd fce3 833c d9fe 64bc ee42 103e
00000150: 6819 653d 1f3f ca3d 0cef 4e3d 1bc2 4f3d
00000160: 3f13 c23d 9b1b e43d 5654 0fbc 34a1 b8bb
00000170: ce66 1c3d 3a58 ccbb 1bce c3bd df66 5c3c
00000180: 873a 8b3b 3750 eb3d 0948 9cbd 5e83 023d
00000190: a9e5 4c3d c596 c7bd 5aef 9e3d b30d 793e
000001a0: a8db 803d d53f 34be 8e80 d93d 9fb0 c63d
000001b0: 0077 d7bb f17b 7ebd f23a 413d 7e4d 5a3e
000001c0: 6555 963c 4ccd cb3d 6b27 693e 1d0f 84be
000001d0: c066 e83d b76e 293e 9ea1 19bd f316 9fbc
000001e0: a40c 473e a666 ff3d decc 2dbe 381d cf3d
000001f0: 4a0d 4bbd f228 11be 76a9 08be 136c d4bd
00000200: 1a68 92bd e941 aa3d ac0e 59be c6ef 89bd
00000210: 0fb8 8fbe c0e5 c1bc cd11 7a3e 0e45 45bd
00000220: c707 a9bd 6887 fd3d bb38 febc fa22 7a3e
00000230: 2133 13be b2c6 06ba 93b2 10be e0e6 38be
00000240: e275 f9bd ced0 fd3d 67d7 30be 6168 babb
00000250: a125 5dbe 3036 853d ce34 a13d 4b15 56bd
00000260: 8268 1d3d 42a7 9f3a 726c 1ebd c4df cc3d
00000270: 0fc4 2f3c 6a08 bf3c e278 05bd 3002 d93c
00000280: d584 f6bd 0d90 f7bd 6e19 7f3d 8b6f a73d
00000290: 62ef a83d ccfa 18bd e263 b9bc 6c58 a13d
000002a0: 85a5 eebd 4b87 72be 4359 a4bd d42c 583d
000002b0: bddf e3bc a7e5 8e3d c500 113e 45ef 90bd
000002c0: 1fd9 21be 880d a2bd 82b9 31be 8083 9bbd
000002d0: 372f 0e3e 958e 30be 8163 afbd 7654 da3d
000002e0: 3515 8e3d eef0 513e be70 4fbd 84da 83bd
000002f0: abe7 dbbc fc6d 31be d323 413e a049 9abd
00000300: 24f6 2a3c 5db9 32be 9e8c aabd 9b2c f4bc
00000310: 788f f13b c773 4a3d 8369 c53c ee43 6fbd
00000320: 4636 6dbd 957e 873d 0ca4 53be 0c5b aa3d
00000330: f31d 7d3d ea69 12be 88bf 93bc 3ecf c2bb
00000340: 3f8d 073d 01b5 c5bc e353 8cbd a3f8 aabc
00000350: 50ff b53d 671b c23c e1df e0bd 6ed0 443e
00000360: 19fe 093e b1c9 f53b 494c 41bd b824 c3bd
00000370: 6061 a6bd dc9c 29be 0d53 c8bd e1cc 3cbe
00000380: 0f0f e6bd aa11 30bd 01fd 0a3d 6cb5 32bd
00000390: dc24 a5bd 4bfc 98bd 16f4 c6bd 38bb 40bd
000003a0: e3f1 e63c 78d1 183c 262e cebd 1fd7 a63c
000003b0: 7214 333e f461 27bb 7cbd 07bd cff2 313e
000003c0: b6fd 05be 773a 0fbd ee7d 38be 8606 eabd
000003d0: c667 843d 800e 363d 009f 6bbc 9190 83bd
000003e0: 79f9 a8bd c78d 223e d2d9 d03d d05a bebd
000003f0: cb4c dc3d 74d7 0a3d 153e a2bc 501c efbb
0.061276976 -0.057092573 0.11493778 -0.026028277 -0.1098936 0.03440319 0.03132019 0.10812322
-0.009388405 0.06794017 -0.14250788 0.08258116 0.051057957 -0.11813212 -0.05824901 -0.054701615
-0.13905881 0.04938583 0.004800732 -0.21965678 0.07994953 -0.067740664 0.11740662 -0.0559277
-0.031990755 0.15723106 0.045581996 0.089743726 0.14215606 -0.044542577 0.064603165 0.05280921
-0.03907214 -0.017546944 -0.03833918 0.1129422 -0.14007033 -0.118509844 -0.14267588 -0.09761643
-0.052189425 -0.075033344 -0.108326025 0.004278755 0.10936012 -0.0730187 0.23646683 0.15027893
-0.10138178 -0.1984265 -0.08093991 -0.058964726 -0.025949359 -0.09761412 -0.1064096 0.07568036
-0.03607184 -0.014925176 -0.11109687 0.03144025 0.08925735 0.019428883 -0.08773487 0.14920872
-0.13884284 -0.050163865 -0.1608762 -0.052915957 -0.059495877 0.023607869 -0.16735041 0.09408549
-0.0015660152 0.048589107 -0.05427752 -0.044579875 0.018959563 -0.07134178 -0.09638094 -0.052614637
-0.115527146 0.016099922 -0.013976776 0.14088032 0.055932432 0.09875321 0.05052094 0.050722223
0.09476327 0.11138078 -0.008748135 -0.0056344513 0.03818398 -0.0062361034 -0.09560796 0.013452261
0.0042489204 0.11489909 -0.07630927 0.031863563 0.05002371 -0.09745554 0.077604964 0.24321632
0.06291896 -0.17602475 0.10620223 0.097016566 -0.006575465 -0.06212992 0.047175355 0.21318623
0.018351266 0.09951267 0.22768943 -0.2579278 0.11347723 0.1654614 -0.037507646 -0.019420123
0.19438416 0.124707505 -0.16972682 0.10112995 -0.04957322 -0.14175776 -0.13345894 -0.10372176
-0.07148762 0.083133526 -0.21197003 -0.06735186 -0.28070113 -0.023669124 0.24420853 -0.04816156
-0.082534365 0.12379342 -0.03103291 0.24427405 -0.14374973 -0.0005141302 -0.1413062 -0.18056822
-0.121806875 0.12393342 -0.1726967 -0.0056887125 -0.21596386 0.06504476 0.078714 -0.0522664
0.038429745 0.0012180584 -0.03867764 0.100036174 0.010727896 0.023319442 -0.032585986 0.0264903
-0.120370544 -0.120880224 0.06228011 0.08175572 0.08248784 -0.037348554 -0.022630636 0.07878193
-0.11652664 -0.23684423 -0.08024838 0.052777126 -0.027816648 0.069773965 0.1416045 -0.07076887
-0.15805481 -0.07912737 -0.17355922 -0.07593441 0.13885199 -0.1724189 -0.08563901 0.10660641
0.06937639 0.20502064 -0.05064463 -0.06438163 -0.026843866 -0.17327112 0.18861322 -0.07533574
0.010434661 -0.17453523 -0.08327602 -0.029806426 0.007371839 0.04942682 0.024098163 -0.058414392
-0.057913087 0.066159405 -0.20668048 0.08318147 0.06179614 -0.14298216 -0.018035665 -0.0059451154
0.033093687 -0.024134161 -0.068519376 -0.020870512 0.088865876 0.023694707 -0.109802015 0.19220135
0.13475837 0.00750085 -0.04719189 -0.09528488 -0.081240416 -0.16563743 -0.09781466 -0.1843753
-0.11233341 -0.042985596 0.03393269 -0.04363005 -0.08063671 -0.07469996 -0.097145244 -0.047053546
0.028191512 0.009327285 -0.10067396 0.02036625 0.17488268 -0.0025540562 -0.03313969 0.1737778
-0.13085064 -0.034967866 -0.18016788 -0.114270255 0.06465106 0.044447422 -0.01438117 -0.06424058
-0.08250708 0.15874396 0.10197796 -0.09294665 0.107568346 0.03389688 -0.019804994 -0.0072970763

rnn.bias_ih_l0 f4 [204]
00000000: 2324 223e 5fe3 ff3d b390 2e3e c46d a1bd
00000010: d757 a23d 9afd 84bd e0da 343e cb07 043e
00000020: ee64 e33d d6ab c73c 69c2 15bd d866 fc3d
00000030: 2fce 0c3e d08f 863d 9c35 f23c 31bb a63b
00000040: 6c44 44bd 17fe df3d c9fd 753a b9ce 133e
00000050: 388b 92bd 51c5 813e 2d16 aa3c 166f 113a
00000060: e008 1c3e 715a 173e be9a 1e3e c16b a23d
00000070: 55b5 f43d bf2c b03d 29ed 1b3e c3de 203e
00000080: bbf8 0b3c 44a7 093e 3579 0d3e 85c7 433d
00000090: 5690 cc3d 80e5 403d 4163 ec3d 32ec 2f3c
000000a0: edfd c23d 1db5 163e 3aab 81bd 9703 1abd
000000b0: eae4 683d 11c5 f2bd 65d6 9ebd 33f2 6f3e
000000c0: 2f90 9e3c 9540 0a3d c810 123e 5386 bdbd
000000d0: a2e1 c13d 920e 34bc f2c6 d73c 2ce8 34bd
000000e0: a7b3 a43d 6240 f93d 19a9 e4bc acf0 0fba
000000f0: 09df b73c 91c5 b83d a664 1d3e 2692 a93d
00000100: 0a09 ea3c 0138 ce3d fa1c 093e 2b3c 82bd
00000110: b338 123e 2009 133e d424 f23c e578 c1bd
00000120: 9054 803d f47b f63d 75bc 153d c086 14bd
00000130: 1831 2c3e 028e 27bd 1e7d acbd ed9b 143e
00000140: 7c26 4a3d 46ae fc3d e390 c1bc a564 263e
00000150: 45b8 113e 5487 17be d62e 093e 74f7 7d3c
00000160: a2ef 403e 2d6e babd 54c4 8d3d eb08 b23d
00000170: 38a8 75bd ffb4 44bd d35b 6e3c 13df e13d
00000180: 0374 3cbd a201 c2bd 7b2f 2fbc 6637 5ebd
00000190: 5630 183e 4e5c 76bd 3a72 0fbe 80fc 05be
000001a0: 5e93 fd3d adaa 9d3d a038 2a3e 14d6 be3d
000001b0: bbb1 4a3d 769c 14be 7bda 08be f09f c13d
000001c0: 562e d63c ac07 333d 19bf 0f3e 7f21 a2bd
000001d0: 64ab 85bd f969 6fbd acd0 0fbd 92ef 0bbe
000001e0: 16d7 0a3d 2229 d1bd e959 20be b50a 853d
000001f0: 882e 3b3e 80e5 72bd 621f db3d af59 8f3d
00000200: 35aa 933c ce0f ca3c 2da6 18bd dbd7 20be
00000210: 8657 1c3d a222 febd 45aa 863d b5d5 f5bd
00000220: e817 953d f8fe db3d 8b86 acbd b01c fb3d
00000230: 744d 37be d532 d8bd a54d a13a c8a3 00bd
00000240: 0dac 253e d629 403e b1f9 8c3d 30d4 e23d
00000250: 5ff1 313e 181b c1bc cd39 0ebe 55ee f93c
00000260: 582b ad3d 43f7 263d a564 a6bd bdf3 063d
00000270: 3cdd 3e3e ebbf bebd edbb 143e 0d1d a8bc
00000280: eb37 95bd d31b fd3b 6331 df3d ac63 b73d
00000290: 988f bf3d f657 9b3c 4af7 9dbd ae36 243e
000002a0: 3519 763e 3047 1c3e d7c4 983c bbdd 17bd
000002b0: 20f0 bf3d 9a59 50bd 63c0 2b3e 0f76 bf3d
000002c0: 4454 9fbd 524c a13c f634 bf3d c959 583d
000002d0: 4f0f a9bc b6cb 56bd f2b3 133e b947 ed3c
000002e0: 822f 183d df5c abbc 085b 0d3d 7812 053e
000002f0: fa22 063e 127a ec3d 3a42 e3ba d922 453b
00000300: 2f56 e13d b7b1 0c3e 3516 8e3d 5207 0b3e
00000310: 6fc1 40bd cdfd 133e 5380 93bc d99b 033e
00000320: 764a 86bc 4870 113d ca66 20bd 55ef 4f3e
0.15834098 0.124945395 0.17047386 -0.07882264 0.0792691 -0.06493683 0.17661619 0.12893598
0.11103235 0.02437393 -0.036562357 0.123243034 0.13750528 0.06570399 0.029566579 0.005088233
-0.047916815 0.10937136 0.0009383825 0.14434327 -0.0715546 0.25345853 0.020762527 0.0005547864
0.1523776 0.14780594 0.15488717 0.07930709 0.11948649 0.08602285 0.15227188 0.15709977
0.008543189 0.13442713 0.13815768 0.0477977 0.099884674 0.04709387 0.11542369 0.010737466
0.09521089 0.14717527 -0.06331487 -0.03760108 0.056858934 -0.11853994 -0.07755736 0.23432235
0.019355861 0.033752996 0.14264214 -0.09254136 0.09466864 -0.010989802 0.026339982 -0.04416673
0.080420785 0.12170483 -0.027912663 -0.000549088 0.022445219 0.09022058 0.15370426 0.08279829
0.028568763 0.10069276 0.1338996 -0.063591324 0.14279442 0.1435895 0.029558577 -0.09446887
0.06266129 0.12035361 0.03655668 -0.03626132 0.16815603 -0.040906914 -0.08422302 0.14512606
0.049353108 0.123379275 -0.023628658 0.1624933 0.1423045 -0.14797717 0.13396773 0.015500892
0.18841413 -0.091030456 0.06922212 0.08693107 -0.05997488 -0.048024174 0.01454826 0.11028876
-0.046009075 -0.09472968 -0.010692473 -0.05425205 0.14862189 -0.060146622 -0.14008418 -0.13084602
0.12381624 0.076985694 0.16623163 0.09318176 0.049485903 -0.1451281 -0.13364594 0.09454334
0.026145142 0.04370849 0.14037742 -0.07916545 -0.06526831 -0.058450673 -0.035111114 -0.13665608
0.03389653 -0.102129236 -0.15659298 0.06496183 0.18279469 -0.0593009 0.10699345 0.06999528
0.018025497 0.02466574 -0.037267853 -0.15707342 0.038169406 -0.124089494 0.06575445 -0.12003652
0.072799504 0.10741991 -0.084240995 0.12261331 -0.1790064 -0.105565704 0.0012306465 -0.031406194
0.16178913 0.18765959 0.06883562 0.11075628 0.17377232 -0.02357249 -0.13889237 0.030509153
0.08455533 0.04076315 -0.08124665 0.03294729 0.18639082 -0.09313949 0.14524813 -0.020521665
-0.07286056 0.007724264 0.10898092 0.08954558 0.0935356 0.018962841 -0.07713182 0.16036484
0.24033053 0.15261531 0.018648548 -0.037076693 0.09371972 -0.0508667 0.16772608 0.0934869
-0.07779744 0.019689713 0.09336273 0.05282 -0.020637183 -0.052440368 0.14424112 0.028964864
0.037154682 -0.020918308 0.034510642 0.12995327 0.1309928 0.115467206 -0.0017338463 0.0030080585
0.11002766 0.13739668 0.069378294 0.13577011 -0.047059473 0.14452286 -0.018005526 0.1285242
-0.016392928 0.03550747 -0.039160527 0.20306142

rnn.bias_hh_l0 f4 [204]
00000000: 1f75 433e 062d b0bd 868a 253e 2445 d6bc
00000010: dcc9 093e a600 783c 78a0 46bd 2276 663e
00000020: 768a 0ebd 06f5 c53c 2875 c83d 1e00 283e
00000030: c5fb 4abd 7e10 fa3d 354c b63c dc7e 243e
00000040: 9ee4 953d 3c6c 6d3d 3998 1a3d 6245 9d3b
00000050: 64ee 573d e5be 663d afb0 93bd 497a 8abd
00000060: 0ef5 6f3d 802a 043d 90f5 953d 400c cc3d
00000070: 37e6 de3d 8da8 223d 7507 fc3d 44c1 e43c
00000080: 0d76 ed3d 7cfe 293e 5e03 fc3d 1195 003d
00000090: e7bc e93d 5409 883d e130 ae3d 2716 613d
000000a0: 167f a73d f8da a1bc 7034 013e 7688 f3bc
000000b0: 3357 89bc 0515 bd3d 7c63 aa3c e129 5c3e
000000c0: b2ed c93d 0530 b03c ba14 c73d 2606 0e3e
000000d0: 29ed c6bd a3f6 28bd b966 1ebd 3531 553c
000000e0: 92d4 f43d 6566 41bd b84b d5bc c099 9b3d
000000f0: 7e70 27bc 7a3b 253e dfa5 dc39 76db fb3d
00000100: aea1 723d 5d4c ea3c 3de1 babd 614a dd3d
00000110: 8d23 d6bc 948e 9bbd 71be 4abd 01e4 263e
00000120: 1874 a33d 2d7c 9f3d 1cc8 1c3e 29f8 133d
00000130: e23f f93b e687 8f3d 7afc 3b3d b2e6 553c
00000140: bc6a f03d 7f64 39bd 2b6f 6abd 1c80 2c3e
00000150: e665 d33c 3328 3bbe 8068 3c3c f1d3 2e3e
00000160: 9f45 703d 91d9 2e3e 27bc 57bd 0437 d2bc
00000170: ecf4 a8bd a727 1cbd 5f6a 973d d113 153e
00000180: 3a74 ff3c d36c 8f3d 5af5 47be 78c5 4ebd
00000190: 65ff 293b 69ab 97bd 4ba8 9dbd 563a 92bd
000001a0: 7f71 28bd 5e19 2dbe 3305 a83d e516 203e
000001b0: a5a3 b6bd cd3a 14bd c81e e4bc 1a76 1b3e
000001c0: c9dd 95bd 5a55 0c3e 7153 373e dded cfbd
000001d0: 1c40 77bd 6b26 e4bd 4168 ddbd 9795 08be
000001e0: 4b73 0d3e c9e1 18bb 62c6 09be 903a 53bd
000001f0: 22c9 3d3e 956c 05be 4fa6 e13c 4d3b f3bd
00000200: d48d abbd 6b6b f4bc 4c14 fabd 64e5 90bd
00000210: 4cbe bd3c b07e 30bd f1e8 033e c99b 2bbe
00000220: f342 18bd 6ecf 073e 5fef 993d d543 2e3d
00000230: cecc 853c 5ba6 f8bb 7840 8ebd cb02 2ebe
00000240: 643a 973d 6eb5 0c3e bb3e b43d bd79 213d
00000250: ac63 793d d9d1 013e 7b52 7c3d bf7f 84bd
00000260: 02cc b9bc 9902 c43d 4844 ddbd 3806 4b3e
00000270: 2418 33bd a3d4 7bbd 6363 1dbd 1d5a 9b3c
00000280: ef8a b1bd 7789 323d 3ab2 163e aac0 afbd
00000290: f752 b8bc d64f 173d 5764 b83c e74f 48bd
000002a0: 00d0 dc3d c592 5d3e 6d29 143e 26b4 0b3e
000002b0: eb5e cc3d 209b 213b c8f0 873e c59a 853d
000002c0: 0e0e 8a3b 39b5 a53d 3d02 463b 22ed c83c
000002d0: 170e 5b3e 1fc0 123d 0de1 393e 7066 633d
000002e0: ca43 653e 16dc 9dbc e7cd 6c3d 0511 823e
000002f0: 4e81 33bd 6862 d53d 95e2 c53d 27ff 1b3e
00000300: de0c 143c 83af 3d3d 3467 1c3e 9698 5e3d
00000310: b91b 023e 3647 21bd 6474 0f3d 4192 463e
00000320: 1b77 d9bc f206 43bb 9e7b 563d b943 943c
0.19087647 -0.086023375 0.16166124 -0.026156016 0.1345591 0.015136873 -0.04849288 0.22506002
-0.034800015 0.024164688 0.09787971 0.16406295 -0.049556512 0.12210177 0.022253135 0.16064018
0.07318996 0.05796455 0.037742827 0.004799531 0.05271758 0.056334395 -0.07211434 -0.06761605
0.05858331 0.032267094 0.07322228 0.09963274 0.10883754 0.039711524 0.1230611 0.027924187
0.11594782 0.16600984 0.1230533 0.03139216 0.114129834 0.06642404 0.08505417 0.054952767
0.081785366 -0.019757733 0.1261766 -0.029728156 -0.016765213 0.09232525 0.020799391 0.2150035
0.0985979 0.021507272 0.0972075 0.13869533 -0.097132035 -0.041250836 -0.038672183 0.01301222
0.11954607 -0.04721679 -0.026037082 0.07597685 -0.010219691 0.1613597 0.00042085254 0.12297718
0.05923622 0.028600866 -0.09124992 0.10805202 -0.026139999 -0.07595554 -0.049498025 0.16297914
0.079811275 0.077873565 0.1531071 0.036125336 0.0076064924 0.070083424 0.045895077 0.01305549
0.11739108 -0.045261856 -0.057234924 0.16845745 0.025805425 -0.18277054 0.011499524 0.17073037
0.058660146 0.17075182 -0.05266967 -0.025661 -0.0824984 -0.038123753 0.073933356 0.1455834
0.03118335 0.070031784 -0.19527188 -0.05048129 0.002593958 -0.07405741 -0.07698115 -0.07140033
-0.041123863 -0.16904208 0.08204117 0.15633734 -0.089179315 -0.03618889 -0.027846709 0.15181771
-0.07317693 0.13704434 0.17902924 -0.10152791 -0.060363874 -0.1114014 -0.108109005 -0.13338314
0.13813512 -0.0023327938 -0.13454583 -0.05156952 0.18533757 -0.13029702 0.027545122 -0.11876545
-0.08376661 -0.029836377 -0.122109026 -0.07075003 0.02316203 -0.04308957 0.12881829 -0.16758646
-0.037173223 0.13262722 0.075163595 0.04254516 0.01633301 -0.0075881905 -0.0694589 -0.16993253
0.07384184 0.13741085 0.088010274 0.03942274 0.06088607 0.12677707 0.061602097 -0.06469678
-0.022680286 0.09570808 -0.10804039 0.19826591 -0.043724194 -0.061482083 -0.03842486 0.018963868
-0.086690776 0.043588128 0.14716426 -0.0858167 -0.022500498 0.03694137 0.022508783 -0.048904326
0.1078186 0.2163802 0.14468928 0.1364294 0.09979042 0.0024659112 0.2655089 0.065236606
0.004213101 0.08091206 0.0030213736 0.024527136 0.21392094 0.035827752 0.18152256 0.055517614
0.2238914 -0.019269984 0.05781355 0.2540361 -0.043824486 0.1041916 0.09662358 0.15234052
0.009036271 0.04630996 0.15273744 0.054344736 0.12705888 -0.039374553 0.035023108 0.19391729
-0.026546052 -0.0029758778 0.052363984 0.018098699

rnn.weight_ih_l1 f4 [204, 51]
00000000: 59cb b6bc f286 483e 1c9c 76bd 460f f0bd
00000010: 8d2e 973e 0176 513e e9ef 4d3d 4c8a 06be
00000020: 6864 74be 61b4 ce3e 423d 27b9 1ffa 4c3e
00000030: 41e4 9c3d 6043 50be f682 e6bd 4bff 04be
00000040: 0af0 4ebe 82b8 0bbe ed93 173e a1b9 9dbe
00000050: 9d16 85bd f9f7 edbc 82b7 063e 45da 6dbd
00000060: 9ffc 1c3e 2800 5cbe e219 1dbe 6b84 553e
00000070: c60a 3cbe 5ffb 393d c96c d7bd babe 82bd
00000080: 3dd0 143d 9506 4abc 3dd7 7f3d 6a78 593d
00000090: 80cf a0be 8ada 7e3e 6479 e2bd 7bf0 91be
000000a0: 8ccc 98be 5585 eabd 4289 62bd b2f3 953e
000000b0: b846 8bbd 65e6 513e 601d 4ebe f52e 293d
000000c0: cbad 523d d429 28be cad1 efbd 5270 633c
000000d0: 6b8d b83d 207e 8d3e 4484 e3bd 8d20 d73c
000000e0: 7a3a 203e 304e 573e 2a0a afbd 2b6a 4fbe
000000f0: 7755 a03d 05da 463d 15e9 733d 147a 49bc
00000100: 4a23 29be f954 983c bb3d d03d b44d 71be
00000110: bd0d 8b3c 696e c7bc 84eb b63e cb8d 25be
00000120: ef33 af3d 9e24 2dbd 4fbc c03c d7b3 1fbe
00000130: 6206 9c3d ff72 d93d 8ffc 63bc e270 76bd
00000140: 9994 533c 1544 fb3c 0967 24be a9a3 2b3e
00000150: 130c 37be 22ba ccbd 3dbe 0e3e 22b1 ee3b
00000160: 23b3 17bd 1f74 1cbe 53f9 0bbe e3ad deba
00000170: 6ee1 d2bd afab 1b3c 7443 de3c e684 2cbd
00000180: 46c2 613d 7471 0abe df70 7f3e a825 473d
00000190: 1f5e 8bbe 59e1 e9bd 8dcd ebbd 6f2b 093e
000001a0: d741 b83d acf3 b93d fd90 debd 6605 233e
000001b0: 0843 dd3d 6789 8ebd 8d76 c43d 25b0 09bd
000001c0: 6161 6cbd e2df d23d 7b9e 083e 2be2 cbbd
000001d0: a2cc 1abe 3db4 dc3c 88ae 13be 82bd ebbc
000001e0: c2c1 1a3d e1bd 5bbe 79cd 1ebc 87e1 98bd
000001f0: 03b2 ba3d 32a3 64bd bbfc 00bc 87e0 3dbc
00000200: 0398 c9bd e264 e63d d5df 55be b413 c73d
00000210: 1ae2 4fbe e4aa c2bd 13e0 b93d 0f2a cdbd
00000220: 0570 06be 7980 363e 131e b43d 6a7b 3e3e
00000230: 64da 01be 7823 f2bd f239 e53c 4b36 47be
00000240: 532d 15bd 395a 333b 83a1 053e 99fc 703e
00000250: f969 e1bd d507 873d 801b b4bd 0bb3 debd
00000260: 4047 ef3c 1826 6f3e 2101 223d 0949 c43d
00000270: 44a9 05be 8759 18bc 8fd3 c8bc 8e54 7f3d
00000280: 7b27 10be 1e57 efbd c6e3 b33d 33e0 aabc
00000290: f542 80ba e044 393e 47d6 04bd c5f4 d7bd
000002a0: 2e7b 873e ace9 25be 00f3 973d 0673 203c
000002b0: be6a 2c3e 3903 02be 5f8f de3d d573 6a3d
000002c0: 1ed5 e43d 49bc 7cbe d472 0abe 7e0d 023e
000002d0: 5e22 c9bc 83be 09be 2e92 4a3d 0150 93be
000002e0: bed9 013b 8b10 41bc 1b96 0cbe 4d28 e2bc
000002f0: f727 213e 2f5d 25be 09c0 4b3e 9c5a dabd
00000300: dfbc 3cbe f814 253c ee7d c93b 5b22 afbd
00000310: d966 6c3e 3a95 3fbe 919d a43d 0dd1 23bd
00000320: b003 e33d 3bf3 c13d 2af5 7bbe 4565 cabd
00000330: 8941 fcbc 1d52 3f3e c41b 6e3d f3c6 543c
00000340: 1695 c83d 163e 1d3d 828d 493d faee c4bd
00000350: 9b07 c0bd 026f f63d 4cdd 7f3e 56a3 4a3e
00000360: fc86 ba3c ad41 07bd 5dec bcbd 2f08 1b3d
00000370: ca8d 34be 338b 953d ee43 473e ba9e 753e
00000380: bd5c ccbd a919 f53d 6c30 0b3e 095e 9f3d
00000390: 7d7d a4bd 4f35 823d af7f 0bbe 1bd9 6f3e
000003a0: 0f96 3bbe f255 083e cbc8 d8bd c79e f7bd
000003b0: 320e 143c df23 2ebe 6edd 1fbe b9de a23d
000003c0: d39b 2cbd 8fdc 463e 8a54 22be c768 bcbd
000003d0: 60e6 d9bd b874 263d 8c65 6cbd 1d65 813e
000003e0: 3616 08be 4933 283e 3813 c33c 09d8 d93d
000003f0: 8653 a53c 58f5 4ebe 5ad0 eabd 30e9 1d3c
-0.02231376 0.19582728 -0.06020747 -0.11721663 0.29527703 0.20455171 0.050277624 -0.13138694
-0.23866427 0.40371993 -0.00015949181 0.20017289 0.076607235 -0.20338202 -0.112554476 -0.12988012
-0.20208755 -0.13644603 0.14802523 -0.30805686 -0.06498454 -0.029048907 0.1315594 -0.058069486
0.15330742 -0.21484435 -0.15341905 0.20851295 -0.18363485 0.04540574 -0.10518796 -0.063840345
0.036331404 -0.012330671 0.062461127 0.05309335 -0.3140831 0.24888054 -0.1105831 -0.28503785
-0.29843557 -0.11451212 -0.05530668 0.29287487 -0.06800598 0.20498045 -0.20128393 0.041304547
0.051435273 -0.16422206 -0.11709936 0.01388176 0.09011348 0.27635288 -0.11109212 0.026260639
0.15647307 0.2102592 -0.085468605 -0.20255344 0.07828801 0.048547763 0.059548456 -0.012297172
-0.16517368 0.018595206 0.10168024 -0.23564798 0.016974324 -0.02434464 0.3572656 -0.16167371
0.085548274 -0.04227125 0.023527293 -0.15595947 0.07618405 0.10617637 -0.013915195 -0.060166247
0.012913846 0.030672112 -0.1605493 0.1676165 -0.178757 -0.099964395 0.13939758 0.0072842995
-0.037036072 -0.15278672 -0.13669328 -0.0016989078 -0.102969036 0.009501382 0.027131774 -0.04211893
0.055116914 -0.13519841 0.249454 0.048619896 -0.27220246 -0.11419935 -0.11513815 0.13395475
0.08996933 0.0907968 -0.10867498 0.15920028 0.10803801 -0.06959801 0.09592924 -0.03361525
-0.057710055 0.102966085 0.13341706 -0.099552475 -0.15117124 0.026941413 -0.14422047 -0.028776888
0.037782438 -0.21459152 -0.009692543 -0.07464891 0.09115984 -0.055819698 -0.007872756 -0.011589176
-0.09843447 0.112497106 -0.20886166 0.09720555 -0.20301095 -0.09505251 0.09075942 -0.10017788
-0.1312867 0.17822446 0.08794799 0.18601766 -0.12680966 -0.118231714 0.027981732 -0.19454305
-0.036420178 0.002736701 0.13049893 0.23533858 -0.11006541 0.06593291 -0.08794308 -0.108739935
0.02920878 0.23354375 0.039551858 0.09584243 -0.13052851 -0.009298689 -0.024514941 0.062336497
-0.1407756 -0.11686538 0.08783679 -0.02085886 -0.000978558 0.1809268 -0.032430913 -0.10544733
0.26461166 -0.1620242 0.074193954 0.009793049 0.16837594 -0.12696542 0.108671896 0.057239372
0.111734614 -0.246812 -0.13520366 0.1270046 -0.02455252 -0.1345158 0.049455814 -0.28771976
0.0019813622 -0.011783729 -0.13729136 -0.027607108 0.15737902 -0.16148828 0.19897474 -0.106618136
-0.18431424 0.0100758 0.006149045 -0.08551475 0.23086108 -0.18709269 0.08037866 -0.03999429
0.11084688 0.09470221 -0.24605241 -0.09882597 -0.030792968 0.18683667 0.058131948 0.012986886
0.09794061 0.038389288 0.049207218 -0.09615894 -0.09376451 0.12032892 0.24986762 0.1978887
0.022769444 -0.033021618 -0.0922477 0.0378496 -0.17632213 0.07301941 0.19459507 0.2398633
-0.09978626 0.11967785 0.1359269 0.07781608 -0.080317475 0.06357824 -0.13622926 0.23422663
-0.18318962 0.13314036 -0.10585173 -0.12090831 0.009036588 -0.17005871 -0.15611812 0.07952637
-0.042140793 0.19420074 -0.15852562 -0.09199672 -0.10639644 0.040638655 -0.05771403 0.25272456
-0.13289723 0.16425814 0.023812875 0.106369086 0.020181429 -0.20210779 -0.11465521 0.009638116

rnn.weight_hh_l1 f4 [204, 51]
00000000: f61c adbd 31fa adbd 78fd 833d 9e16 6f3e
00000010: a484 843d 6352 d63d 45fc 8c3c cbbb 7cbd
00000020: 0b38 7e3e 88f0 a23d b734 08bd 840a a2bd
00000030: e8c9 0cbe d0c0 1abb a1bb c6bb d349 523e
00000040: a31a dfbd f88e a9bd e698 383d e6c7 e03d
00000050: 2dc3 ae3c 4325 3cbc 21b7 d23d 8ae6 d13d
00000060: 68c3 ecbd 2e2e 84bd eac1 1a3e eae7 1ebe
00000070: d769 973c 2d7d a2bd 36d7 313d 3ac0 5f3d
00000080: f416 d43c cd90 023d 94da 483a b652 d83b
00000090: fe04 c43c c191 b03d d4c1 373e 4689 6a3d
000000a0: 28fd b7bb 154b 5a3d e8c9 c23c 024a e63d
000000b0: 6707 c8bc c130 47bb 124c 25bd 0b8d 743d
000000c0: f900 1bbb 781e 843d 7747 703e 7b5c 9dbd
000000d0: f46a 48bd 2fb7 b03d feb1 163e 4b16 66bd
000000e0: 995d d73c f100 82bd 25da 04be c684 a63d
000000f0: 9d4e e9bc 9a92 96bd e0bd 78bd 5408 0dbe
00000100: 6198 b53d b4fa 20be 505d 84bd 56df a0bd
00000110: 9748 30be f098 733d b582 62bd 75f2 a0bd
00000120: 14b2 38bd 6fa4 113e 18cf d53d bce7 1c3e
00000130: f8c2 b33d b4e3 1b3d dfd8 5d3d a2bd 2c3c
00000140: 604d 97bd d7ce aa3a 22fa d33d 551c 96bc
00000150: 09dd 123d 182f 2cbd 44ca 633d c477 e43c
00000160: f358 53bd daad d73d e15d 0ebd 85fc 1dbd
00000170: e38f c8bc c502 b8bd dcf3 0c3e f5c2 a23c
00000180: 61c5 2bbe 8923 7fbd 56a9 2d3e 9798 193e
00000190: ecfd 66bd 58c6 a03d f092 783d a3a4 b6bc
000001a0: d196 a83d 9963 ef3d 996b 3e3e 3168 4f3d
000001b0: de09 c53c 8d25 ecbd 296e d93d c16f 89bd
000001c0: 5f8b c7bd ae63 dabd 57ea 88bc e62a f23d
000001d0: 5c9b bd3c b426 853c 48c9 073d 4662 983c
000001e0: 7102 1a3e 75ae d93d 65b0 a03d 47b6 a93d
000001f0: 45e8 db3d c109 5c3d 916d 17bd 73b0 ebbc
00000200: 1049 be3d fd59 d039 861f 133e 0026 813d
00000210: c27b d93d e8b7 043e 2910 b4bd 09c2 623d
00000220: f653 49bd 4acb 8e3d daad 21bd 28b4 52bc
00000230: 6a37 b0ba 1c56 2fbd 933e 8fbd 165f 90bd
00000240: ea60 d7bd fefe 35bc 9a80 87bd 3460 693c
00000250: 9e3a e1bc 0018 b93d 271a e43c 4b16 0e3c
00000260: 1a07 293d f81f 933d 5e25 b5bd 8961 f6bc
00000270: 2857 c2bd 740e 373d c95a c0bc 23bd 113e
00000280: 70ad 76bd 11f2 b73c 5536 d83d be1c 0cbe
00000290: 79b8 e7bd 0521 cbbc 7f74 8a3d e6b9 293d
000002a0: 122e ee3d b337 64bc dd38 9b3d 6bcb 1a3e
000002b0: 9545 3abc 8ccb 0abe 1781 19bc bcba 2cbd
000002c0: ee4a 133e a74a 8fbc b12d d0bd 63d7 e6bb
000002d0: 54a8 0fbe c7ad aabc fdb0 5bbd 6a12 463d
000002e0: 7b89 5b3d 1869 28bd 8202 023e a87d 243e
000002f0: 00a8 37bb 9f65 39bc 9ad9 523c b1f7 633d
00000300: 31ee bfbd 4491 443d 201e ae3b e400 eabd
00000310: dc0e 103e cd23 b43d 7c1e 24bc c222 95bd
00000320: 9104 e93d f464 d9bd 2fb6 d43c 4e33 bebd
00000330: 05a6 ccbd 484d 40bc 008f c53d 8267 90bc
00000340: a94a 8c3d 8f24 83bd 8978 f9bd 840e 613d
00000350: 6eb7 2f3d 7153 1e3e 0743 9e3d db46 9e3b
00000360: d9e3 06be 5266 313e 9c9d 223d 5282 c4bd
00000370: a145 c7bd d88a b03d 80b0 463d 8f71 b8bc
00000380: f564 68bd cd96 e6bd 7e61 ca3c 26cc 543d
00000390: 04c5 c6bd d5ed ed3d cd15 a13c e49d 90bc
000003a0: 8214 5bbd 3526 0a3e 5d24 42bd c77f b6bd
000003b0: 5e0b 5c3d 522b 6fbd ed31 9d3d 0435 093d
000003c0: 8f8d c4bd 3ef9 f4bd 3e02 023e 6411 bd3d
000003d0: 4219 25be 7b47 9c3d 13ed 12be 50e7 b43d
000003e0: e819 cbbd e782 cb3d 09b9 21bc 6e67 bf3d
000003f0: 4692 83bd 61f6 05be 880c 903c d034 973d
-0.084527895 -0.08494986 0.0644483 0.23348472 0.06470612 0.10464933 0.017210135 -0.06170253
0.24826066 0.07956034 -0.033253398 -0.07912162 -0.13748896 -0.002361346 -0.0060648476 0.20535974
-0.108937524 -0.08279222 0.04506769 0.109756276 0.021333301 -0.011483493 0.10288835 0.1024905
-0.11560708 -0.064541206 0.15113035 -0.15518156 0.018483086 -0.07934032 0.04341813 0.05462668
0.025889851 0.031876374 0.0007661965 0.006601657 0.023928162 0.0862155 0.17945033 0.05725982
-0.0056148954 0.05329426 0.023777917 0.112445846 -0.024417592 -0.003039405 -0.04035575 0.05970482
-0.0023651703 0.06451124 0.23464762 -0.07683655 -0.048930123 0.086286895 0.14716336 -0.056173604
0.026289748 -0.06347836 -0.1297384 0.08130793 -0.028479869 -0.07352181 -0.060727954 -0.13772708
0.088669546 -0.15720636 -0.064631104 -0.07855098 -0.17215191 0.059472024 -0.055300433 -0.07858745
-0.045091704 0.14222883 0.104398906 0.15322775 0.08777422 0.03805895 0.054161903 0.010543259
-0.07387805 0.0013031614 0.103504434 -0.018324057 0.035855327 -0.0420371 0.055612817 0.02788914
-0.0515985 0.105312064 -0.0347575 -0.0385709 -0.024482673 -0.08984903 0.137649 0.019868353
-0.16774513 -0.06228975 0.16959128 0.14999615 -0.056394503 0.07850331 0.060687006 -0.022295302
0.08231891 0.116889186 0.18595733 0.050636474 0.024052557 -0.115306 0.106167145 -0.067107685
-0.0974338 -0.10663544 -0.016713304 0.118245885 0.02314537 0.016253807 0.03315094 0.018601548
0.15039994 0.10628978 0.078461446 0.0828672 0.10737661 0.05372024 -0.036969725 -0.028770661
0.09291279 0.00039739898 0.14367494 0.06306076 0.10619308 0.1296078 -0.08792145 0.055360828
-0.049152337 0.06972368 -0.03947244 -0.012860335 -0.0013444249 -0.04280673 -0.06994357 -0.07049386
-0.10516532 -0.011108158 -0.06616326 0.014244128 -0.027493771 0.09037781 0.027844502 0.008672307
0.04126654 0.07183832 -0.08845018 -0.030075805 -0.0948928 0.044691518 -0.02348079 0.14232306
-0.060223997 0.022454293 0.10557238 -0.1368284 -0.11314482 -0.024796018 0.06760501 0.041437052
0.11629881 -0.013929295 0.07579205 0.1511666 -0.011369129 -0.1355421 -0.009369156 -0.04217027
0.14384052 -0.017491652 -0.10164965 -0.007044719 -0.14029056 -0.020834817 -0.053635586 0.048357405
0.05359791 -0.04111585 0.12696269 0.16063559 -0.002802372 -0.011315732 0.012869263 0.05565614
-0.09371603 0.0479901 0.00531365 -0.11425951 0.14068168 0.08795891 -0.010017034 -0.0728202
0.11377824 -0.106149584 0.025965778 -0.09287129 -0.09992603 -0.011737175 0.09646416 -0.017627481
0.06850178 -0.064034574 -0.121811934 0.054945484 0.04289954 0.15461518 0.07727628 0.004830224
-0.13172854 0.17324188 0.03970109 -0.09595169 -0.097300775 0.08620232 0.048508167 -0.022515086
-0.056736905 -0.11259232 0.024704691 0.051952504 -0.097055465 0.116176285 0.019663716 -0.017653413
-0.053486355 0.13491137 -0.04739796 -0.0891109 0.053721778 -0.058390923 0.07675538 0.033497825
-0.09597313 -0.11961602 0.12696168 0.092318326 -0.16122916 0.07630821 -0.14348249 0.08833182
-0.099170506 0.09937077 -0.009870776 0.093458995 -0.06424384 -0.13082267 0.0175841 0.0738312

rnn.bias_ih_l1 f4 [204]
00000000: 5526 d33c 62f6 a93c 2749 c9bd 9071 bf3d
00000010: a0d5 b13d 316d 133e c6e4 4a3e 3d74 e43c
00000020: dad5 c63d dc73 da3d 773c b73c bb01 9f3c
00000030: a6f8 be3d 3e5a 39bd c079 de3d fcc3 20bd
00000040: b0c3 d93d ae06 3f3e e872 db3b 367d 963d
00000050: 866d 8bbd 6775 a43d bf93 373e 0825 513d
00000060: 7bc9 da3d 574a 1a3e 205f 6c3c 73c0 513e
00000070: 896e 453c 5367 8d3d 2e72 a63d 5c1c ea3d
00000080: 2197 8ebd 229c 043e 5525 1e3e 6708 7c3c
00000090: 7981 c93b e827 103e b72a 4b3d dc60 043e
000000a0: a179 5f3e 23a1 54bd 5444 333e 1e93 1c3e
000000b0: f37e 9ebd 8232 f33d 3baf 213e 906f 62bd
000000c0: 4ad1 a63c 8a59 183e 4778 473c 8bb6 fb3d
000000d0: 04b5 3f3d b22b 503d a251 bb3c d702 1b3e
000000e0: 194b 97bd 975c bbbd 61f5 a6bd d5de b93c
000000f0: 2ba1 033d 8bf8 2c3e e139 d43d bcb1 8b3d
00000100: 0396 c63c 591a 043e 9e4a 80bd c5b2 2e3e
00000110: 1cdb 433c 7786 e93d 924c 8fbd 685d 86bd
00000120: e7db 1a3d f82d e0bd 79a9 e3bb c81f 88bd
00000130: 8417 413d 0dc1 953d 15b1 1bbd 5ac9 1b3e
00000140: 2dc5 f93d f6b4 88bd a0a6 ee3c 2da1 4c3d
00000150: 6839 913d b390 813c 974c c23d c711 123e
00000160: 867c 0a3c 24ef 95bc 3fe9 c2bd b7d7 b0bd
00000170: 199a a5bd 931c 3f3d 57b8 e93d 0245 ebbc
00000180: 9829 683d 417d 153a 8594 683d 87a9 d5bd
00000190: 4a54 83bd 2c57 893d a15d 80bc f896 273e
000001a0: a58a b83c cf5b fd3d 370d 2c3e 5079 373e
000001b0: 1618 d6bd 9893 fbbd 8807 6b3a 564b 233e
000001c0: d012 973d ca1d 25be 361c b6bd 7362 86bc
000001d0: d969 f8bd 444e d0bc 598d 0c3e edc8 09bd
000001e0: 2f99 7c3d d8a4 73bd 78fd 593d 9509 c6bc
000001f0: 6d56 ca3d e1c0 b03d e735 263e 9831 df3c
00000200: c2ee 513d 8506 91bb 9f51 e4bc 2aa1 ff3d
00000210: 4bb9 0b3e 4d4e ee3c ab6b 06be 023a 7fbb
00000220: 22a8 08be adb2 203e c84d c83d a880 2d3d
00000230: d04c e53b 0867 b0bd c054 ba3c d583 f7bd
00000240: 59de 1bbe 60e8 87bd 78c4 0abd eef0 a9bd
00000250: ed70 b6bd d7ac d83c 0034 103e 7190 e4bd
00000260: 2f56 c23d 4651 e83d 5cdb 5abd 6ee2 02bd
00000270: 8461 1a3d 1d5a cd3a e61f 19bc af75 79bd
00000280: 4806 203d 676b 103d 23d2 af3d 1b97 41bd
00000290: b290 ad3d 2c3b 61bd 23ed f83d 676b 26bd
000002a0: 634d 923c ecd7 803c 06d7 103e dd97 103e
000002b0: 553f b83d 26c7 393e 3585 8cbd b8d4 023d
000002c0: 483f 433e b9c3 abbc 3e42 9d3d 81cf 2f3e
000002d0: f326 e53d 53cc cb3d a7eb 6f3d f4cc 0e3c
000002e0: a7fd de3d 3954 72bd 9c00 16bd 2b4c 253e
000002f0: 63f6 c13d 3f46 723d 20a3 603c 6aa6 59bb
00000300: bbdc 7bbb 2deb 8dbb 3167 043e 7cba b5bd
00000310: 4c6f ed3d 57e1 fa3c d1c7 033e 3fe1 1a3e
00000320: 0d04 023c 5562 393e 20e7 123d bc33 343e
0.025775114 0.020747367 -0.09828406 0.09347832 0.08683324 0.14397122 0.19813833 0.027887458
0.09708758 0.1066663 0.0223677 0.019410005 0.0932477 -0.045252077 0.10863066 -0.039249405
0.106330276 0.18654892 0.0066970475 0.07348101 -0.06807999 0.08030205 0.17927454 0.051060706
0.106829606 0.15067421 0.014426976 0.2048357 0.012050279 0.06904473 0.08127247 0.1143119
-0.06962419 0.12950185 0.15443929 0.015382863 0.0061494675 0.14077723 0.049601283 0.12927574
0.21823741 -0.051911484 0.17506534 0.15290496 -0.077390574 0.11874868 0.15789501 -0.055282176
0.020363469 0.14877906 0.012174672 0.12290677 0.04680349 0.05082292 0.022866074 0.15137802
-0.073873706 -0.091485195 -0.08152271 0.022689262 0.032136124 0.16891687 0.10362602 0.068210095
0.024241453 0.12900676 -0.06264232 0.17060383 0.011954095 0.114026 -0.069970265 -0.065607846
0.03780737 -0.10946268 -0.006947693 -0.06646687 0.047141567 0.07312212 -0.038010675 0.15213528
0.121958114 -0.066751406 0.029132187 0.049958397 0.070910275 0.015816068 0.094872646 0.14264594
0.00845254 -0.018302508 -0.095171444 -0.08634894 -0.080860324 0.04665811 0.11412113 -0.028719429
0.056680292 0.0005702563 0.056782264 -0.104327254 -0.06412561 0.0670608 -0.015669646 0.16366184
0.022527048 0.12371027 0.16801916 0.17917371 -0.10453813 -0.12284011 0.0008965661 0.15946707
0.07376635 -0.16124645 -0.088920996 -0.016404366 -0.12129564 -0.025427945 0.13725795 -0.033638883
0.061669525 -0.05948338 0.053220242 -0.024174491 0.09879766 0.08630539 0.162315 0.027245328
0.051253088 -0.004425826 -0.027870951 0.124819115 0.13644902 0.029090071 -0.1312701 -0.0038944487
-0.13345388 0.1569316 0.097804606 0.042359024 0.006997682 -0.08613402 0.02274549 -0.12085692
-0.15221538 -0.06636119 -0.033878773 -0.08297907 -0.08908258 0.026449604 0.14082336 -0.111603625
0.094890945 0.11343627 -0.053431854 -0.03195422 0.037690654 0.0015667115 -0.009345984 -0.060903247
0.03906849 0.035258677 0.08585002 -0.047263246 0.08474864 -0.05498807 0.12154605 -0.04062977
0.017859166 0.01572796 0.14144525 0.14120431 0.089964546 0.18142375 -0.06861345 0.031941146
0.19067109 -0.020967351 0.0767865 0.17169 0.111890696 0.09951081 0.058574345 0.008715857
0.10888224 -0.059162352 -0.036621675 0.16142337 0.09470823 0.059149023 0.013710767 -0.0033210763
-0.0038431126 -0.0043310137 0.1292999 -0.0887346 0.11593494 0.030625029 0.12869193 0.15124987
0.007935536 0.18103917 0.03586495 0.1759786

rnn.bias_hh_l1 f4 [204]
00000000: 68f1 253d 05be dc3c 386a cdbd 783a 773d
00000010: 954a 403e 988a e93d d779 933d 6e14 1f3e
00000020: 38bb a73d 5239 afbd aa15 c5bd 794f 3fbd
00000030: 645c ba3d dc47 c83c 253c 793b 5714 3b3e
00000040: 226f fb3d 6e2d ff3d a710 a13d d14f 2d3d
00000050: 7547 be3c fa2c 343e 004f 743d 3b29 02bd
00000060: 76bb 20bd b068 64bb b4f4 433d f96f 3d3e
00000070: f968 ca3d c464 ad3d 0808 13bd e125 163e
00000080: e4f3 95bd f508 2d3e 39d6 a7bc b701 7738
00000090: 6561 eb3d 443e 94bd ad23 3f3d ea8a 69bd
000000a0: 37bd 123e 46ca 97bd 5c3e d23d 2cae 9c3b
000000b0: 5a85 013e ebe5 54bd 4fe0 753d f719 a33c
000000c0: 3224 4c3e d67e d6ba 31f4 d13d 4ef3 fc3d
000000d0: 0173 bc3d d403 83bd add1 cc3d fec0 e93d
000000e0: 5868 d2bc 60f7 703d e1f0 4e3d ef0c 7c3c
000000f0: 4442 263e e9a5 903d 8aaa 9c3d 5a93 223e
00000100: 187b 80bd fff0 53bc 5e30 113e 6230 073d
00000110: 13d2 dd3d cd12 f9ba 6289 28bc b6f2 e83d
00000120: 4f1b bf3d a360 9cbd fe84 bfbc 8d08 d03d
00000130: 5b7f 953d 4430 a2bd 97fa fcbd 593d d93d
00000140: 10c4 ca3d 5fb1 6c3d 7917 f23d 6ac6 fa3d
00000150: b859 253e 0aea 8a3d 4273 2a3e 7a74 ba3d
00000160: 085c 4dbd 6ad6 f2bc 6153 1dbd 5d70 d8bd
00000170: 1da1 263d a1dd 183e ba44 c3bd 9d98 013e
00000180: b148 0a3e 8eb7 b63d 711f 25bd 4523 e9bd
00000190: 7da6 9cbd 687c 97bc 00c2 88bd 6f74 c03d
000001a0: eaa9 c6ba 119f 103e 20b5 7bbd 09ac 4e3d
000001b0: 4118 be3d cefb c03c 0883 853c b78c 563d
000001c0: ee12 5bbd 2e69 29bd b2ca 34be c6ed a23c
000001d0: eabe 8ebd 7ac0 1e3e b61c ddbb 7668 25be
000001e0: 2896 ac3d ea86 fabd e260 fe3c 4da0 09be
000001f0: 3d9b 77bc f580 e03d e205 27bb 66ae d43d
00000200: ec42 bbbd 754d 1abb 16e8 d93c 8e27 ff3d
00000210: b921 fdbd 243a 9d3d b2a6 c6bc afcf 8b3d
00000220: 30c6 433d 0771 1a3e 9ea4 803d 1054 993d
00000230: dfba 223e e130 fd3d 6321 6b3c 2d2a 073d
00000240: b5b7 d4bd 08d5 1a3e d770 0abe ccae 0d3c
00000250: 4916 a3bd 9702 2f3d 8652 9f3d 3f13 943c
00000260: 5c38 c93d 1298 143e e8d7 96bd bae3 73bd
00000270: 5976 d13d 0cc2 033e 9863 f93d 1dd1 103e
00000280: d6fb 2bbd 7f04 383d b7b5 16bd 9bcc 2d3e
00000290: 4b68 6c3d 06e4 0f3d 57c0 863d 23d4 64bd
000002a0: 7479 303a a732 143d 6939 433d 8f52 b0bd
000002b0: 0ebe 173e c263 453e 4c36 1dbd 6e2d f33d
000002c0: 0ab6 6a3e ace4 41bc ab31 4a3e 07af 293e
000002d0: 7816 0c3d 0c97 abbd 8a7a 25bd 7a33 c43b
000002e0: 72c2 b9bb 3a65 eb3d f8c2 dd3d 1f8b 483d
000002f0: 4fcd 9fbd 393a 3cbc d53e 7d3b 899a 093e
00000300: bf59 93ba c139 f03d 5e37 c63d 6042 063e
00000310: caca 42bc 6b69 283e 052b 403d 77fc 673d
00000320: 2828 f63d 755a ff3d 9fa4 583d e3d0 e93d
0.040513426 0.026946077 -0.10030025 0.060358495 0.18778451 0.11403388 0.072009735 0.15535137
0.08190006 -0.08555855 -0.09623273 -0.04670665 0.09099653 0.024448328 0.0038030234 0.18269478
0.12277056 0.12459837 0.07864504 0.042312447 0.023227433 0.17595282 0.059645653 -0.0317776
-0.039241277 -0.0034852438 0.04784079 0.18499745 0.09883303 0.08466485 -0.03589633 0.14662887
-0.07321909 0.16897948 -0.020487892 5.8890986e-05 0.11493186 -0.07238439 0.046664882 -0.057017244
0.14329992 -0.074116275 0.102658 0.004781505 0.12648526 -0.05197708 0.06002837 0.019909842
0.19935682 -0.0016364704 0.10251654 0.12351094 0.09201623 -0.063972145 0.1000093 0.114137635
-0.02568452 0.058829665 0.05052269 0.015383943 0.16236216 0.07062895 0.07649715 0.15876523
-0.06273478 -0.012935876 0.14178607 0.033005126 0.10831084 -0.0019002795 -0.010286661 0.113744184
0.093313806 -0.076356195 -0.023378845 0.10157881 0.07299682 -0.07919362 -0.12352484 0.10607404
0.09900677 0.05778634 0.11820883 0.12244876 0.16147506 0.06782921 0.1664553 0.091042474
-0.050136596 -0.029643256 -0.038409594 -0.105683066 0.040680993 0.14928295 -0.09534593 0.12655874
0.13504292 0.08921729 -0.040313188 -0.1138368 -0.076489426 -0.018491939 -0.066776276 0.09397208
-0.001515684 0.14123179 -0.06145203 0.050457034 0.0928197 0.02355757 0.016297832 0.05238029
-0.05348485 -0.041360073 -0.17655447 0.01988877 -0.06970008 0.15503111 -0.0067478074 -0.1615313
0.084270775 -0.12232764 0.031052057 -0.13440056 -0.015112695 0.109620966 -0.0025485684 0.10384826
-0.09143624 -0.0023544703 0.026599925 0.12458716 -0.12359948 0.07677105 -0.024249408 0.06826722
0.04779643 0.15082179 0.06281398 0.07486737 0.15891598 0.123628385 0.014351222 0.032999206
-0.10386602 0.15120327 -0.13519607 0.008647632 -0.07963235 0.04272708 0.07779412 0.018075584
0.09825203 0.14511135 -0.073653996 -0.05954335 0.10227651 0.12866992 0.12177199 0.1414227
-0.041988216 0.044926163 -0.03679439 0.16972582 0.05771665 0.03512957 0.06579655 -0.05586637
0.0006731965 0.03618112 0.047662172 -0.08609497 0.14818594 0.19276336 -0.03838186 0.118738994
0.22921005 -0.011834305 0.1974551 0.16570674 0.034201115 -0.08378419 -0.040400065 0.005987582
-0.0056689316 0.11493917 0.10828203 0.0489608 -0.078028314 -0.011488491 0.0038642187 0.13437857
-0.0011241956 0.11729766 0.09678529 0.13111258 -0.011889169 0.16446464 0.046916027 0.056637254
0.12019378 0.12468425 0.05289137 0.11416795
