tmp/aa_models/6.pt (torch_old, 539898 bytes, 30 tensors)

rnn.weight_ih_l0 f4 [204, 60]
-0.1418822 0.05974604 -0.16513088 0.17902052 0.03206187 0.124536 -0.03434129 0.106776714
0.22264986 0.23608924 0.054933637 -0.016643481 0.18168844 0.019604646 0.008328439 0.055305883
-0.02793652 0.06968946 0.0827238 0.14648011 -0.024087587 0.01437238 -0.06860821 -0.03070277
0.055242993 0.059857525 0.015110036 -0.0012555709 -0.093808874 -0.05100869 0.035620026 0.10224719
-0.13603719 0.07633572 0.1266975 -0.032824855 0.12196569 0.13745101 0.12698661 -0.04193206
-0.09976452 -0.028668456 0.059440807 0.07953951 0.0006977469 -0.036781333 0.07480997 0.12720744
-0.017803721 0.06772685 -0.10487169 0.06562394 -0.068290696 0.11735721 0.038705856 0.13956551
-0.103548124 0.026265189 -0.059530362 0.10582799 -0.062399298 0.18709327 0.0829415 0.003448291
0.1824205 -0.1986576 -0.051404275 -0.18756458 -0.22186291 -0.02771224 0.09169225 0.13647778
0.13750446 -0.03490037 0.117297724 -0.15174949 -0.20572753 -0.078614436 -0.09103891 0.11276417
0.08329479 0.13980195 0.044650577 0.15115945 0.055128522 -0.025271779 -0.06563128 -0.0015009645
0.18852048 0.07161966 0.08542565 -0.07708035 0.034790475 0.13821046 -0.043398317 0.046568427
0.108828664 0.07497399 0.13548231 0.07348892 -0.02941237 0.07854116 -0.032401565 -0.117050394
-0.09316111 0.11910117 0.09796813 -0.019091193 0.013304202 -0.03756243 -0.034698255 0.10632795
0.058361456 -0.018460311 0.1071119 0.09613834 -0.12289733 0.116605 0.010153994 0.030144319
-0.040746193 0.19842033 0.09326684 0.02613682 -0.03053285 0.08320726 0.010364928 0.074281685
0.06427675 0.056892015 0.07707036 -0.04828703 0.11135958 -0.00044047576 0.0049097254 0.03420151
0.079137385 0.11336674 -0.040822763 0.04772805 0.020723669 -0.05274023 -0.034717944 0.023679981
-0.11913475 -0.047739103 0.13672827 -0.10127395 -0.021000035 0.13373984 0.021385875 0.110383034
-0.109407105 -0.03181353 -0.04235208 0.08825507 -0.12897742 0.119361505 -0.08990644 0.019645052
-0.069792174 0.13145252 0.08419965 0.017312214 -0.09169591 0.048281014 -0.032550566 0.002275467
-0.024267092 -0.12286124 -0.09608414 0.048671693 -0.02829229 -0.07864353 -0.10059526 -0.092858635
0.09366912 -0.08023812 -0.009244487 -0.12660757 0.03869475 0.110515505 0.13317674 0.12679452
0.093493134 -0.006046475 0.013515795 -0.06904273 0.030930055 0.08477173 0.07710046 0.026814539
0.01165201 0.043225218 0.09326731 -0.06333683 0.049656298 -0.09987379 -0.04589773 0.113516495
0.04856569 0.09317186 -0.044771668 0.00932295 -0.0004900857 0.040110324 0.08673162 -0.008648634
0.14302473 0.09118262 0.06200965 0.13066748 -0.13451256 -0.023570891 0.021481039 -0.10509073
0.013777545 0.09409673 0.02571117 -0.09382854 -0.055345852 0.09024942 0.10582419 -0.07024606
-0.01465431 0.124464266 -0.13963224 0.026174275 -0.116000794 0.1397493 -0.08603817 -0.100860074
0.014426991 0.09176199 -0.059654288 -0.046049736 -0.12715591 -0.13378744 -0.0664871 -0.0529479
0.0071994923 0.107706286 0.058163933 -0.25124088 0.022647528 0.19853479 0.041083846 0.22430089
0.014448873 0.13931155 0.062425226 -0.12829122 -0.1461911 0.002445146 0.12203602 0.0068220645
00000000: 9149 11be 43b8 743d 1218 29be 2851 373e
00000010: 4f53 033d bb0c ff3d 74a9 0cbd c0ad da3d
00000020: 53fe 633e 61c1 713e 1802 613d e957 88bc
00000030: 890c 3a3e ec99 a03c 0174 083c 6c88 623d
00000040: 21db e4bc 59b9 8e3d 186b a93d e2fe 153e
00000050: 5553 c5bc 227a 6b3c 7682 8cbd 6084 fbbc
00000060: 7a46 623d 2a2d 753d 1690 773c f891 a4ba
00000070: de1e c0bd 7dee 50bd 4ee6 113d fa66 d13d
00000080: 554d 0bbe e755 9c3d fdbc 013e 5b73 06bd
00000090: 26c9 f93d f5bf 0c3e c708 023e f4c0 2bbd
000000a0: 5751 ccbd 1cda eabc 3478 733d 9ce5 a23d
000000b0: 00e9 363a 06a8 16bd f835 993d ab42 023e
000000c0: 1cd9 91bc 60b4 8a3d f8c6 d6bd d865 863d
000000d0: fedb 8bbd fa58 f03d 088a 1e3d 43ea 0e3e
000000e0: 0a11 d4bd 182a d73c 1cd6 73bd 58bc d83d
000000f0: 6896 7fbd 6195 3f3e 3cdd a93d b9fc 613b
00000100: 71cc 3a3e e66c 4bbe 4a8d 52bd ee10 40be
00000110: 0830 63be c804 e3bc 25c9 bb3d d5c0 0b3e
00000120: f8cd 0c3e b1f3 0ebd ca39 f03d 3864 1bbe
00000130: 3daa 52be 9b00 a1bd 9c72 babd e7f0 e63d
00000140: 7596 aa3d 3e28 0f3e 86e3 363d 8bc9 1a3e
00000150: 72ce 613d c306 cfbc b169 86bd 03bc c4ba
00000160: 830b 413e 54ad 923d a5f3 ae3d 4ddc 9dbd
00000170: 7580 0e3d 0b87 0d3e 6fc2 31bd 89be 3e3d
00000180: 90e1 de3d f78b 993d e0bb 0a3e 5c81 963d
00000190: 36f2 f0bc 30da a03d 81b7 04bd 1eb8 efbd
000001a0: 41cb bebd 50eb f33d 84a3 c83d 2265 9cbc
000001b0: def9 593c 10db 19bd c21f 0ebd 78c2 d93d
000001c0: 6c0c 6f3d 143a 97bc 7c5d db3d 2ee4 c43d
000001d0: 98b1 fbbd 9ace ee3d f05c 263c 38f1 f63c
000001e0: 7be5 26bd b32e 4b3e af02 bf3d e21c d63c
000001f0: 0720 fabc 9168 aa3d a9d1 293c ff20 983d
00000200: 87a3 833d 9a07 693d 11d7 9d3d 9fc8 45bd
00000210: 7e10 e43d a8ef e6b9 c3e1 a03b e216 0c3d
00000220: c812 a23d d22c e83d c535 27bd 7d7e 433d
00000230: afc4 a93c 2406 58bd 6734 0ebd 85fc c13c
00000240: ebfc f3bd 148a 43bd 7f02 0c3e b768 cfbd
00000250: 4408 acbc 19f3 083e 6e31 af3c 8010 e23d
00000260: d510 e0bd e74e 02bd 6079 2dbd 13bf b43d
00000270: a812 04be ce73 f43d de20 b8bd a9ee a03c
00000280: 33ef 8ebd 7d9b 063e de70 ac3d 58d2 8d3c
00000290: 11cb bbbd 50c2 453d be53 05bd 0020 153b
000002a0: c8cb c6bc ac9e fbbd c3c7 c4bd f85b 473d
000002b0: 3cc5 e7bc dc0f a1bd e304 cebd ab2c bebd
000002c0: 98d5 bf3d e253 a4bd 3076 17bc 6aa5 01be
000002d0: 637e 1e3d f455 e23d 7c5f 083e 6cd6 013e
000002e0: 5479 bf3d 8221 c6bb 5a71 5d3c 4666 8dbd
000002f0: 0761 fd3c cd9c ad3d d9e6 9d3d 2aaa db3c
00000300: 12e8 3e3c ed0c 313d ee02 bf3d bdb6 81bd
00000310: 6764 4b3d a18a ccbd 42ff 3bbd 567b e83d
00000320: d1ec 463d e3d0 be3d 7f62 37bd 49bf 183c
00000330: 1879 00ba b94a 243d 59a0 b13d 00b3 0dbc
00000340: 1375 123e f4bd ba3d d5fd 7d3d b2cd 053e
00000350: a9bd 09be be17 c1bc 01f9 af3c cf39 d7bd
00000360: 36bb 613c c9b5 c03d 3ba0 d23c 2d29 c0bd
00000370: 55b2 62bd b0d4 b83d 5aba d83d 2bdd 8fbd
00000380: a218 70bc 1fe7 fe3d c1fb 0ebe 6f6b d63c
00000390: d391 edbd 711a 0f3e c834 b0bd ba8f cebd
000003a0: 305f 6c3c b6ed bb3d 0e58 74bd a69e 3cbd
000003b0: 2935 02be 93ff 08be 642a 88bd e6df 58bd
000003c0: b8e9 eb3b 1d95 dc3d 4e3d 6e3d a5a2 80be
000003d0: 4f87 b93c b44c 4b3e 8947 283d 22af 653e
000003e0: f7ba 6c3c b0a7 0e3e 98b1 7f3d c65e 03be
000003f0: 1fb3 15be be3e 203b 05ee f93d a08b df3b

rnn.weight_hh_l0 f4 [204, 51]
0.013754901 0.0356904 0.020997178 0.037659038 0.11199909 0.03544705 0.026394807 -0.19218838
0.15010458 0.030759083 0.13569598 0.14586154 -0.10707207 0.060790576 -0.047530375 -0.013745961
0.07103479 0.10716379 0.120840766 -0.12760966 -0.20523684 -0.20120122 0.035585683 -0.009356478
-0.020808326 -0.0082638515 -0.061063804 0.05905673 -0.033138752 -0.229391 -0.13871713 0.012650057
-0.030614406 0.1531133 0.03722552 0.019183071 0.08330545 0.2327507 0.055496685 -0.111140326
-0.04116579 -0.05186765 0.05388871 -0.20307815 -0.1250406 0.15300924 0.006951907 -0.0058164042
-0.17001285 -0.045499682 0.16188039 -0.15868887 -0.05793329 -0.028705053 0.039702944 0.16713028
-0.19945006 -0.09374237 -0.10905151 0.13578792 0.05265304 0.078049056 0.07256026 -0.08246064
-0.1155685 0.051865272 -0.03656022 -0.07934714 0.20013386 0.13021281 -0.036783207 -0.19223058
-0.12728125 -0.023635888 0.1263694 0.07238386 -0.014381554 0.025571406 -0.00073225365 -0.0244285
-0.15418068 -0.38821396 0.039301533 -0.17644416 -0.013997217 -0.080564156 -0.033874393 -0.031395882
0.21310394 -0.058368262 0.044992108 -0.115797706 -0.14915659 0.2029201 -0.18172197 -0.15300773
0.18752223 0.18008292 0.17485796 -0.076046966 0.068575926 -0.0012947837 -0.10577457 0.08034575
0.07518647 -0.07637014 0.14242056 0.06667947 0.053834602 -0.0067686876 -0.040485047 -0.100943424
-0.07174646 0.051237714 0.008779622 0.10461239 0.083449274 -0.084216245 0.08806661 0.16082045
0.025175862 -0.07129706 0.09906624 -3.5706104e-05 0.013079699 0.09105161 0.094588645 -0.091867976
0.04175294 -0.11395838 -0.035625525 -0.077958725 -0.03766085 -0.017480887 -0.010479025 0.1280573
-0.16352469 0.09493351 -0.047557417 -0.04033775 -0.100364245 0.037259046 -0.017989608 -0.048634063
-0.0056473776 -0.029191948 -0.14286591 -0.092895076 -0.056826778 -0.034376256 -0.1183831 0.07893631
-0.0892899 0.08305401 -0.13318196 -0.011478802 0.026985649 -0.07995754 -0.0360917 -0.016769318
-0.18354832 -0.016180143 0.026865324 0.14281236 -0.0669998 0.11349923 0.08777376 0.13106398
-0.14170025 -0.036024757 -0.035136957 -0.059271358 -0.010755683 -0.09409363 -0.21653591 -0.11649492
-0.049890686 0.10191295 -0.1328625 -0.120160155 0.09159912 0.030008567 -0.21717028 -0.006373039
0.034468297 -0.16991316 0.17655067 -0.15706754 0.13152885 0.0724094 0.24992888 -0.0049691545
-0.02444536 0.029171493 0.07387873 0.07721733 -0.18228315 0.08878787 0.06727133 0.04749569
0.016168624 -0.17111154 0.0077312337 0.002478354 -0.027209044 -0.14246528 0.036090422 -0.084199175
0.07317288 0.019553715 -0.10642417 -0.14344053 0.027006162 0.08080128 -0.0030024997 -0.08430519
-0.12087894 0.0033184243 0.058550484 0.079145595 -0.21152207 0.10794086 -0.008542685 0.031772804
0.13968317 -0.029345702 -0.0405722 0.050736878 -0.020683656 -0.059662983 -0.16710164 0.08021937
-0.080815054 -0.049088802 -0.060519192 0.107123084 0.09931112 0.15983841 -0.18205518 -0.048642024
-0.07724513 -0.08486316 0.039789688 -0.0029901029 0.060466845 0.033860628 0.11489526 -0.025662262
0.028507996 -0.07314686 0.0128650395 0.035893325 0.05946612 -0.08043785 0.034422945 0.096040286
00000000: 3c5c 613c 1930 123d 4602 ac3c 5d40 1a3d
00000010: c75f e53d ed30 113d ec39 d83c 08cd 44be
00000020: 04b5 193e 79fa fb3c e3f3 0a3e ba5c 153e
00000030: 9a48 dbbd 8aff 783d 36af 42bd bd36 61bc
00000040: b07a 913d b078 db3d 5d7b f73d 1bac 02be
00000050: 9b29 52be b107 4ebe 4bc2 113d ea4b 19bc
00000060: 3976 aabc 1b65 07bc 0a1e 7abd 78e5 713d
00000070: 80bc 07bd 79e5 6abe dd0b 0ebe 2f42 4f3c
00000080: 10cb fabc bcc9 1c3e c979 183d d125 9d3c
00000090: 0c9c aa3d 3356 6e3e 7e50 633d 8a9d e3bd
000000a0: 769d 28bd 2c73 54bd 68ba 5c3d b8f3 4fbe
000000b0: a50a 00be 74ae 1c3e d3cc e33b 8997 bebb
000000c0: d917 2ebe e05d 3abd f9c3 253e 567f 22be
000000d0: 754b 6dbd dc26 ebbc 8e9f 223d 3324 2b3e
000000e0: a33c 4cbe 00fc bfbd 6656 dfbd fd0b 0b3e
000000f0: b7aa 573d 2fd8 9f3d 799a 943d 20e1 a8bd
00000100: 2daf ecbd ae70 543d 2bc0 15bd c180 a2bd
00000110: e4ef 4c3e 8256 053e fda9 16bd 18d8 44be
00000120: 0456 02be 0da0 c1bc fb66 013e fd3d 943d
00000130: 9ca0 6bbc 207b d13c b6f4 3fba 471e c8bc
00000140: 8ae1 1dbe fbc3 c6be a5fa 203d c7ad 34be
00000150: 9554 65bc d2fe a4bd e0bf 0abd f898 00bd
00000160: eb37 5a3e 8f13 6fbd a549 383d 5927 edbd
00000170: 81bc 18be 49ca 4f3e 5315 3abe 0fae 1cbe
00000180: d405 403e a867 383e f70d 333e 83be 9bbd
00000190: 8971 8c3d bbb5 a9ba 56a0 d8bd 508c a43d
000001a0: 5dfb 993d f367 9cbd b2d6 113e 3f8f 883d
000001b0: ac81 5c3d decb ddbb a6d3 25bd 6dbb cebd
000001c0: cfef 92bd a3de 513d 67d8 0f3c 053f d63d
000001d0: 74e7 aa3d 9179 acbd 445c b43d 1eae 243e
000001e0: 9c3d ce3c 3104 92bd 3ee3 ca3d 23c3 15b8
000001f0: 3c4c 563c 4479 ba3d b1b7 c13d 4725 bcbd
00000200: 2105 2b3d 0363 e9bd 12ec 11bd d3a8 9fbd
00000210: 4342 1abd 1434 8fbc 37b0 2bbc 7421 033e
00000220: 0473 27be 806c c23d 91cb 42bd 3239 25bd
00000230: c58b cdbd f19c 183d f15e 93bc 8334 47bd
00000240: a30d b9bb f423 efbc 714b 12be c63f bebd
00000250: 32c3 68bd 1ece 0cbd d772 f2bd 5ca9 a13d
00000260: a0dd b6bd 3918 aa3d da60 08be 9611 3cbc
00000270: 0211 dd3c c7c0 a3bd e4d4 13bd cf5f 89bc
00000280: 17f4 3bbe 388c 84bc ab14 dc3c 673d 123e
00000290: 3137 89bd 4972 e83d bbc2 b33d a335 063e
000002a0: df19 11be b28e 13bd c5eb 0fbd 86c6 72bd
000002b0: 9b38 30bc 29b4 c0bd 97bb 5dbe e394 eebd
000002c0: 2d5a 4cbd bdb7 d03d 1b0d 08be 8716 f6bd
000002d0: 5298 bb3d 87d4 f53c e361 5ebe edd4 d0bb
000002e0: a12e 0d3d b7fd 2dbe b3c9 343e 50d6 20be
000002f0: 80af 063e 614b 943d 5bed 7f3e 4ad4 a2bb
00000300: a341 c8bc 0ef9 ee3c bb4d 973d 1f24 9e3d
00000310: 6fa8 3abe 6ad6 b53d 8dc5 893d d78a 423d
00000320: 1074 843c dd37 2fbe 4a56 fd3b e16b 223b
00000330: 80e5 debc 6be2 11be 8dd3 133d 9e70 acbd
00000340: aadb 953d 1d2f a03c eaf4 d9bd 13e2 12be
00000350: 073c dd3c 247b a53d 96c5 44bb 33a8 acbd
00000360: 618f f7bd ec79 593b a2d2 6f3d 1617 a23d
00000370: 3e99 58be 1910 dd3d 9ef6 0bbc 3324 023d
00000380: 1b09 0f3e 6666 f0bc 092f 26bd 79d1 4f3d
00000390: c570 a9bc 2c61 74bd b11c 2bbe 0e4a a43d
000003a0: 5d82 a5bd 5711 49bd f9e2 77bd 5963 db3d
000003b0: a163 cb3d aeac 233e ac6c 3abe dc3c 47bd
000003c0: b232 9ebd bdcc adbd 83fa 223d 9af5 43bb
000003d0: 15ac 773d 71b1 0a3d 354e eb3d aa39 d2bc
000003e0: 9a89 e93c 05ce 95bd e3c7 523c e104 133d
000003f0: bf92 733d 99bc a4bd 13ff 0c3d c5b0 c43d

rnn.bias_ih_l0 f4 [204]
-0.016335009 -0.068892434 -0.052627545 -0.013476988 0.013323621 0.14914992 -0.023868691 0.13961585
-0.006147097 -0.03928386 0.008108366 -0.021369105 -0.07981543 -0.06001807 0.124406435 0.045765802
-0.05304154 -0.05292433 0.12936868 0.092283234 0.037432432 0.04863943 -0.02171794 0.0034225627
0.1981127 -0.08706964 -0.07299387 -0.03878555 0.03511422 0.14855051 -0.022329384 -0.038103335
-0.013052993 0.120786496 0.034924597 -0.019028157 -0.043092582 0.14562598 0.16885185 -0.0014975534
0.10365935 0.019851804 0.21754093 0.071657516 -0.042353608 -0.01465551 -0.0077250497 0.16800004
0.10861661 -0.06062352 0.014743493 -0.06044964 0.10295966 0.06614624 0.10368496 0.16402832
-0.01521646 0.15715691 -0.03181591 -0.08107641 -0.03318696 0.037749067 0.07276437 0.016883435
-0.111750014 0.1275912 -0.06625 0.0964707 -0.04043821 -0.03977262 -0.09606622 -0.05688518
-0.03002147 -0.08127068 0.10354994 0.13915391 -0.034369502 0.0601268 -0.008582114 0.08886915
-0.058378197 -0.041304998 -0.19801924 0.031873055 -0.114639156 0.010455033 -0.0548227 0.17200986
0.13957238 0.09859497 -0.09214049 -0.1151079 -0.09230167 -0.053449284 0.08126142 -0.03861168
0.15517922 -0.025626294 0.12137517 0.04049596 0.14427775 -0.027707245 -0.14399768 -0.16257927
0.06612523 -0.089465454 0.047480658 -0.038634066 -0.056209646 0.05874158 -0.03953379 -0.17774421
0.04279596 0.08425238 -0.06944789 -0.018689677 0.12553275 0.024462042 -0.08636173 0.035027202
-0.11809513 -0.04831717 -0.02339124 -0.027968751 -0.11265788 0.0040331874 -0.026753897 0.09557879
-0.11602709 -0.10428102 0.060023285 -0.022085942 -0.06720696 0.15183865 -0.0035959291 -0.0033518316
-0.06107782 0.10260264 -0.10078272 0.04938188 -0.10627314 -0.17082083 -0.13496216 0.14824589
0.09975763 0.012650516 -0.16487494 0.1598483 0.0723687 0.021870619 -0.044906456 0.0039564567
0.11932519 -0.027217777 0.13452728 0.05586385 0.15018849 0.17506114 0.16300611 0.12326836
0.044026006 0.028315954 -0.06235871 0.11851008 0.08041872 0.0514905 -0.062088057 0.02522055
0.09698249 -0.0867083 0.045833446 0.18501705 0.15151569 -0.24611701 0.05554501 -0.06854715
0.03666025 0.04023675 -0.12542099 0.042404205 -0.04717814 -0.06983854 -0.080372855 0.087171495
-0.0091474755 0.0768533 0.07824726 -0.088579856 0.06645545 0.0025085926 0.049885213 -0.0066219745
-0.032186653 0.07817464 0.06957848 -0.15862308 0.037418537 0.08949571 -0.050251253 -0.02583551
0.05561596 -0.055363744 0.0032442485 0.16730684
00000000: ffd0 85bc 7a17 8dbd fb8f 57bd 96ce 5cbc
00000010: 514b 5a3c c2ba 183e 4688 c3bc 75f7 0e3e
00000020: 966d c9bb 1de8 20bd f4d8 043c 430e afbc
00000030: 4676 a3bd 82d5 75bd cdc8 fe3d ec74 3b3d
00000040: 1642 59bd 2fc7 58bd 3979 043e fefe bc3d
00000050: c052 193d 243a 473d d2e9 b1bc 134d 603b
00000060: 0ede 4a3e 9151 b2bd cf7d 95bd 99dd 1ebd
00000070: eed3 0f3d a01d 183e 1dec b6bc 3e12 1cbd
00000080: 39dc 55bc e95e f73d 180d 0f3d f0e0 9bbc
00000090: d981 30bd fa1e 153e 80e7 2c3e 8e49 c4ba
000000a0: 5a4b d43d 40a0 a23c 0dc3 5e3e 2dc1 923d
000000b0: fa7a 2dbd aa1d 70bc 6a22 fdbb 3408 2c3e
000000c0: 6372 de3d 5e50 78bd b18e 713c 0b9a 77bd
000000d0: 84dc d23d ae77 873d c858 d43d 0af7 273e
000000e0: 764e 79bc beed 203e 6651 02bd 640b a6bd
000000f0: 0def 07bd c49e 1a3d 7c05 953d 214f 8a3c
00000100: 31dd e4bd 44a7 023e 14ae 87bd 6e92 c53d
00000110: 89a2 25bd 9de8 22bd 5ebe c4bd 6f00 69bd
00000120: 96ef f5bc 3e71 a6bd fe11 d43d 5d7e 0e3e
00000130: 09c7 0cbd 8547 763d ff9b 0cbc 0701 b63d
00000140: fa1d 6fbd 6e2f 29bd 8ec5 4abe 528d 023d
00000150: efc7 eabd 964b 2b3c c48d 60bd 5a23 303e
00000160: 10ec 0e3e 29ec c93d 27b4 bcbd b1bd ebbd
00000170: a808 bdbd a3ed 5abd 636c a63d 4827 1ebd
00000180: 4de7 1e3e 3cee d1bc 8c93 f83d 17df 253d
00000190: 8cbd 133e 4efa e2bc 2174 13be 2e7b 26be
000001a0: aa6c 873d aa39 b7bd 147b 423d c13e 1ebd
000001b0: 163c 66bd 039b 703d 2fee 21bd 9402 36be
000001c0: d14a 2f3d 838c ac3d b23a 8ebd 181b 99bc
000001d0: a88b 003e 9f64 c83c 6bde b0bd af78 0f3d
000001e0: dcdb f1bd 3ae8 45bd fc9e bfbc b91e e5bc
000001f0: 2db9 e6bd d428 843b fd2a dbbc d0be c33d
00000200: 9c9f edbd 4a91 d5bd fada 753d 94ed b4bc
00000210: cda3 89bd 977b 1b3e aea9 6bbb 67aa 5bbb
00000220: bc2c 7abd 5521 d23d 2c67 cebd a744 4a3d
00000230: bba5 d9bd a8eb 2ebe 8533 0abe c5cd 173e
00000240: ba4d cc3d 1c44 4f3c fad4 28be 46af 233e
00000250: 0a36 943d 032a b33c d5ef 37bd 2aa5 813b
00000260: c460 f43d d1f7 debc 85c1 093e 7ed1 643d
00000270: 03cb 193e 3a43 333e 13eb 263e 1f74 fc3d
00000280: 9d54 343d dcf6 e73c d96b 7fbd 6ab5 f23d
00000290: 92b2 a43d b4e7 523d 0c50 7ebd 549b ce3c
000002a0: c19e c63d 1f94 b1bd dabb 3b3d 1c75 3d3e
000002b0: ee26 1b3e 1906 7cbe 2a83 633d 7362 8cbd
000002c0: 0f29 163d 4acf 243d 5c6e 00be 08b0 2d3d
000002d0: de3d 41bd 8207 8fbd 869a a4bd f886 b23d
000002e0: 4bdf 15bc 4365 9d3d 1940 a03d 5b69 b5bd
000002f0: cc19 883d 3367 243b 7054 4c3d 26fd d8bb
00000300: 27d6 03bd 071a a03d 2a7f 8e3d 176e 22be
00000310: 2e44 193d 8749 b73d 42d4 4dbd fea4 d3bc
00000320: 90cd 633d 18c5 62bd 759d 543b 7c52 2b3e

rnn.bias_hh_l0 f4 [204]
0.087626144 -0.07870255 0.09657909 0.15841606 0.06211458 0.06265622 0.08987557 0.13372083
0.13882539 0.013101461 0.09595076 -0.04587793 0.16110747 0.09395567 -0.06317288 -0.039209723
0.052784905 0.18152104 0.13909382 0.13333872 -0.024689427 0.20647511 0.11642736 0.09480095
0.120572485 0.04210163 -0.0019469191 0.12812394 -0.018655755 0.119749635 0.18738902 0.061380632
0.09023204 -0.06879842 -0.096425675 0.0652675 -0.058454808 0.13846451 -0.059339587 -0.038730383
0.013788963 -0.038316913 0.17202699 0.16609648 0.02568539 0.08312347 0.035937946 -0.011328257
0.13101876 -0.05788131 0.13066757 -0.1085593 0.07382209 0.17732276 -0.06145196 0.11898509
0.02226504 -0.042681243 0.088953994 -0.01080317 0.05895054 0.08771749 0.072213694 0.021412969
0.123855256 0.12489363 0.0585561 -0.021479694 0.086356215 -0.046936106 -0.11132858 -0.009289088
0.1125382 0.0005416051 0.1647122 -0.070330374 0.08588503 -0.08000677 0.040986944 -0.015548152
0.09617133 -0.07327472 -0.14084576 0.11063223 0.008760591 0.15244295 0.08381156 0.117042124
0.008770644 0.14173949 0.068269156 0.066473015 0.04729868 0.15804258 0.0495499 0.007988002
0.01604485 0.01450372 0.05275944 0.056829393 0.12136361 -0.07161407 0.013884512 -0.03328845
0.073262274 -0.13030544 0.16575056 0.054231297 0.032779053 -0.15170659 -0.04958142 -0.042363912
0.08252916 0.09506276 -0.054213725 0.05597695 0.122245595 0.15152694 -0.06117341 0.0895872
-0.02801077 -0.14111222 0.041814744 0.02424527 0.0028326823 0.05324095 0.14097212 0.1373114
-0.04565085 -0.07012027 -0.13626678 -0.071631484 -0.03610793 0.020791179 0.077557206 0.18210879
-0.08606118 0.019641744 -0.13421346 0.110059254 0.04314051 0.071268015 -0.09910085 0.0026155873
0.032134052 -0.010510232 -0.10256381 0.17562923 0.18436994 0.15748426 -0.13377531 0.025939494
-0.0033627406 -0.086915135 0.035272587 0.10544004 0.029376341 0.17392722 0.07148267 0.057753067
0.04122095 0.044734295 0.0529768 0.11601566 0.06297655 0.13846101 -5.5719196e-05 -0.003932877
0.055119954 0.091616824 0.13682696 0.013249024 -0.04090912 -0.1264098 0.20047933 0.18608592
0.008688487 -0.042650983 -0.034315255 -0.00021124507 -0.17152548 0.058192216 0.0040076366 -0.07177323
0.20709307 -0.04293369 -0.053722147 -0.014944886 0.070427485 -0.073724866 0.057439312 -0.047065508
-0.0068125543 0.08111897 0.18619233 0.04487489 -0.048692282 -0.010318147 0.07717577 0.12322343
0.10763008 0.16483788 0.117634386 0.1850145
00000000: 5675 b33d cd2e a1bd 42cb c53d d237 223e
00000010: dc6b 7e3d e751 803d af10 b83d 1dee 083e
00000020: 3e28 0e3e 83a7 563c d581 c43d 7fea 3bbd
00000030: 5bf9 243e d56b c03d c860 81bd 609a 20bd
00000040: fc34 583d a7e0 393e 9c6e 0e3e f289 083e
00000050: 7b41 cabc 366e 533e 7871 ee3d 0027 c23d
00000060: b5ee f63d c272 2c3d c42f ffba ec32 033e
00000070: f4d3 98bc 4c3f f53d e8e2 3f3e 426a 7b3d
00000080: 93cb b83d 30e6 8cbd d37a c5bd f8aa 853d
00000090: 4f6e 6fbd a4c9 0d3e 110e 73bd c0a3 1ebd
000000a0: 1aeb 613c 32f2 1cbd d827 303e 3215 2a3e
000000b0: 2b6a d23c a33c aa3d ab33 133d 279a 39bc
000000c0: c829 063e f414 6dbd b8cd 053e 5754 debd
000000d0: 0930 973d 1994 353e 0db5 7bbd 74ae f33d
000000e0: 2c65 b63c 87d2 2ebd 832d b63d c7ff 30bc
000000f0: 1f76 713d 3aa5 b33d c6e4 933d 406a af3c
00000100: d3a7 fd3d 3bc8 ff3d 85d8 6f3d 2ff6 afbc
00000110: 87db b03d 1340 40bd 3d00 e4bd 4231 18bc
00000120: 6e7a e63d 81fa 0d3a 51aa 283e 5f09 90bd
00000130: 7ee4 af3d 97da a3bd ede1 273d adbd 7ebc
00000140: 79f5 c43d 0e11 96bd df39 10be 2793 e23d
00000150: 9588 0f3c 011a 1c3e 65a5 ab3d c8b3 ef3d
00000160: bfb2 0f3c 2824 113e b3d0 8b3d 0123 883d
00000170: 43bc 413d ead5 213e d6f4 4a3d 1ce0 023c
00000180: 7d70 833c 03a1 6d3c 481a 583d f0c5 683d
00000190: 7c8d f83d 66aa 92bd dd7b 633c 7859 08bd
000001a0: 880a 963d ca6e 05be 84ba 293e a321 5e3d
000001b0: 5443 063d f958 1bbe e315 4bbd c885 2dbd
000001c0: 0c05 a93d 44b0 c23d 360f 5ebd 1648 653d
000001d0: e65b fa3d e129 1b3e f890 7abd 7e79 b73d
000001e0: d876 e5bc b97f 10be f045 2b3d 049e c63c
000001f0: 86a4 393b 2f13 5a3d ff5a 103e 5c9b 0c3e
00000200: 63fc 3abd 379b 8fbd 8589 0bbe 87b3 92bd
00000210: e9e5 13bd 4352 aa3c 50d6 9e3d ba7a 3a3e
00000220: d840 b0bd b9e7 a03c 416f 09be bf66 e13d
00000230: 1ab4 303d f7f4 913d 63f5 cabd 466a 2b3b
00000240: ff9e 033d 1c33 2cbc fa0c d2bd 26d8 333e
00000250: 79cb 3c3e 8e43 213e 65fc 08be 107f d43c
00000260: 6d61 5cbb 9000 b2bd fd79 103d f3f0 d73d
00000270: a7a6 f03c fa19 323e 8265 923d 7b8e 6c3d
00000280: 4dd7 283d 4f3b 373d 33fe 583d 9e99 ed3d
00000290: d9f9 803d b9c8 0d3e 08b4 69b8 5ddf 80bb
000002a0: 76c5 613d 9aa1 bb3d 5e1c 0c3e 6f12 593c
000002b0: 5290 27bd 9271 01be 744a 4d3e 4f8d 3e3e
000002c0: 285a 0e3c ccb2 2ebd 278e 0cbd ab81 5db9
000002d0: 60a4 2fbe f65a 6e3d 7e52 833b d8fd 92bd
000002e0: 3510 543e 3ddb 2fbd c10b 5cbd 65db 74bc
000002f0: 493c 903d 10fd 96bd 7c45 6b3d c3c7 40bd
00000300: d93b dfbb b421 a63d 34a9 3e3e bcce 373d
00000310: 8f71 47bd 720d 29bc 550e 9e3d 915c fc3d
00000320: 296d dc3d 43cb 283e 4cea f03d 7174 3d3e

rnn.weight_ih_l1 f4 [204, 51]
0.0027800445 0.08901631 0.21021593 -0.00062984845 0.067404605 -0.008278872 -0.04328393 0.00082989514
0.084023535 -0.14640947 0.05087147 0.16841507 0.024654409 -0.049435094 0.15679243 -0.11971795
-0.06624882 0.011334997 -0.04622014 -0.02230496 -0.25592926 -0.2463322 0.013239859 0.08642235
-0.07389061 0.11066748 -0.11349671 0.23226652 -0.22243729 -0.27193594 0.046034623 0.3361502
-0.281719 0.019190619 -0.058239587 0.15298441 -0.061371118 0.26246327 -0.24998558 -0.015944662
0.12087711 0.1039941 0.07709301 -0.22737484 -0.10825479 0.097371526 0.15434073 0.048901554
-0.04781036 0.111604534 0.11339266 -0.10434344 -0.19023712 0.13474928 -0.2689442 0.16237071
0.32101563 -0.039775547 -0.09366796 -0.1557233 -0.19085608 0.2036027 0.033551287 0.07540754
-0.12332927 0.14663236 0.11912334 -0.042245436 0.043271147 0.012033523 -0.04827845 0.21407975
-0.113606974 -0.07793563 0.15929312 -0.046331648 0.06937996 0.00035546732 0.034865543 -0.041195784
-0.12327516 -0.14698789 -0.07755539 0.06073751 -0.026442286 -0.055119727 0.16266662 -0.015014696
0.20743987 -0.09469684 0.040033903 0.02644594 0.0744065 0.07357113 0.03279644 0.047319494
-0.08394676 0.027035316 -0.008979194 -0.14055727 0.1598194 0.07363767 -0.036936253 0.011694344
0.028735787 -0.061692588 0.034922015 0.0855492 -0.20573351 -0.03402985 -0.024455795 0.124721155
-0.10591015 0.034302756 -0.19791429 -0.19571567 -0.0028637147 0.15770388 -0.04592408 -0.05116094
-0.17081603 -0.023190724 0.15334296 -0.12876914 -0.14294107 0.09844502 0.0066135232 0.19254811
-0.22051902 0.017950412 -0.018619558 -0.09608724 -0.067077145 -0.06786174 0.020575384 0.06417238
-0.10298073 0.1477922 -0.08243505 0.06919361 0.045381818 -0.11061141 -0.22175351 -0.047878586
-0.13525866 -0.027926713 -0.07511115 0.119321905 0.07774305 -0.0053324294 -0.06726751 -0.12395411
-0.027170103 0.12848495 0.07036633 0.0062904856 -0.41317582 0.21762879 -0.12422897 0.11696526
-0.045664366 0.1447787 0.036831357 0.1232574 0.22135632 -0.051710673 0.17711413 -0.11569543
0.08201647 0.17914926 0.2064303 0.025161704 -0.05568262 -0.15552919 -0.28634202 0.080161385
0.20998873 -0.20955849 -0.16353136 -0.14818276 -0.023677692 -0.075094625 -0.019454964 0.17573231
0.035650566 -0.11443793 0.24306057 -0.17101432 0.047718797 0.07174836 0.32566467 -0.14039989
-0.10195102 -0.07927978 -0.051270477 0.12885916 -0.17159374 -0.1528796 -0.24986851 0.2427409
0.19094451 -0.0503504 0.18469976 -0.039235804 0.14297229 0.11529715 -0.035578236 -0.09313479
0.05613421 -0.23027922 0.18973562 -0.07363013 -0.036128435 -0.058924135 0.15042417 -0.04370207
-0.17075564 0.09298802 0.022938335 0.1271695 -0.01475347 0.04950177 0.03180573 0.023347165
-0.03522759 -0.2062683 -0.07456182 -0.0054919543 -0.05669435 -0.15446606 -0.0008980492 0.21079236
-0.09298071 0.019181127 -0.0738791 -0.009452927 -0.11858703 0.04813006 0.024343312 -0.013674142
0.021109594 0.109532036 -0.0032562863 -0.05530122 -0.20031175 0.16348025 0.23397256 -0.13287196
-0.17109951 0.12561472 0.0071808742 -0.059719224 0.07291968 0.10614592 -0.07037373 -0.11255358
00000000: 6831 363b 2f4e b63d d842 573e 6a1c 25ba
00000010: 6d0b 8a3d 1ba4 07bc 7d4a 31bd 528d 593a
00000020: 8814 ac3d 5dec 15be 9a5e 503d 0075 2c3e
00000030: 0bf8 c93c 747c 4abd 328e 203e af2e f5bd
00000040: 76ad 87bd 6cb6 393c 5451 3dbd e4b8 b6bc
00000050: 2909 83be 823e 7cbe feeb 583c 33fe b03d
00000060: f653 97bd a2a5 e23d f770 e8bd 46d7 6d3e
00000070: 9ac6 63be 303b 8bbe cd8e 3c3d e11b ac3e
00000080: 793d 90be a535 9d3c a28c 6ebd f2a7 1c3e
00000090: 4860 7bbd 9661 863e 38fc 7fbe 619e 82bc
000000a0: 6b8e f73d dcfa d43d f1e2 9d3d f3d4 68be
000000b0: b0b4 ddbd b96a c73d 7f0b 1e3e ff4c 483d
000000c0: ccd4 43bd eb90 e43d 693a e83d 03b2 d5bd
000000d0: 85cd 42be b7fb 093e 0eb3 89be 8244 263e
000000e0: 295c a43e afeb 22bd fdd4 bfbd ee75 1fbe
000000f0: c76f 43be 3a7d 503e 136d 093d 456f 9a3d
00000100: 0e94 fcbd cb26 163e f0f6 f33d 8d09 2dbd
00000110: 163d 313d 4128 453c a0bf 45bd b937 5b3e
00000120: c6aa e8bd b79c 9fbd bc1d 233e 41c6 3dbd
00000130: 1517 8e3d 045e ba39 2ccf 0e3d e9bc 28bd
00000140: b077 fcbd fe83 16be 5cd5 9ebd e5c7 783d
00000150: 7e9d d8bc 39c5 61bd 1492 263e 3300 76bc
00000160: 1e6b 543e 6bf0 c1bd 97fa 233d 28a5 d83c
00000170: 6f62 983d 76ac 963d 8f55 063d 16d2 413d
00000180: 47ec abbd 2b79 dd3c 781d 13bc 3fee 0fbe
00000190: b2a7 233e 59cf 963d 784a 17bd a299 3f3c
000001a0: 5067 eb3c 5eb1 7cbd 630a 0f3d 6b34 af3d
000001b0: ceab 52be e262 0bbd 8557 c8bc ce6d ff3d
000001c0: 6ce7 d8bd 0c81 0c3d 0baa 4abe b069 48be
000001d0: 29ad 3bbb 207d 213e e31a 3cbd 228e 51bd
000001e0: 66ea 2ebe 79fa bdbc f005 1d3e 0fdc 03be
000001f0: 255f 12be 8b9d c93d 41b6 d83b 552b 453e
00000200: bdcf 61be be0c 933c 0b88 98bc 63c9 c4bd
00000210: be5f 89bd 19fb 8abd b58d a83c cf6c 833d
00000220: 90e7 d2bd d756 173e b5d3 a8bd 61b5 8d3d
00000230: 49e2 393d 3c88 e2bd 5a13 63be 561c 44bd
00000240: 3f81 0abe 90c6 e4bc e0d3 99bd 0b5f f43d
00000250: c037 9f3d a9bb aebb 8cc3 89bd a7db fdbd
00000260: d693 debc 8f91 033e 391c 903d 6b20 ce3b
00000270: c88b d3be 15da 5e3e c26b febd 7b8b ef3d
00000280: 8f0a 3bbd de40 143e 7adc 163d 606e fc3d
00000290: 3bab 623e 92ce 53bd 685d 353e baf1 ecbd
000002a0: 40f8 a73d e772 373e 7762 533e eb1f ce3c
000002b0: 7513 64bd 0b43 1fbe 6c9b 92be a72b a43d
000002c0: 4907 573e 8096 56be c474 27be 39bd 17be
000002d0: b8f7 c1bc 36cb 99bd 0460 9fbc 2cf3 333e
000002e0: 5406 123d 6f5e eabd dfe4 783e 611e 2fbe
000002f0: c974 433d cef0 923d 85bd a63e fdc4 0fbe
00000300: b2cb d0bd 705d a2bd fe00 52bd a8f3 033e
00000310: 45b6 2fbe 788c 1cbe 88dd 7fbe 1291 783e
00000320: f586 433e 393c 4ebd ef21 3d3e b9b5 20bd
00000330: 5467 123e ea20 ec3d 7cba 11bd 74bd bebd
00000340: fcec 653d 51ce 6bbe 0e4a 423e 65cb 96bd
00000350: 69fb 13bd 6f5a 71bd cb08 1a3e f100 33bd
00000360: 91da 2ebe 8170 be3d 2de9 bb3c b938 023e
00000370: 8ab8 71bc 5ec2 4a3d ba46 023d 8e42 bf3c
00000380: ce4a 10bd ff37 53be deb3 98bd daf5 b3bb
00000390: 5638 68bd 5a2c 1ebe 106b 6bba f4d9 573e
000003a0: ac6c bebd bd21 9d3c ed4d 97bd 73e0 1abc
000003b0: c2dd f2bd 0724 453d a06b c73c 8209 60bc
000003c0: 07ee ac3c 5552 e03d 6b67 55bb 8883 62bd
000003d0: 861e 4dbe 5e67 273e 8196 6f3e 960f 08be
000003e0: b634 2fbe 25a1 003e 8a4d eb3b 259c 74bd
000003f0: ea56 953d 0863 d93d 1a20 90bd 7e82 e6bd

rnn.weight_hh_l1 f4 [204, 51]
0.015070337 -0.07700628 0.09375427 0.056308612 -0.101276405 -0.13930215 0.064255014 -0.074778035
-0.19277357 0.011879736 0.07840552 -0.09728701 0.028759243 0.115637444 -0.010656035 0.019457757
-0.11772174 -0.06877093 0.12769179 -0.05595819 0.009761031 -0.0008346804 0.048618782 -0.075922675
-0.009862984 0.057044763 -0.012820397 -0.008790798 0.015186774 0.043928716 0.0022094245 -0.05415146
-0.16377795 -0.12505738 0.032660004 0.008419238 0.16880932 -0.09927047 0.08860822 0.17632838
-0.03554779 0.20434412 0.056315012 -0.031161351 0.06954725 -0.0018645958 0.01689268 -0.057503156
-0.08775428 0.11024564 0.02031198 -0.11354841 0.07290562 0.15412322 0.060007766 -0.032218877
-0.062450726 0.08376224 0.058286272 -0.09675503 -0.07059988 0.047269884 -0.092551336 -0.15324794
0.07953229 -0.034480996 0.13794681 -0.006122162 0.166109 0.114812955 0.10878886 0.08089709
0.10922049 -0.16447078 -0.02644095 -0.08862329 -0.1471753 0.014076999 -0.12427218 -0.007893689
-0.03234913 0.063448824 -0.06874308 -0.06275973 -0.16001542 0.061367232 0.0024513146 0.07713496
-0.019792207 0.014154658 0.031037599 -0.10531821 0.18272172 -0.17138459 0.076772995 -0.110872924
0.09998076 0.041541114 -0.13505514 0.050705228 -0.08639115 -0.070285186 0.08690523 -0.017409798
-0.09379129 -0.09313578 -0.15513837 -0.06580414 0.04461344 0.05321569 -0.089514546 0.064262465
0.007112953 -0.042324066 0.0039617703 -0.07564972 -0.102895275 0.07920033 0.021264836 0.06631762
-0.011811579 0.09454812 0.015703103 0.121537805 -0.17496364 0.023730595 -0.03332801 -0.079677716
-0.15894766 -0.111426 -0.005859643 -0.029590884 -0.009971319 -0.10306765 0.053887032 -0.07982949
0.068896055 -0.009193927 0.046001654 -0.09651173 -0.1360659 -0.09639992 -0.10952246 0.14628038
-0.08164363 0.11023607 0.009232052 0.12980174 0.022407738 -0.1430987 0.0691961 -0.08908615
-0.1586291 -0.027562214 -0.04165892 0.15429935 -0.20419809 -0.12520829 0.07428322 -0.17918071
0.04850364 -0.12823747 -0.13459569 0.03858956 -0.14311585 -0.15026538 -0.029213643 0.030553201
0.1520573 -0.08703658 0.16809264 0.15242968 0.0041842163 -0.0018700925 -0.005910607 -0.037463117
0.043263514 -0.025451591 0.022680283 -0.07224429 -0.050714087 0.09864424 -0.071662895 0.020149058
-0.028069107 -0.16312923 -0.14574412 -0.010490614 -0.04065668 0.121762544 0.050853483 0.08492028
-0.07747186 -0.037118085 0.04991411 -0.041562766 0.03559425 -0.06483121 0.16511858 -0.013886131
0.048283704 0.009362913 -0.055130936 0.18240929 -0.14148757 -0.13742456 -0.06476677 -0.13730708
-0.14343457 0.018620847 -0.14844202 0.14169523 -0.12968816 0.012310901 0.13044606 -0.04542735
0.008288633 0.012452802 0.15736632 0.0053342506 0.12306442 0.019495977 -0.048889525 -0.09550255
0.061967697 0.04568275 -0.03297704 -0.071820706 0.079472974 -0.09125417 -0.16639505 0.121855244
0.1017677 0.007831885 -0.025859125 -0.12249828 -0.18659653 -0.12365838 0.15401733 -0.088924244
0.09006511 -0.09803055 -0.03617847 -0.029880889 -0.019602008 -0.049612083 0.0070787943 -0.0023553406
0.033354245 0.009367261 0.13368641 -0.09991363 -0.013770744 0.057487883 -0.015489182 0.07073423
00000000: 93e9 763c 78b5 9dbd 3d02 c03d dca3 663d
00000010: 016a cfbd 39a5 0ebe 2298 833d 3a25 99bd
00000020: 6f66 45be 39a3 423c 1393 a03d 693e c7bd
00000030: 8198 eb3c 53d3 ec3d a696 2ebc e065 9f3c
00000040: 1818 f1bd c6d7 8cbd a3c1 023e 6a34 65bd
00000050: bbec 1f3c 74ce 5aba 7d24 473d 597d 9bbd
00000060: 5a98 21bc c5a7 693d a40c 52bc 4707 10bc
00000070: f2d1 783c 99ee 333d fecb 103b eccd 5dbd
00000080: 68b5 27be 0b0f 00be 7fc6 053d d8f0 093c
00000090: 5adc 2c3e 514e cbbd 3a78 b53d 6d8f 343e
000000a0: 8f9a 11bd 963f 513e 92aa 663d 1746 ffbc
000000b0: ca6e 8e3d 7465 f4ba 8562 8a3c 6e88 6bbd
000000c0: 84b8 b3bd 77c8 e13d 4f65 a63c 128c e8bd
000000d0: 8b4f 953d 7ad2 1d3e b4ca 753d f1f7 03bd
000000e0: 55cc 7fbd 8a8b ab3d 96bd 6e3d 8027 c6bd
000000f0: ab96 90bd 119e 413d 8e8b bdbd 07ed 1cbe
00000100: d3e1 a23d f23b 0dbd ee41 0d3e 6b9c c8bb
00000110: 7a18 2a3e 0e23 eb3d b2cc de3d 60ad a53d
00000120: feae df3d 076b 28be b19a d8bc 2180 b5bd
00000130: 1fb5 16be 37a3 663c 6a82 febd 8854 01bc
00000140: 8580 04bd 75f1 813d 2cc9 8cbd 2c88 80bd
00000150: 15db 23be 355c 7b3d 3ca6 203b eff8 9d3d
00000160: 4423 a2bc f0e8 673c 9042 fe3c 13b1 d7bd
00000170: 671b 3b3e 717f 2fbe 293b 9d3d 5811 e3bd
00000180: b6c2 cc3d 0427 2a3d e54b 0abe 49b0 4f3d
00000190: d8ed b0bd aef1 8fbd 5ffb b13d fe9e 8ebc
000001a0: a615 c0bd f9bd bebd 98dc 1ebe 52c4 86bd
000001b0: 95bc 363d b2f8 593d 6753 b7bd 0a9c 833d
000001c0: c613 e93b 005c 2dbd bdd1 813b 3eee 9abd
000001d0: c2ba d2bd c833 a23d 9833 ae3c 88d1 873d
000001e0: 5a85 41bc 72a2 c13d cba3 803c d0e8 f83d
000001f0: ab29 33be aa66 c23c f482 08bd 122e a3bd
00000200: 2dc3 22be 5133 e4bd 4002 c0bb 9568 f2bc
00000210: be5e 23bc 2215 d3bd a6b8 5c3d a57d a3bd
00000220: 6019 8d3d 20a2 16bc 3b6c 3c3d f1a7 c5bd
00000230: dc54 0bbe 526d c5bd 504d e0bd 86ca 153e
00000240: c734 a7bd 73c3 e13d 0842 173c bfea 043e
00000250: 6f90 b73c 7788 12be afb6 8d3d cd72 b6bd
00000260: ab6f 22be 27ca e1bc 8ba2 2abd a600 1e3e
00000270: 4e19 51be 9a36 00be cd21 983d 267b 37be
00000280: c1ab 463d af50 03be 74d3 09be 1610 1e3d
00000290: f68c 12be 2bdf 19be 7351 efbc b54a fa3c
000002a0: e9b4 1b3e 3c40 b2bd 7a20 2c3e 8716 1c3e
000002b0: c01b 893b e41d f5ba c4ad c1bb ed72 19bd
000002c0: 1535 313d db7f d0bc 00cc b93c d0f4 93bd
000002d0: 93b9 4fbd fe05 ca3d ffc3 92bd a30f a53c
000002e0: 2ff1 e5bc 590b 27be f23d 15be d3e0 2bbc
000002f0: 9e87 26bd a45e f93d be4b 503d afea ad3d
00000300: 91a9 9ebd 2209 18bd bd72 4c3d b83d 2abd
00000310: 47cb 113d 3ac6 84bd d814 293e a882 63bc
00000320: 22c5 453d e766 193c fad0 61bd 80c9 3a3e
00000330: 1ee2 10be 06b9 0cbe 71a4 84bd 3a9a 0cbe
00000340: 83e0 12be bf8a 983c 2f01 18be 8e18 113e
00000350: f9cc 04be a9b3 493c a793 053e 0712 3abd
00000360: 0ccd 073c d606 4c3c a324 213e f0ca ae3b
00000370: 3309 fc3d 07b6 9f3c 6240 48bd d796 c3bd
00000380: d7d1 7d3d d61d 3b3d ef12 07bd bc16 93bd
00000390: bac2 a23d 77e3 babd 7763 2abe 3e8f f93d
000003a0: 956b d03d 4e51 003c 84d6 d3bc 61e0 fabd
000003b0: 2913 3fbe 9b40 fdbd b8b6 1d3e ea1d b6bd
000003c0: 0e74 b83d 3ec4 c8bd e02f 14bd c4c8 f4bc
000003d0: 6494 a0bc 0a36 4bbd 3bf5 e73b 0f5c 1abb
000003e0: 769e 083d 2479 193c 17e5 083e 849f ccbd
000003f0: b09e 61bc 6a78 6b3d 57c6 7dbc 1cdd 903d

rnn.bias_ih_l1 f4 [204]
0.03625623 -0.08136119 0.07304572 0.06100328 -0.06509019 -0.08780432 0.14823343 0.13026707
0.19439198 0.10098121 -0.043721814 0.1788067 -0.03578613 0.1519972 0.03673804 0.13367306
0.03884661 -0.050629236 0.06685466 -0.061520886 0.1843736 0.09929495 0.17793548 -0.0029618507
0.16132207 0.00880289 0.043320272 0.12580848 0.02734189 0.042595107 -0.014184812 -0.041616645
0.01619151 0.06562021 -0.0063069724 -0.040693395 -0.0249375 -0.079548635 0.19942261 0.080586635
0.07547622 0.0042272606 0.077610776 -0.008316741 0.15890752 0.06937747 -0.00555378 0.07182438
0.016588695 0.123583086 0.032741237 0.17706248 0.105658524 -0.03831143 0.058482625 0.1556346
0.16133015 -0.039818548 -0.02785099 0.11637165 -0.010136051 0.087174304 0.006475533 0.090667285
0.07834415 -0.053672504 0.09494308 -0.029417299 -0.10337875 0.15858924 0.1668195 -0.09081482
-0.021315109 -0.031912945 0.13664149 0.1546938 0.14123279 0.1414371 0.09082697 0.10711906
-0.06665939 -0.1194815 0.10991673 0.12498291 0.0070415614 0.11451118 0.1095465 0.1359503
0.13589545 0.08455269 -0.09003473 -0.07282631 -0.049492236 -0.10848913 0.020855607 0.023387033
0.04749964 0.1441655 0.11149179 0.106344014 0.0052328603 0.034564335 -0.043626685 0.05428013
0.019682417 0.08773147 -0.15571094 -0.102007754 -0.098788776 0.12245839 -0.05130982 0.041055642
-0.10625754 0.030118933 -0.15058878 0.026349245 0.1089619 0.08078428 0.015654625 0.16597635
-0.02344113 0.113542706 -0.08494469 0.15029287 -0.12472934 -0.037057433 -0.030178253 -0.080271326
-0.08026916 0.10369171 0.017524002 0.1081026 0.06973723 -0.14364854 -0.12785698 -0.04156295
0.030296674 0.095905885 0.033722475 0.15986386 -0.0024996933 0.10446699 -0.083202034 -0.026917782
-0.0663485 0.115323 -0.14401688 0.05349167 0.079735234 -0.06399664 -0.04869253 0.035921134
0.1305422 0.16275096 -0.044256657 -0.0025003343 0.19480197 0.087303095 0.13530728 -0.06007076
0.032697275 0.17363209 -0.046360314 0.08339208 0.017271047 0.12281094 0.02811581 0.1430622
-0.06784664 0.17718834 -0.052191913 -0.07389177 0.13254862 0.016022708 0.08526015 -0.047132842
0.13697852 0.088289976 0.0035544792 0.06796053 -0.047857363 -0.07569257 0.10667706 0.121369876
0.034974813 0.06430091 -0.11537289 0.03385184 0.09878676 0.044761114 0.011396839 0.18116657
-0.07820249 0.031616896 0.011868887 0.20330465 0.17655677 0.018813208 -0.07047427 -0.010761726
-0.054839075 -0.05709123 0.035337534 0.022333562
00000000: 6a81 143d b2a0 a6bd ff98 953d 93de 793d
00000010: 014e 85bd c0d2 b3bd 81ca 173e bb64 053e
00000020: b10e 473e 3dcf ce3d a515 33bd 1b19 373e
00000030: 7a94 12bd 27a5 1b3e a17a 163d 97e1 083e
00000040: 9f1d 1f3d 9a60 4fbd 19eb 883d 53fd 7bbd
00000050: 6fcc 3c3e 275b cb3d b834 363e 9c1b 42bb
00000060: 9d31 253e ff39 103c 9970 313d f0d3 003e
00000070: 19fc df3c 3578 2e3d 6a67 68bc 3776 2abd
00000080: 0fa4 843c e363 863d b8aa cebb 1eae 26bd
00000090: ba49 ccbc 65ea a2bd 7135 4c3e 9b0a a53d
000000a0: 4793 9a3d d584 8a3b 66f2 9e3d f142 08bc
000000b0: a7b8 223e c615 8e3d 7cfc b5bb a918 933d
000000c0: 04e5 873c 2119 fd3d ad1b 063d de4f 353e
000000d0: 7f63 d83d 72ec 1cbd 7a8b 6f3d ad5e 1f3e
000000e0: bb33 253e c618 23bd c227 e4bc 4254 ee3d
000000f0: ae11 26bc 7188 b23d b530 d43b c5af b93d
00000100: e672 a03d b3d7 5bbd 8471 c23d 8cfc f0bc
00000110: 3db8 d3bd 3865 223e bbd2 2a3e 1ffd b9bd
00000120: 069d aebc 26b7 02bd bfeb 0b3e 0d68 1e3e
00000130: 549f 103e e3d4 103e 7e03 ba3d 3d61 db3d
00000140: b884 88bd b7b2 f4bd 061c e13d 0af7 ff3d
00000150: e6bc e63b d684 ea3d ea59 e03d 8e36 0b3e
00000160: 2d28 0b3e f629 ad3d 2164 b8bd f625 95bd
00000170: 5fb8 4abd 8d2f debd 61d9 aa3c 2a96 bf3c
00000180: fc8e 423d 1fa0 133e cf55 e43d e4ca d93d
00000190: 6a78 ab3b 5593 0d3d e5b1 32bd d754 5e3d
000001a0: 053d a13c 8fac b33d b072 1fbe 71e9 d0bd
000001b0: c551 cabd 77cb fa3d 3f2a 52bd f629 283d
000001c0: 8e9d d9bd fbbb f63c f233 1abe 5fda d73c
000001d0: 6b27 df3d 3b72 a53d 213e 803c b4f5 293e
000001e0: 9d07 c0bc 1489 e83d 7bf7 adbd 60e6 193e
000001f0: 1972 ffbd 89c9 17bd 6238 f7bc 4b65 a4bd
00000200: 2864 a4bd 525c d43d 7f8e 8f3c e564 dd3d
00000210: 65d2 8e3d 9a18 13be f1ec 02be e93d 2abd
00000220: bb30 f83c 4e6a c43d 9420 0a3d 5ab3 233e
00000230: e5d1 23bb caf2 d53d d465 aabd ae82 dcbc
00000240: b9e1 87bd 772e ec3d 2979 13be 151a 5b3d
00000250: 3a4c a33d ac10 83bd d171 47bd 0a22 133d
00000260: dbac 053e 30a8 263e 7846 35bd a6dc 23bb
00000270: 2b7a 473e f7cb b23d fe8d 0a3e c20c 76bd
00000280: 94ed 053d 9ccc 313e 50e4 3dbd 78c9 aa3d
00000290: 037c 8d3c 4d84 fb3d 2153 e63c e67e 123e
000002a0: 2ef3 8abd dc70 353e 30c7 55bd 9154 97bd
000002b0: d3ba 073e 0e42 833c e09c ae3d 5e0e 41bd
000002c0: 1944 0c3e 60d1 b43d 44f2 683b e42e 8b3d
000002d0: 1506 44bd b504 9bbd 8179 da3d c590 f83d
000002e0: c041 0f3d 32b0 833d 9f48 ecbd 3aa8 0a3d
000002f0: b650 ca3d 6e57 373d cfb9 3a3c bb83 393e
00000300: a128 a0bd b880 013d b875 423c 182f 503e
00000310: 4ccb 343e 281e 9a3c d054 90bd f351 30bc
00000320: f09e 60bd 7ed8 69bd 17be 103d e0f4 b63c

rnn.bias_hh_l1 f4 [204]
-0.03124179 -0.020111045 -0.0016367146 -0.037850052 -0.06834874 -0.0025293848 -0.03592675 -0.021130636
0.02675406 0.049356762 0.05284255 0.07839085 -0.056452457 0.1568652 0.11800388 0.07593276
0.1755799 -0.060748074 0.106027886 0.07411255 0.16617003 0.122197464 0.032352965 -0.026535852
0.023600861 0.113579005 0.13662931 0.18574408 -0.04263826 0.09211325 0.107076675 0.12612788
-0.029356714 -0.062077772 0.1426018 0.1348382 0.06909267 0.14632727 0.0050643864 -0.036064513
-0.004854372 0.09455565 -0.053915348 0.04096127 -0.009166105 0.110747255 -0.009172287 0.10344504
-0.0715234 0.053451948 0.13233185 -0.05127685 0.10546396 0.008358399 0.018068276 -0.06785054
-0.06658823 0.05085913 0.039137892 0.016024595 0.15235741 -0.048275672 0.07820865 0.12554607
0.06112523 0.0672221 0.11527541 -0.06375561 0.096829124 -0.0338106 -0.07051127 -0.10719307
0.08278866 -0.08643737 0.11552121 0.052202467 0.1701409 -0.004186069 -0.03797822 0.15070115
-0.05494529 0.022831062 0.16503836 0.004417336 0.1082496 0.09204468 -0.020911798 0.01036613
0.0041937944 0.028764768 0.054030284 0.11470769 -0.0034491585 -0.09131129 0.0064481176 0.0020050951
-0.077084646 0.15416317 0.16190329 -0.033460554 0.030814784 -0.042212978 -0.14058466 -0.12820303
0.08047715 0.0077367206 0.008812909 -0.11198241 -0.11658535 -0.061198987 -0.05141176 0.15779889
0.046103008 -0.12047758 0.08788056 0.08002329 0.1554977 0.10914094 -0.020602392 -0.1011595
0.061540794 -0.052074097 0.061167095 -0.06932208 -0.20930329 -0.15608335 0.073926084 -0.133534
-0.11841535 -0.012779008 0.12348122 0.038019657 -0.025109934 -0.163849 -0.055119917 -0.05961311
0.10242171 -0.13561255 0.07884244 0.16246852 0.019647166 0.11303979 0.06230493 0.005878143
0.07670641 0.023608813 -0.022970507 0.048179336 -0.043178137 0.0047867424 0.078736335 -0.071898445
-0.08405106 0.13339038 -0.06995297 0.17087562 -0.061503947 0.017973736 -0.09119203 -0.038217187
0.10729432 0.13038988 0.1601417 0.12996282 0.00027376594 -0.07184233 -0.055263914 0.013788547
-0.030077012 0.16978903 0.029255895 0.006208282 0.11896421 0.1757843 0.014665513 -0.05811582
0.060498256 0.02422693 0.025521269 0.06978406 -0.03927138 0.035462398 0.0051229643 0.23208182
-0.08755884 -0.07628025 0.03656322 -0.047534265 0.097562544 0.08192678 0.008614618 -0.059073016
0.06762744 0.016764792 0.16222726 -0.022772286 -0.014100976 -0.06462744 0.050326973 -0.011477704
0.10788695 -0.03601659 0.1139175 0.02734745
00000000: c8ee ffbc ebbf a4bc 0787 d6ba a808 1bbd
00000010: 6dfa 8bbd 09c4 25bb ee27 13bd 281a adbc
00000020: 552b db3c 512a 4a3d 6e71 583d 628b a03d
00000030: b13a 67bd 45a1 203e 05ac f13d a382 9b3d
00000040: 38cb 333e f9d2 78bd 2625 d93d 52c8 973d
00000050: 7a28 2a3e aa42 fa3d 8b84 043d b761 d9bc
00000060: 9856 c13c 1c9c e83d 8ee8 0b3e b233 3e3e
00000070: 75a5 2ebd dfa5 bc3d 044b db3d ab27 013e
00000080: 7e7d f0bc 4345 7ebd 3506 123e 0613 0a3e
00000090: 7580 8d3d d1d6 153e 27f3 a53b 62b8 13bd
000000a0: 6c11 9fbb 65a6 c13d 57d6 5cbd 01c7 273d
000000b0: 6e2d 16bc 75cf e23d 5c47 16bc feda d33d
000000c0: dc7a 92bd 6ef0 5a3d 0082 073e ad07 52bd
000000d0: 7dfd d73d abf1 083c ec03 943c 39f5 8abd
000000e0: 695f 88bd aa51 503d 0e4f 203d 0346 833c
000000f0: 9503 1c3e b6bc 45bd db2b a03d 268f 003e
00000100: 735e 7a3d beab 893d 8415 ec3d 4d92 82bd
00000110: 594e c63d fc7c 0abd 3668 90bd 0a88 dbbd
00000120: 1a8d a93d 1306 b1bd 6296 ec3d 41d2 553d
00000130: 6b39 2e3e 4b2b 89bb 0d8f 1bbd 6751 1a3e
00000140: 500e 61bd 3508 bb3c d1ff 283e 4dbf 903b
00000150: f7b1 dd3d ec81 bc3d 384f abbc b3d6 293c
00000160: 196c 893b 17a4 eb3c dc4e 5d3d deeb ea3d
00000170: 470b 62bb 6a01 bbbd bb4a d33b ea67 033b
00000180: 8ede 9dbd f3dc 1d3e fac9 253e ef0d 09bd
00000190: 496f fc3c 84e7 2cbd 6df5 0fbe a847 03be
000001a0: 34d1 a43d 5184 fd3b 0564 103c 0957 e5bd
000001b0: 4dc4 eebd caab 7abd 2395 52bd 0896 213e
000001c0: 82d6 3c3d f3bc f6bd b9fa b33d 40e3 a33d
000001d0: ca3a 1f3e 4985 df3d 59c6 a8bc b62c cfbd
000001e0: 3312 7c3d a64b 55bd 598a 7a3d bcf8 8dbd
000001f0: 9a53 56be 50d4 1fbe 8f66 973d 23bd 08be
00000200: bf83 f2bd 0b5f 51bc b9e3 fc3d 80ba 1b3d
00000210: 59b3 cdbc 08c8 27be 6cc5 61bd e02c 74bd
00000220: 79c2 d13d 04de 0abe 2578 a13d 265e 263e
00000230: 18f3 a03c 6881 e73d 7433 7f3d 709d c03b
00000240: 4018 9d3d 4567 c13c a52c bcbc b257 453d
00000250: 8fdb 30bd 1bda 9c3b 8440 a13d 7e3f 93bd
00000260: f622 acbd 7d97 083e 8143 8fbd 05fa 2e3e
00000270: 90eb 7bbd a83d 933c e3c2 babd a089 1cbd
00000280: 20bd db3d ed84 053e 30fc 233e f914 053e
00000290: 3e88 8f39 1222 93bd 6a5c 62bd 5ce9 613c
000002a0: 1164 f6bc 2ddd 2d3e 0faa ef3c d86e cb3b
000002b0: 82a3 f33d cd00 343e 9f47 703c db0a 6ebd
000002c0: 05cd 773d 8e77 c63c fb11 d13c f2ea 8e3d
000002d0: 07db 20bd 0541 113d 8ade a73b dba6 6d3e
000002e0: 0d52 b3bd d238 9cbd 51c3 153d 4ab3 42bd
000002f0: dfce c73d 3ac9 a73d 5424 0d3c 8cf6 71bd
00000300: 4180 8a3d 5156 893c e71e 263e f28c babc
00000310: c807 67bc 645b 84bd a823 4e3d fb0c 3cbc
00000320: d5f3 dc3d 2286 13bd 944d e93d c207 e03c
