tmp/aa_models/6.pt (torch_old, 539706 bytes, 30 tensors)

rnn.weight_ih_l0 f4 [204, 60]
00000000: dcab 3bbe 3995 203e 2834 15ba 4b60 c33d
00000010: 82a6 9bbd 4e77 abbe 46bb 91bd 5245 073e
00000020: b8fa 4bbe e6fe 1abe 47bd 04ba 8a5d 39bd
00000030: 7443 96bc 734b 0d3d 6c5d 253d 7096 aabe
00000040: 105d 07be 5704 16be 4620 0d3d f039 9ebd
00000050: 3e26 ffbd c133 b3bd a4d3 a53d d6b9 793d
00000060: ca76 a7bd 1e1a 673d 71ec 06bd 625a 88bc
00000070: c655 593d fd38 52bc 1169 f3bd 5ea4 9ebd
00000080: bc24 6e3b 6b98 c7bd d3d5 cd3d 66c4 b5bd
00000090: 649f 4e3d 7407 eb3c 8fcf cfbd 8d04 61bd
000000a0: f063 f3bc d699 7abd ec3b 81bc 3e06 0ebe
000000b0: 08f7 fa3c 2097 9c3d 0050 f63c 7040 4fbd
000000c0: b481 59bd e820 463d 3215 4abd 2cec f5bc
000000d0: bc81 283d 2c42 d53d 204a fa3b 6041 7bbc
000000e0: e044 ed3c 487d 3bbd a2d4 f33d e1e1 a0bd
000000f0: 7b8b 00bc d914 a83d 2f62 763d 4dfa e23d
00000100: af2e 313d 9b74 813d 4150 843d f488 573d
00000110: 63b0 9cbd 20a9 28bd bbb0 2a3d 423a f93d
00000120: 7fcb 3ebc 0c54 0a3e 6d53 e3bc 651a c53d
00000130: 0ac6 f63d f8ee c8bd a514 fa3c bf8e d8bc
00000140: ae85 e43c 916e 7abd bb9f c33c c07d 53bd
00000150: 1ff8 353d a1f6 51bd b6c2 1ebd 67a4 563d
00000160: 13d3 70bd c3bb 053d b049 8fbb b42e 8abd
00000170: 4e88 aabd 6713 613c 8f62 02bd 4aaa d43c
00000180: e915 26bc e8ee 803c dfa9 373c 0e0b ef3c
00000190: 8ec7 23be 2562 d2bd a7c0 19be 6ee3 393b
000001a0: 64c5 7a3d 5ea8 2fbd ca6e 5dbd cc84 603d
000001b0: fae1 43bd 5457 05bd 4697 1cbd 26ab 923d
000001c0: 58eb 3b3d 68b2 d8bd 36dd 1ebd 1026 5cbc
000001d0: 0faa eabd a40d 523d c8a4 333d 38a6 05bd
000001e0: 2eb9 003c 3398 173b ee4a 1cbe 8cf2 333f
000001f0: 05e1 44bb 1f91 2bbd eb35 3cbb 0033 92bd
00000200: 259d f63d c0a9 393e 994c 1bbd 8e7a 51bd
00000210: aec4 4ebd 46ad c53e 4d0c 743e f91a 403e
00000220: 16cc febb c338 bf3d b5ec 3dbd 8338 e7bd
00000230: 2ea3 2c3e 64ba 463e c14c 9abd 1ad5 103e
00000240: 24a4 2dbd 3705 0a3e 38a3 f73d d611 40bd
00000250: 572b 063e 4836 fb3d f2d0 fe3d 9867 0fbd
00000260: b927 d4bd 6c2e a53d 0017 35bb 1f52 33bd
00000270: d2d8 e83d 9c5d 773d a052 d63d c8cf 0dbe
00000280: 5470 bfbd e219 06bd 6aca 973d a030 e5bb
00000290: a2f5 00bd 9054 ae3c 69d9 80bd 60c1 5d3d
000002a0: f2d2 f93d f2d9 a3bd 882d 8c3c f486 9b3d
000002b0: b423 9a3d 544f da3d 9057 2c3c c01c f3bb
000002c0: 22e6 d33d cc44 a0bd 0831 603d 9c5b 0ebe
000002d0: a6e3 823d a986 4a3e c748 2e3e b2e7 a53c
000002e0: 15dd 393e f73a c43d 64ef 1bbc f166 863c
000002f0: d390 d1bd b7db 0c3e db1b 97bd 9777 62bc
00000300: 1ae4 25be d32d e03d 600b 11bd 2776 853c
00000310: 6d70 863d 1c92 11be 3594 bbbd 1637 843b
00000320: 18ec 773c 7291 933d 90e2 a33d 9404 213e
00000330: 6671 8e3d aac3 97ba 8296 33bd f289 243d
00000340: ec1f 993d e6ef e33d 3362 d2bc 3f41 aa3c
00000350: 5482 f13b 041a 3bbd ddbf e93d 038c 8fbc
00000360: 157c 803c e21b 763d d5e0 883d f3bf ed3d
00000370: 5185 a53c 804f 6ebb 0064 fa3a 5f66 eabd
00000380: 9cbc 41bd 10b9 9e3c 4956 06be ba14 ff3d
00000390: 93ed 0b3e 734d f7bd 4682 f23d fcaa 603d
000003a0: 22a6 943d d878 043d 5349 9abd cea3 3bbd
000003b0: b897 afbc e404 b33d 4098 6a3b f0c3 9a3d
000003c0: 5bde 8f3d 81de 8a3d ce7a 0f3d fd58 a73d
000003d0: 8616 543b c3e0 a53d 77db 333e df04 7ebd
000003e0: ae1a 1e3e da3f d83d 8e60 a73d 296c 0d3e
000003f0: dfc4 273e 863a 9a3d dabe 223e 1b80 093e
-0.18327278 0.15681924 -0.0005691671 0.09539851 -0.07600118 -0.3348946 -0.07115798 0.13210037
-0.1991986 -0.15136299 -0.0005063605 -0.04525522 -0.018342711 0.034495782 0.040372297 -0.333179
-0.13219094 -0.14650093 0.034454606 -0.077258945 -0.12458466 -0.08750106 0.08097008 0.060968243
-0.08176954 0.05642139 -0.03294033 -0.01664466 0.053060316 -0.01283097 -0.11885274 -0.07746194
0.0036337813 -0.09745868 0.10050549 -0.08875351 0.050444975 0.028690077 -0.101470105 -0.05493598
-0.02971074 -0.061181866 -0.015775643 -0.13869569 0.030635372 0.07646012 0.030067444 -0.05059856
-0.05310221 0.048371226 -0.04933662 -0.030019842 0.04113935 0.10413012 0.007638231 -0.015335411
0.028963506 -0.045773774 0.11905791 -0.07855583 -0.007845755 0.082071014 0.06015223 0.11082897
0.04325741 0.06321069 0.0646062 0.052620843 -0.076508306 -0.041176915 0.04167245 0.12169315
-0.011645197 0.13508624 -0.027749741 0.09624175 0.12049492 -0.09811205 0.030527422 -0.026435254
0.027895775 -0.0611406 0.023879876 -0.051633596 0.04442608 -0.051260594 -0.03875991 0.05240288
-0.058795046 0.032649767 -0.004372798 -0.06747189 -0.08326779 0.013737536 -0.031832274 0.025960106
-0.01013706 0.01573892 0.011209934 0.029180076 -0.15994093 -0.10272626 -0.15014897 0.0028364318
0.061223403 -0.042885177 -0.054060735 0.054814145 -0.04782293 -0.032553986 -0.038230203 0.0716155
0.04587874 -0.10580903 -0.038785182 -0.013436809 -0.11458217 0.05128254 0.04385832 -0.03262922
0.00785665 0.002313149 -0.15262958 0.7029197 -0.0030041349 -0.041886445 -0.002871866 -0.07138634
0.12041692 0.1813116 -0.037914846 -0.051142268 -0.050480537 0.3860876 0.23832817 0.18760289
-0.007775794 0.09336998 -0.04636832 -0.11290076 0.16859123 0.1940704 -0.07534171 0.14143792
-0.042392865 0.13478552 0.120916784 -0.04689201 0.1310247 0.12266213 0.12442197 -0.035010904
-0.10359139 0.08065495 -0.0027632117 -0.04377949 0.1136948 0.060392007 0.10464978 -0.13848794
-0.09347597 -0.032739528 0.07411654 -0.006994322 -0.031484254 0.021280557 -0.06291468 0.054139495
0.12198438 -0.08000554 0.017111555 0.075941 0.07526341 0.10659662 0.010518923 -0.0074191988
0.10346629 -0.07825622 0.05473426 -0.13902134 0.06391077 0.19777931 0.1701995 0.020252082
0.18150742 0.09581559 -0.009517524 0.016406508 -0.10232701 0.1375569 -0.0737836 -0.013822458
-0.16200295 0.1094624 -0.03541124 0.016291691 0.06564412 -0.14215893 -0.091591276 0.004034887
0.015131973 0.07205476 0.08002198 0.15724403 0.06955223 -0.0011578698 -0.043844707 0.040170617
0.07476792 0.11129741 -0.02568159 0.020783065 0.0073702727 -0.045679107 0.11413548 -0.017522817
0.015684167 0.060085185 0.06683508 0.11608877 0.020205172 -0.0036363304 0.0019103289 -0.11445307
-0.047299013 0.019375354 -0.13118853 0.12455125 0.13664846 -0.12075319 0.11841254 0.054850563
0.0725825 0.032341808 -0.07533517 -0.045810513 -0.02143465 0.08741167 0.0035796314 0.07556903
0.07024833 0.067807205 0.035029225 0.0817127 0.0032362058 0.080995105 0.17564188 -0.062016364
0.15439865 0.10559054 0.08172713 0.13810791 0.16383694 0.07530694 0.15893117 0.13427775

rnn.weight_hh_l0 f4 [204, 51]
00000000: 3710 56be 363d 9ebd d97a 27be 314e d3bd
00000010: f33a 3b3d b3e0 44be 53e1 8e3d 4629 b53c
00000020: 10b1 123e 1f8b 083e 8d8a 20be 3dd9 3a3e
00000030: 1e2f ce3d a0dd 9bbd 71f5 d6bd 7221 ca3d
00000040: 5cd2 b4bc b30a 953d fc32 0cbd 3ffa 353d
00000050: d707 b535 ecf2 56bd 8fca 693c 7ae0 b83d
00000060: bffc 233d 9347 3f3d 267d 183d ad74 f63d
00000070: 3973 b0bd 81de 0c3e 2aad 53bd 6c3f da3d
00000080: 7a2e e8bd f65c 22bd 1f20 423e ac4a 353e
00000090: b7d2 c53c 5cd0 cd3d 83d1 69bd 7fbe b73d
000000a0: 2ae5 293e 3eaf ee3d 2336 48bd f79c d23d
000000b0: cc9f cf3c 7506 6a3d 80a9 39be 00d8 70be
000000c0: 33ea 41bc 97f3 9bbd 5a37 c9b9 b5e5 b53a
000000d0: 7880 673d e31f debc 02ad fbbd b127 5e3e
000000e0: 6cca 18be 273a 953c 8820 093e f0b7 813e
000000f0: a05f 9e3e c800 19be 45a2 f2bd 4dd2 abbd
00000100: f840 283d e636 583d 66a0 5d3e 7bac 42be
00000110: 67a6 3bbe 031d 173e 17d4 14be 38c3 8bbe
00000120: 08af 19be 3959 103b 835e 2cbe c7e6 863e
00000130: ca4b ed3d f7fe c1bd 8ca6 013c ad90 adbd
00000140: 755a 4cbd 83bc 953d 5088 e13a 35c5 443e
00000150: 4dbb e93d ad09 15be cc19 e23d c217 9ebd
00000160: a1a4 7dbe 79e0 39bc 33d2 c6bd 961d 2b3e
00000170: b38f ee3c 9ed4 313e 2f31 95bc 9fa6 a1bd
00000180: aeba 82bd ad18 03bc 52b6 c83d d9e7 9bbd
00000190: a57b 35bc ff30 113c dee2 4ebd 374e 693d
000001a0: bb3e 31be e039 a1bd ac72 d93d b824 cdbd
000001b0: ec6e a0bd 855f 9b3d c73b 263e 44eb df3c
000001c0: 8180 f23d 31c3 d53d c5d0 93bd 580a 50bb
000001d0: 2f32 29be a7e7 5bbd ef13 fcbd a36a b7bd
000001e0: dab5 ddbd 8b96 2bbe bba3 a0bc 382a 1e3d
000001f0: 2ad1 cbbd 8213 b7bd 8140 9e3d 6bbf 1fbd
00000200: 03ab e4bd 6cf5 c93d f6a7 9fbd 10a2 9c3c
00000210: c7ed 8cbd 8694 8e3c 9c52 d73d 1734 303d
00000220: 78fe b73c 306d 433c 1e2f ebbd b91d 2e3d
00000230: 061e d5bd 8048 d6bd f56c 143e efd5 b63c
00000240: e726 823d 20f4 9d3d 4e01 e5bd 2b56 fabd
00000250: 9da7 32bd 37bc 903c ae56 e93d d060 553a
00000260: 909b 193d aa0c ecbb 9d05 31bd c568 be3d
00000270: e9ef d7bd 7492 e73c f967 03bd 40ab 87bd
00000280: c5fa eebd 046e 273c e9f2 f23d f63c 123d
00000290: 94ee b7bc 2a01 b13d ae95 dfbd e742 1cbe
000002a0: d681 19bd 9a51 0fbe b9ef 3abe 49a1 0cbe
000002b0: 3854 fab9 4d55 b4bd 1e0f e0bd 0d09 47bd
000002c0: b62f 353d 41b8 f2ba ec13 3abd eeed 4d3d
000002d0: 860b c3bc 0d13 32be bf79 0dbd 5c20 f83b
000002e0: bc20 3e3e 1941 d03d c17a 103c d395 153e
000002f0: 3087 4fbd 19a9 a8bc 1418 a4bd c7fa ee3c
00000300: 4b73 593d f803 87bd fba8 be3d 13a8 b93d
00000310: 5cc2 4d3b 58dc b73d fceb 03bc 5780 25be
00000320: df2c 41bd 6ea0 aa3d 51d9 323e 0d58 1dbe
00000330: f664 783d 323e 113e 5238 c23d f921 ab3d
00000340: af57 38bc 0f40 a6bd 8a47 a1bd 597d 1e3d
00000350: 3e16 dabb 0b60 553d abf9 dbbb 5bdd 983d
00000360: 62e3 bc3c a178 fbbd 3b7a cdbd 67ed 903c
00000370: bb3f 9cbd 1e23 1ebe 226c 883c bc9c 1abe
00000380: 1684 1abe d06f dbbc 3a39 18be dce2 53bd
00000390: a343 253e 5648 f23b 32ac 43bd 3caa 07bd
000003a0: f8d8 b13d a110 f6bb f565 afbd babe 493e
000003b0: f969 243e 7dd8 2d3e c23d b23d 9af5 2b3e
000003c0: c22b aa3d 4c08 013e 4393 97bd 4fd3 2abe
000003d0: a799 c8bd 1227 35bd d017 193e 56df fc3d
000003e0: ddc1 433d 4cc8 1ebe 72d9 cfbd 6779 843d
000003f0: 8c78 083c 0ebb 88bd c7fe 83bd 7b0c ac3d
-0.20904623 -0.07726519 -0.16355456 -0.10317648 0.045710515 -0.19226341 0.06976571 0.022114407
0.14325356 0.1333432 -0.15677853 0.18246932 0.10067581 -0.07610631 -0.10496033 0.098696604
-0.022072963 0.07277431 -0.03422831 0.044428106 1.3487833e-06 -0.052477762 0.014269485 0.090271905
0.04003596 0.046699118 0.037228726 0.12033973 -0.08615727 0.13756754 -0.051678814 0.10656628
-0.1133699 -0.039639436 0.18957566 0.17704266 0.024148328 0.10049507 -0.05708457 0.08971881
0.16591325 0.116545185 -0.048879754 0.10283845 0.025344752 0.057135064 -0.18131065 -0.23519897
-0.011835623 -0.076148205 -0.00038378948 0.0013877662 0.056519 -0.027114814 -0.12288858 0.21694829
-0.14920968 0.018216206 0.13391316 0.25335646 0.3093233 -0.14941704 -0.11847357 -0.08389721
0.041077584 0.05278673 0.21643218 -0.19011109 -0.18325196 0.14757161 -0.14534031 -0.27297378
-0.15008175 0.0022025837 -0.16832928 0.26347944 0.11586721 -0.09472459 0.007913243 -0.0847486
-0.049890954 0.073113464 0.0017206762 0.19215854 0.11412678 -0.14554472 0.110400766 -0.07719375
-0.24769832 -0.011345022 -0.09708061 0.16710505 0.029121256 0.17366263 -0.01821193 -0.078931086
-0.063832626 -0.008001489 0.098004 -0.07612581 -0.011076842 0.008861779 -0.050509326 0.056959357
-0.17309086 -0.07872367 0.10617575 -0.10016769 -0.07833657 0.07586578 0.16233741 0.027333863
0.118409164 0.104376204 -0.07217554 -0.0031744447 -0.1652305 -0.053687718 -0.123084895 -0.08955886
-0.10825701 -0.16756646 -0.019609323 0.03861448 -0.09952004 -0.08939268 0.07727147 -0.03900091
-0.111654304 0.09861264 -0.07795708 0.019120246 -0.0688129 0.017404806 0.10513803 0.043018427
0.022460207 0.011927888 -0.11483596 0.042508814 -0.10406117 -0.10463047 0.14494689 0.022318808
0.06355076 0.07712579 -0.111818895 -0.122234665 -0.04361688 0.017667873 0.11393486 0.00081397314
0.03750187 -0.007203658 -0.043218244 0.09297327 -0.10543806 0.028268076 -0.032081578 -0.0662446
-0.11668924 0.010219101 0.11862738 0.035702668 -0.02245263 0.086428 -0.10917221 -0.15259896
-0.037477337 -0.13995972 -0.1825551 -0.137334 -0.00047746464 -0.08805332 -0.109403834 -0.048592616
0.044234954 -0.0018518047 -0.045429155 0.050275736 -0.023809206 -0.1739008 -0.034539934 0.007572217
0.18567175 0.101686664 0.008818329 0.14607935 -0.050666034 -0.020588445 -0.08012405 0.029172314
0.053088468 -0.06592554 0.09309574 0.09065261 0.0031396365 0.08977574 -0.0080518685 -0.16162239
-0.047161933 0.08331381 0.17465712 -0.1536562 0.06064316 0.14183882 0.094833985 0.08356089
-0.011251374 -0.08117687 -0.07874973 0.03869376 -0.0066554835 0.052093547 -0.0067131124 0.07464095
0.023057643 -0.122788675 -0.10033079 0.017691327 -0.07629343 -0.15443084 0.016653124 -0.15098852
-0.1508945 -0.026786715 -0.1486558 -0.05173002 0.16139083 0.007393877 -0.04777164 -0.033121333
0.08683962 -0.0075093065 -0.08564369 0.19701663 0.1605605 0.16977115 0.087031856 0.16792908
0.083091274 0.12600821 -0.07401135 -0.1668217 -0.09794932 -0.044226713 0.1495049 0.123472854
0.047792304 -0.15506095 -0.10148896 0.06468468 0.008329522 -0.06676303 -0.06445079 0.08400818

rnn.bias_ih_l0 f4 [204]
00000000: 74be 8b3c 6f53 0c3b 012a d63d ba58 253e
00000010: 291c 96bb 4439 0c3d a3e8 1fba e3a3 af3d
00000020: 32e6 9a3d 769a 0b3d 16b0 8fbd eccb 693e
00000030: ede5 abbd c81a 533d 9720 d4bc d70f dd3d
00000040: 89fe f0bc 42cb c63d 3cf8 b53d fc38 bcbd
00000050: 1f8d 273e 95b2 c83d 7a66 1e3e 8152 333c
00000060: 3daf 703e fc86 b43c a23a f8bb b01b d43d
00000070: 483a e93d 9428 243d ebdd 313e 6bcc e33d
00000080: 4fdf 973b 460f 9f3d e673 f43d d93d b33d
00000090: 8cec 2a3e 6935 603d 492a b93d b03f afbc
000000a0: 9504 1fbe a5d6 0e3e 80c9 903c bcbd d13d
000000b0: 3cf5 143e 5018 853d 9ed3 7f3b e01c 573e
000000c0: 0bb7 ae3b c81e 75bd 1c5c fbbc 419c 963c
000000d0: e061 64bd 4af7 b23d 955d c83d de9c e53d
000000e0: 4e74 203e de89 5bbd b69e 173d 9e40 193a
000000f0: 5a2b b13d 9453 633d 0c7b 10be 3794 f8bc
00000100: 82c9 c03c 02bb 383d b64b 753d dc31 4cbd
00000110: c5da 873d 3302 98bc dd5d 233e a290 083e
00000120: 5de5 bebc b08f c53d ca45 2e3e 9a87 5c3c
00000130: 7fcb 29bd 07c6 da3d b972 b93c 6f89 b3bc
00000140: d68e 673d 53f1 78bd ed88 083e abf4 833d
00000150: 6c0e 193e ac49 b13d ba8b 0abb 7321 7d3d
00000160: dabb 663d bd65 07bd beb2 bf3d 81ff 22be
00000170: a197 633c 9249 8bbd 4ee2 74bb 4c37 65bd
00000180: 107b 393e b9f3 cebd 7b32 9ebd 3da4 77bc
00000190: 04d9 99bd 5f5b 0f3e 56d1 d13c 4e89 883d
000001a0: 9e9f f4bd bd75 27be a2e2 babb 4a32 dabd
000001b0: a91e afbd 404c 35bd 6766 38bb c7a9 4a3d
000001c0: 482d 5e3d eb84 963d 39a9 303d d953 31be
000001d0: 7ad5 bebd ebc9 033e b7b3 713d edd6 8fbd
000001e0: 88ef d7bd 1c9a 29bd 03c6 1cbd 6997 93bd
000001f0: dc56 b3bd 405e d2bd 50da 95bc 2724 d4bd
00000200: 1074 fe3d 062d a43d 5802 efbd 9487 f2bc
00000210: 5972 23bd c5e3 f83d 492f f43b 3129 363e
00000220: c6f3 c13d 9a48 553d 1323 22be bb3a 7e3c
00000230: 7db5 8cbc e919 15be 7c52 34bd b22a eebc
00000240: f3c3 dc3d d741 5a3d 3084 05be 0645 0bbe
00000250: 9e33 b73c 3f65 9cbd e0e1 123e 4916 153e
00000260: a630 c2bd f293 3c3e 8f09 0bbc 2966 173e
00000270: 3040 a43d 2688 6cbc 0791 523d 3fcf 38bd
00000280: 030c 713e 78d9 063e f39e 963d 9874 afbd
00000290: 260f 5abd 9146 bc3d 501e 083e e530 d13c
000002a0: a601 e33c 3a7a fb3b 8c6d 313e b1ba c23c
000002b0: 4bcb ba3d 9a86 573d a482 99bd dd82 463e
000002c0: 3931 2f3e fac0 593e bf2e 3d3d a34c 2e3e
000002d0: fb50 453e 5384 a9bd 59d6 0ebd b7e0 d2bd
000002e0: dc4d 07bb 364c 393e 187d 4d3e 7171 38bd
000002f0: e784 533d 173d 5e3d 7d91 02bd a86a 223e
00000300: d799 ee3c da65 34be 8abf 39bd 7dad a4bd
00000310: 3e46 1ebd d19d 113d cb45 ee3d c24f fd3d
00000320: 1a6e 423e 4518 d73d 2964 dcbc 5e3a 243e
0.017058589 0.0021412035 0.1045723 0.16147128 -0.0045809937 0.0342343 -0.0006100034 0.08576181
0.075634375 0.034082852 -0.070160076 0.22831696 -0.08393464 0.051539212 -0.025894446 0.10794037
-0.029418247 0.09706737 0.088852376 -0.091905564 0.16362427 0.09799687 0.15468779 0.010944963
0.23504348 0.022037022 -0.007575349 0.103568435 0.113880694 0.04007776 0.17369811 0.11122974
0.0046347748 0.07766585 0.119361684 0.08752031 0.16691798 0.054738436 0.090412684 -0.021392673
-0.15529092 0.13949068 0.017674208 0.10241267 0.14546674 0.06498778 0.0039036046 0.21007109
0.005331879 -0.05984381 -0.03068357 0.018385055 -0.055757403 0.08738573 0.09783474 0.11211561
0.15669367 -0.053598277 0.037016593 0.00058461155 0.08650847 0.05549963 -0.14109439 -0.030344112
0.023533586 0.04510022 0.059886657 -0.049852237 0.06633524 -0.018555736 0.15953775 0.13336423
-0.023302728 0.09646547 0.1701881 0.013460064 -0.041453835 0.10682302 0.022637712 -0.02191612
0.056532703 -0.06077702 0.13333483 0.06443151 0.14946908 0.0865663 -0.0021140412 0.061799478
0.056331493 -0.03305601 0.09360264 -0.1591778 0.013891132 -0.06801142 -0.0037366333 -0.05596094
0.18113351 -0.1010508 -0.07724472 -0.015114841 -0.075120956 0.13999699 0.025612514 0.06666814
-0.11944507 -0.16353507 -0.0057032863 -0.10654123 -0.0855077 -0.04426217 -0.0028137208 0.04947832
0.054242402 0.07349571 0.043130133 -0.17317142 -0.09318061 0.12869994 0.05900928 -0.07023416
-0.10543734 -0.041406736 -0.038274776 -0.072066136 -0.087568015 -0.10271883 -0.018292576 -0.10358458
0.12424481 0.080164 -0.11670369 -0.029605664 -0.039903972 0.121528186 0.007451926 0.17789151
0.09470324 0.05207119 -0.15833692 0.015516932 -0.017176384 -0.14560665 -0.044023976 -0.029073093
0.10779562 0.053285446 -0.13038707 -0.13600549 0.02236348 -0.07636499 0.14343977 0.14559282
-0.09481935 0.18415812 -0.008486166 0.14785065 0.08020055 -0.014436757 0.05140784 -0.04511952
0.23539738 0.13168895 0.07354536 -0.0856716 -0.053237103 0.09193147 0.13292813 0.02553601
0.027710747 0.0076744827 0.17326945 0.023770662 0.09120806 0.0526186 -0.07495621 0.19385858
0.1710862 0.21265021 0.04618716 0.17021422 0.19269173 -0.08277192 -0.034872387 -0.10296767
-0.0020645773 0.18095478 0.2006725 -0.04503006 0.051640417 0.05425748 -0.03187703 0.15860999
0.02912609 -0.17616978 -0.04534868 -0.08040903 -0.038641207 0.035550896 0.11634406 0.12368728
0.18987313 0.10502676 -0.026903229 0.1603789

rnn.bias_hh_l0 f4 [204]
00000000: fdd1 4dbd 0e6f 823c af59 2abd 3903 c13c
00000010: fee6 1fbd a4e3 563e 1339 9c3d b561 ec3d
00000020: e8ed b13d 2f10 6dbd f631 6fbc e470 f23d
00000030: 2a0d 28bd b0e7 c5bd 0b54 2b3d d048 a6bd
00000040: d0aa 783c a358 79bd b68a 9abc c57d 0ebd
00000050: 3c2d 15bb 5db8 393e aa66 87bc b9a8 86bc
00000060: 09ed 0c3c 3c9b 573d 9bd4 093e 4a05 fc3d
00000070: 23a8 213e 3ad2 1fbd 8e63 813c 71d4 a6bb
00000080: 6e89 96bc c64c e03d 16f9 623e aec5 93bc
00000090: 0d49 92bd ec16 4b3e 52fb ce3d 8015 06be
000000a0: 1203 27be 9ff8 0cbc 3b77 c13d 027b 91bc
000000b0: f9bb fe39 504e 96bc 7de6 753d 7319 563e
000000c0: d2ad d63d 06c0 1a3c e1b2 75bd d182 a03d
000000d0: 086c c43c 2431 82bd f0bf 203e 6be1 91bd
000000e0: d601 c9bc f3c0 d23d 9108 ec3d b8c9 e03d
000000f0: 92fa fc3d 7b6c 5eba 965e f9bc 4c06 85bd
00000100: 2fb4 89bd f8a6 583d fd49 c43d 485b 233e
00000110: f1ca 8ebd eb8c 48bd 400e b73c 9c20 0fbd
00000120: 1f75 e43d 2295 acbc 8bcb 253c 84c9 133e
00000130: 809c 9d3d 67e6 a63d 228b 263e 437a a93c
00000140: a149 093e d002 0d3d e720 f93d 6d6c 28bd
00000150: 3c9b b73d 7c5e f53b 774b 993d 56c2 253e
00000160: 4451 e93d a3c7 1cbe 5332 e73d 4e01 01be
00000170: d776 b1bd 3ff0 c63c 1ec5 213e c38f fc3d
00000180: 53c3 7a3d b3d4 f23d dc30 093e f25f 49bd
00000190: 214d 0a3e cf56 a3bd fee6 21be f553 26be
000001a0: 1fd1 08be 9506 03be 5e12 e13d 999a 08be
000001b0: 148c 61bd a753 893c 1497 043e 8c93 b23d
000001c0: 5a96 a93d 276c b8bd b6b1 d13d 6f33 a3bd
000001d0: 6d53 ffbc e6b5 1c3e 9dba 32be a5d9 08bc
000001e0: e5e7 2fbd 6c5a 56bd 05a6 4fbd d17b 963b
000001f0: 1a7d 9cbd 56c8 163d 1db7 4b3d be44 cd3d
00000200: 120a d83d 3f33 683d cad1 9f3c 86a8 1f3e
00000210: 2151 afbd aae9 31bc bb6f d33d 96d5 bebd
00000220: 73d6 9f3c 72b9 c73d 5f11 c8bd 6c22 aa3d
00000230: 4d55 f83d d990 753d a163 d23d f562 fd3d
00000240: 3de0 1f3e 0f94 933d f8c2 f2bd 95b9 80bc
00000250: 296c 1dbe e991 9ebd 4684 a43d 61ad f43d
00000260: f008 d7bc 2f50 453e a54c 9f3d 3565 1e3e
00000270: 4c92 7cbc 341b d83d 3750 e73d 05ac 1e3e
00000280: 6c0e 063e dce2 0bbd 39f7 1cbd a342 703d
00000290: 969b 203d dfcc 343d 8cb2 9d3d 3fdd 12bd
000002a0: ccc7 5d3c 3fd7 2c3e 5a60 353d 4a70 bc3d
000002b0: bc0e 3a3d e736 d73d d39e 5a3d 4606 173e
000002c0: 49e2 293d 2575 653e afea 5e3d 5397 0ebd
000002d0: cf1c 4c3e 9980 d73d b4c7 67bc 2a42 3a3d
000002e0: 2620 e43d 5c3f e2bc 9a32 153e 9bc0 23bd
000002f0: 0d18 73bd 50c0 263e 35ef 213c dba9 7f3d
00000300: 18fc 193e d460 66bd 9e1c 6cbd 27a1 e73d
00000310: 97d9 693d 88f7 c4bd 9166 153e b990 7b3d
00000320: 93ca 973d 19bc df3d 39fa 7abc 7a03 86bc
-0.05024909 0.015922096 -0.041589435 0.023561107 -0.03903865 0.20985276 0.076280735 0.11542074
0.08687955 -0.057876762 -0.014599314 0.118379384 -0.04102818 -0.096633315 0.041828196 -0.08119357
0.015177444 -0.060875546 -0.01886497 -0.034787912 -0.0022762557 0.18136735 -0.016528446 -0.016437875
0.008601435 0.052638277 0.13460009 0.12305696 0.15786795 -0.039018847 0.015794542 -0.005091243
-0.018376078 0.10952143 0.22165331 -0.018038597 -0.071428396 0.19832963 0.10106529 -0.13094139
-0.16309765 -0.008604198 0.094465695 -0.01775885 0.00048586706 -0.01834789 0.060034264 0.20908146
0.10482372 0.009445196 -0.059985045 0.07837451 0.023977295 -0.06357029 0.15698218 -0.07123073
-0.024537008 0.102907084 0.115250714 0.10975975 0.1235248 -0.0008484793 -0.03044061 -0.06495342
-0.067238204 0.05289361 0.09584425 0.1595279 -0.06972302 -0.048962515 0.022345662 -0.034943208
0.111551516 -0.021067206 0.010119329 0.14432341 0.07695866 0.081494145 0.16264012 0.020688182
0.13406993 0.03442651 0.12164479 -0.041119028 0.089651555 0.00748807 0.07485097 0.16187415
0.11392453 -0.1531053 0.112888955 -0.12598154 -0.08665245 0.02428448 0.1579785 0.12332108
0.061221432 0.118569754 0.13397545 -0.049163766 0.13505985 -0.07975542 -0.15810773 -0.16242965
-0.13361023 -0.1279548 0.109898314 -0.13340224 -0.05506523 0.016763521 0.12948257 0.087195486
0.082806304 -0.090050034 0.10238974 -0.079687946 -0.03116771 0.15303764 -0.17454 -0.008352672
-0.04294576 -0.052332327 -0.050695438 0.004592397 -0.07641049 0.03681215 0.049735177 0.10022877
0.10548796 0.056689497 0.019509215 0.1559163 -0.08560396 -0.0108589325 0.10324045 -0.09318082
0.019511437 0.09752168 -0.09768938 0.08307347 0.12125645 0.05995259 0.10272909 0.1237239
0.15612884 0.07205974 -0.118535936 -0.015713492 -0.15373291 -0.07742674 0.08033042 0.11947132
-0.026249379 0.19268869 0.07778291 0.15468295 -0.015415739 0.105520636 0.11294597 0.15495308
0.13091439 -0.034151897 -0.038321707 0.0586573 0.03921088 0.044140693 0.07700071 -0.035855528
0.013536405 0.16878985 0.04428134 0.09201105 0.045424208 0.10508519 0.053374123 0.14748487
0.041475568 0.22407968 0.05442303 -0.034812283 0.19932865 0.10522575 -0.014146734 0.045473255
0.11138944 -0.027618103 0.14570084 -0.039978605 -0.05934911 0.16284299 0.009883692 0.062417846
0.15037572 -0.056244686 -0.05764448 0.11310034 0.057092275 -0.09617525 0.14589907 0.061417315
0.07411685 0.10924549 -0.015318447 -0.01635908

rnn.weight_ih_l1 f4 [204, 51]
00000000: 9fa6 d1bd 9a96 30be 454e 45be d2ea 82bc
00000010: 34cc 773d 4d1e 36be 20a9 173d 7f3e cc3d
00000020: 9ae6 5e3e 8054 abbc 8348 7bbd 098d af3d
00000030: 8f0e c13b 7330 53be 20f3 aebd 04ea 65bc
00000040: dd40 81be 8a28 62bd dd0c 053e 8626 713d
00000050: 20bf c8bd fc93 9a3d 7b3a 883c d20c 65be
00000060: d045 103e 2176 1ebd cd64 ac3d 3a86 73bc
00000070: 2c12 2cbe 1d46 e53d ba79 07be 5e71 8bbd
00000080: d4ea ba3d c179 5abd 7ce1 333d 901b 313e
00000090: 6b40 1abe 4caf b3bd 6a30 7a3d 890d 15be
000000a0: 83cb bf3d 8aef 43bd 8b58 bebc bdae 463d
000000b0: 262a 3ebe 815f 813d 29de c6bd 886d 25be
000000c0: 8b95 e03b 660c 36bd aeb1 44bd f63a 18bd
000000d0: 8395 a93d 752d 453e 98c3 06be eaa6 873e
000000e0: e0b1 33be c581 643e fed7 243d 71ae 893e
000000f0: b171 183e 855a cf3d d82d 63be 3b78 1dbe
00000100: 4af2 1d3e 7991 0c3e 0aa1 943e 0d3b aa3d
00000110: a7d9 fab9 b19b 083e e469 5e3c 4bac 15be
00000120: f997 c8bd 19e4 2fbd 838a 0c3d afa9 123e
00000130: 47dd 8abd 7ebb aabb f7c4 bdbd 420c 7e3e
00000140: 6824 db3d d9a5 20be ede0 873e ea48 f13d
00000150: 9d2a d73d 6655 bd3c c8d5 2bbe f9d2 47be
00000160: 8f4d 3e3d 7806 94bd 5cc4 653d 8eb0 da3d
00000170: dbab 8abd 57a8 113e 6981 bc3c 6b2f 16bd
00000180: c58e f6bd d282 b63d aeca f23d 784e 3a3d
00000190: ecdf 17bd f99a 4a3d 9ca8 ecbd 49f7 c03d
000001a0: ac51 023e a312 54bd be97 ebbc d07e 02be
000001b0: 40f1 8e3d dd78 893d 7b3c 9c3d 15be 023e
000001c0: 390d 1a3d 91fe 14be 7cfe 0fbc 717b 96bd
000001d0: 0b86 1c3e 92c5 0abd 007d 423c 46a8 3b3d
000001e0: 4889 9b3d a428 8b3d 4c5c 54be 9070 9cbd
000001f0: 02f5 673d 43b3 10bd b607 003d 3906 d8bd
00000200: a2f4 a2bd 6928 dbbd fbaf 3a3d fde0 5a3e
00000210: 32c7 cabd 6139 b737 9e20 b53d 1a6c fcbc
00000220: ef69 73bd 5035 f4bd 908c 27be 6f17 043e
00000230: b704 00be 61a5 b73d 5803 dcbd 1869 48bd
00000240: 7ea9 6c3e e3fa 0d3e 1c00 4c3d 76e5 07bd
00000250: 72e1 a13c d973 9abd 6260 083d 0d77 213d
00000260: 5033 e03d 826f 503d 63be 3c3e 9a47 cb3d
00000270: f254 13be 1a20 633e 879b 02be 4e65 503e
00000280: 5d17 473d 9d0d 4b3e 4ba1 563c b4de 9c3d
00000290: 7a45 08be a9fa 94bd 1810 753d 4efe 903e
000002a0: f509 c83d a665 623d eade 71bd 2d87 a83d
000002b0: b067 22bd 4a60 aebd 2eeb 5ebe 11d5 88bb
000002c0: 6a53 69be 7bbd 783e 76a2 9a3c d9ba 1cbd
000002d0: f036 903d 3e9d 893e 248a d13d 74d8 37bd
000002e0: c72b e53d 2060 063e ddfb 273e 801b 6cbd
000002f0: 92d9 5c3c d208 373d 8f2c 193d 8665 20be
00000300: f720 15bd 0cdc dd3e 7e9c f5bd 556d 753d
00000310: 2d8d 0ebd 4eff 20be 3cba 1a3d 06b9 e03d
00000320: 1e62 863e 13b0 3dbe b7a1 02bd 9265 d8bc
00000330: ca98 27be be42 e7bb 8f1f 473d bcb6 bdbd
00000340: 4670 113e f557 6dbe 40d1 313e 6a51 073e
00000350: 6b25 ad3e 3008 233e 50e3 163e 29ae 10be
00000360: e07d 11be dec5 1abe 49ae 7b3d 751a 4cbd
00000370: 2bce cdbd 538b 99be 637f 043e 6610 62bd
00000380: 927b f5bd 5fb5 c6bd 5edb 66be c01a 5abd
00000390: 6153 7d3e 45a8 fdbd 31ac ef3d c028 e0bc
000003a0: 97a9 be3d a24d 7e3d e1bf a23d e194 923e
000003b0: f58a 683e 2714 0aba 2d78 8bbd fc8c 2a3e
000003c0: 2eae 403d 37b5 8fbd e6eb acbd cd68 03be
000003d0: c712 603e dc63 69bd ffed 8e3e fa31 c23d
000003e0: 98ca a6be 66e8 27be 6b87 fdbd 54de 153d
000003f0: 6e47 bf3d 3c46 05bc f643 f4bd f5d9 983d
-0.102368586 -0.1724495 -0.19268139 -0.015981112 0.060497478 -0.17784996 0.037026525 0.09972858
0.21767655 -0.020914316 -0.06134845 0.08571822 0.005891628 -0.2062395 -0.08542466 -0.014032844
-0.252448 -0.055214442 0.12993188 0.05887463 -0.09802079 0.07547757 0.016629448 -0.22368172
0.14089131 -0.038686875 0.08417664 -0.014863545 -0.16803807 0.11195014 -0.13230029 -0.068087325
0.09126821 -0.05333877 0.04391621 0.1729567 -0.15063636 -0.087736696 0.061081327 -0.14555945
0.09364989 -0.047835864 -0.02323558 0.048506487 -0.18570766 0.06317044 -0.097103424 -0.16155064
0.0068537644 -0.044445418 -0.04802101 -0.037165605 0.0828047 0.19255622 -0.1316055 0.26494533
-0.17548323 0.22315128 0.04024505 0.268909 0.1488712 0.10124687 -0.22185457 -0.15377896
0.15424457 0.13727368 0.29029113 0.08312044 -0.0004784588 0.13340642 0.013575051 -0.14616506
-0.097946115 -0.04294214 0.034311783 0.14322542 -0.067804866 -0.005210339 -0.09266084 0.24809363
0.10700303 -0.15688266 0.26538792 0.117814854 0.10506175 0.02311201 -0.1678077 -0.19514073
0.046460684 -0.07227796 0.056095466 0.106782064 -0.0677106 0.14224373 0.023010926 -0.036666315
-0.1203895 0.08911671 0.11855064 0.04548499 -0.037078783 0.0494642 -0.11555597 0.09422166
0.12726468 -0.051775586 -0.02875888 -0.12743688 0.069796085 0.06712506 0.07628723 0.12767823
0.037610266 -0.14550234 -0.008788701 -0.07347763 0.15285508 -0.033879824 0.011870623 0.045814775
0.07594544 0.06794861 -0.20738333 -0.07638657 0.056630142 -0.035327207 0.031257354 -0.10548062
-0.07956816 -0.10701067 0.045577984 0.21374889 -0.09901275 2.184202e-05 0.08844112 -0.030813266
-0.059427198 -0.11924231 -0.16362214 0.12899564 -0.12501799 0.089670904 -0.10742825 -0.04892835
0.23111531 0.13865237 0.04980479 -0.033177815 0.019760821 -0.075416274 0.033295043 0.039420176
0.10947287 0.050887592 0.18432002 0.09925766 -0.14387873 0.22180215 -0.12754641 0.20351145
0.048606265 0.19829412 0.013099979 0.07659665 -0.13307753 -0.07274372 0.0598298 0.2831902
0.09767524 0.05527272 -0.059050478 0.08228908 -0.039649665 -0.085144594 -0.21769401 -0.00417579
-0.22785726 0.24291031 0.018876296 -0.03826413 0.070417285 0.2687778 0.10231426 -0.04488416
0.111899905 0.13122606 0.16404672 -0.057643414 0.013479607 0.044686146 0.03739601 -0.15663728
-0.03640839 0.43331945 -0.11992739 0.05991872 -0.034802604 -0.15722391 0.037775263 0.109727904
0.26246732 -0.18524198 -0.031892505 -0.02641562 -0.16366878 -0.007057517 0.04861408 -0.092633694
0.14202985 -0.23178084 0.17364979 0.13214651 0.3381761 0.15921092 0.1473515 -0.14128937
-0.14208174 -0.15114543 0.06144551 -0.04982992 -0.10049089 -0.29989108 0.12939219 -0.05519142
-0.1198646 -0.097025625 -0.2254462 -0.053248167 0.24738838 -0.123856105 0.11702765 -0.027363181
0.093096904 0.062085755 0.07946754 0.2862921 0.22709258 -0.0005267285 -0.06810031 0.16655344
0.04704111 -0.07016986 -0.084434316 -0.12832947 0.21882163 -0.05698 0.27915952 0.094821885
-0.32576442 -0.16397247 -0.123793446 0.03658898 0.09339796 -0.008134421 -0.11927025 0.07463447

rnn.weight_hh_l1 f4 [204, 51]
00000000: 4415 363c 9b2e f0bd 5c53 f83d dc6d f33d
00000010: 43b4 503d cff7 c3bd 9e6c 86bd 00fe 6cbd
00000020: 326e e2bd 1c0b 11be 32a8 203d f8db cf3c
00000030: 17dc 26bd d7c8 52be f357 b6bd 1838 36bc
00000040: d5cc cbbd fdd8 033d 31db 033e 5b6b b73d
00000050: d1be 943d 8926 c53d 7dba 81bd 166f dcbd
00000060: cdfd 8f3d 2ab5 e13d 2fd6 ea3d c9be 3ebe
00000070: 8a70 8c3d 69ac dcbd d6f4 823d 53d8 a1bd
00000080: c000 073e 70fc 08be 57df cebc 208f c73d
00000090: 4912 3abd 1411 56bd eae3 ecbd e3ec febd
000000a0: 8639 123d f30d 373d daea d2bd 882c 893d
000000b0: 01c4 a53d e652 313e 5080 223e 6f58 f13d
000000c0: dcda cebd bcdb bc3d e95f ad3c 39c9 013e
000000d0: 18e8 d13c ff58 013d 92a1 1b3d 86f1 42bd
000000e0: b247 64bd 6e06 b23c 6204 15bc 7408 02be
000000f0: b08e f53c 10d6 6bbd fae6 c03d 14a2 e5bd
00000100: 88d3 96bd a688 6f3e d9ce 9bbc bc0e c6bb
00000110: 0c8f 35bd cd74 c33d 03d1 483d f7b5 9f3d
00000120: a80e a4bd b80c 7bbd 00b9 d7bc a8e1 833d
00000130: 039d 253d d5fe f4ba f16b 11be ef50 873d
00000140: d29f 3abd 3e0a 8d3d d2c3 bbbd d2ba 8dbc
00000150: 62cb 423c 110f f8bd 3fc0 cebd 2776 423c
00000160: eb05 39be a2fc 2b3c dafc 48bd bd7a b7bd
00000170: 0790 083e 5061 fabc c0ae 3abe ddb4 f0bd
00000180: e0ff 313d c11b 5a3d fd2d d7bd 76d1 203e
00000190: aefa fa3d d1a1 dabd b44e a9bd 00e2 01bc
000001a0: 98b2 5fbd 2dda 75bd 01a2 f13d ef70 ec3c
000001b0: f9d9 78bd a816 a1bb 4e2e d7bc 3bd6 31be
000001c0: cdcb e7bd ce74 1f3d 3ecf 41bd 2af8 e9bd
000001d0: 5bed ac3c c15c 273e 3320 59bd 0bd7 31be
000001e0: cf55 30bd aab3 283e dd23 053e 20b7 413d
000001f0: 097e e93b 64ce e2bd 1b3c 543c 1c16 ef3d
00000200: a846 09bd ecc5 41be 45d8 bb3c 9e38 36bd
00000210: b52c 00be 808d 9fba 0012 a5bd 9578 37be
00000220: 5413 8c3b 44b3 a5bb fc2a 213d 6dfc ddbd
00000230: ea60 f8bd 0de8 2fbb cc12 39bd 7913 a3bb
00000240: 1a15 3d3d 68fa 413d 29ff 86bd 5f60 acbc
00000250: 9479 afbc c496 c9bd 7dc8 e5bc 3904 123e
00000260: 8759 103e 3195 103e 9b42 b23d 4191 063c
00000270: 3639 a73b 2cdd a1bd e70a c23d 19bc aebd
00000280: 20c7 073e 6bc1 53be 09fa 05be fc80 3bbb
00000290: e580 a93d 8ec5 d2bd 98a7 78bd 7511 843e
000002a0: 274f a83d d9cc dd3d c338 1fbd 77dd f13d
000002b0: 4e25 363e 14ed 2ebe d849 debc 653e 55bd
000002c0: b97e 3fbe 5911 e23d 3843 aebd e204 2e3e
000002d0: 6dd8 c2bd 0a5b 8bbd e7b7 6f3d bfaf e1bd
000002e0: eaea c33d 23f6 913c acb3 b6bd bfb3 e23d
000002f0: e23e 08bd 6c68 c4bd 5e20 aabd eba9 26be
00000300: 8877 18be ee07 ff3d 0447 473c 2783 e73d
00000310: ffda eabd 806f b7bd bee1 3b3d 7a86 e53d
00000320: f72e 833d b244 6a3e ead3 993d 41c4 673d
00000330: d176 30bd 7ea9 913b 439c 593e caab 703d
00000340: 3e56 2fba 8f88 d23d 99d5 483d eadf 083e
00000350: d2d5 23be cd56 8cbe b71d bd3c d6f2 11be
00000360: c9ed 323d 4ae6 36bd dca0 943e 7699 233e
00000370: 79ca aa3d 2f68 763c 9d37 afbd dd47 af3d
00000380: c1d1 95bc e677 853b 6f02 9c3c f032 c2bd
00000390: 9471 0e3e 77fb f53c 69b7 36bd 49b1 9f3c
000003a0: 34dc f2bc fef7 22bd 565c 11be 6942 813d
000003b0: ee37 ac3d d97f 65be a2c2 b9bd 8582 a8bd
000003c0: 03ce 31bd 316a 17be e0b0 87be 8874 853d
000003d0: 6c01 02bd da69 0f3e fe28 36bd 34ed 07bd
000003e0: 7765 60bc a95a 533e bd97 44bd 2cbc 19be
000003f0: a6b1 9f3d ecd9 f03d ee0b d63d 4cd5 673d
0.011113469 -0.11727639 0.121252745 0.118861884 0.05095316 -0.0956875 -0.06563686 -0.05785942
-0.11056174 -0.14164394 0.039222904 0.025373444 -0.040737238 -0.20584427 -0.08903494 -0.011121772
-0.09951178 0.032189358 0.12876584 0.08956023 0.07262958 0.096264906 -0.06334398 -0.107633755
0.070308305 0.110208824 0.114666335 -0.18627466 0.068574026 -0.10775072 0.06394355 -0.07902589
0.1318388 -0.13377547 -0.025252981 0.09744096 -0.045427594 -0.05226238 -0.11566909 -0.12447526
0.03569939 0.044691037 -0.10298701 0.06697947 0.080940254 0.1731678 0.1586926 0.117844455
-0.10100338 0.092215985 0.021163898 0.12674417 0.025623366 0.031579014 0.037995882 -0.047593616
-0.055732436 0.021731582 -0.009095283 -0.12698537 0.029975265 -0.057577193 0.09419055 -0.112125546
-0.07364565 0.23391971 -0.019019531 -0.006044237 -0.044325873 0.09543762 0.049027454 0.07798379
-0.08010608 -0.061291426 -0.026333332 0.06439525 0.04043294 -0.0018691669 -0.14201333 0.06607234
-0.045562573 0.06886719 -0.09168209 -0.017300997 0.011889311 -0.12112249 -0.10095262 0.01186899
-0.18068664 0.010497244 -0.049069263 -0.08958957 0.13336192 -0.03056398 -0.18230724 -0.11753247
0.043456912 0.053249124 -0.105068184 0.15704903 0.122548446 -0.10675395 -0.082669646 -0.007927418
-0.05461368 -0.06002252 0.11798478 0.028862445 -0.06075475 -0.004916031 -0.026267197 -0.17366879
-0.11318169 0.038929753 -0.047316782 -0.11424287 0.021109274 0.16343977 -0.053009223 -0.17367189
-0.043050583 0.16474786 0.13001962 0.047293782 0.0071256203 -0.11074522 0.012953783 0.11674139
-0.03351465 -0.18923157 0.022930274 -0.044487588 -0.12517054 -0.0012172908 -0.08060074 -0.17917092
0.004274765 -0.0050567705 0.039347634 -0.10839162 -0.1212786 -0.0026841194 -0.04518394 -0.0049766866
0.046162702 0.047357947 -0.06591637 -0.021042047 -0.021420278 -0.098432094 -0.028049702 0.14259423
0.14096652 0.14119412 0.0870411 0.008213342 0.0051032556 -0.07903513 0.09474736 -0.085319705
0.13259554 -0.20679252 -0.13083662 -0.0028610816 0.08276538 -0.10291587 -0.060706705 0.2579457
0.08218222 0.10830087 -0.03887249 0.11809819 0.17787668 -0.17082626 -0.02713482 -0.052061457
-0.18700685 0.11038465 -0.08508915 0.1699405 -0.09513936 -0.06804474 0.058524992 -0.11019849
0.09566291 0.017817562 -0.089209884 0.1106944 -0.033263095 -0.095902294 -0.08306955 -0.16275756
-0.14889348 0.12452684 0.012162928 0.11304312 -0.114675514 -0.08956814 0.04586958 0.1120729
0.06405442 0.22877768 0.075111225 0.056583647 -0.043082062 0.004445254 0.21251015 0.05875758
-0.00066885713 0.10279953 0.049031828 0.13366666 -0.15999535 -0.27409974 0.023085458 -0.14252791
0.0436838 -0.044653215 0.29028976 0.1597651 0.083394 0.015039488 -0.08555529 0.08558629
-0.018288495 0.004073131 0.01904413 -0.09482372 0.13910514 0.030027134 -0.044608507 0.019493716
-0.029646017 -0.039787285 -0.1419538 0.06311495 0.08409105 -0.22412051 -0.090703264 -0.082280196
-0.04340936 -0.14786603 -0.26502132 0.06516367 -0.031739637 0.14005223 -0.044472687 -0.0331852
-0.013696066 0.20640053 -0.04799627 -0.15013188 0.077975556 0.11760315 0.10451494 0.0565999

rnn.bias_ih_l1 f4 [204]
00000000: a31c 9e3d 952f 163e 2092 90bc 6dfe 183e
00000010: e857 37bc 0ddc f03d 73b4 5abd e013 9cbd
00000020: 5d2d 273c 0a76 4f3e 241e 2d3e 1933 f93d
00000030: 3f2e 9b3d 751c 54bc 75ea 8ebd 4426 35bd
00000040: d8d9 963d 7c04 5b3d b89d a93d 8664 de3d
00000050: f74b 1a3d 7648 943d 66b2 173e 18e9 c43d
00000060: ee03 ce3c 67d6 773c d83c 90bc e77f a5bc
00000070: ce50 fa3d 6c64 223d 5249 9c3d 125c 1d3e
00000080: 9d1c 183d aef3 b1bb 409b 0a3c 20c5 b8bc
00000090: 8593 20bd 9ef5 0fbd a186 573d a4b7 163d
000000a0: 26c9 f83c 2850 9bbc 3d1e 73bd ad1c 503e
000000b0: c2b8 253e d26a ce3b bd6e e53d 13b8 023d
000000c0: 6bef 8dbb f0a6 003e 7323 71bd ddd4 713c
000000d0: 733c d33d a6bb 76bc 8f42 b1bd 683b c6bc
000000e0: ea60 81bc fcf0 1a3e 3dff 893c cf2b 813b
000000f0: 04b4 f63c 75bb 2b3d e82e 89bd 0366 543d
00000100: aa95 883d afa7 04bd 7b8d 883d 9094 87bd
00000110: 2126 223e 343e b03c c32b f8bd fb28 e639
00000120: 9c04 e9bd 5e97 fc3d 6c22 953d 6e90 103e
00000130: 6fdf 273e 8770 323e 89ad 5e3d 938c 273e
00000140: 4bd0 033d 476e 12be 10eb 723b 1923 fb3d
00000150: 4898 d1bd 58ac 38bd ae65 253e b969 8ebd
00000160: 98c6 adbd b564 c6bd 4946 e43d c91a 203d
00000170: 099a fd3b cfe1 0c3e 10f6 6bbd 7390 1a3e
00000180: 196e 113e f937 623d a3e8 47bd 42b9 943d
00000190: d316 e1bd 8028 2c3e da9a d53c 8e04 373d
000001a0: 4c8d bd3d 3852 253e 4172 c53d dffa 1f3e
000001b0: 429e 01bd a909 793d 54af 72bd 603c 5bbd
000001c0: 405f b73d 3691 11be 8ddb 513d 07bf 2b3d
000001d0: 1e32 803d 9b3b 103e 630f f53d 2c78 1ebd
000001e0: 7fb2 1b3e 75c0 203d 305a 0b3e ab0a eebc
000001f0: 3530 883d 5cfa 993c 3079 0fbd ea9e 093e
00000200: 1e1e 103e 3410 1fbe dc85 edbc 6b40 c13c
00000210: 7989 963c 1810 09be d09a 21bd 7c75 07be
00000220: 2150 91bd fa21 bcbd d9d1 aebc 5a22 c8bd
00000230: b7f5 753d dbba f8bd 1c46 603d 04b1 1b3e
00000240: 9b6f a43d 78e4 eabd b113 9a3d 74a6 743d
00000250: 0a2a 6d3c 75bb f73b 0714 9abc 0581 a73c
00000260: ef9b 683d 8221 ff3d c02c 94bb 2288 e9bc
00000270: 0dff f23c 63b3 ef3d a09e a13d 7d0e d93d
00000280: c2ce 54bd 7e74 0f3d 23d1 1c3d 36ca 5dbd
00000290: 2c11 06bb 1a79 9d3d be62 2abc 87dd c93d
000002a0: 1c38 913c 737c c43c 72d8 f6bb 734e 813c
000002b0: 9a2d 3dbc 2407 823e 94d4 a53d 4c1b d4bc
000002c0: eaf2 d13d 32d9 5b3d 41ba 533e f9eb 65bb
000002d0: 893d 1cbd 806a 583c 6fb3 ea3d ee04 fc3d
000002e0: 6228 3c3d 420f 723e 3ad7 1e3e 6354 13bd
000002f0: bdf8 fb3d f7a3 f5bb 2937 173d e5a1 103d
00000300: 70b1 533d 5323 d83d e8c4 373e 20c5 ba3d
00000310: 9370 09bc e0bb 173e 111a a53c 525b 423e
00000320: 515c c53d 0cfa 44bc 033d 38bb 886a f7bc
0.07720306 0.14666589 -0.017647803 0.14940806 -0.011190392 0.11760721 -0.053394746 -0.07620978
0.010203687 0.20259872 0.16906029 0.12167949 0.0757718 -0.012946238 -0.06978313 -0.044225946
0.07365769 0.053471074 0.082820356 0.10859017 0.037670102 0.07240383 0.14814147 0.096147716
0.025148358 0.015126801 -0.017607138 -0.02020259 0.122224435 0.03964655 0.07631172 0.15367153
0.037136663 -0.00543066 0.008459866 -0.022554934 -0.039203186 -0.03514635 0.052618627 0.036796227
0.030369353 -0.01895912 -0.05935501 0.20323439 0.16183761 0.006299355 0.11202762 0.031913828
-0.0043315194 0.12563682 -0.058871698 0.014760223 0.10314264 -0.015059387 -0.08655273 -0.024198249
-0.015793283 0.1513099 0.01684534 0.00394199 0.030115135 0.04192682 -0.066984 0.0518551
0.06669171 -0.032386478 0.0666761 -0.06620133 0.15834858 0.021514036 -0.12117722 0.0004389955
-0.11377832 0.123335585 0.07281956 0.14117596 0.16393827 0.17425738 0.054364715 0.16362219
0.032181066 -0.1429988 0.0037066378 0.12262554 -0.102341235 -0.045086235 0.16152069 -0.06953759
-0.084851444 -0.09687177 0.11146218 0.039088044 0.0077393097 0.13758014 -0.05760771 0.15094166
0.14202155 0.05522916 -0.048805844 0.072618976 -0.109906815 0.16812325 0.026074816 0.044682078
0.09255466 0.16144645 0.09640933 0.15623043 -0.031645067 0.06080023 -0.059249237 -0.053524375
0.08953714 -0.1421555 0.05123477 0.041930225 0.06259559 0.14085238 0.119658254 -0.038688824
0.1520481 0.03924604 0.13608623 -0.029057821 0.0664982 0.018796138 -0.035027683 0.13439527
0.14073989 -0.15533525 -0.028994493 0.023590287 0.018376099 -0.13385046 -0.03945428 -0.1322841
-0.070953615 -0.09186168 -0.021340298 -0.09772177 0.060048785 -0.12145015 0.05475436 0.15204245
0.080290996 -0.11469358 0.07523287 0.059729055 0.014475355 0.0075601884 -0.018808378 0.020447263
0.056789335 0.12457563 -0.004521936 -0.028507296 0.029662633 0.11704137 0.078915834 0.105984665
-0.051954992 0.035023205 0.038285386 -0.05414792 -0.0020457013 0.07689114 -0.010399519 0.09856706
0.01772695 0.023985123 -0.0075331265 0.015784478 -0.011546517 0.25396073 0.08097187 -0.025891922
0.1025141 0.05367393 0.20676519 -0.0035083278 -0.038144622 0.013208985 0.114600055 0.12305628
0.04593695 0.23638633 0.1551179 -0.03596915 0.123033024 -0.007496353 0.03691784 0.035310645
0.05168289 0.105536126 0.17946208 0.0911963 -0.008388656 0.14817762 0.020154031 0.18980148
0.096367486 -0.012022506 -0.0028112538 -0.030202165

rnn.bias_hh_l1 f4 [204]
00000000: 694e b23d 27ab 2f3e a468 06bd 7dbc fd3c
00000010: 7649 153e b1e1 af3d 6342 b43d fad9 5e3c
00000020: de10 3abd 5a6e 053d 452c 423e 0487 72bd
00000030: dc45 73bd be7f 75bd 7cd4 e33d e3c2 c5bd
00000040: 6632 3abd 9be6 d03d 2b00 bb3d 1e3b 273d
00000050: 6c97 bd3d cef3 2f3e 65ae 43bd 7362 753b
00000060: b183 4e3e b064 b53d 928a 213e c28d cb3b
00000070: 648e 613d f712 a33d 657d ce3d fdcb 17bc
00000080: 0945 9d3d 1643 793d 7fab 33bd 8fea a83d
00000090: f878 9a3d 70e2 cd3d c079 c63d dd22 41bd
000000a0: d6f4 d73d 41c1 653e 9610 eabc 2bb9 403e
000000b0: 2f1b b4bc 94ac c73d c6f9 d93c ab30 2c3e
000000c0: 445c 293e aca5 333e de64 89bd 0f8d d63d
000000d0: 1aa4 af3d ad13 143e 53e3 243e b641 99bd
000000e0: 75a7 c7bd b976 be3d 82e9 0fbd 12dc 083e
000000f0: 7f0a c1bc 211d f8bc 09ea 083e 6d1f 303d
00000100: 9a56 a23d 4b1a 13bd 9112 41bc 2742 983b
00000110: 1e23 b2bd 4751 4b3d f48a 9cbc e28d ab3c
00000120: 8f22 aebd 0366 bbbb d9ea 2ebd 8f24 973d
00000130: df18 e83d 2895 b63d 8da4 2e3d d421 053e
00000140: 05d2 053e 56ef 96bb fda1 083c 7806 f43c
00000150: e564 223c 3c60 85bd 241d 85bd db9f 803d
00000160: ad13 3f3d 094c d1bd d875 3d3e 4248 f6bc
00000170: 4415 153c adc4 e53c 2e4e 053e d65b cdbd
00000180: 5cef 8c3c 2218 e9bd c551 9d3d 73e3 953d
00000190: a95d 3d3d 2bc0 c23b 08cf 34bd ddb2 713d
000001a0: 1e52 f53d 606a 163c ca57 ce3d aa52 25bd
000001b0: 7e78 ecbd f434 a3bd 3a99 36be a005 cfbb
000001c0: 15bf 67bd 207a c33d 5e5a 03be 6f7f 39bd
000001d0: c111 81bd a6da e83d 4ee3 90bd 1f1d 063d
000001e0: a3a6 dcbd 3bf3 fabc fe0b 38bd 4e38 c93c
000001f0: e7d1 ba3d a742 1bbe da4f a43a dab4 283d
00000200: 1e5b 073e 5fbe 0ebe e2e9 253d 6dfc d5bd
00000210: 4714 c0bd 3807 17bd 7cbf 273e 5f59 09be
00000220: 1191 8a3d afcb 1c3e e1e7 05be 4516 afbd
00000230: ae28 5f3c 8cd2 e23c c633 b53c b735 43bc
00000240: e3f0 58bd 5edc 1abe 2e1a 97bd dcc4 093e
00000250: e035 8f3d 2614 0ebd b4c3 fe3d a724 063e
00000260: 7a82 673d 994d cc3d e590 1fbd 8735 693d
00000270: 4176 033e 9efa 71bc 702b b23d 3332 f53d
00000280: 3755 103e 2852 3fbc b9f0 bb3b 5ec1 4bbd
00000290: 6f55 6d3c f8cf b23d e729 ae3d 2e6a 813d
000002a0: f4a8 efbc 98e2 bb3d 0979 66bc c539 093b
000002b0: 73bf 843d c965 473d fcda ee3d 7848 043e
000002c0: c531 143e 2b43 283e beec 22bd 053a bb3d
000002d0: 922f c13d 027f bf3d 29ed 1a3e 342c a5bd
000002e0: 5e04 073e 1583 2a3d 7d7a 6dbd 8bc3 973d
000002f0: ec90 9f3d d383 50bc a499 7dbb 811d 843d
00000300: 0f52 993d 7d95 793c f238 153d 7e01 82bd
00000310: 9416 ccbc c3b4 173d 6bd2 8dbd c249 f6bc
00000320: b12a f33d ced1 26bd 3718 643a 9c54 513d
0.08706362 0.17155133 -0.032814637 0.030973667 0.14578804 0.08587969 0.08801725 0.013601774
-0.045426242 0.032575943 0.189622 -0.059210792 -0.059392795 -0.059936278 0.111245126 -0.09656312
-0.04545822 0.102002345 0.091308914 0.040827863 0.09257397 0.17182848 -0.047773737 0.0037442714
0.20167424 0.08857095 0.15775517 0.006211967 0.055067435 0.07962602 0.10082511 -0.009264943
0.07679183 0.060854994 -0.043864723 0.082478635 0.07542604 0.10052955 0.09691191 -0.04715239
0.105447456 0.22437002 -0.028572362 0.18820636 -0.021985618 0.097497135 0.026608359 0.1681544
0.16539103 0.17543668 -0.06708692 0.104761235 0.08576222 0.1446063 0.16102342 -0.074832365
-0.09748737 0.09299988 -0.0351348 0.133652 -0.023564575 -0.030287327 0.13370527 0.04299872
0.07926674 -0.035913747 -0.011784212 0.004646558 -0.08698104 0.04963806 -0.019109227 0.020941678
-0.08502685 -0.005718948 -0.042704437 0.0738002 0.11332869 0.08915168 0.042637397 0.13001186
0.13068397 -0.004606168 0.008339402 0.02978824 0.00991175 -0.06512496 -0.06499699 0.0628049
0.046649624 -0.10219581 0.18501985 -0.030063752 0.009099308 0.028047884 0.13018104 -0.10027282
0.01720398 -0.11381556 0.07681612 0.07318773 0.0462319 0.0059433184 -0.044142753 0.059008468
0.11978553 0.009180635 0.10075338 -0.040362038 -0.115464196 -0.079690844 -0.17831889 -0.006317809
-0.056578714 0.09544778 -0.12827441 -0.045287546 -0.063022144 0.11369829 -0.07074605 0.032742616
-0.10773971 -0.03063356 -0.04493331 0.024562981 0.09122067 -0.15162145 0.0012536005 0.0411881
0.13218352 -0.13939808 0.04050625 -0.10448537 -0.093788676 -0.03687212 0.16381639 -0.13412999
0.067659505 0.15312074 -0.13076736 -0.085491695 0.013620539 0.027688287 0.022119414 -0.011914662
-0.052964102 -0.15123126 -0.0737804 0.13454002 0.06992698 -0.034687184 0.12439671 0.1309992
0.056520917 0.09975738 -0.03895654 0.056935813 0.12838079 -0.014769224 0.08699691 0.11972465
0.14095007 -0.011677302 0.0057354835 -0.049744956 0.014485701 0.08731073 0.08504086 0.0631908
-0.029255368 0.09174079 -0.014066943 0.0020938974 0.064818285 0.048681054 0.11662862 0.1291827
0.1447211 0.16431873 -0.039776556 0.09141926 0.094329014 0.09350397 0.15129532 -0.08065072
0.1318526 0.041628916 -0.057978142 0.07410344 0.077913135 -0.012726742 -0.0038696313 0.0645094
0.074863546 0.015233395 0.03643126 -0.06347941 -0.02491311 0.037037622 -0.069249 -0.030064467
0.11873377 -0.04072743 0.0008701118 0.05110608
