tmp/aa_models/7.pt (torch_old, 283512 bytes, 18 tensors)

rnn.weight_ih_l0 f4 [204, 60]
0.13705021 0.06362906 0.05907949 0.10178346 0.08284087 0.118157566 -0.05931657 0.0050630616
-0.008534322 0.0125750145 0.09753797 0.13162541 -0.05424463 0.0034633032 0.052828122 0.14405943
-0.009953803 -0.038109254 0.017378561 -0.06750828 -0.009914061 0.088898614 -0.051368974 0.11423061
-0.083199635 0.017983409 -0.09757307 0.11751936 0.042383343 -0.12500748 0.0316202 -0.12718666
-0.11524864 0.116412975 -0.13053083 0.045644052 -0.04878308 0.00017331626 -0.09044623 0.023325484
-0.09124821 0.1327404 -0.0908232 0.08713522 -0.050060295 0.106846705 -0.002805218 0.11273487
-0.06395666 0.13244127 0.1211683 -0.04830388 -0.120557606 -0.04271505 -0.029587805 -0.08691407
0.1381001 0.08797009 0.034827337 0.11891101 -0.019604208 0.052443344 0.15819 0.09141602
0.20534293 -0.29545915 0.03375536 -0.0429071 -0.22175647 0.15677837 0.16815813 0.01156393
0.2204496 -0.1928564 -0.21308543 -0.053292435 0.0070434147 -0.15687637 -0.12031533 0.008664842
0.10720401 -0.14355046 0.024673536 0.012237632 0.031324334 0.14514396 0.047309812 0.16446263
0.09376424 0.008003351 -0.09265587 0.07459666 0.043326084 -0.12343187 0.12819453 0.09958859
-0.004012852 -0.039283983 0.04259409 0.17146792 -0.041939575 0.008172467 0.04661958 -0.03378092
-0.03329526 -0.10579097 0.003596425 0.047308296 -0.035574116 -0.081126094 -0.040158987 -0.030427761
0.13317059 -0.108847015 -0.09079167 -0.03757754 0.06665322 -0.0697314 -0.0029629916 -0.042396672
0.05093066 0.075258695 0.17184849 0.06380848 -0.081438415 0.06264145 -0.016067091 0.15840395
0.028310833 0.10885788 0.06862078 -0.15251294 0.07513979 -0.039923042 0.019764975 -0.075068116
-0.20504548 0.19172223 0.16668381 0.04907093 -0.08146259 -0.06456291 -0.006442072 0.043733817
0.03236368 0.09692738 -0.05509067 0.027213518 -0.06607191 -0.052350797 -0.18468022 -0.13225168
0.051632654 -0.17037846 -0.05194892 0.09141432 0.05946621 0.006008398 0.028879546 0.006815836
0.09397719 -0.0403935 0.09958339 -0.06805294 -0.04081908 0.009004727 -0.02610387 -0.10736763
-0.13358113 -0.093135886 0.02761136 -0.05493194 -0.043104686 0.11257319 -0.0064822733 0.03643033
-0.02690655 0.04587759 -0.09635309 0.029778183 0.015532679 -0.22805071 0.09677875 -0.041598503
-0.042356167 0.19034424 0.12888831 -0.10595757 -0.28069335 -0.013907511 0.4245229 0.16712202
-0.020636177 -0.08617885 -0.11371145 -0.16200519 0.05047994 -0.22750327 -0.06793822 0.045931447
-0.2061119 -0.10197002 -0.17006563 0.065031074 0.14131917 0.02451453 -0.14711286 0.1040658
0.14821951 -0.17407195 0.061419867 0.043355063 0.038733438 -0.003781679 0.06898108 -0.08257406
0.035365444 -0.1393468 0.08818317 0.04938546 -0.18628371 0.05200251 0.0813098 -0.13369694
0.013764441 0.0655971 0.060277343 -0.05739542 -0.05328817 0.08986601 0.015789375 -0.019448444
-0.012232617 0.12157549 0.11742051 -0.11562117 0.12300946 0.08413948 -0.08732447 0.13679887
-0.03959377 -0.03975459 -0.101737395 0.19038123 -0.10832899 0.03364447 0.0011436145 -0.10861476
0.13024704 -0.041715372 0.11245792 0.10038693 0.26323003 0.20472205 0.047009196 -0.14394529
00000000: e456 0c3e f44f 823d 56fd 713d d973 d03d
00000010: 79a8 a93d 98fc f13d eff5 72bd 0ae8 a53b
00000020: 8ad3 0bbc 6f07 4e3c fdc1 c73d d0c8 063e
00000030: 9e2f 5ebd 96f8 623b 4d62 583d 5184 133e
00000040: 4715 23bc 7318 1cbd 7c5d 8e3c c841 8abd
00000050: 966e 22bc 7a10 b63d 4668 52bd bdf1 e93d
00000060: 9264 aabd f151 933c 64d4 c7bd fdad f03d
00000070: 289a 2d3d f601 00be 2f84 013d 383d 02be
00000080: 7b07 ecbd ed69 ee3d e0a9 05be 42f5 3a3d
00000090: c4d0 47bd 3bbc 3539 df3b b9bd 1615 bf3c
000000a0: 57e0 babd 19ed 073e 8401 babd f373 b23d
000000b0: 060c 4dbd 72d2 da3d c0d7 37bb 8ae1 e63d
000000c0: b6fb 82bd af9e 073e 1627 f83d 4ada 45bd
000000d0: e8e6 f6bd faf5 2ebd 2062 f2bc 0100 b2bd
000000e0: 1d6a 0d3e aa29 b43d 1ca7 0e3d 9e87 f33d
000000f0: 0199 a0bc d5ce 563d 8ffc 213e 5338 bb3d
00000100: 6b45 523e 6c46 97be 0f43 0a3d 5bbf 2fbd
00000110: 2114 63be 828a 203e a531 2c3e a376 3d3c
00000120: 8abd 613e 267c 45be 1133 5abe 2b49 5abd
00000130: 72cc e63b 33a4 20be e267 f6bd fbf6 0d3c
00000140: c78d db3d e4fe 12be 2820 ca3c 5980 483c
00000150: f24d 003d 9ea0 143e efc7 413d e468 283e
00000160: 7707 c03d 7d20 033c 5cc2 bdbd 22c6 983d
00000170: b176 313d d9c9 fcbd 6d45 033e 1af5 cb3d
00000180: 3e7e 83bb 3ee8 20bd 2477 2e3d 4995 2f3e
00000190: d5c8 2bbd d0e5 053c 2cf4 3e3d dd5d 0abd
000001a0: 9c60 08bd f0a8 d8bd 00b2 6b3b 58c6 413d
000001b0: 2ab6 11bd 7025 a6bd c07d 24bd a443 f9bc
000001c0: df5d 083e 2feb debd fcf0 b9bd e8ea 19bd
000001d0: 7c81 883d 56cf 8ebd c02e 42bb 22a8 2dbd
000001e0: ab9c 503d 3b21 9a3d 0df9 2f3e 05ae 823d
000001f0: 2fc9 a6bd 294a 803d 229f 83bc a534 223e
00000200: 1fec e73c e1f0 de3d 0d89 8c3d 5a2c 1cbe
00000210: e4e2 993d 5886 23bd 28ea a13c 50bd 99bd
00000220: 71f7 51be d552 443e 29af 2a3e 99fe 483d
00000230: dcd5 a6bd 8f39 84bd 0418 d3bb 3b22 333d
00000240: c78f 043d dd81 c63d c1a6 61bd e2ee de3c
00000250: b650 87bd ca6d 56bd d01c 3dbe fc6c 07be
00000260: c37c 533d b177 2ebe 64c8 54bd 6e37 bb3d
00000270: d792 733d 18e2 c43b cc94 ec3c 6057 df3b
00000280: 1d77 c03d a873 25bd 60f2 cb3d 575f 8bbd
00000290: e831 27bd 9088 133c c8d7 d5bc 8fe3 dbbd
000002a0: 7ec9 08be 07be bebd 3831 e23c 5000 61bd
000002b0: 8a8e 30bd c68c e63d 4069 d4bb f837 153d
000002c0: 206b dcbc 24ea 3b3d c554 c5bd 60f1 f33c
000002d0: c77c 7e3c 2086 69be f033 c63d 3163 2abd
000002e0: a97d 2dbd 9ae9 423e 4cfb 033e 4800 d9bd
000002f0: 0ab7 8fbe 54dc 63bc 115b d93e 0922 2b3e
00000300: 330d a9bc 897e b0bd 8ce1 e8bd b0e4 25be
00000310: 0ec4 4e3d 9ef6 68be 3223 8bbd 9d22 3c3d
00000320: ff0e 53be a8d5 d0bd af25 2ebe 032f 853d
00000330: f9b5 103e b2d2 c83c c1a4 16be 7320 d53d
00000340: dbc6 173e eb3f 32be 6693 7b3d 1495 313d
00000350: f4a6 1e3d 0cd6 77bb f445 8d3d 971c a9bd
00000360: 5bdb 103d edb0 0ebe 6199 b43d 6848 4a3d
00000370: 28c1 3ebe 9500 553d c185 a63d dae7 08be
00000380: 4084 613c c657 863d 60e5 763d 7617 6bbd
00000390: b244 5abd ac0b b83d b858 813c 5852 9fbc
000003a0: 506b 48bc 92fc f83d 2a7a f03d cbca ecbd
000003b0: 62ec fb3d 5251 ac3d 2cd7 b2bd 0115 0c3e
000003c0: 142d 22bd b5d5 22bd b25b d0bd 4cf3 423e
000003d0: 97db ddbd c9ce 093d 56e5 953a 6a71 debd
000003e0: 7b5f 053e bddd 2abd 5750 e63d aa97 cd3d
000003f0: 16c6 863e a8a2 513e b78c 403d 6566 13be

rnn.weight_hh_l0 f4 [204, 51]
-0.13631925 -0.0063734567 0.108319186 -0.11278517 -0.07444161 0.027104242 0.106582455 -0.16749713
0.048267826 -0.07935591 -0.040777296 0.012768202 -0.108675234 0.13490278 -0.18142803 0.109941736
-0.07529062 0.07552376 -0.08299247 -0.05314806 0.07148242 -0.040223494 -0.05813191 -0.07851383
-0.1753885 0.04658455 0.11679162 0.048938986 0.10223283 0.12459646 -0.10500848 0.15572783
-0.018096812 0.11839057 0.17938313 -0.08935848 0.05078693 0.10680177 0.14305027 0.00037229093
0.051844332 -0.0030950606 0.048269603 0.047699284 -0.122666284 0.13767363 -0.029500453 -0.17137739
0.10781136 0.027446657 -0.03193266 -0.036421232 -0.1180758 0.00742734 -0.057355385 0.07676397
-0.09992819 0.07955016 -0.26820156 0.09627637 0.014377308 0.16954564 -0.16490789 0.10881828
-0.17511451 0.046266943 0.13984635 -0.18209894 0.09751608 0.054173466 0.21493259 -0.18173695
-0.13940409 0.032159377 0.13095239 -0.05572731 0.041535962 0.24098596 -0.076263875 0.078332596
0.07179955 0.013405968 0.23807038 -0.014504798 -0.1113976 -0.028164212 -0.2473805 0.07356263
0.0056826007 0.069768086 0.12640111 0.018061174 0.18333913 -0.034976225 -0.11473801 -0.044512935
0.043063037 -0.11250339 0.022377295 -0.016790247 0.044712458 0.10121792 -0.25624537 -0.011459515
-0.04983088 -0.03628435 0.11339165 -0.11554868 0.030555794 -0.10945196 0.09217743 0.1855624
-0.024357166 -0.08927134 0.15757827 -0.037965085 0.09807657 0.02596165 -0.19464026 0.19655667
-0.18231434 0.43025857 0.042199 -0.1524733 0.05695275 0.11245462 -0.16387136 0.109629564
0.27893633 -0.11713544 0.28265092 0.098675646 0.08482662 0.029688967 0.07469062 0.035040893
-0.10096102 -0.3556713 0.101368695 0.095821805 0.05824263 0.17224297 -0.13816515 0.30222133
0.127137 -0.038063373 -0.07294172 0.053039897 -0.122696176 -0.071264476 0.077343464 -0.0003755543
0.022703908 -0.2701961 -0.087436035 -0.09213398 -0.009757441 0.1581875 0.08435228 0.024314694
-0.35026604 -0.036583822 0.01017013 -0.013096372 -0.14375488 0.017157707 0.014157997 0.06383717
0.152134 -0.24534346 -0.023063472 -0.04976598 0.23579866 -0.10060494 -0.056214537 0.13422439
-0.11644087 -0.16114058 0.05467275 0.07338451 -0.12237746 0.08816253 0.13428907 -0.06945881
0.072442316 -0.15261811 0.105086505 0.0045180046 -0.12220494 0.1933244 -0.09330641 -0.047948766
0.20148507 -0.0035484275 0.12858768 0.18188815 -0.118807755 -0.20250547 -0.17658389 -0.08530144
-0.09918497 0.22654477 0.0035793206 -0.102985755 -0.10391513 -0.12634549 -0.16129354 0.13159975
-0.063260116 -0.025909318 -0.1422377 0.11771717 -0.049775966 0.11158356 -0.04252013 0.07110648
0.08840092 -0.09606737 0.1333403 -0.010568719 -0.17927226 0.1639327 0.007899037 -0.09849479
0.064277366 0.00039499014 0.16185081 -0.015225947 0.12604086 0.07850535 -0.019077534 -0.04455658
-0.03611127 -0.060509037 0.008717906 0.022526655 -0.055695377 0.067851566 0.056159187 0.040164948
0.11791671 -0.036001045 0.076361746 0.057675414 0.012899676 0.089319065 -0.09461706 -0.18562575
-0.03840309 0.032430213 0.08987547 0.06843241 0.15486953 0.042591985 -0.054427136 -0.03999761
00000000: 4697 0bbe 6ed8 d0bb 73d6 dd3d e9fb e6bd
00000010: d874 98bd b709 de3c e747 da3d 5e84 2bbe
00000020: 7cb4 453d 5a85 a2bd 1806 27bd b931 513c
00000030: 1f91 debd f423 0a3e 45c8 39be 2229 e13d
00000040: f831 9abd 33ac 9a3d f5f7 a9bd c8b1 59bd
00000050: 6065 923d 64c1 24bd ba1b 6ebd dccb a0bd
00000060: 0b99 33be 71cf 3e3d 7230 ef3d 3f74 483d
00000070: 725f d13d 6e2c ff3d b00e d7bd 1e77 1f3e
00000080: c43f 94bc c176 f23d 36b0 373e 9401 b7bd
00000090: f505 503d e3ba da3d c57b 123e 0b30 c339
000000a0: b95a 543d 80d6 4abb 59b6 453d 5360 433d
000000b0: 7638 fbbd 51fa 0c3e efaa f1bc 8e7d 2fbe
000000c0: 34cc dc3d d0d7 e03c d2cb 02bd 6e2e 15bd
000000d0: bad1 f1bd 0b61 f33b 7bed 6abd 6e36 9d3d
000000e0: 27a7 ccbd 32eb a23d b751 89be 8c2c c53d
000000f0: cd8e 6b3c 5f9d 2d3e 9ddd 28be 1edc de3d
00000100: 3851 33be 6882 3d3d e233 0f3e 2578 3abe
00000110: 83b6 c73d ffe4 5d3d 4a17 5c3e 4019 3abe
00000120: f2bf 0ebe 8db9 033d 6218 063e 5242 64bd
00000130: 9d21 2a3d 06c5 763e 3c30 9cbd d76c a03d
00000140: a40b 933d b5a4 5b3c b9c8 733e 88a5 6dbc
00000150: 6d24 e4bd a2b8 e6bc 5051 7dbe 01a8 963d
00000160: 1c35 ba3b 92e2 8e3d 4b6f 013e 07f5 933c
00000170: 41bd 3b3e 3b43 0fbd c3fb eabd 3253 36bd
00000180: de62 303d 2d68 e6bd 9750 b73c b38b 89bc
00000190: 6924 373d 574b cf3d 9832 83be b1c0 3bbc
000001a0: 771b 4cbd e69e 14bd e239 e83d c9a4 ecbd
000001b0: 2550 fa3c 5928 e0bd 85c7 bc3d 1204 3e3e
000001c0: ae88 c7bc e4d3 b6bd 335c 213e 4781 1bbd
000001d0: 5edc c83d 87ad d43c c74f 47be 2746 493e
000001e0: 9cb0 3abe da4a dc3e dcd8 2c3d f621 1cbe
000001f0: 4947 693d 9c4e e63d e5cd 27be 7785 e03d
00000200: bed0 8e3e b5e4 efbd 9fb7 903e 7516 ca3d
00000210: 94b9 ad3d 4736 f33c 65f7 983d 0a87 0f3d
00000220: a7c4 cebd 8c1a b6be 649a cf3d 393e c43d
00000230: d38f 6e3d 7660 303e 2a7b 0dbe c1bc 9a3e
00000240: 3430 023e 57e8 1bbd 7862 95bd 5d40 593d
00000250: 2248 fbbd 1cf3 91bd 4066 9e3d 0be6 c4b9
00000260: 8cfd b93c 2557 8abe aa11 b3bd bdb0 bcbd
00000270: acdd 1fbc e7fb 213e e3c0 ac3d 9c2f c73c
00000280: 1256 b3be ebd8 15bd 9ea0 263c 2a92 56bc
00000290: 7b34 13be 528e 8c3c f2f6 673c 10bd 823d
000002a0: 04c9 1b3e 513b 7bbe 9bef bcbc 6ad7 4bbd
000002b0: 3475 713e f609 cebd 3741 66bd 1e72 093e
000002c0: 8d78 eebd 0902 25be 89f0 5f3d 9e4a 963d
000002d0: 09a1 fabd 8e8e b43d 1383 093e 6c40 8ebd
000002e0: a35c 943d ec47 1cbe 9837 d73d c50b 943b
000002f0: 9546 fabd d5f6 453e 6e17 bfbd ed65 44bd
00000300: 1a52 4e3e bc8c 68bb 7dac 033e e340 3a3e
00000310: 7b51 f3bd 985d 4fbe 68d2 34be 85b2 aebd
00000320: 7d21 cbbd 5afb 673e 0993 6a3b 32ea d2bd
00000330: 75d1 d4bd b660 01be 222a 25be 16c2 063e
00000340: 858e 81bd c73f d4bc c2a6 11be b315 f13d
00000350: e2e1 4bbd ec85 e43d 9629 2ebd 46a0 913d
00000360: 8b0b b53d f8be c4bd 5c8a 083e 6c28 2dbc
00000370: 2693 37be f9dd 273e f66a 013c a3b7 c9bd
00000380: daa3 833d ae16 cf39 38bc 253e 4076 79bc
00000390: db10 013e 6ac7 a03d 7d48 9cbc f680 36bd
000003a0: 69e9 13bd 53d8 77bd 8cd5 0e3c d289 b83c
000003b0: d620 64bd c3f5 8a3d 2d07 663d 0084 243d
000003c0: 517e f13d d575 13bd 8c63 9c3d 0e3d 6c3d
000003d0: 2a59 533c eaec b63d 97c6 c1bd ad14 3ebe
000003e0: 8f4c 1dbd 8bd5 043d a110 b83d 4b26 8c3d
000003f0: 1e96 1e3e ef74 2e3d fdee 5ebd 89d4 23bd

rnn.bias_ih_l0 f4 [204]
-0.047808688 0.23690909 0.04541575 0.1470286 0.10854591 0.19535944 0.14802693 0.1527326
0.13837738 0.15087096 -0.05366917 0.02207045 -0.035933837 0.0039413297 0.2040363 -0.03650359
0.18535028 -0.053231813 0.029717706 0.0050354903 0.0040551275 -0.0035005887 0.11615042 0.054800358
-0.068819955 -0.05349636 0.17874186 0.059273873 -0.0013438768 -0.068783596 0.13240565 0.0012983978
0.11985611 0.089640595 0.034148395 -0.094594605 0.018012544 0.06519473 -0.03384601 0.08387033
0.1439827 0.058258064 -0.074586414 -0.05096076 0.0062054996 -0.050133906 -0.097078696 -0.029453756
0.16243283 0.036895547 0.11373027 -0.061585814 0.08027836 -0.0041939216 -0.007344688 -0.008279375
-0.00759604 0.10940957 0.032595083 0.078876026 0.0015127157 0.12484651 0.114301756 0.18665808
0.054191377 0.040445007 -0.024424937 -0.089614816 0.027627323 0.065745756 -0.002557046 0.017313838
0.12070432 -0.07469897 -0.082173675 0.0080845095 0.08060941 -0.027536191 0.12858559 -0.021553623
0.19288357 0.14223297 0.034223087 -0.03876541 -0.04333468 -0.0754896 0.0637349 0.1477553
0.11002844 0.15549815 -0.059167366 -0.08247432 0.18196331 -0.117718294 0.04655035 0.004909667
-0.028661342 0.018630872 -0.18281157 0.074531786 0.008415141 0.005792415 0.00059401005 -0.062284667
-0.0021431115 0.12254943 0.024308309 0.11389302 -0.08781387 0.09638276 -0.004903451 0.030036665
0.11772214 -0.064488046 0.10270108 0.012822626 0.08739442 -0.0015768158 -0.09159003 -0.024733637
-0.1334507 0.11261918 -0.10984251 0.013016875 0.124670096 0.15020823 0.1320675 0.117633864
0.030972375 -0.019561933 -0.053400207 0.07900717 0.06250199 0.17931265 -0.16574696 0.033769503
-0.10200608 -0.04948939 0.035941742 -0.055929787 0.022243999 0.19320333 0.016401405 0.056436386
0.12947655 -0.171772 0.11646032 -0.18832089 0.091422915 -0.02318695 0.14397104 -0.13802744
0.10503788 -0.050871123 -0.0037002794 -0.026989065 -0.048737373 0.0629195 0.18795031 0.010503688
0.11962297 -0.012374208 0.08919077 0.1993638 0.05539932 0.13977683 0.025491927 0.116504714
0.0049874466 0.12641801 0.18887815 -5.3256667e-06 0.24494804 0.20363995 0.017896092 0.03292044
0.005361902 -0.006950377 0.17000645 -0.030344326 0.05009556 0.17820892 -0.034448225 0.23116913
0.15589048 -0.047089767 0.13809234 0.14467178 0.007163772 0.17444034 0.011955925 0.09518346
0.08083864 0.12203061 0.112412445 0.06221464 -0.02996024 0.056487422 -0.065519646 0.109656185
-0.06862743 0.1345906 0.17121705 0.21726337
00000000: 0bd3 43bd 4c98 723e de05 3a3d aa8e 163e
00000010: 514d de3d 4e0c 483e 5f94 173e ef65 1c3e
00000020: cdb2 0d3e eb7d 1a3e 34d4 5bbd 17cd b43c
00000030: 5c2f 13bd 4526 813b e4ee 503e ca84 15bd
00000040: 77cc 3d3e 9a09 5abd 8c72 f33c c100 a53b
00000050: e0e0 843b 226a 65bb 45e0 ed3d 5776 603d
00000060: 7af1 8cbd 001f 5bbd 1b08 373e 29c9 723d
00000070: 0625 b0ba 6ade 8cbd 5995 073e 002f aa3a
00000080: 1f77 f53d 7d95 b73d 30df 0b3d d1ba c1bd
00000090: 0b8f 933c d184 853d 1da2 0abd 35c4 ab3d
000000a0: 3370 133e 02a0 6e3d c3c0 98bd 3bbc 50bd
000000b0: 8157 cb3b 3659 4dbd 32d1 c6bd 0149 f1bc
000000c0: cb54 263e c91f 173d 6aeb e83d 6841 7cbd
000000d0: fb68 a43d 2a6d 89bb b5ab f0bb 37a6 07bc
000000e0: 34e8 f8bb 2012 e03d 6c82 053d c189 a13d
000000f0: 5146 c63a 87af ff3d 0a17 ea3d 4c23 3f3e
00000100: c7f7 5d3d aaa9 253d ce16 c8bc f987 b7bd
00000110: b252 e23c b6a5 863d 1d94 27bb c0d5 8d3c
00000120: d433 f73d c6fb 98bd ac4a a8bd e474 043c
00000130: 8c16 a53d 9493 e1bc f1ab 033e 3991 b0bc
00000140: 4583 453e 85a5 113e 822d 0c3d 7bc8 1ebd
00000150: b57f 31bd 4b9a 9abd 7187 823d 2a4d 173e
00000160: 9756 e13d e83a 1f3e 7b59 72bd 4ce8 a8bd
00000170: 9754 3a3e 4a16 f1bd 94ab 3e3d 46e1 a03b
00000180: 31cb eabc c59f 983c f532 3bbe 1fa4 983d
00000190: a9df 093c 4cce bd3b 57b7 1b3a 351e 7fbd
000001a0: 7273 0cbb 32fb fa3d 3822 c73c be40 e93d
000001b0: c2d7 b3bd 5364 c53d 21ad a0bb 740f f63c
000001c0: 4e18 f13d 4f12 84bd f254 d23d fe15 523c
000001d0: d8fb b23d 29ad ceba 8e93 bbbd 329e cabc
000001e0: 4da7 08be e2a4 e63d 1cf5 e0bd bb44 553c
000001f0: 0953 ff3d 30d0 193e b43c 073e 06ea f03d
00000200: c7b9 fd3c 5940 a0bc 2dba 5abd 83ce a13d
00000210: 0b01 803d bc9d 373e 92b9 29be e451 0a3d
00000220: 90e8 d0bd 63b5 4abd a637 133d a216 65bd
00000230: 0c39 b63c 18d7 453e 3d5c 863c d729 673d
00000240: 8095 043e 00e5 2fbe c082 ee3d 31d7 40be
00000250: f03b bb3d 8ff2 bdbc 256d 133e 1157 0dbe
00000260: 1a1e d73d 3d5e 50bd 6380 72bb 2c18 ddbc
00000270: d7a0 47bd f0db 803d 0c76 403e a917 2c3c
00000280: e3fc f43d 31bd 4abc a7a9 b63d 0626 4c3e
00000290: 66ea 623d a821 0f3e 72d4 d03c 069a ee3d
000002a0: bc6d a33b b973 013e 4669 413e 21b3 b2b6
000002b0: a9d3 7a3e fe86 503e d39a 923c 95d7 063d
000002c0: e5b2 af3b fdbf e3bb 2c16 2e3e aa94 f8bc
000002d0: 0031 4d3d 667c 363e 9519 0dbd 9ab7 6c3e
000002e0: c1a1 1f3e 33e1 40bd 1468 0d3e d724 143e
000002f0: 13be ea3b 7da0 323e c9e2 433c 8cef c23d
00000300: bb8e a53d 2feb f93d 7f38 e63d c7d4 7e3d
00000310: 2d6f f5bc 5b5f 673d 2a2f 86bd 6c93 e03d
00000320: 8a8c 8cbd 1ed2 093e 8653 2f3e 4a7a 5e3e

rnn.bias_hh_l0 f4 [204]
0.154739 0.024045225 0.012519601 0.14848158 -0.0042065373 0.06834188 0.0011385995 0.12251238
0.06109927 0.12575205 0.03929461 -0.0025797586 0.1045962 0.1365239 0.08811246 0.09802404
0.18722916 0.0022979241 0.09582814 -0.014263735 0.11480502 0.14622132 0.013468739 -0.067484714
0.10235119 0.004145168 0.20413357 0.03327236 0.06811323 0.05195232 -0.00525452 0.018478142
-0.06835901 -0.017963063 0.1539751 0.12878887 0.1473139 0.18071084 0.1772837 0.050986037
0.15331171 0.06507868 -0.080197476 0.1315691 0.13640758 0.058221783 0.12788968 0.0576563
0.1005214 -0.058767162 0.05665199 0.07963071 -0.09867278 -0.09239564 0.15379496 0.17953956
0.050785873 0.09361437 -0.10702079 0.0978614 0.031388886 -0.013929908 0.05982159 0.013079108
0.13060677 0.12326333 0.18892339 -0.19065125 0.18583967 -0.006795607 0.021364706 0.16161078
0.00812836 0.028978549 -0.045848012 0.02978505 0.04875529 -0.00455422 -0.089126155 0.09930365
0.13737941 -0.017266853 -0.045128062 0.026078548 0.05672939 -0.08084173 -0.0065770955 0.11315487
-0.047317535 0.067049935 0.005182024 0.11091864 -0.009930534 0.07996521 0.11489762 0.07418942
0.15402652 0.11415466 0.044928163 -0.028684964 0.10500112 -0.038217545 -0.09709078 -0.016822398
-0.049301036 0.1652662 0.14443862 -0.05889151 -0.01759001 0.15102364 0.17130981 0.17046389
0.1614529 -0.073600456 0.057216357 -0.11492222 -0.109881766 0.17248428 -0.07447879 0.15440865
-0.0085098855 0.13103884 -0.09789402 -0.15337834 0.017903874 0.06489163 0.10034001 0.021025306
-0.04771303 0.045136023 -0.11322471 0.07367691 0.015877636 -0.05164666 -0.12401505 -0.049975086
0.0027508417 -0.05177448 0.16593505 -0.14121604 0.18359792 0.08878264 -0.16881777 0.10464794
0.13798872 -0.07449901 0.06287988 -0.120841764 -0.03003417 -0.04730274 0.1794147 -0.058208726
0.014364658 0.07184905 0.21405835 -0.03064711 0.09242957 0.022442304 0.11897898 0.101077914
-0.0050134216 0.19386844 0.10095764 -0.02705344 -0.08882601 0.18766549 -0.02554696 0.079700604
-0.037615675 0.10683925 0.14708751 0.110554725 0.032246612 0.12887922 0.017856477 0.2161101
0.04949151 -0.10548653 0.19577998 0.18890874 0.15455993 -0.08266639 0.027774645 0.20782182
0.03817087 -0.05957256 0.17901018 0.20179212 -0.021074215 -0.040024802 0.13347356 0.027407466
0.02967805 0.15014994 0.14721495 -0.15123926 0.019699486 0.15795352 0.1549207 -0.036130816
0.05922505 0.02450562 -0.022196164 0.07148452
00000000: e773 1e3e 7efa c43c 031f 4d3c 8e0b 183e
00000010: fed6 89bb d4f6 8b3d 0f3d 953a c5e7 fa3d
00000020: 3a43 7a3d 25c5 003e 63f3 203d 2b11 29bb
00000030: 8836 d63d eccc 0b3e 4e74 b43d d4c0 c83d
00000040: 00b9 3f3e c598 163b 8b41 c43d 71b2 69bc
00000050: e51e eb3d 0bbb 153e fcab 5c3c 6d35 8abd
00000060: 809d d13d 30d4 873b 6408 513e 9948 083d
00000070: f37e 8b3d f5cb 543d 1c2e acbb 795f 973c
00000080: cfff 8bbd 4627 93bc a6ab 1d3e 3be1 033e
00000090: 74d9 163e 430c 393e dc89 353e bcd6 503d
000000a0: bffd 1c3e f947 853d 933e a4bd 0dba 063e
000000b0: 6eae 0b3e f779 6e3d 83f5 023e 0329 6c3d
000000c0: 2ade cd3d d6b5 70bd eb0b 683d 6d15 a33d
000000d0: f414 cabd ed39 bdbd 6d7c 1d3e 38d9 373e
000000e0: d904 503d e4b8 bf3d b72d dbbd 8f6b c83d
000000f0: a291 003d 453a 64bc 7c07 753d c149 563c
00000100: c8bd 053e 7c71 fc3d 2275 413e 153a 43be
00000110: c14c 3e3e afad debb 0905 af3c 4c7d 253e
00000120: d02c 053c 6c64 ed3c 20cb 3bbd c7ff f33c
00000130: a1b3 473d 913b 95bb c687 b6bd b65f cb3d
00000140: 30ad 0c3e 3773 8dbc 34d8 38bd aea2 d53c
00000150: 145d 683d 5990 a5bd ad84 d7bb bebd e73d
00000160: 08d0 41bd 7a51 893d f8cd a93b 5029 e33d
00000170: aeb3 22bc cdc4 a33d 724f eb3d 9ff0 973d
00000180: 21b9 1d3e ebc9 e93d 9806 383d bbfc eabc
00000190: d40a d73d 008a 1cbd 88d7 c6bd 20cf 89bc
000001a0: e2ef 49bd 8b3b 293e b8e7 133e 3938 71bd
000001b0: ed18 90bc f1a5 1a3e d76b 2f3e 168e 2e3e
000001c0: e953 253e d6bb 96bd b35b 6a3d 575c ebbd
000001d0: b109 e1bd b89f 303e 5688 98bd 4d1d 1e3e
000001e0: 0c6d 0bbc 0c2f 063e a97c c8bd 360f 1dbe
000001f0: 25ab 923c e7e5 843d 107f cd3d 433d ac3c
00000200: bd6e 43bd 8de0 383d 5be2 e7bd ebe3 963d
00000210: d111 823c 738b 53bd 9afb fdbd adb2 4cbd
00000220: 7747 343b 7a11 54bd e1ea 293e f09a 10be
00000230: 1801 3c3e acd3 b53d 91de 2cbe a951 d63d
00000240: ea4c 0d3e f092 98bd 2bc7 803d e37b f7bd
00000250: 380a f6bc 85c0 41bd 7db8 373e 466c 6ebd
00000260: be59 6b3c 9825 933d 1d32 5b3e a60f fbbc
00000270: b74b bd3d ecd8 b73c 40ab f33d f001 cf3d
00000280: a147 a4bb 7385 463e e1c2 ce3d 2d9f ddbc
00000290: 69ea b5bd 622b 403e dc47 d1bc 123a a33d
000002a0: e512 1abd 89ce da3d 1c9e 163e 846a e23d
000002b0: 0615 043d eaf8 033e bf47 923c f74b 5d3e
000002c0: 9cb7 4a3d 5209 d8bd 8c7a 483e 4b71 413e
000002d0: f544 1e3e ff4c a9bd a787 e33c 3ecf 543e
000002e0: 0f59 1c3d 5b02 74bd 724e 373e 98a2 4e3e
000002f0: d5a3 acbc 0cf1 23bd 4bad 083e 9f85 e03c
00000300: 621f f33c e8c0 193e 84bf 163e 77de 1abe
00000310: d160 a13c 91be 213e 88a3 1e3e e8fd 13bd
00000320: f795 723d 03c0 c83c bbd4 b5bc 7a66 923d

nf.weight f4 [6, 51]
0.15756258 -0.12360969 -0.26948255 0.14308399 0.23755303 0.22021279 -0.12395449 0.37098855
0.14580397 0.1871383 0.19229226 0.13483416 0.24895452 -0.14333244 0.36406118 0.12893672
0.052948024 0.15461464 -0.1899763 -0.06096112 -0.24137013 -0.07380175 0.2669439 0.16584904
0.17593555 0.19124275 -0.50528514 -0.12851548 0.052534536 -0.046489272 0.12105956 0.059490856
-0.1246023 -0.2180695 -0.21651572 0.26925856 0.13840409 -0.27999747 0.22227947 0.067377776
-0.1954033 -0.07749702 -0.04117063 -0.13419098 0.39859194 -0.17262541 -0.07972283 0.30013567
0.16985072 -0.19731042 0.19850194 -0.24239762 0.53943694 0.16972642 0.20902477 -0.11106167
-0.13436918 0.22365926 0.49274355 -0.19615947 0.35345462 -0.18654998 -0.07194003 0.07498294
0.27840167 -0.46550608 0.15184276 -0.8778247 -0.26013705 -0.21011911 0.28679308 -0.08457784
-0.28279883 -0.3826239 -0.32303175 -0.2142965 0.17344868 0.3205323 -0.31644654 0.14040767
0.008353608 -0.5935464 0.14621285 0.22239628 0.34949952 0.3990994 -0.256877 0.25488356
0.36627802 0.24134748 0.17143553 0.5896616 0.15376389 0.16546074 -0.37791222 -0.15771373
-0.006666787 -0.15799892 0.28922018 0.21429858 0.40118122 -0.15877886 0.08125885 0.2679857
0.16523942 0.051874388 -0.04287912 -0.060835183 0.01609717 0.06795102 0.12002255 0.0039034374
-0.15351991 0.18232282 -0.09821121 0.19869225 -0.14188302 -0.07061921 -0.011734635 -0.20198956
0.07067442 -0.0018220801 0.1831732 0.208938 -0.17385787 -0.0792716 0.057662707 -0.12640534
0.10980344 0.20768246 -0.07097109 -0.19346188 -0.25795767 -0.019442677 0.2255587 0.16767314
0.046463188 -0.020116426 0.081418 0.2103556 0.0012405431 -0.19733422 0.019517805 -0.1537341
0.06294218 0.017403722 -0.023299878 0.08084163 0.06437262 -0.22408397 -0.18088296 0.014026388
-0.027072972 0.1301072 -0.3884202 0.32020193 -0.36271533 -0.17730853 -0.3566925 0.32988402
-0.7168749 0.13889591 -0.30690914 -0.13568284 0.08092219 0.022861123 0.15788072 -0.21807517
-0.17678353 1.0662342 0.2706691 0.41393122 -0.20805797 0.34565076 0.15175357 -0.040952116
-0.17171046 -0.23986161 -0.15956326 0.32069272 0.35360545 -0.23745634 0.017643137 0.54738754
0.22495349 0.19747661 -0.15417726 -0.21821964 -0.11982612 -0.055277396 -0.13560367 -0.40844992
0.04811306 0.014489188 0.28630587 -0.62632567 0.5877373 -0.22660261 -0.27913478 -0.15654251
-0.4224965 -0.23749952 -0.19810703 -0.20160185 0.39257473 -0.2964112 -0.02849438 -0.30136663
-0.20165503 0.2023685 0.23005225 -0.2704239 -0.5988285 0.08274096 -0.05675318 -0.18511851
-0.40020967 0.069162086 0.40862873 -0.11929121 -0.10709994 0.27626476 0.3465357 0.24000281
0.15270697 0.45320478 -0.11497103 0.014660677 -0.2994002 -0.15380956 0.13976797 0.11464191
-0.0873422 -0.07033343 0.056143384 -0.019231675 0.19035839 -0.028618615 -0.17801538 -0.22097746
-0.37095952 0.0054204687 0.04808898 -0.015340699 -0.32900915 -0.11400091 0.7313822 0.40007564
-0.17005496 0.15482594 0.42192525 -0.34826976 0.1330833 0.31509078 -0.24916047 -0.016012866
00000000: 1658 213e 1427 fdbd 9ef9 89be 9c84 123e
00000010: 1a41 733e 767f 613e dadb fdbd 36f2 bd3e
00000020: a34d 153e 2fa1 3f3e 43e8 443e f711 0a3e
00000030: efed 7e3e bdc5 12be 3a66 ba3e fd07 043e
00000040: 07e0 583d 4d53 1e3e 2689 42be 5eb2 79bd
00000050: bb29 77be 5f25 97bd dfac 883e 55d4 293e
00000060: 7328 343e 24d5 433e 5e5a 01bf 9099 03be
00000070: 742e 573d 896b 3ebd 13ee f73d afac 733d
00000080: 7e2f ffbd 9c4d 5fbe 4cb6 5dbe 42dc 893e
00000090: cdb9 0d3e d45b 8fbe 3b9d 633e 5cfd 893d
000000a0: cd17 48be c2b6 9ebd 89a2 28bd 5c69 09be
000000b0: 3e14 cc3e b7c4 30be b945 a3bd 62ab 993e
000000c0: 59ed 2d3e be0b 4abe 1844 4b3e 1537 78be
000000d0: 8a18 0a3f c3cc 2d3e 970a 563e 4d74 e3bd
000000e0: 1398 09be ef06 653e e248 fc3e 07de 48be
000000f0: 01f8 b43e f506 3fbe 4b55 93bd a890 993d
00000100: aa8a 8e3e d056 eebe ab7c 1b3e 1fb9 60bf
00000110: af30 85be 7729 57be 8bd6 923e 2637 adbd
00000120: 02cb 90be 48e7 c3be 6b64 a5be 8b70 5bbe
00000130: 889c 313e cf1c a43e 4805 a2be 07c7 0f3e
00000140: 92dd 083c a8f2 17bf d2b8 153e dabb 633e
00000150: 9af1 b23e c256 cc3e 6285 83be 1980 823e
00000160: cb88 bb3e cb23 773e cc8c 2f3e 10f4 163f
00000170: 4874 1d3e 8a6e 293e b67d c1be b57f 21be
00000180: 1075 dabb 78ca 21be ab14 943e 1671 5b3e
00000190: a067 cd3e ed96 22be 0a6b a63d 6c35 893e
000001a0: 8634 293e 3d7a 543d 04a2 2fbd 502e 79bd
000001b0: 36de 833c e829 8b3d 62ce f53d d0d0 7f3b
000001c0: 5334 1dbe d5b2 3a3e f522 c9bd fb75 4b3e
000001d0: c849 11be cea0 90bd a042 40bc 5ad6 4ebe
000001e0: c0bd 903d ddd2 eeba c191 3b3e d8f3 553e
000001f0: cc07 32be 2659 a2bd bb2f 6c3d 6770 01be
00000200: a0e0 e03d b6aa 543e 4a59 91bd df1a 46be
00000210: 0713 84be 4046 9fbc dcf8 663e 82b2 2b3e
00000220: 2f50 3e3d 34cb a4bc 7bbe a63d 7567 573e
00000230: b899 a23a fb11 4abe cee3 9f3c 796c 1dbe
00000240: d4e7 803d 4092 8e3c 63df bebc 4c90 a53d
00000250: cbd5 833d 4576 65be 6239 39be efce 653c
00000260: 23c8 ddbc d23a 053e 03df c6be 82f1 a33e
00000270: d3b5 b9be 5e90 35be 66a0 b6be 8fe6 a83e
00000280: 1d85 37bf bb3a 0e3e 3223 9dbe 71f0 0abe
00000290: 88ba a53d 4047 bb3c 7cab 213e 194f 5fbe
000002a0: be06 35be 5d7a 883f 2495 8a3e cbee d33e
000002b0: 260d 55be 23f9 b03e 4a65 1b3e 68bd 27bd
000002c0: ded4 2fbe 489e 75be 8d64 23be d631 a43e
000002d0: c60b b53e c127 73be 5788 903c 9721 0c3f
000002e0: 355a 663e 4f37 4a3e a5e0 1dbe f874 5fbe
000002f0: 6667 f5bd 8d6a 62bd b0db 0abe 5920 d1be
00000300: 3312 453d 0f64 6d3c af96 923e e156 20bf
00000310: f475 163f 840a 68be c1ea 8ebe ae4c 20be
00000320: 7651 d8be 1333 73be 92dc 4abe b770 4ebe
00000330: 8eff c83e 35c3 97be 0c6d e9bc ba4c 9abe
00000340: a87e 4ebe b039 4f3e d192 6b3e 0075 8abe
00000350: d34c 19bf 1874 a93d 0676 68bd b58f 3dbe
00000360: 48e8 ccbe daa4 8d3d c937 d13e f34e f4bd
00000370: 3757 dbbd 9372 8d3e 216d b13e 4cc3 753e
00000380: 375f 1c3e 750a e83e ee75 ebbd 5633 703c
00000390: fc4a 99be 4180 1dbe 561f 0f3e 61c9 ea3d
000003a0: 78e0 b2bd f90a 90bd 9bf6 653d bf8b 9dbc
000003b0: 4fed 423e 9671 eabc aa49 36be ea47 62be
000003c0: 68ee bdbe 309e b13b f3f8 443d 8e57 7bbc
000003d0: e373 a8be 4f79 e9bd dd3b 3b3f b7d6 cc3e
000003e0: e322 2ebe b18a 1e3e 9606 d83e 6a50 b2be
000003f0: fd46 083e 9453 a13e ec23 7fbe 6a2d 83bc

nf.bias f4 [6]
0.1259274 0.032828774 0.015914073 -0.04077685 -0.10649201 -0.091281705
00000000: 1df3 003e 7777 063d 3b5e 823c a005 27bd
00000010: 7c18 dabd e7f1 babd

exp_avg f4 [204, 60]
-3.6331248e-06 -1.7372766e-05 -4.583703e-06 -1.48042e-06 -1.8752455e-06 -1.3231245e-06 -5.908141e-07 -4.4201104e-07
-2.3112568e-07 -1.2392034e-07 -3.8019543e-08 -1.8575031e-08 -6.4808056e-08 -4.190257e-09 -1.2664266e-09 -9.1369207e-10
3.0317394e-11 2.973758e-11 2.160986e-12 1.255947e-11 4.428322e-12 1.4415659e-11 3.1525472e-12 -2.3568322e-13
-4.2154024e-13 -5.023266e-14 -3.476038e-13 2.0298575e-15 5.0188913e-15 9.838284e-15 1.3437451e-15 4.505412e-15
4.6798655e-15 1.3759978e-15 2.908598e-15 3.97662e-15 2.6329765e-15 4.4001384e-15 2.90602e-15 1.2393206e-15
4.647452e-16 1.2393206e-15 3.8728765e-15 6.196603e-16 0.0 0.0 0.0 0.0
0.0 0.0 0.0 0.0 0.0 0.0 0.0 0.0
0.0 0.0 0.0 0.0 0.00093808846 0.0012467132 0.0002569584 0.0011569078
0.00075654883 0.0011861671 0.001193887 0.00084261625 0.0008530612 -4.756113e-05 0.00014555849 -0.00031662238
-0.0002392141 -4.5739325e-05 -0.00022387634 0.000109885616 -0.0002790216 -4.6572895e-05 8.308239e-06 1.1296654e-06
-2.4394024e-07 -3.05531e-07 1.2826581e-07 -4.940129e-07 -5.7979168e-08 -1.5721383e-07 -4.933407e-07 -3.3678567e-13
1.3962815e-09 1.0605085e-09 1.5077803e-09 4.4649717e-10 1.3960654e-09 2.227002e-10 -2.2202967e-13 -1.3037784e-16
-2.4814937e-13 -5.2247513e-14 -2.35136e-13 -4.751611e-18 -8.639297e-19 6e-45 6e-45 6e-45
0.0 0.0 0.0 0.0 0.0 0.0 0.0 0.0
0.0 0.0 0.0 0.0 0.0 0.0 0.0 0.0
-1.1307622e-05 -2.2257338e-05 -1.1778147e-05 -2.3161561e-05 -3.9702674e-05 -1.3174596e-05 -3.3579257e-05 -4.2203415e-06
5.23408e-07 -1.4998043e-06 -9.8406e-07 -3.2990813e-06 -1.4963008e-06 -3.4381044e-06 -2.893374e-06 -3.0729962e-06
-1.6025314e-06 3.3848504e-09 -1.1380761e-07 1.10873316e-07 1.090269e-07 4.8172413e-09 8.84046e-09 4.354786e-09
9.723947e-09 7.2995303e-09 1.158102e-08 1.5345404e-09 7.164789e-09 8.495047e-09 8.705115e-09 3.7225725e-09
8.207338e-09 4.331319e-09 9.99775e-10 -1.5314428e-16 1.1173954e-09 2.3524113e-10 1.0585852e-09 -4.4880845e-24
-8.1601547e-25 0.0 0.0 0.0 0.0 0.0 0.0 0.0
0.0 0.0 0.0 0.0 0.0 0.0 0.0 0.0
0.0 0.0 0.0 0.0 0.0005494132 0.0005533268 0.0008757572 0.00060261023
-4.655264e-05 0.00032119194 -9.738019e-06 0.00038069914 0.0007172275 0.000765264 0.00014488363 9.506181e-05
-8.329965e-05 0.00010645973 2.305785e-05 1.4617713e-05 4.2894942e-05 8.154499e-06 8.783796e-06 1.7595108e-06
1.6370769e-06 2.7669112e-06 2.0311552e-06 3.8262762e-08 3.587167e-08 3.3732416e-08 2.5826635e-08 3.032967e-10
7.355341e-10 3.5370986e-09 5.6762556e-10 3.3181231e-12 3.035707e-12 7.0450677e-12 2.1859888e-12 -1.7611028e-15
2.4255322e-12 5.0899806e-13 2.2976326e-12 -4.9316746e-16 -1.9109755e-16 -5.250532e-16 -1.6407914e-15 -2.625266e-16
0.0 0.0 0.0 0.0 0.0 0.0 0.0 0.0
0.0 0.0 0.0 0.0 0.0 0.0 0.0 0.0
2.4863562e-05 -2.5385783e-05 5.7232795e-05 -6.218213e-06 2.2223088e-05 1.54297e-05 3.693992e-05 -2.4252842e-05
1.62592e-05 1.5255637e-05 -8.797506e-06 -5.1945403e-06 -5.7929446e-06 -1.2800075e-06 7.878392e-06 5.864778e-06
00000000: 9cd0 73b6 bbbb 91b7 b5cd 99b6 d8b2 c6b5
00000010: f2b0 fbb5 3696 b1b5 7098 1eb5 894d edb4
00000020: 582b 78b4 f70e 05b4 ee4a 23b3 ed8e 9fb2
00000030: 9b2c 8bb3 e4f9 8fb1 6d0e aeb0 5d27 7bb0
00000040: 5a56 052e 8ac9 022e dd10 182c d3f2 5c2d
00000050: c7ce 9b2c 5b9a 7d2d 3ed7 5d2c 88ad 84aa
00000060: 5a4e edaa 503a 62a9 fdae c3aa 4344 1227
00000070: 1ad3 b427 143b 3128 72a7 c126 1753 a227
00000080: 249c a827 5c4d c626 2a96 5127 d945 8f27
00000090: d8b9 3d27 1d88 9e27 9b66 5127 dc9a b226
000000a0: 25f4 0526 dc9a b226 fb88 8b27 dc9a 3226
000000b0: 0000 0000 0000 0000 0000 0000 0000 0000
000000c0: 0000 0000 0000 0000 0000 0000 0000 0000
000000d0: 0000 0000 0000 0000 0000 0000 0000 0000
000000e0: 0000 0000 0000 0000 0000 0000 0000 0000
000000f0: 0dea 753a c168 a33a 5fb8 8639 62a3 973a
00000100: 2253 463a 2a79 9b3a 337c 9c3a 05e3 5c3a
00000110: f89f 5f3a 607c 47b8 0fa1 1839 5600 a6b9
00000120: 8cd5 7ab9 3ad8 3fb8 59c0 6ab9 6472 e638
00000130: a549 92b9 4457 43b8 9d63 0b37 029f 9735
00000140: e4f6 82b4 dc07 a4b4 70b9 0934 4f9c 04b5
00000150: c504 79b3 9cce 28b4 1d6e 04b5 ee97 bdaa
00000160: 4ae7 bf30 53c1 9130 4e3a cf30 e476 f52f
00000170: afdf bf30 89dc 742f b2fb 79aa bf50 16a5
00000180: 18b2 8baa 484d 6ba9 ab5e 84aa b24d afa2
00000190: affc 7ea1 0400 0000 0400 0000 0400 0000
000001a0: 0000 0000 0000 0000 0000 0000 0000 0000
000001b0: 0000 0000 0000 0000 0000 0000 0000 0000
000001c0: 0000 0000 0000 0000 0000 0000 0000 0000
000001d0: 0000 0000 0000 0000 0000 0000 0000 0000
000001e0: deb5 3db7 45b5 bab7 c29a 45b7 134b c2b7
000001f0: 6c86 26b8 7508 5db7 74d7 0cb8 759c 8db6
00000200: 5380 0c35 e24c c9b5 0b14 84b5 c965 5db6
00000210: 81d4 c8b5 2fba 66b6 c92b 42b6 ac39 4eb6
00000220: 8f16 d7b5 eb9a 6831 6566 f4b3 4019 ee33
00000230: 2c22 ea33 e784 a531 c1e0 1732 1aa1 9531
00000240: 5f0e 2732 59cf fa31 ddf5 4632 d7e7 d230
00000250: 272e f631 9df1 1132 808d 1532 30d0 7f31
00000260: 4100 0d32 afd2 9431 7568 8930 3790 30a5
00000270: db92 9930 3f53 812f a87d 9130 d69f ad98
00000280: 688b 7c97 0000 0000 0000 0000 0000 0000
00000290: 0000 0000 0000 0000 0000 0000 0000 0000
000002a0: 0000 0000 0000 0000 0000 0000 0000 0000
000002b0: 0000 0000 0000 0000 0000 0000 0000 0000
000002c0: 0000 0000 0000 0000 0000 0000 0000 0000
000002d0: 7f06 103a 220d 113a 1293 653a 7df8 1d3a
000002e0: 8441 43b8 a765 a839 7960 23b7 9398 c739
000002f0: 5304 3c3a ff9b 483a e7eb 1739 ec5b c738
00000300: 29b1 aeb8 2243 df38 5b6c c137 993e 7537
00000310: 18ea 3338 4ecf 0837 1e5e 1337 5528 ec35
00000320: 89b9 db35 2caf 3936 fb4e 0836 5a56 2433
00000330: 5111 1a33 2fe1 1033 5fd9 dd32 37bd a62f
00000340: 9c2e 4a30 4c11 7331 1907 1c30 fe7d 692c
00000350: 709e 552c 54e0 f72c 46d3 192c 3acd fda6
00000360: 81ae 2a2c 2d45 0f2b 78ae 212c 5625 0ea6
00000370: 0b52 5ca5 1756 17a6 8576 eca6 1756 97a5
00000380: 0000 0000 0000 0000 0000 0000 0000 0000
00000390: 0000 0000 0000 0000 0000 0000 0000 0000
000003a0: 0000 0000 0000 0000 0000 0000 0000 0000
000003b0: 0000 0000 0000 0000 0000 0000 0000 0000
000003c0: 1892 d037 8ef3 d4b7 3f0d 7038 0ba6 d0b6
000003d0: b86b ba37 076f 8137 f0ef 1a38 9572 cbb7
000003e0: 5e64 8837 76f2 7f37 0099 13b7 c34c aeb6
000003f0: 0461 c2b6 b9cc abb5 702d 0437 0fca c436

exp_avg_sq f4 [204, 60]
2.8525486e-07 4.3024127e-07 1.4428859e-07 4.18596e-08 4.5838295e-08 7.1745596e-09 9.706704e-09 4.4669006e-09
2.4648354e-09 1.6488219e-09 6.920354e-10 4.245247e-10 9.745212e-10 2.4587551e-10 8.777081e-11 2.6312388e-11
3.422757e-12 5.9848016e-12 1.6294216e-12 2.6029944e-12 1.1047913e-12 5.3858393e-13 1.0278178e-12 1.2966796e-13
2.833539e-13 1.5144805e-14 2.236076e-13 4.0089362e-15 3.2686254e-15 3.4328435e-15 1.2073629e-15 2.465188e-15
5.3103804e-16 1.3207221e-16 1.2948844e-17 2.6321223e-16 1.0007059e-16 1.3361601e-18 4.5217868e-17 1.2224012e-16
4.0417753e-18 7.1859175e-21 7.017496e-20 1.7964794e-21 0.0 0.0 0.0 0.0
0.0 0.0 0.0 0.0 0.0 0.0 0.0 0.0
0.0 0.0 0.0 0.0 7.3698466e-06 8.764628e-06 8.3076175e-06 6.639665e-06
4.3183613e-06 1.4015436e-05 8.347601e-06 7.395309e-06 1.0799955e-05 2.8018123e-06 5.687926e-07 5.798183e-07
2.0904461e-07 3.6858418e-07 1.5202937e-07 1.227682e-07 1.0570264e-07 2.6710575e-08 4.5895803e-09 7.757777e-10
4.423043e-09 2.8669597e-10 1.0060007e-09 3.319763e-11 3.10236e-11 2.288099e-11 1.792269e-11 1.31091926e-11
1.2579186e-11 1.3745163e-11 1.5063928e-11 7.1093446e-13 6.9372385e-12 1.8048556e-13 2.699632e-16 1.62109e-16
5.285034e-16 1.4449193e-17 2.9315752e-16 2.714873e-16 8.974787e-18 3.5855866e-27 3.501558e-26 8.963966e-28
0.0 0.0 0.0 0.0 0.0 0.0 0.0 0.0
0.0 0.0 0.0 0.0 0.0 0.0 0.0 0.0
9.320223e-08 4.0831895e-07 1.7236736e-07 5.0005102e-08 7.7612825e-08 3.6165243e-08 7.544926e-08 2.6748623e-08
4.93664e-08 2.2589079e-08 9.487454e-09 1.0359595e-08 4.242005e-09 6.9267823e-09 3.4173093e-09 2.8546312e-09
4.6472373e-09 3.7943232e-11 3.8821047e-11 9.536919e-12 1.7157682e-11 7.446004e-12 4.843322e-12 3.4574676e-13
2.4122885e-12 1.429915e-13 5.6475083e-13 3.9993817e-13 2.818812e-13 6.502359e-13 2.0548522e-13 1.6639141e-13
4.623934e-14 1.7803082e-13 2.0414832e-14 1.10029365e-17 2.156602e-14 1.3924617e-15 1.910356e-14 5.475288e-19
1.8100083e-20 0.0 0.0 0.0 0.0 0.0 0.0 0.0
0.0 0.0 0.0 0.0 0.0 0.0 0.0 0.0
0.0 0.0 0.0 0.0 3.5394933e-06 7.661465e-06 3.9407328e-06 2.1452895e-06
2.5930249e-06 1.447342e-06 1.7140501e-06 1.3949987e-06 9.006541e-07 6.8693873e-07 8.608312e-08 1.0906868e-07
1.1917217e-07 7.4410906e-08 3.0188872e-08 2.9534236e-08 1.951838e-08 3.2296206e-09 2.7705624e-09 8.58841e-10
1.1477651e-09 1.936979e-09 6.705768e-10 7.3394446e-10 1.0234471e-09 2.9282216e-10 2.0574686e-10 4.781758e-10
7.4544565e-10 1.3797375e-11 9.338778e-12 6.8290995e-13 5.624976e-12 4.164912e-13 6.58575e-14 4.1809573e-13
3.489661e-13 1.3931492e-13 5.2526553e-14 4.251574e-13 1.5277967e-14 1.1371302e-14 1.1104806e-13 2.8428255e-15
0.0 0.0 0.0 0.0 0.0 0.0 0.0 0.0
0.0 0.0 0.0 0.0 0.0 0.0 0.0 0.0
2.424752e-07 2.1838306e-07 1.7675673e-07 1.2329373e-07 1.2310502e-07 1.1834744e-07 8.715717e-08 5.0757002e-08
2.8585458e-08 1.6885908e-08 3.932305e-09 2.3797628e-09 7.279322e-10 2.3809713e-10 3.4379594e-10 3.4737713e-10
00000000: 2125 9934 e9fb e634 bfed 1a34 1ec9 3333
00000010: bddf 4433 1884 f631 89c2 2632 467b 9931
00000020: d861 2931 c39c e230 a939 3e30 8a62 e92f
00000030: ebef 8530 e72b 872f 9302 c12e 3b72 e72d
00000040: e9da 702c 4d92 d22c 1a52 e52b 612b 372c
00000050: 4d7c 9b2b 1099 172b 0aa7 902b 3ffe 112a
00000060: 9a83 9f2a 8b69 8828 81c2 7b2a e96f 9027
00000070: 7f87 6b27 c95c 7727 d4ff ad26 b1a2 3127
00000080: b10f 1926 d644 1825 30dd 6e23 45bb 9725
00000090: 40bf e624 b42e c521 d687 5024 eaee 0c25
000000a0: 7d1d 9522 f7bc 071e 29b2 a51f f7bc 071d
000000b0: 0000 0000 0000 0000 0000 0000 0000 0000
000000c0: 0000 0000 0000 0000 0000 0000 0000 0000
000000d0: 0000 0000 0000 0000 0000 0000 0000 0000
000000e0: 0000 0000 0000 0000 0000 0000 0000 0000
000000f0: 804a f736 ca0b 1337 f260 0b37 4aca de36
00000100: 71e6 9036 d723 6b37 ac0c 0c37 3825 f836
00000110: 7431 3537 c506 3c36 21af 1835 cfa4 1b35
00000120: bf75 6034 d3e1 c534 843d 2334 44d2 0334
00000130: a4fe e233 2d71 e532 60b2 9d31 813e 5530
00000140: 7ff9 9731 df9c 9d2f 8143 8a30 3501 122e
00000150: 7871 082e 6943 c92d 4fa6 9d2d 8e9e 662d
00000160: 9e4b 5d2d b6ce 712d f380 842d 3a1c 482b
00000170: 1715 f42c 6c35 4b2a 899f 9b25 22e6 3a25
00000180: ab54 1826 3145 8523 6afe a825 7480 9c25
00000190: 3c8e 2523 2b0a 8e13 8563 2d15 2b0a 8e12
000001a0: 0000 0000 0000 0000 0000 0000 0000 0000
000001b0: 0000 0000 0000 0000 0000 0000 0000 0000
000001c0: 0000 0000 0000 0000 0000 0000 0000 0000
000001d0: 0000 0000 0000 0000 0000 0000 0000 0000
000001e0: 7826 c833 ee36 db34 fb13 3934 31c5 5633
000001f0: 1aac a633 1b54 1b33 ab06 a233 d8c4 e532
00000200: ee06 5433 e909 c232 44fe 2232 fbf9 3132
00000210: 12c1 9131 9f00 ee31 f1d5 6a31 342b 4431
00000220: 88ad 9f31 48e0 262e 9dbc 2a2e 77c6 272d
00000230: aaeb 962d d2fd 022d c468 aa2c 5ca3 c22a
00000240: edbf 292c 7efe 202a 96f6 1e2b 2a25 e12a
00000250: 5daf 9e2a 6f06 372b 155b 672a 0f57 3b2a
00000260: 543e 5029 e471 482a 66e1 b728 e6f7 4a23
00000270: db3f c228 c5ac c826 cf11 ac28 1b9a 2121
00000280: 51f3 aa1e 0000 0000 0000 0000 0000 0000
00000290: 0000 0000 0000 0000 0000 0000 0000 0000
000002a0: 0000 0000 0000 0000 0000 0000 0000 0000
000002b0: 0000 0000 0000 0000 0000 0000 0000 0000
000002c0: 0000 0000 0000 0000 0000 0000 0000 0000
000002d0: 0888 6d36 be89 0037 a33a 8436 cbf7 0f36
000002e0: d403 2e36 4b42 c235 500e e635 ca3b bb35
000002f0: 7ac4 7135 1266 3835 b2dc b833 2439 ea33
00000300: 98eb ff33 d4cb 9f33 04a9 0133 79b2 fd32
00000310: 5fa9 a732 16f0 5d31 4064 3e31 9013 6c30
00000320: 65bf 9d30 b21b 0531 a653 3830 c0be 4930
00000330: 58a9 8c30 0efb a02f 9838 622f a170 0330
00000340: 13e8 4c30 dab9 722d 1e4a 242d d938 402b
00000350: 48e9 c52c b576 ea2a 444c 9429 f25d eb2a
00000360: 5173 c42a cbda 1c2a fe8e 6c29 a357 ef2a
00000370: 989c 8928 e0d8 4c28 d90e fa29 e0d8 4c27
00000380: 0000 0000 0000 0000 0000 0000 0000 0000
00000390: 0000 0000 0000 0000 0000 0000 0000 0000
000003a0: 0000 0000 0000 0000 0000 0000 0000 0000
000003b0: 0000 0000 0000 0000 0000 0000 0000 0000
000003c0: 8a2d 8234 ae7c 6a34 85ca 3d34 b962 0434
000003d0: da2e 0434 3126 fe33 292b bb33 eaff 5933
000003e0: 168c f532 810c 9132 ec1c 8731 3b89 2331
000003f0: ad17 4830 31e5 822f fa00 bd2f fcf8 be2f

exp_avg f4 [204, 51]
4.5829314e-08 -7.605656e-08 -8.8038384e-08 1.3945356e-11 2.5634371e-08 6.8555266e-08 -8.327629e-08 6.1135e-08
9.884188e-09 -1.4596246e-09 2.5767369e-08 1.8848832e-08 2.5472868e-08 -2.5097233e-08 8.567026e-08 2.8865712e-09
4.6774456e-08 2.2678092e-08 -1.2720522e-08 -4.5636906e-08 -8.396864e-09 -5.4943396e-09 1.0616426e-07 4.271881e-08
8.666416e-08 -2.8291701e-08 -1.0531403e-07 1.9287818e-08 -1.8572866e-08 -8.660968e-09 5.1268877e-08 -3.5855777e-08
-2.7688593e-08 -6.397888e-08 -6.566283e-08 9.169368e-08 3.1105557e-08 -7.7019095e-08 8.2525515e-09 -4.371046e-08
-1.1459216e-08 -2.892825e-08 6.091724e-09 -2.4350832e-08 9.2778414e-08 -1.8407496e-09 2.9145147e-08 3.1508964e-08
-1.2092482e-08 -5.2023687e-08 1.0166394e-07 -4.5019817e-05 3.8069244e-05 4.369978e-05 -7.681554e-06 6.9300427e-06
-4.37812e-05 1.0733968e-05 -6.588339e-06 1.510575e-05 -4.1717135e-06 -6.5785133e-07 -3.3531964e-05 -5.159383e-07
1.055246e-06 -4.0679308e-05 4.1117284e-05 6.583819e-06 1.2240918e-05 -4.357451e-05 4.374118e-05 -2.5553672e-06
-3.821759e-05 -4.6807472e-05 -2.693729e-05 -4.214829e-05 3.248286e-05 4.6919584e-05 2.8086852e-05 4.8603575e-05
4.9610193e-05 -3.6452682e-05 5.1597955e-05 1.3368509e-06 3.8249804e-05 3.254929e-05 -3.7438327e-05 1.8926545e-05
9.182398e-06 5.1241328e-05 5.0735904e-05 -2.8437285e-05 5.8771698e-06 1.1024124e-05 -3.9224284e-05 -4.9331902e-05
-1.35023665e-05 1.1350195e-05 -9.630761e-07 4.491569e-05 5.3313877e-05 -5.0588067e-05 -1.2806856e-06 -4.4521116e-07
-8.713294e-07 3.0822054e-07 -1.2890916e-07 9.717011e-07 -2.7088282e-07 -1.3283425e-06 8.050013e-07 -2.431624e-07
-2.0611593e-07 2.2429945e-06 -6.6633356e-07 8.950996e-08 -1.7350624e-07 -7.871236e-07 -4.2098938e-07 5.4800813e-07
4.8080136e-07 4.2123756e-07 2.8347606e-07 1.4886392e-06 2.0441729e-07 7.522843e-07 5.07561e-07 8.610223e-07
-4.471725e-07 -2.3445757e-07 -4.1441828e-09 -1.124773e-06 -5.6087397e-09 -7.964546e-07 6.951613e-08 5.882011e-07
1.7895637e-07 9.37156e-07 -4.715074e-07 1.0712745e-06 -1.6105515e-07 -7.5770276e-07 -1.8530382e-06 -4.966181e-07
-6.406773e-07 1.3775183e-06 1.8298307e-07 1.4126784e-06 9.913353e-08 1.403506e-06 2.216845e-07 -1.3537474e-06
2.5633574e-07 -3.244488e-05 2.3320767e-05 4.3395423e-05 -1.4837983e-05 5.726728e-06 -4.293293e-05 2.320815e-05
9.82556e-06 4.062397e-05 1.5620099e-05 1.6035988e-06 -3.6372254e-05 2.9812954e-06 -5.189541e-07 -4.243606e-05
3.005848e-05 3.0921708e-06 3.151798e-05 -2.2709015e-05 3.254989e-05 -7.4202935e-06 -2.3677223e-05 -4.170643e-05
-1.20922605e-05 -3.8527854e-05 1.8181123e-05 4.7047964e-05 -2.9487608e-06 2.4975172e-05 4.6458274e-05 -2.1643416e-05
4.601021e-05 -7.13223e-07 2.6699488e-05 3.134713e-05 -3.7552203e-05 3.510658e-05 1.5749674e-05 3.60506e-05
4.613705e-05 -1.05682475e-05 1.779042e-05 2.6561145e-05 -2.5914973e-05 -4.1930507e-05 -3.0356307e-05 -1.7864551e-05
-1.8226292e-05 3.0232726e-05 4.1847787e-05 -4.536654e-05 -5.0034314e-06 9.53338e-06 6.3764583e-06 6.074051e-07
-6.5832216e-07 -5.255389e-06 3.8029473e-06 1.3287184e-06 -4.7911936e-07 1.8974392e-06 -4.0488032e-07 -3.219089e-07
3.1826228e-06 2.9473703e-08 -6.234841e-06 3.6869203e-06 -2.385684e-07 1.5319265e-06 -4.78066e-06 4.1132616e-06
-4.950107e-06 -4.215259e-06 -5.015083e-06 -4.4715266e-06 -6.2860613e-06 5.2609926e-06 6.7117817e-06 1.1453815e-06
6.7263923e-06 6.2596155e-06 -4.903369e-06 6.990146e-06 -9.4277516e-07 3.9581255e-06 6.1230116e-06 -5.080635e-06
5.0438575e-06 5.11139e-06 5.3125386e-06 6.978214e-06 -5.845633e-06 3.7972916e-06 1.6456066e-06 -3.7711837e-07
-6.3710836e-06 -1.0321155e-06 -3.0550589e-06 -3.64729e-06 3.5443077e-06 1.1934808e-06 -6.336098e-06 1.0922613e-05
00000000: ddd5 4433 8954 a3b3 9d0f bdb3 4d54 752d
00000010: 9432 dc32 a838 9333 a0d5 b2b3 5249 8333
00000020: 1ecf 2932 fa9b c8b0 0b57 dd32 05e9 a132
00000030: 6ecf da32 6695 d7b2 b9f9 b733 195d 4631
00000040: 0fe5 4833 a7cd c232 7389 5ab2 4f02 44b3
00000050: cc41 10b2 b9c8 bcb1 6bfc e333 d479 3733
00000060: 201c ba33 1c06 f3b2 0029 e2b3 5cae a532
00000070: 2a8a 9fb2 57cb 14b2 ba32 5c33 d8ff 19b3
00000080: dcd7 edb2 c364 89b3 8602 8db3 22e9 c433
00000090: ec98 0533 b265 a5b3 1bc7 0d32 29bc 3bb3
000000a0: 2ade 44b2 e57d f8b2 5f4f d131 0c2c d1b2
000000b0: 793d c733 9efd fcb0 db5a fa32 7954 0733
000000c0: 4cbf 4fb2 a670 5fb3 5852 da33 a9d3 3cb8
000000d0: 8aac 1f38 484a 3738 06e0 00b7 9d88 e836
000000e0: b5a1 37b8 0b16 3437 6711 ddb6 b46e 7d37
000000f0: bffa 8bb6 3397 30b5 aca4 0cb8 037f 0ab5
00000100: faa1 8d35 139f 2ab8 5975 2c38 93ea dc36
00000110: 585e 4d37 c6c3 36b8 bc76 3738 e07c 2bb6
00000120: d34b 20b8 2453 44b8 64f7 e1b7 62c8 30b8
00000130: 353e 0838 85cb 4438 0e9c eb37 b1db 4b38
00000140: 8a14 5038 c5e4 18b8 e26a 5838 d96d b335
00000150: 6a6e 2038 8985 0838 1907 1db8 72c4 9e37
00000160: 190e 1a37 f5eb 5638 43cd 5438 9b8c eeb7
00000170: 8134 c536 41f4 3837 c184 24b8 bae9 4eb8
00000180: 3988 62b7 b76c 3e37 0b43 81b5 db63 3c38
00000190: 579d 5f38 862e 54b8 06e4 abb5 5b05 efb4
000001a0: 4de5 69b5 8279 a534 486a 0ab4 656b 8235
000001b0: da6d 91b4 8049 b2b5 4517 5835 fc8b 82b4
000001c0: b750 5db4 5a86 1636 18de 32b5 9f38 c033
000001d0: 084d 3ab4 b94a 53b5 5704 e2b4 d51a 1335
000001e0: 6b10 0135 7326 e234 a730 9834 41cd c735
000001f0: cc7d 5b34 95f0 4935 543f 0835 0021 6735
00000200: ec12 f0b4 35bf 7bb4 9e64 8eb1 e8f6 96b5
00000210: ffb6 c0b1 f1cb 55b5 e648 9533 dfe4 1d35
00000220: 2727 4034 df90 7b35 7c23 fdb4 b6c8 8f35
00000230: 81ee 2cb4 f064 4bb5 e8b5 f8b5 564f 05b5
00000240: 02fb 2bb5 2be3 b835 017a 4434 439b bd35
00000250: 3ce3 d433 1960 bc35 2c08 6e34 68b2 b5b5
00000260: 849e 8934 6d15 08b8 f7a0 c337 7b03 3638
00000270: a7f0 78b7 3828 c036 e212 34b8 1faf c237
00000280: 75d8 2437 a863 2a38 e807 8337 3c3b d735
00000290: 698e 18b8 4412 4836 414e 0bb5 5ffd 31b8
000002a0: 1826 fc37 1783 4f36 2c32 0438 3d7f beb7
000002b0: 2e86 0838 d6fb f8b6 739e c6b7 f0ed 2eb8
000002c0: dddf 4ab7 f898 21b8 aa83 9837 5e55 4538
000002d0: 53e3 45b6 c681 d137 31dc 4238 e28e b5b7
000002e0: 16fb 4038 5074 3fb5 b7f8 df37 b97a 0338
000002f0: 5f81 1db8 673f 1338 2b1e 8437 0935 1738
00000300: 4883 4138 474e 31b7 a33c 9537 a0cf de37
00000310: fb63 d9b7 8ade 2fb8 aca5 feb7 d5db 95b7
00000320: aae4 98b7 499c fd37 b885 2f38 f447 3eb8
00000330: 26e3 a7b6 8ef1 1f37 5cf5 d536 900c 2335
00000340: 8eb7 30b5 7357 b0b6 2336 7f36 6b56 b235
00000350: d59c 00b5 84ab fe35 545e d9b4 d3d2 acb4
00000360: 0b95 5536 5c2d fd32 e034 d1b6 cf6c 7736
00000370: 9714 80b4 989c cd35 8f69 a0b6 a604 8a36
00000380: 1819 a6b6 cd70 8db6 3c47 a8b6 1f0a 96b6
00000390: dbec d2b6 9587 b036 c435 e136 02bb 9935
000003a0: 45b3 e136 b009 d236 9e87 a4b6 e68c ea36
000003b0: 0413 7db5 0ad0 8436 4574 cd36 537a aab6
000003c0: 683e a936 8182 ab36 5c42 b236 6726 ea36
000003d0: 9b25 c4b6 f9d4 7e36 9dde dc35 c176 cab4
000003e0: 31c7 d5b6 3887 8ab5 8305 4db6 f7c3 74b6
000003f0: beda 6d36 b02f a035 ab9a d4b6 4440 3737
