tmp/aa_models/7.pt (torch_old, 283510 bytes, 18 tensors)

rnn.weight_ih_l0 f4 [204, 60]
0.1582359 0.17276737 0.19693536 -0.0982415 0.078656554 0.020132547 0.18533058 -0.07634228
-0.071263425 0.026099779 -0.0113981515 0.13641442 -0.03376296 0.09837539 0.0155189745 0.07923451
0.074516095 -0.009229514 -0.023854371 -0.072286315 0.13358639 -0.12277665 -0.04217083 -0.06740301
0.107646726 -0.06357218 0.044118248 0.032618985 -0.091980025 0.12847629 0.04634637 -0.008023829
-0.08462236 0.04359628 0.006124789 0.12516767 -0.044757903 0.045959592 -0.014665158 0.030580387
0.13979678 -0.05084213 -0.099018805 -0.032281414 0.09131792 0.12819104 -0.0018478632 0.12286095
-0.022766076 0.10375978 0.043582693 0.11080964 -0.107845105 -0.060503446 0.030793697 0.074917555
-0.109112546 0.045550644 -0.072275594 -0.00354518 0.13735157 0.08935869 0.20179808 0.14310147
0.081074774 0.11321944 -0.01955236 -0.01707129 0.028283074 -0.048359964 -0.0155175645 0.062339578
0.12911847 0.12271698 0.054283522 0.13670254 0.11778267 0.12523438 0.067379214 -0.01984124
0.030472063 0.051985048 -0.031098992 -0.11658034 0.12207931 0.02771826 -0.08219438 -0.10058318
0.010236494 0.021195853 0.027659852 0.12300058 0.01226221 -0.029756187 -0.043294117 -0.11128538
-0.009212486 -0.11624996 -0.09712239 0.10898552 0.0034563302 0.13434683 0.110471174 0.12724967
-0.07761982 -0.038180254 0.0057502687 0.0835087 -0.013604835 -0.06411505 0.13782977 -0.10643712
-0.06913597 -0.04655093 0.0022609383 -0.007232845 -0.04889144 0.053379893 -0.10507648 0.047841668
0.04751767 0.19300058 0.061669946 0.16624305 0.048874855 0.053954095 -0.052971818 0.022638462
0.04629965 0.03924987 0.14333916 0.08711736 0.029046148 0.09328466 0.09242547 0.054565806
0.032325678 -0.05889532 0.13825431 -0.094201475 -0.04908058 0.052804142 0.042735357 0.06802681
-0.043013997 -0.09559881 0.0016159614 0.063710175 0.118897654 -0.115671046 0.12009399 0.08636461
-0.04132437 0.025855199 -0.026580967 -0.023049966 0.025215501 0.004973265 0.07188265 -0.13488382
0.053977832 -0.12344571 0.022757635 -0.014466509 0.09350553 0.028982028 -0.011788294 -0.11795053
-0.016093843 0.038682744 -0.053380743 -0.0488324 0.013188601 -0.089639194 -0.068418294 -0.048462637
0.10154076 -0.10707541 -0.12340285 -0.031422563 0.13162369 0.07090322 0.017036477 0.006371487
0.005515466 0.06846792 0.1845357 -0.100518465 -0.13844685 -0.0039426642 0.094250746 0.20208666
0.13286224 0.036603015 0.10008973 0.10002802 0.13769375 0.1109491 -0.045928776 0.12927549
-0.07321918 0.02148246 -0.035826124 -0.09783696 -0.017359113 0.038414333 -0.10115008 0.069445364
0.0072915377 -0.10232336 0.12323292 0.037502777 -0.066487305 0.13095987 -0.10466115 0.12846126
-0.104554996 -0.12998542 -0.008426592 -0.092770174 0.055457048 0.088956356 0.027757395 -0.076960884
-0.12505461 -0.07293894 0.04839989 0.008595977 -0.10391623 0.025491953 0.081483126 0.052707493
0.008508623 -0.029957317 -0.039146565 -0.13168319 -0.015933372 -0.0706912 -0.12149607 0.08050236
-0.002679958 0.094564036 0.012663589 0.13369553 -0.01694718 -0.07449887 -0.053993072 -0.06430006
0.06285864 0.085887186 -0.007899482 -0.025616981 0.076898806 0.09224946 0.077977575 0.030651512
00000000: 9708 223e eee9 303e 6ca9 493e d732 c9bd
00000010: b016 a13d 03ed a43c 4dc7 3d3e 5759 9cbd
00000020: 8ff2 91bd 34cf d53c 50bf 3abc 39b0 0b3e
00000030: 084b 0abd 0979 c93d 4c43 7e3c b445 a23d
00000040: e59b 983d 6337 17bc 3e6a c3bc d90a 94bd
00000050: dfca 083e 5372 fbbd 52bb 2cbd 970a 8abd
00000060: e375 dc3d 2232 82bd 56b5 343d 7c9b 053d
00000070: 0660 bcbd 4a8f 033e b1d5 3d3d 6176 03bc
00000080: 7d4e adbd 0392 323d 74b2 c83b f42b 003e
00000090: 1054 37bd 2040 3c3d 2246 70bc b883 fa3c
000000a0: e326 0f3e d63f 50bd 5fca cabd 8439 04bd
000000b0: e404 bb3d 8344 033e 0034 f2ba 869e fb3d
000000c0: ec7f babc 0280 d43d c483 323d 2af0 e23d
000000d0: e5dd dcbd 76d2 77bd 1043 fc3c 606e 993d
000000e0: 6676 dfbd 5093 3a3d 3a05 94bd 4056 68bb
000000f0: e4a5 0c3e b001 b73d 28a4 4e3e 3189 123e
00000100: 880a a63d 98df e73d 452c a0bc 17d9 8bbc
00000110: e8b1 e73c 1915 46bd 623d 7ebc c957 7f3d
00000120: a237 043e 0a53 fb3d 6658 5e3d c0fb 0b3e
00000130: 0a38 f13d 713d 003e 1dfe 893d 198a a2bc
00000140: 8ca0 f93c 46ee 543d 50c3 febc acc1 eebd
00000150: b804 fa3d 6811 e33c 8755 a8bd 8efe cdbd
00000160: f8b6 273c eda2 ad3c ea96 e23c bae7 fb3d
00000170: 70e7 483c 3fc3 f3bc 2c55 31bd 97e9 e3bd
00000180: f8ef 16bc 7614 eebd 1be8 c6bd cd33 df3d
00000190: 9983 623b 3792 093e b63e e23d bd4d 023e
000001a0: 24f7 9ebd e662 1cbd c06c bc3b 9c06 ab3d
000001b0: d0e6 5ebc c04e 83bd 3f23 0d3e b4fb d9bd
000001c0: 2997 8dbd 30ac 3ebd 402c 143b 8001 edbb
000001d0: 6442 48bd e0a4 5a3d 5632 d7bd a0f5 433d
000001e0: e3a1 423d f2a1 453e a099 7c3d 9e3b 2a3e
000001f0: 0031 483d f8fe 5c3d faf8 58bd 4c74 b93c
00000200: b4a4 3d3d 79c4 203d 80c7 123e 966a b23d
00000210: 30f2 ed3c 070c bf3d 9149 bd3d 6580 5f3d
00000220: ee67 043d 383c 71bd 8a92 0d3e b4ec c0bd
00000230: b808 49bd 2849 583d 450b 2f3d a451 8b3d
00000240: 722f 30bd 4fc9 c3bd abce d33a 7b7a 823d
00000250: 9d80 f33d f1e4 ecbd d6f3 f53d eedf b03d
00000260: be43 29bd 48ce d33c 54c0 d9bc 48d3 bcbc
00000270: bd90 ce3c c5f6 a23b 3637 933d fc1e 0abe
00000280: dc17 5d3d 1bd1 fcbd 386e ba3c f004 6dbc
00000290: d47f bf3d b86b ed3c b023 41bc 0c90 f1bd
000002a0: 3cd7 83bc cc71 1e3d c4a5 5abd 7c04 48bd
000002b0: 0015 583c c194 b7bd e41e 8cbd c280 46bd
000002c0: 9af4 cf3d 5a4a dbbd a2ba fcbd f2b4 00bd
000002d0: 5cc8 063e b535 913d 1590 8b3c e8c7 d03b
000002e0: 15bb b43b e938 8c3d edf6 3c3e a0dc cdbd
000002f0: 03c5 0dbe 7731 81bb 8906 c13d ceef 4e3e
00000300: 0a0d 083e 0bed 153d d8fb cc3d 7edb cc3d
00000310: 97ff 0c3e 4839 e33d d01f 3cbd cb60 043e
00000320: f0f3 95bd fcfb af3c 6abe 12bd be5e c8bd
00000330: b334 8ebc 5958 1d3d c627 cfbd 5f39 8e3d
00000340: daed ee3b e98e d1bd 8b61 fc3d 839c 193d
00000350: 7f2a 88bd 581a 063e 9658 d6bd 598b 033e
00000360: ee20 d6bd e61a 05be b00f 0abc 4afe bdbd
00000370: ee26 633d c02e b63d 7a63 e33c ab9d 9dbd
00000380: 510e 00be 0361 95bd f73e 463d 24d6 0c3c
00000390: 08d2 d4bd 80d4 d03c a0e0 a63d d0e3 573d
000003a0: c067 0b3c 0c69 f5bc 2658 20bd f5d7 06be
000003b0: b486 82bc 8cc6 90bd eed2 f8bd 6cde a43d
000003c0: 3ca2 2fbb caaa c13d f17a 4f3c 7be7 083e
000003d0: d0d4 8abc dd92 98bd d727 5dbd c0af 83bd
000003e0: 08bc 803d 9fe5 af3d d46c 01bc b4da d1bc
000003f0: 1f7d 9d3d 49ed bc3d b5b2 9f3d e118 fb3c

rnn.weight_hh_l0 f4 [204, 51]
0.008194852 -0.031891763 -0.08945423 0.14037152 -0.050789654 -0.05278813 -0.12922777 0.022415064
0.12467437 -0.1104594 0.21386309 -0.15790091 0.14056797 -0.030901125 -0.080346376 0.025500296
-0.18522812 0.0632454 -0.0739925 0.16655728 0.055332683 -0.114340946 -0.10044661 -0.049453925
0.0140224425 -0.02552397 0.016238932 0.045085028 -0.074675344 0.061087478 0.026327018 0.06658803
0.015085389 -0.07391318 -0.088037245 0.07245259 -0.037751745 0.013446222 0.10006469 0.0231521
-0.015430087 -0.14371862 -0.06440454 0.09123076 -0.020976067 -0.030879373 0.034405753 0.094482556
0.071287856 0.0066858935 0.12620838 -0.16764556 -0.074502245 -0.13335226 0.01991769 0.013647811
0.08003342 -0.09581424 -0.13444775 0.028321011 0.11484437 0.21640977 -0.106207 -0.040313352
-0.013102852 0.0068014744 -0.101801135 -0.19190118 0.13128023 -0.15645227 0.23061652 0.054724928
-0.1845442 0.030990822 0.15284602 0.055675503 -0.031003943 -0.18351991 -0.14182025 0.09100204
-0.051500082 -0.08788859 -0.095422655 -0.1532887 -0.18122987 0.13219634 -0.07695741 -0.075084046
0.079807274 -0.09940757 0.004376453 0.22743355 0.09303593 -0.11573827 0.017512245 0.031069363
0.1378417 0.04227356 -0.040526297 0.09841066 -0.09135764 0.008964163 0.0035536243 0.07746235
-0.021053605 -0.053303674 -0.034799483 -0.012690625 0.078981385 -0.018476287 0.044777863 -0.07469953
-0.008024452 -0.055277865 0.06251843 -0.06232079 -0.0791449 0.0042851223 -0.14944483 -0.114361085
-0.05250761 0.19652922 -0.051379986 -0.013469655 0.033614308 -0.01897218 0.013839657 -0.14211929
-0.006911898 -0.076122195 0.13785097 -0.006124214 0.061580338 -0.057368185 -0.16055444 -0.1710576
-0.03916361 -0.050073408 0.08568817 0.042812143 -0.11897072 -0.0009257415 0.13972771 -0.004795819
0.020858422 0.036627937 -0.12323568 0.07620923 -0.00800756 -0.11045745 -0.014957083 -0.17577158
0.08027825 0.0083638625 -0.07332738 0.0032822378 0.092119925 0.07488188 0.041310914 0.058917057
0.031990476 -0.059279587 0.02835799 0.19215544 -0.0470046 0.14857218 0.012928356 0.05788745
0.025037006 -0.06454791 -0.007927203 -0.1248035 -0.042662285 0.07045535 0.049691617 0.044809695
0.18194267 -0.07923814 0.017038183 -0.15812543 -0.099274285 0.04930118 -0.008818409 0.0772712
-0.046129987 -0.13573974 0.034582093 0.0019039381 -0.12943079 0.12786113 0.18599021 -0.040316433
-0.030896453 -0.018589972 -0.0036638104 0.034006294 -0.039187383 0.109001376 -0.04350752 0.1342216
-0.1423954 -0.09380304 0.008964896 0.050116185 -0.045294154 0.006597305 -0.2177015 0.10547367
-0.08358462 -0.18787931 -0.15965484 0.0029879618 -0.044567086 0.07538342 0.21681154 -0.09466702
-0.005972197 -0.092840865 -0.12652633 -0.07871028 -0.2841641 -0.12881885 -0.0606455 0.27807233
0.2014529 -0.1266351 0.0056313756 0.19467802 -0.0067951046 0.08397741 -0.031763177 -0.08103136
-0.040957533 0.037091132 -0.11664326 -0.07524604 -0.09769028 -0.055654168 -0.09300989 0.086705714
0.19268793 0.123718396 -0.05625975 0.1903862 0.2771539 0.070469 0.058149915 0.0064246827
-0.07148367 0.07779884 0.016078368 -0.067407794 0.19030017 -0.021554977 0.068316445 -0.09900936
00000000: b343 063c f0a0 02bd c833 b7bd 8dbd 0f3e
00000010: d008 50bd 5e38 58bd 4954 04be cc9f b73c
00000020: 4755 ff3d 8a38 e2bd edfe 5a3e c7b0 21be
00000030: 0df1 0f3e 5b24 fdbc a48c a4bd ffe5 d03c
00000040: 71ac 3dbe ce86 813d 6189 97bd fe8d 2a3e
00000050: 86a4 623d 962b eabd f4b6 cdbd 3390 4abd
00000060: 63be 653c a517 d1bc 8207 853c 14ab 383d
00000070: 63ef 98bd dd36 7a3d c2ab d73c 4e5f 883d
00000080: b528 773c cb5f 97bd df4c b4bd 0662 943d
00000090: 93a1 1abd 8b4d 5c3c b7ee cc3d 79a9 bd3c
000000a0: 7ace 7cbc f92a 13be 87e6 83bd 31d7 ba3d
000000b0: 00d6 abbc bdf6 fcbc 0ced 0c3d 1280 c13d
000000c0: 5eff 913d 5715 db3b c53c 013e 47ab 2bbe
000000d0: a294 98bd 7f8d 08be 6c2a a33c 119b 5f3c
000000e0: 90e8 a33d 423a c4bd acac 09be 7701 e83c
000000f0: 8633 eb3d 869a 5d3e 0e83 d9bd 9d1f 25bd
00000100: 58ad 56bc e7de de3b 1d7d d0bd be81 44be
00000110: 536e 063e 0635 20be bd26 6c3e 3f27 603d
00000120: 28f9 3cbe 77e0 fd3c ab83 1c3e ff0b 643d
00000130: fbfb fdbc a5ec 3bbe 5439 11be 475f ba3d
00000140: c0f1 52bd effe b3bd f46c c3bd b7f7 1cbe
00000150: 5394 39be 7a5e 073e d99b 9dbd aac5 99bd
00000160: ff71 a33d 3296 cbbd 5968 8f3b 57e4 683e
00000170: 9f89 be3d 3008 edbd d775 8f3c 2d85 fe3c
00000180: 6026 0d3e 0a27 2d3d e7fe 25bd 878b c93d
00000190: b719 bbbd 6dde 123c ece3 683b 95a4 9e3d
000001a0: 9c78 acbc f454 5abd e789 0ebd 57ec 4fbc
000001b0: fec0 a13d 955b 97bc fe68 373d 11fc 98bd
000001c0: fe78 03bc 0b6b 62bd aa09 803d 1644 7fbd
000001d0: b916 a2bd 366a 8c3b 1108 19be 2536 eabd
000001e0: 3812 57bd f53e 493e d273 52bd d4af 5cbc
000001f0: 28af 093d 8c6b 9bbc bbbf 623c b887 11be
00000200: 347d e2bb f4e5 9bbd ce28 0d3e a1ad c8bb
00000210: aa3b 7c3d e7fa 6abd 6268 24be b929 2fbe
00000220: 066a 20bd c619 4dbd 477d af3d c95b 2f3d
00000230: eca6 f3bd 76ad 72ba c814 0f3e 3f26 9dbb
00000240: 48df aa3c 2d07 163d fd62 fcbd 9613 9c3d
00000250: 2432 03bc 8437 e2bd 8e0e 75bc 77fd 33be
00000260: ec68 a43d 9508 093c aa2c 96bd d01a 573b
00000270: 5fa9 bc3d ac5b 993d a235 293d 0353 713d
00000280: 7208 033d 27cf 72bd 044f e83c 65c4 443e
00000290: e587 40bd 4e23 183e 75d1 533c 641b 6d3d
000002a0: 681a cd3c b231 84bd 19e1 01bc fa98 ffbd
000002b0: a6be 2ebd e54a 903d 7089 4b3d 5f8a 373d
000002c0: 2e4f 3a3e 9b47 a2bd a993 8b3c a2eb 21be
000002d0: 5150 cbbd 09f0 493d 177b 10bc 5d40 9e3d
000002e0: ccf2 3cbd 5cff 0abe f4a5 0d3d 908d f93a
000002f0: 8189 04be 07ee 023e 3874 3e3e d822 25bd
00000300: 8f1a fdbc ff49 98bc 8a1c 70bb 2f4a 0b3d
00000310: f382 20bd 1d3c df3d f134 32bd 6371 093e
00000320: 1ad0 11be cf1b c0bd 80e1 123c a146 4d3d
00000330: 5d86 39bd 352e d83b 24ed 5ebe 9402 d83d
00000340: 6a2e abbd 6f63 40be 8f7c 23be aed1 433b
00000350: fa8b 36bd 9f62 9a3d d803 5e3e c8e0 c1bd
00000360: 6bb2 c3bb 5a23 bebd 1e90 01be db32 a1bd
00000370: f57d 91be 17e9 03be 6a67 78bd 7f5f 8e3e
00000380: ab49 4e3e a2ac 01be 6787 b83b ad59 473e
00000390: 78a9 debb 59fc ab3d 1b1a 02bd c5f3 a5bd
000003a0: 16c3 27bd dfec 173d a9e2 eebd 991a 9abd
000003b0: d711 c8bd a0f5 63bd f87b bebd c492 b13d
000003c0: fc4f 453e 1260 fd3d a070 66bd 9af4 423e
000003d0: 1ee7 8d3e 0d52 903d 9b2e 6e3d 2586 d23b
000003e0: 0866 92bd 0055 9f3d c8b6 833c 190d 8abd
000003f0: 0cde 423e 1094 b0bc 7ee9 8b3d 6bc5 cabd

rnn.bias_ih_l0 f4 [204]
-0.0790511 0.028722448 0.18095423 0.06290605 0.1403611 -0.0104901185 0.15372114 0.0025168315
0.14922367 0.11870526 0.20494355 0.013595378 0.13759682 0.062948614 -0.0015200991 0.0008502084
0.052124232 0.19527638 0.14305615 0.09281283 0.11154094 0.1402466 0.1882574 -0.03846447
0.12811933 0.09463904 0.06896587 -0.0482488 -0.15007617 0.025393393 0.011675656 0.16370842
-0.04347063 0.14996432 0.20285071 0.01965121 0.063215524 0.069404006 0.025246171 0.07412486
-0.06365642 0.05735475 -0.042163074 0.05945515 0.21897925 0.03248306 0.11171515 0.07347551
-0.024429878 0.14746222 0.11330954 0.09368574 -0.04108842 0.109047845 0.09897609 -0.042316977
-0.21102974 -0.03993111 0.059075274 -0.094840385 -0.026403781 0.19558711 0.1276608 -0.08147295
0.00074048387 -0.10879067 -0.08079595 0.13506655 -0.098378114 -0.0046357727 0.061825443 0.008514425
-0.017346034 0.12138821 -0.00906749 0.16523188 0.050785486 -0.021760438 0.061813984 0.092200875
0.13710205 0.00947507 0.08291524 0.17180116 0.06419574 0.15443175 -0.0020167918 -0.0019119573
0.08921586 0.014010831 -0.0265557 -0.023162924 0.052429803 -0.039499473 0.08125585 0.070549555
-0.0131414365 -0.018260404 -0.06674054 -0.05307167 0.0010163562 0.18633577 0.056450475 -0.17667082
0.02258483 0.042591892 -0.077433445 -0.019490363 0.11170697 -0.059675686 0.14222236 0.02688706
0.14029947 -0.07332973 0.15623045 -0.08255143 -0.12948307 0.006749299 -0.059210964 0.0830835
-0.08265279 0.031038329 0.07300156 -0.09544008 -0.113512285 0.06385828 -0.09845923 -0.114612825
0.030224498 -0.09630234 -0.03132357 -0.06663959 0.0361513 0.022381453 -0.1517791 -0.07137232
0.14974675 0.06506203 -0.04595267 0.1416136 -0.034058996 -0.07210598 -0.018366462 -0.16721655
-0.115295015 0.10083514 0.03825354 0.08303935 0.075331695 -0.056461398 0.15241326 0.035896536
-0.07849698 0.038274318 -0.05543527 0.12249255 0.14757328 0.07361718 -0.029945783 0.07979955
-0.005082721 0.113413446 0.03658534 0.1005892 -0.03694475 0.0869321 0.18102485 -0.04377467
0.16600627 -0.023996413 0.2038801 -0.01880521 0.2563176 0.10831036 -0.00072503055 -0.029172804
0.14677209 0.09356828 0.09222642 -0.058472157 0.19028778 0.015243979 0.14516008 0.08787285
0.072362944 0.10369535 0.082018204 0.07238759 0.0601998 -0.048861045 0.09358083 0.20973054
0.10051156 0.06382875 0.03915803 0.20554544 0.12777872 0.16654219 0.12334244 -0.0151686
-0.035423093 0.11403362 -0.012559203 -0.06241891
00000000: 8be5 a1bd 574b eb3c 114c 393e e3d4 803d
00000010: d2ba 0f3e bfde 2bbc 1369 1d3e 6df1 243b
00000020: 17ce 183e be1b f33d b9dc 513e 26bf 5e3c
00000030: 2ee6 0c3e 34eb 803d 103e c7ba 85e0 5e3a
00000040: 3880 553d 88f6 473e 507d 123e a714 be3d
00000050: 946f e43d ce9c 0f3e 8cc6 403e ec8c 1dbd
00000060: b731 033e 1dd2 c13d fa3d 8d3d 89a0 45bd
00000070: 91ad 19be ce05 d03c 404b 3f3c 2ea3 273e
00000080: 420e 32bd 3f90 193e 19b8 4f3e 93fb a03c
00000090: 2477 813d b023 8e3d 0fd1 ce3c c6ce 973d
000000a0: 4c5e 82bd d0ec 6a3d 30b3 2cbd 3e87 733d
000000b0: 193c 603e f50c 053d eaca e43d 547a 963d
000000c0: 2b21 c8bc 5600 173e d50e e83d 4fde bf3d
000000d0: 554c 28bd 7a54 df3d fab3 ca3d 9154 2dbd
000000e0: 2e18 58be ce8e 23bd eaf8 713d ad3b c2bd
000000f0: be4c d8bc fd47 483e 83b9 023e 4adb a6bd
00000100: 081d 423a a5cd debd 5978 a5bd e34e 0a3e
00000110: 777a c9bd aee7 97bb ad3c 7d3d 1680 0b3c
00000120: 4519 8ebc 629a f83d cf8f 14bc 8c32 293e
00000130: 7104 503d f242 b2bc a930 7d3d d0d3 bc3d
00000140: 7b64 0c3e 533d 1b3c 77cf a93d a5ec 2f3e
00000150: 0e79 833d 5b23 1e3e 272c 04bb a49a faba
00000160: ceb6 b63d af8d 653c 578b d9bc 2cc0 bdbc
00000170: a2c0 563d 33ca 21bd 7869 a63d 497c 903d
00000180: 2e4f 57bc d896 95bc 44af 88bd ae61 59bd
00000190: 4137 853a cece 3e3e 9d38 673d 32e9 34be
000001a0: d203 b93c d674 2e3d 6d95 9ebd 41aa 9fbc
000001b0: a0c6 e43d 7e6e 74bd bda2 113e 4042 dc3c
000001c0: aaaa 0f3e e62d 96bd e0fa 1f3e b910 a9bd
000001d0: 3697 04be 3929 dd3b 3287 72bd af27 aa3d
000001e0: de45 a9bd 1844 fe3c d881 953d 1776 c3bd
000001f0: 2179 e8bd 21c8 823d fea4 c9bd 21ba eabd
00000200: 5e99 f73c 293a c5bd 254d 00bd 567a 88bd
00000210: 6313 143d 4f59 b73c fb6b 1bbe a72b 92bd
00000220: 3657 193e 3e3f 853d de38 3cbd 2803 113e
00000230: 7281 0bbd 4dac 93bd 4375 96bc d13a 2bbe
00000240: cb1f ecbd a782 ce3d beaf 1c3d 8910 aa3d
00000250: 8147 9a3d 1144 67bd 3912 1c3e 3f08 133d
00000260: 06c3 a0bd 88c5 1c3d 1810 63bd 60dd fa3d
00000270: 731d 173e 9bc4 963d dc50 f5bc f26d a33d
00000280: f48c a6bb 4f45 e83d 82da 153d b601 ce3d
00000290: 6153 17bd 7509 b23d 945e 393e 124d 33bd
000002a0: 8cfd 293e 2094 c4bc f2c5 503e 620d 9abc
000002b0: 0f3c 833e d2d1 dd3d fa0f 3eba cefb eebc
000002c0: 6c4b 163e baa0 bf3d 35e1 bc3d 8080 6fbd
000002d0: cdda 423e e2c1 793c d8a4 143e aef6 b33d
000002e0: 0633 943d 3a5e d43d 29f9 a73d f23f 943d
000002f0: 1194 763d 8522 48bd 4ea7 bf3d 9ac3 563e
00000300: 01d9 cd3d a6b8 823d 2c64 203d 817a 523e
00000310: 6dd8 023e 098a 2a3e f69a fc3d b885 78bc
00000320: ce17 11bd 758a e93d 1ec5 4dbc f9aa 7fbd

rnn.bias_hh_l0 f4 [204]
0.0021861563 0.102709614 0.1914254 -0.03879164 0.016816242 0.044700388 0.08464163 -0.017426716
0.060103327 -0.007668779 -0.0002135466 0.04766179 -0.048986726 -0.014405816 0.13003191 0.16801986
0.080397926 -0.06583374 0.03852035 -0.10780353 0.1900276 -0.081624456 0.18281782 0.013618894
0.069431804 0.050541546 0.06477164 0.18598978 -0.15512355 0.15457731 0.044447713 0.17126045
0.11588697 0.17548558 0.027657712 0.01702792 0.118478075 -0.04799898 0.00035241217 0.06351295
-0.06919436 0.1232589 0.18884528 0.10401163 -0.039938282 -0.029105317 -0.021657068 0.024261432
0.11479811 0.14378722 0.039693974 0.078182645 0.05085841 0.039466172 0.09838134 0.12383237
-0.18533742 -0.08338977 0.11251136 -0.06823153 -0.105397455 0.111014 0.10140445 0.014039261
-0.093786865 -0.09758409 -0.021863736 0.050026685 -0.06744645 0.10515712 -0.032210846 0.06499208
0.1480261 0.11601444 0.0965802 0.02362943 -0.048978105 -0.0028454992 0.14905491 -0.0824505
0.00792901 -0.016205117 -0.052412365 0.11919788 0.12772852 0.023394777 0.17472903 0.11737773
0.15272969 -0.050746616 -0.02655056 -0.04245344 0.105783045 0.04149557 -0.05320677 0.12056118
0.075397946 0.111032575 0.11792929 0.1515765 0.16378975 0.07877525 -0.089807354 0.050011788
-0.09272815 0.18292344 -0.09148868 0.047025595 0.02392522 0.029518194 -0.03981859 -0.03842456
0.026423901 -0.08388965 0.16781898 0.05782938 -0.10414848 0.14862472 -0.08640863 0.008021654
-0.11599724 -0.008040486 0.05251956 -0.050890215 -0.07710749 0.114197925 -0.08600765 -0.03084102
-0.11873655 -0.08590154 -0.0145353675 -0.13218765 -0.17620547 0.18481123 0.0031271165 -0.00062123855
-0.0061307326 -0.12635432 0.1593512 0.11002474 -0.08345168 0.024931677 -0.08549583 0.010025942
-0.008022102 0.04689238 0.091292664 0.10371003 0.12938759 -0.10440121 -0.013918764 -0.078665614
-0.08475877 0.17938635 -0.07429008 -0.004313927 0.15401852 0.1127639 0.119905144 0.14875752
0.064381845 -0.07872949 0.15640236 -0.0019384616 0.17711669 0.17275475 0.20048484 -0.03725383
0.018343927 0.14404187 0.19968405 0.1350639 0.11730464 0.1783715 0.033355586 0.13446373
0.07123066 0.1875525 -0.05154476 0.06160524 0.19727422 0.05411007 0.0347677 0.195087
-0.015240051 0.008252236 0.06973091 0.15025486 0.052296363 0.030456025 -0.04538322 0.0714866
0.12388327 0.030724019 0.10781205 0.15643461 -0.11630219 0.1692489 0.07215681 0.065952465
0.20610435 0.13400693 0.12667233 0.16279313
00000000: 9e45 0f3b 6b59 d23d 0505 443e fce3 1ebd
00000010: 37c2 893c c117 373d 9758 ad3d 79c2 8ebc
00000020: e82e 763d 624a fbbb 7beb 5fb9 0239 433d
00000030: 4ea6 48bd 5f06 6cbc 1627 053e 660d 2c3e
00000040: aba7 a43d d7d3 86bd 84c7 1d3d 19c8 dcbd
00000050: 9896 423e b92a a7bd 9834 3b3e c821 5f3c
00000060: 4332 8e3d a704 4f3d fea6 843d 1b74 3e3e
00000070: b5d8 1ebe 8449 1e3e ce0e 363d e65e 2f3e
00000080: 2656 ed3d 7eb2 333e 6d92 e23c 237e 8b3c
00000090: a2a4 f23d 949a 44bd f6c3 b839 1413 823d
000000a0: c6b5 8dbd 2a6f fc3d a860 413e 0d04 d53d
000000b0: 5396 23bd 466e eebc 2a6a b1bc e9bf c63c
000000c0: 461b eb3d f53c 133e 2696 223d 391e a03d
000000d0: e850 503d 48a7 213d 287c c93d d39b fd3d
000000e0: 18c9 3dbe 41c8 aabd 5b6c e63d f9bc 8bbd
000000f0: 9fda d7bd 4f5b e33d 23ad cf3d ee04 663c
00000100: 5413 c0bd 2bda c7bd 941b b3bc c8e8 4c3d
00000110: 5d21 8abd 9e5c d73d 85ef 03bd 911a 853d
00000120: 2794 173e fb98 ed3d d7cb c53d 8292 c13c
00000130: 449d 48bd 8e7b 3abb daa1 183e cfdb a8bd
00000140: aee8 013c 98c0 84bc 59ae 56bd 051e f43d
00000150: 44cb 023e 67a6 bf3c 2bec 323e bc63 f03d
00000160: 2c65 1c3e afdb 4fbd 8f80 d9bc a9e3 2dbd
00000170: c8a4 d83d 42f7 293d 58ef 59bd c8e8 f63d
00000180: 3d6a 9a3d 0c65 e33d e984 f13d df36 1b3e
00000190: 80b8 273e eb54 a13d ebec b7bd 29d9 4c3d
000001a0: 42e8 bdbd 4850 3b3e 6b5e bbbd e99d 403d
000001b0: d3fe c33c 24d0 f13c d118 23bd 1263 1dbd
000001c0: f076 d83c 56ce abbd bdd8 2b3e 80de 6c3d
000001d0: cc4b d5bd 1431 183e 02f7 b0bd 416d 033c
000001e0: f68f edbd 3ebc 03bc c01e 573d 4272 50bd
000001f0: 88ea 9dbd 9ae0 e93d c724 b0bd 4fa6 fcbc
00000200: 262c f3bd 26ed afbd c025 6ebc 335c 07be
00000210: 356f 34be 283f 3d3e 4ff0 4c3b 9dda 22ba
00000220: 50e4 c8bb 0763 01be f62c 233e a754 e13d
00000230: b7e8 aabd 843d cc3c 7018 afbd d943 243c
00000240: 226f 03bc 3912 403d a6f7 ba3d ed65 d43d
00000250: 2e7e 043e 4dd0 d5bd 870b 64bc 701b a1bd
00000260: 0296 adbd 0eb1 373e 6625 98bd d85b 8dbb
00000270: 08b7 1d3e c2f0 e63d d490 f53d e453 183e
00000280: a1da 833d ed3c a1bd f127 203e fa13 feba
00000290: 145e 353e 9fe6 303e e64b 4d3e 7997 18bd
000002a0: 0146 963c b67f 133e fa79 4c3e 314e 0a3e
000002b0: 6a3d f03d 05a7 363e de9f 083d dcb0 093e
000002c0: 61e1 913d c30d 403e 9920 53bd c755 7c3d
000002d0: 4102 4a3e 85a2 5d3d 9368 0e3d e3c4 473e
000002e0: 68b1 79bc 6334 073c 14cf 8e3d 69dc 193e
000002f0: b634 563d ea7e f93c c1e3 39bd 9167 923d
00000300: 83b6 fd3d f0b0 fb3c 90cc dc3d 6530 203e
00000310: d82f eebd 954f 2d3e f3c6 933d 1612 873d
00000320: 050d 533e 1d39 093e 64b6 013e 3eb3 263e

nf.weight f4 [6, 51]
-0.13366379 -0.24787548 -0.04703009 0.056375813 -0.2849852 0.49933618 0.34462646 0.10078576
0.115341954 0.26238787 -0.044324648 -0.09459891 0.16911328 0.381013 -0.102766156 0.29951805
0.06748498 0.37466484 0.052638475 0.09960641 0.0035840268 -0.18119444 -0.05299172 0.21443775
-0.17135453 -0.26887324 -0.13850664 -0.13859881 0.3515167 -0.1430523 -0.08188416 0.18520927
-0.036756855 -0.1835358 0.23165408 -0.2659221 0.20800044 0.09403832 -0.24303468 0.18339434
0.10841207 -0.27653766 -0.19434844 0.12098293 0.29779515 0.028884672 0.23565401 -0.16787508
0.091829516 -0.06154997 -0.19260553 -0.2384727 0.244173 -0.20644526 0.15496518 0.11727448
-0.28417003 -0.30309686 -0.23983099 -0.25461012 -0.4095551 0.13148059 -0.013950457 -0.23603657
-0.79300946 0.45189992 -0.19934425 -0.39255467 -0.22346048 -0.22242182 -0.39911106 0.11865982
-0.022708394 0.27578512 0.13572319 -0.22642095 0.051387373 -0.17891589 -0.17652501 -0.30633634
0.1897645 -0.17081662 -0.49278355 0.51540285 -0.48920324 0.29144493 0.32981488 -0.10728512
-0.18202806 -0.102286406 0.56527513 0.21466418 0.23612349 0.57550436 -0.21176083 -0.22863455
-0.15317896 0.22431599 -0.048225358 0.16544661 -0.06817065 0.43731683 0.010276831 0.012205925
0.0752183 -0.0046146545 0.09582822 0.18329912 -0.10260262 0.049213525 -0.099377505 -0.040176466
-0.10550949 0.15642531 -0.12903862 -0.41456953 0.09421022 0.030739577 0.078514434 -0.024652185
-0.109690756 -0.26972646 -0.14830258 0.04910537 0.24991482 -0.14805835 0.102205485 0.034811992
0.15317276 0.18436468 -0.15515147 0.18653002 0.16234781 -0.023129387 0.21490733 0.023293346
-0.153074 0.023019716 -0.06845574 -0.23718426 0.119918324 -0.18335597 0.044045117 -0.049845777
0.1894513 -0.1720862 -0.07968386 -0.17834663 -0.12557557 -0.03331197 -0.033267554 0.11148288
0.22270915 0.3952947 0.1717653 0.19770518 -0.08289975 0.031655554 -0.18813238 -0.34813917
0.1394308 0.6069989 -0.17073436 0.07809928 -0.012135959 -0.083102085 0.80894685 -0.57354945
-0.19768374 0.29150128 -0.25273892 0.6399432 0.06539281 0.121617846 0.26456088 0.12397864
-0.2229361 0.0019906461 0.39503607 0.004221507 -0.044837058 -0.35849148 0.13147308 -0.058325276
0.29534104 -0.36789653 0.48384005 -0.52082735 -0.2036273 -0.076789476 -0.2402672 0.40599304
-0.509984 -0.31940636 0.33282468 -0.30259284 0.57445335 -0.0054599484 -0.056383617 -0.4498614
0.3530812 0.11956756 -0.22066212 -0.087145776 0.162295 -0.024046488 0.07038284 -0.0021622763
0.43003127 -0.28827152 -0.17920813 -0.21596068 -0.2292962 0.6291457 0.08729748 0.28591862
0.07246437 -0.28365496 0.481592 -0.22265923 0.19489513 -0.03400104 0.17574923 0.28175926
-0.023841344 -0.0059582754 0.3501635 -0.12714532 0.15621674 -0.1302407 0.026403615 0.34627536
-0.18258834 0.07437927 0.11140751 0.28175744 -0.14167783 0.5137827 -0.0768257 -0.02091435
0.11707975 -0.11470737 0.369124 -0.11875708 -0.19152114 0.14401391 -0.32901165 0.016390663
0.08403867 -0.0005976873 -0.145837 0.26597235 -0.33585522 0.14780962 -0.16953346 -0.029808259
00000000: 29df 08be 12d3 7dbe a0a2 40bd 53ea 663d
00000010: 95e9 91be fea8 ff3e e172 b03e c468 ce3d
00000020: 6738 ec3d b457 863e c38d 35bd 13bd c1bd
00000030: 082c 2d3e 2314 c33e 1077 d2bd 6e5a 993e
00000040: 9135 8a3d 12d4 bf3e 719b 573d 72fe cb3d
00000050: fee1 6a3b 098b 39be d90d 59bd 9295 5b3e
00000060: 9077 2fbe c1a9 89be afd4 0dbe d9ec 0dbe
00000070: fff9 b33e 4d7c 12be e2b2 a7bd 80a7 3d3e
00000080: 5b8e 16bd cff0 3bbe ba36 6d3e f126 88be
00000090: 11fe 543e 2a97 c03d 15de 78be bacb 3b3e
000000a0: 2607 de3d 5896 8dbe 4703 47be e6c5 f73d
000000b0: 9b78 983e 8c9f ec3c 494f 713e 72e7 2bbe
000000c0: 1d11 bc3d d21b 7cbd 623a 45be 3032 74be
000000d0: 7d08 7a3e 6366 53be 31af 1e3e 9a2d f03d
000000e0: bc7e 91be 832f 9bbe 4196 75be 425c 82be
000000f0: 35b1 d1be d9a2 063e 7590 64bc 92b3 71be
00000100: ab02 4bbf 6d5f e73e e620 4cbe edfc c8be
00000110: d3d2 64be 8cc2 63be 4958 ccbe eb03 f33d
00000120: f406 babc b533 8d3e 05fb 0a3e e5da 67be
00000130: 917b 523d ba35 37be f9c2 34be 1ed8 9cbe
00000140: a051 423e 8dea 2ebe 204e fcbe 71f1 033f
00000150: d978 fabe 4538 953e 7fdd a83e 4db8 dbbd
00000160: 9065 3abe 897b d1bd dfb5 103f edd0 5b3e
00000170: 5bca 713e 4154 133f d5d7 58be 2d1f 6abe
00000180: f2da 1cbe 17b3 653e f487 45bd d66a 293e
00000190: 0e9d 8bbd fee7 df3e 2760 283c 5cfb 473c
000001a0: 0d0c 9a3d 8736 97bb 9641 c43d c4b2 3b3e
000001b0: 5321 d2bd 1f94 493d 6f86 cbbd 1490 24bd
000001c0: 5c15 d8bd f52d 203e b322 04be 7542 d4be
000001d0: 4af1 c03d 91d1 fb3c 2dcc a03d 61f3 c9bc
000001e0: 8ca5 e0bd 9619 8abe a2dc 17be b622 493d
000001f0: ace9 7f3e 9c9c 17be 1c51 d13d 0597 0e3d
00000200: 52d9 1c3e 18ca 3c3e 07e0 1ebe ba01 3f3e
00000210: 813e 263e d779 bdbc ab10 5c3e b0d1 be3c
00000220: 6ebf 1cbe d893 bc3c 8632 8cbd 6ee0 72be
00000230: bd97 f53d abc1 3bbe a768 343d 162b 4cbd
00000240: 86ff 413e 5d37 30be 4b31 a3bd 80a0 36be
00000250: e296 00be 2272 08bd 8f43 08bd 2351 e43d
00000260: de0d 643e 1164 ca3e 3ee3 2f3e 3a73 4a3e
00000270: 58c7 a9bd 41a9 013d c6a5 40be 4c3f b2be
00000280: f3c6 0e3e 4864 1b3f fdd4 2ebe 84f2 9f3d
00000290: e7d5 46bc 6d31 aabd 2417 4f3f 23d4 12bf
000002a0: 9b6d 4abe a83f 953e ff66 81be 51d3 233f
000002b0: aaec 853d c712 f93d 8674 873e 83e8 fd3d
000002c0: 5c49 64be 8075 023b 2b42 ca3e 9154 8a3b
000002d0: 10a7 37bd 328c b7be e1a0 063e 7ce6 6ebd
000002e0: f136 973e ef5c bcbe e2b9 f73e f154 05bf
000002f0: ad83 50be cd43 9dbd 9b08 76be 52de cf3e
00000300: 508e 02bf 3b89 a3be ff67 aa3e 73ed 9abe
00000310: 600f 133f 5ee9 b2bb 82f2 66bd 3c54 e6be
00000320: 0fc7 b43e d6df f43d 40f5 61be 7c79 b2bd
00000330: a930 263e 24fd c4bc e124 903d fab4 0dbb
00000340: 0f2d dc3e 5398 93be 5682 37be cc24 5dbe
00000350: a0cc 6abe b10f 213f 05c9 b23d ed63 923e
00000360: 3368 943d 393b 91be 3a93 f63e c800 64be
00000370: 9792 473e ad44 0bbd 9bf7 333e c042 903e
00000380: ec4e c3bc a33d c3bb a148 b33e 6232 02be
00000390: 48f7 1f3e d15d 05be 654c d83c 014b b13e
000003a0: 70f8 3abe 2954 983d 9f29 e43d 8342 903e
000003b0: fe13 11be 4387 033f cb56 9dbd 9254 abbc
000003c0: 82c7 ef3d b3eb eabd d2fd bc3e e936 f3bd
000003d0: 1e1e 44be 6278 133e 3774 a8be b645 863c
000003e0: 771c ac3d 1eae 1cba 4b56 15be 872d 883e
000003f0: 37f5 abbe 685b 173e 2e9a 2dbe 7330 f4bc

nf.bias f4 [6]
-0.08846674 0.1416584 0.0074204365 0.07779619 0.04079379 0.042100914
00000000: 0d2e b5bd e60e 113e 2227 f33b 9c53 9f3d
00000010: 6417 273d 0272 2c3d

exp_avg f4 [204, 60]
2.7847707e-05 6.539942e-06 8.154211e-06 7.738687e-05 -6.8114264e-07 3.4864075e-05 2.3762837e-05 4.5593595e-05
-8.1452225e-07 -1.1360606e-07 6.973985e-08 3.227846e-08 6.1174023e-07 5.6582127e-08 -1.9708615e-08 -2.344511e-09
-3.883056e-10 -9.919245e-10 -9.943985e-11 -6.302625e-10 -1.1462556e-09 -3.3750833e-10 -3.5929493e-10 1.01309926e-10
-9.380179e-10 -2.5838923e-10 -1.5920732e-11 -8.29764e-18 -6.4891554e-16 -2.1565889e-16 -5.3914722e-17 -1.9874646e-27
-2.0214936e-27 -5.826957e-28 -5.3413787e-27 -2.9134784e-28 -1.6509705e-27 -1.9423188e-27 -5.826957e-28 -6e-45
-6e-45 0.0 0.0 0.0 0.0 0.0 0.0 0.0
0.0 0.0 0.0 0.0 0.0 0.0 0.0 0.0
0.0 0.0 0.0 0.0 -3.8970566e-06 -2.5934946e-06 5.415608e-07 -1.7712023e-07
-8.877261e-07 -3.599128e-07 -4.739566e-07 -3.3103098e-07 -3.4444474e-07 -3.4797444e-07 -4.546149e-08 8.17672e-08
-2.9051905e-09 -4.531712e-10 -1.8595886e-09 -4.42518e-12 -2.544608e-12 -1.4006129e-13 9.182736e-12 -6.7517004e-18
-9.5833705e-18 -1.0440067e-17 -3.716957e-18 -1.3728679e-17 -8.710443e-18 6e-45 6e-45 6e-45
-6e-45 -6e-45 -6e-45 6e-45 6e-45 6e-45 6e-45 6e-45
6e-45 6e-45 6e-45 -6e-45 -6e-45 0.0 0.0 0.0
0.0 0.0 0.0 0.0 0.0 0.0 0.0 0.0
0.0 0.0 0.0 0.0 0.0 0.0 0.0 0.0
-6.739731e-06 -5.888846e-08 -1.7440791e-06 -3.6983732e-07 -2.268907e-06 -6.1619147e-07 -6.292392e-08 4.2919403e-08
-4.5977555e-07 -8.123703e-09 -7.2417947e-09 -1.3970612e-08 -8.942024e-11 -2.29272e-11 -4.519052e-12 5.778149e-13
-1.6157324e-12 7.0523405e-13 -1.8028726e-13 -4.2572684e-13 -1.1583082e-13 -7.0732455e-13 2.2925843e-13 1.301912e-14
1.4749789e-13 7.529569e-14 1.34655e-13 -1.5460798e-14 4.7578816e-14 1.7754431e-13 2.8407088e-14 -6e-45
-6e-45 -6e-45 -6e-45 -6e-45 -6e-45 -6e-45 -6e-45 0.0
0.0 0.0 0.0 0.0 0.0 0.0 0.0 0.0
0.0 0.0 0.0 0.0 0.0 0.0 0.0 0.0
0.0 0.0 0.0 0.0 -4.372264e-05 -2.7599155e-05 -6.8287096e-05 1.0591545e-05
-7.716281e-05 -6.710377e-05 -8.779382e-06 -4.752342e-05 -3.2187647e-05 -1.3795649e-05 -4.335309e-06 -1.4336447e-06
-1.6071953e-06 1.7924843e-07 -5.7947343e-08 -1.8637817e-08 -9.597301e-12 -3.0488645e-12 -8.6048426e-13 -8.622234e-13
-6.002304e-13 -4.4457724e-13 -4.4725047e-13 -1.786768e-13 -5.020644e-13 -8.2441696e-14 -6.3090267e-14 1.1196875e-21
-2.5083576e-15 -8.3612e-16 -2.0902972e-16 -1.4683784e-22 4.448115e-22 -7.969517e-23 -7.304372e-22 -3.985265e-23
-2.2578264e-22 -2.6561255e-22 -7.96844e-23 -1.3972309e-26 -2.5404204e-27 -6e-45 -6e-45 -6e-45
-6e-45 -6e-45 -6e-45 -6e-45 -6e-45 0.0 0.0 0.0
0.0 0.0 0.0 0.0 0.0 0.0 0.0 0.0
6.491176e-06 -1.6087612e-05 2.4878993e-05 -2.9185464e-06 7.179205e-05 -2.070323e-05 5.0858496e-05 7.251552e-05
-8.1699596e-05 -2.3902132e-05 9.808459e-06 1.6810428e-06 4.3316213e-06 2.8201475e-06 1.0856412e-07 1.6350013e-08
00000000: 7f9a e937 ad71 db36 12ce 0837 c24a a238
00000010: c4d7 36b5 043b 1238 4e56 c737 c03b 3f38
00000020: 8ba5 5ab5 98f7 f3b3 e3c3 9533 8ba2 0a33
00000030: 7836 2435 b504 7333 b44b a9b2 131d 21b1
00000040: 2879 d5af 3e54 88b0 a9ab daae c83e 2db0
00000050: 498a 9db0 138c b9af 4486 c5af 6bc8 de2e
00000060: 92eb 80b0 0d0d 8eaf 4d0a 8cad 7f10 19a3
00000070: 8409 3ba6 45a3 78a5 45a3 78a4 9276 1d93
00000080: c328 2093 e4a9 3892 0498 d393 e4a9 b891
00000090: a9cd 0293 e8e2 1993 e4a9 3892 0400 0080
000000a0: 0400 0080 0000 0000 0000 0000 0000 0000
000000b0: 0000 0000 0000 0000 0000 0000 0000 0000
000000c0: 0000 0000 0000 0000 0000 0000 0000 0000
000000d0: 0000 0000 0000 0000 0000 0000 0000 0000
000000e0: 0000 0000 0000 0000 0000 0000 0000 0000
000000f0: 76c3 82b6 e60b 2eb6 c65f 1135 702e 3eb4
00000100: 134c 6eb5 0a3a c1b4 1974 feb4 8db8 b1b4
00000110: 20ec b8b4 3ed1 bab4 7041 43b3 fe97 af33
00000120: a7a4 47b1 2d22 f9af 7594 ffb0 7ab2 9bac
00000130: 950f 33ac ebb1 1daa 5e8b 212d 0218 f9a2
00000140: 30c8 30a3 d395 40a3 ab21 89a2 db3f 7da3
00000150: e7ad 20a3 0400 0000 0400 0000 0400 0000
00000160: 0400 0080 0400 0080 0400 0080 0400 0000
00000170: 0400 0000 0400 0000 0400 0000 0400 0000
00000180: 0400 0000 0400 0000 0400 0000 0400 0080
00000190: 0400 0080 0000 0000 0000 0000 0000 0000
000001a0: 0000 0000 0000 0000 0000 0000 0000 0000
000001b0: 0000 0000 0000 0000 0000 0000 0000 0000
000001c0: 0000 0000 0000 0000 0000 0000 0000 0000
000001d0: 0000 0000 0000 0000 0000 0000 0000 0000
000001e0: d925 e2b6 8cec 7cb3 1a16 eab5 0e8e c6b4
000001f0: 8743 18b6 5b68 25b5 ca20 87b3 6256 3833
00000200: 12d7 f6b4 6c90 0bb2 80d3 f8b1 6703 70b2
00000210: 1fa3 c4ae 77ab c9ad 0000 9fac f4a3 222b
00000220: e564 e3ab 7881 462b 44fc 4aaa b4a9 efaa
00000230: f669 02aa 1b18 47ab 9f0f 812a 1888 6a28
00000240: 5f11 262a 038d a929 a99b 172a 2c42 8ba8
00000250: a446 5629 aae5 472a 49de ff28 0400 0080
00000260: 0400 0080 0400 0080 0400 0080 0400 0080
00000270: 0400 0080 0400 0080 0400 0080 0000 0000
00000280: 0000 0000 0000 0000 0000 0000 0000 0000
00000290: 0000 0000 0000 0000 0000 0000 0000 0000
000002a0: 0000 0000 0000 0000 0000 0000 0000 0000
000002b0: 0000 0000 0000 0000 0000 0000 0000 0000
000002c0: 0000 0000 0000 0000 0000 0000 0000 0000
000002d0: d462 37b8 bc84 e7b7 5b35 8fb8 57b2 3137
000002e0: 78d2 a1b8 10ba 8cb8 294b 13b7 e253 47b8
000002f0: 3901 07b8 dc73 67b7 0578 91b6 a86b c0b5
00000300: cfb6 d7b5 6f77 4034 c7e1 78b3 fe18 a0b2
00000310: 67d6 28ad 768b 56ac 6d34 72ab beb1 72ab
00000320: 29f3 28ab 5546 faaa 96c7 fbaa 152c 49aa
00000330: 8d51 0dab 67a4 b9a9 1011 8ea9 d033 a91c
00000340: 08bf 34a7 c4fe 70a6 affe 70a5 1c84 319b
00000350: 9f6f 061c ecb0 c09a d7c2 5c9c 31b7 409a
00000360: 2c7a 889b 8d8d a09b 41aa c09a 0360 8a94
00000370: d945 4993 0400 0080 0400 0080 0400 0080
00000380: 0400 0080 0400 0080 0400 0080 0400 0080
00000390: 0400 0080 0000 0000 0000 0000 0000 0000
000003a0: 0000 0000 0000 0000 0000 0000 0000 0000
000003b0: 0000 0000 0000 0000 0000 0000 0000 0000
000003c0: c7ce d936 e2f3 86b7 3bb3 d037 3fdc 43b6
000003d0: 108f 9638 d9ab adb7 e550 5538 7913 9838
000003e0: 2356 abb8 7081 c8b7 038f 2437 31a0 e135
000003f0: 5858 9136 c441 3d36 c223 e933 0f72 8c32

exp_avg_sq f4 [204, 60]
9.869517e-09 5.150546e-09 4.2285e-09 1.0132598e-07 3.8490704e-08 3.8636912e-08 7.5106446e-09 3.6126092e-08
1.314171e-08 6.525031e-09 5.5234914e-09 1.2111591e-10 1.5621e-09 1.7872955e-10 3.095966e-11 1.1374852e-10
1.7693364e-12 1.1868962e-12 2.4945662e-12 1.6211131e-12 1.6613501e-13 2.2007465e-12 1.754789e-12 1.2128475e-12
7.871636e-14 2.3629992e-14 1.09224384e-13 1.3440299e-13 1.0126401e-13 1.02568175e-13 5.303367e-22 6.1244324e-14
3.390691e-15 7.090948e-24 5.4582137e-22 4.637271e-24 5.2146202e-23 7.2174746e-23 6.495727e-24 9.842152e-31
3.2536088e-32 0.0 0.0 0.0 0.0 0.0 0.0 0.0
0.0 0.0 0.0 0.0 0.0 0.0 0.0 0.0
0.0 0.0 0.0 0.0 1.0988147e-08 1.0433623e-07 4.1923585e-09 3.2885827e-09
7.8525115e-09 3.920048e-09 5.5414704e-09 4.625524e-09 3.2229757e-09 4.5471644e-09 2.6324256e-09 8.581492e-10
2.3244721e-10 9.294099e-11 3.0787556e-10 3.0208278e-10 9.153226e-14 1.1529472e-14 1.9535436e-14 1.3753613e-13
1.5149736e-15 1.4052598e-15 3.8158924e-17 1.647876e-17 5.265971e-20 2.8359758e-19 2.5887266e-19 4.8714692e-20
6.453733e-21 1.3704108e-20 6.111839e-21 2.53707e-21 3.664535e-21 6.730556e-22 1.1300192e-20 1.1387703e-21
1.5112157e-21 1.491699e-21 1.3545349e-22 5.8115355e-22 1.9211641e-23 0.0 0.0 0.0
0.0 0.0 0.0 0.0 0.0 0.0 0.0 0.0
0.0 0.0 0.0 0.0 0.0 0.0 0.0 0.0
8.725843e-08 4.0711443e-09 7.3010405e-08 4.4185535e-09 1.4910317e-08 6.4299512e-09 6.523625e-09 1.6547136e-09
7.5076106e-10 9.881045e-11 5.3249458e-12 1.0934875e-12 2.4600095e-13 1.6344184e-13 1.01463e-14 3.2617413e-15
2.8359063e-17 2.0210847e-16 1.0024913e-18 7.800833e-18 1.5210988e-18 1.3015954e-17 9.428138e-19 9.282989e-21
2.1189339e-19 1.5956392e-19 6.6446317e-22 1.4337981e-23 5.1105297e-23 1.1145018e-23 4.89899e-25 4.142504e-29
5.7335645e-29 5.1602163e-30 4.336013e-28 1.2900541e-30 4.142504e-29 5.7335645e-29 5.1602163e-30 0.0
0.0 0.0 0.0 0.0 0.0 0.0 0.0 0.0
0.0 0.0 0.0 0.0 0.0 0.0 0.0 0.0
0.0 0.0 0.0 0.0 5.997707e-07 7.4463424e-07 3.5552563e-07 3.7396504e-07
1.0414045e-07 1.0340496e-07 5.085204e-08 8.508206e-08 5.9124357e-08 2.633011e-08 7.0898913e-09 9.65471e-10
1.1877879e-09 3.8118364e-10 5.0024748e-11 8.9738855e-11 1.1487906e-11 5.6938e-13 1.5135921e-12 6.412525e-17
3.3054857e-16 2.5690422e-16 2.033539e-15 1.3407876e-16 5.717632e-17 5.046195e-18 5.24173e-17 9.220948e-19
1.7429103e-18 8.248097e-19 7.308509e-21 4.2299768e-19 2.3429059e-20 4.304455e-24 3.5973095e-23 3.3034653e-24
7.78397e-24 4.8241384e-24 4.4797286e-25 4.567381e-24 1.0258214e-24 2.2471838e-26 4.4044775e-24 9.494354e-25
1.2640406e-26 2.2471833e-24 1.0238702e-24 5.0702067e-25 8.08986e-25 0.0 0.0 0.0
0.0 0.0 0.0 0.0 0.0 0.0 0.0 0.0
4.926682e-07 4.8823915e-07 3.2014896e-07 1.4391001e-07 1.3555238e-07 1.2952363e-07 1.0810287e-07 8.5481226e-08
3.1843733e-08 2.0407654e-08 1.6427743e-08 1.4328533e-08 4.8836233e-09 1.5375394e-09 8.915136e-10 5.8866106e-10
00000000: 988e 2932 aff8 b031 484a 9131 8c98 d933
00000010: fa50 2533 bcf1 2533 2a08 0132 0f29 1b33
00000020: dac5 6132 c832 e031 25c9 bd31 192b 052f
00000030: 82b1 d630 e583 442f 7a29 082e b922 fa2e
00000040: 1003 f92b 710a a72b 1c8a 2f2c c126 e42b
00000050: 280d 3b2a 20dd 1a2c f0f6 f62b 70b1 aa2b
00000060: e440 b129 0dd7 d428 92f3 f529 0653 172a
00000070: ba06 e429 87f6 e629 d148 201c f3e8 8929
00000080: 3653 7427 ac28 0919 e2f6 241c 4f65 b318
00000090: df29 7c1a 0182 ae1a 904a fb18 b3b2 9f0d
000000a0: e1ef 280b 0000 0000 0000 0000 0000 0000
000000b0: 0000 0000 0000 0000 0000 0000 0000 0000
000000c0: 0000 0000 0000 0000 0000 0000 0000 0000
000000d0: 0000 0000 0000 0000 0000 0000 0000 0000
000000e0: 0000 0000 0000 0000 0000 0000 0000 0000
000000f0: 62c6 3c32 730f e033 600c 9031 5cfd 6131
00000100: b6e7 0632 1bb1 8631 4a67 be31 8aee 9e31
00000110: 307b 5d31 483d 9c31 1fe6 3431 e2e2 6b30
00000120: 1394 7f2f 2061 cc2e a241 a92f 5f12 a62f
00000130: c11c ce29 4eb2 4f28 a6f5 af28 17da 1a2a
00000140: a954 da26 f084 ca26 1bfa 2f24 5ffd 9723
00000150: afad 781f 0e68 a720 bbcf 9820 730c 661f
00000160: add0 f31d 806e 811e 14e6 e61d 12b2 3f1d
00000170: 3571 8a1d 286b 4b1c 6074 551e 0b16 ac1c
00000180: 535e e41c 4f6b e11c d3c0 231b 94a4 2f1c
00000190: b8cd b919 0000 0000 0000 0000 0000 0000
000001a0: 0000 0000 0000 0000 0000 0000 0000 0000
000001b0: 0000 0000 0000 0000 0000 0000 0000 0000
000001c0: 0000 0000 0000 0000 0000 0000 0000 0000
000001d0: 0000 0000 0000 0000 0000 0000 0000 0000
000001e0: d462 bb33 2ae2 8b31 e5c9 9c33 02d2 9731
000001f0: 2214 8032 73ee dc31 6a26 e031 0f6c e330
00000200: 1d5e 4e30 5749 d92e d95a bb2c 0ae5 992b
00000210: 797c 8a2a e704 382a 8dc7 3628 8208 6b27
00000220: 79c8 0224 e403 6925 0df1 9321 64e6 0f23
00000230: 7d79 e021 1b1a 7023 8022 8b21 c859 2f1e
00000240: d928 7a20 3c61 3c20 59d2 481c 1fab 8a19
00000250: 4b21 771a 7593 5719 cc9d 1717 c70c 5210
00000260: f65c 9110 c052 d10e eb69 0912 c052 d10d
00000270: c70c 5210 f65c 9110 c052 d10e 0000 0000
00000280: 0000 0000 0000 0000 0000 0000 0000 0000
00000290: 0000 0000 0000 0000 0000 0000 0000 0000
000002a0: 0000 0000 0000 0000 0000 0000 0000 0000
000002b0: 0000 0000 0000 0000 0000 0000 0000 0000
000002c0: 0000 0000 0000 0000 0000 0000 0000 0000
000002d0: eeff 2035 e0e2 4735 12df be34 5dc5 c834
000002e0: d1a3 df33 7a0f de33 6968 5a33 5bb6 b633
000002f0: ebef 7d33 862c e232 589b f331 7eb1 8430
00000300: 923f a330 d48e d12f dc02 5c2e 7c56 c52e
00000310: ee18 4a2d 2744 202b e704 d52b dedc 9324
00000320: 5c8c be25 5f18 9425 2c88 1227 1195 1a25
00000330: f1d6 8324 f72b ba22 6dbb 7124 c213 8821
00000340: a59a 0022 dc70 7321 c80d 0a1e 9ab1 f920
00000350: fd47 dd1e 4285 a618 89f4 2d1a df97 7f18
00000360: 5a90 1619 f49f ba18 11a4 0a17 27b1 b018
00000370: f9bc 9e17 e18c de14 d563 aa18 03eb 9217
00000380: 795e 7a14 0dde 2d18 ad6f 9e17 51ea 1c17
00000390: 795e 7a17 0000 0000 0000 0000 0000 0000
000003a0: 0000 0000 0000 0000 0000 0000 0000 0000
000003b0: 0000 0000 0000 0000 0000 0000 0000 0000
000003c0: e73f 0435 8a0f 0335 f0e0 ab34 af85 1a34
000003d0: 5b8c 1134 2f13 0b34 2e26 e833 cd91 b733
000003e0: 8ec4 0833 e84c af32 fd1c 8d32 8e29 7632
000003f0: cecc a731 5c51 d330 b10e 7530 57cf 2130

exp_avg f4 [204, 51]
1.4779008e-07 -2.2014753e-07 1.6445688e-07 -2.3093565e-07 -1.4859921e-07 2.1144999e-07 2.1763542e-07 1.7803943e-07
-7.761463e-08 1.7007784e-07 -2.1547305e-07 1.0569636e-07 1.604398e-07 8.595301e-08 -1.2642988e-07 2.1500496e-07
1.449814e-07 2.0449053e-07 1.5737949e-07 -3.1827994e-09 -2.3284422e-07 1.4142374e-07 -1.08551426e-07 -2.845776e-08
1.899269e-07 -1.7121265e-07 2.578231e-07 6.021889e-09 1.4819249e-09 1.0720319e-08 1.6464878e-07 1.016408e-07
1.5482392e-08 1.442839e-07 6.5282655e-09 -1.847169e-07 -1.1319344e-08 -1.1155352e-08 -3.081746e-08 -4.2799027e-08
-1.7534632e-07 -1.8717357e-07 -9.087827e-08 1.2372084e-07 2.1205022e-07 -3.027031e-08 -7.629394e-08 1.1845838e-09
-1.9922395e-07 1.7069813e-07 -1.5127779e-07 1.6954123e-06 -9.920428e-07 6.5931687e-07 -1.5083408e-06 -9.0043136e-07
-3.9244824e-07 8.153366e-07 8.492406e-08 -1.2911115e-06 4.370792e-07 -1.4857208e-06 1.6227042e-06 8.5435295e-07
4.2050291e-07 -7.722302e-07 8.1851687e-07 9.272549e-08 5.8438025e-07 1.5038762e-06 -1.7840753e-07 -1.5069865e-06
1.5636683e-06 -1.0617696e-06 -1.1107991e-06 4.53806e-07 -4.6197897e-07 1.9102251e-07 1.0899282e-06 -2.8962168e-07
3.3295748e-07 7.7785796e-07 1.2613664e-07 -2.230856e-08 6.4661145e-07 3.8042612e-07 -7.2391964e-07 -1.6823142e-07
-2.5744004e-07 3.2382871e-07 -6.5076176e-07 -1.9070559e-06 -6.3413836e-07 -6.205325e-07 7.2361996e-07 7.152925e-07
-3.045418e-07 -1.113154e-06 6.314283e-07 -1.4420266e-06 8.900652e-07 1.24946125e-08 -7.9562646e-08 -1.5583034e-07
8.7103246e-08 -1.18695816e-07 -1.4527681e-07 3.194315e-07 1.9310401e-07 -6.8919825e-08 -1.0890535e-06 1.1148137e-07
-5.2040637e-08 -1.7559707e-07 -2.476064e-07 -1.0222599e-06 3.4816222e-07 2.2684434e-07 -2.9710654e-07 1.10699176e-07
-3.8429957e-07 7.8275015e-08 -1.5511594e-07 -4.2908997e-08 -5.5212325e-07 -2.610588e-08 9.159427e-08 -1.2857147e-07
2.5496084e-07 -3.432652e-08 1.4209576e-07 -1.4575938e-08 9.3656745e-08 -5.176332e-07 -4.036864e-07 -1.5665838e-08
3.014541e-07 1.0197958e-08 1.6486044e-07 5.3760827e-09 1.6980418e-07 -1.5674193e-07 -3.3114597e-07 -1.313084e-07
7.128464e-07 -4.6361703e-07 1.7446384e-07 1.7771563e-07 -5.2750057e-08 -8.668291e-08 -3.0127677e-07 4.1601172e-08
-1.5027869e-08 3.9882175e-07 -2.7109508e-07 3.6289876e-07 -4.807444e-07 -2.6358947e-07 8.6607116e-08 2.7713543e-07
3.3940583e-07 2.4460231e-08 1.3113628e-07 -2.403504e-07 -7.3064723e-09 2.4648665e-07 3.543779e-07 7.54659e-09
2.65981e-07 2.920625e-07 2.6338475e-07 5.3451464e-07 3.3165872e-08 -3.1432475e-07 3.416627e-07 -3.635251e-08
-1.4095313e-07 1.805442e-07 -1.7562989e-07 1.1237766e-07 -1.2365041e-07 5.599382e-09 9.802555e-09 3.0911053e-08
-1.6541522e-08 -2.6789962e-07 4.8046746e-07 8.717711e-09 -3.555365e-07 9.592867e-10 -1.0906317e-08 -1.3919295e-07
-1.8308455e-08 -5.238749e-07 -2.0108519e-07 -2.830441e-07 4.0252488e-07 2.6517014e-07 -1.0940398e-07 -2.7301814e-07
3.797553e-08 -2.0151353e-07 1.6419453e-07 -3.6325596e-07 -4.2979455e-06 1.6113231e-06 -3.5336288e-06 2.0207983e-06
-1.5359346e-07 2.8135703e-06 -1.1552232e-06 -3.2631203e-07 3.133132e-07 -2.364715e-06 2.2699232e-06 -3.1789482e-06
-1.858985e-06 -5.4568574e-07 4.8085496e-07 -1.6032471e-06 5.4172354e-08 -1.4632054e-06 -1.7150252e-06 -3.5478314e-07
2.2189017e-06 -3.6950667e-06 1.3186653e-06 2.3299517e-06 -1.9115894e-06 3.328219e-06 2.9002513e-06 -7.0813536e-07
7.679124e-08 1.7580778e-07 6.1139554e-07 -3.6728163e-06 9.019456e-07 -3.0824665e-06 1.5436731e-06 2.8197235e-06
1.7158955e-06 3.7795053e-07 -3.013693e-07 1.4742568e-06 3.6158667e-06 8.842698e-07 2.2482564e-06 -2.9926111e-06
-1.7263825e-06 -1.3231179e-06 3.488377e-06 3.0092295e-07 3.8788894e-06 -6.972324e-08 2.9911673e-06 5.7718404e-07
00000000: 3ab0 1e34 b161 6cb4 9095 3034 1cf7 77b4
00000010: a48e 1fb4 ee0a 6334 2baf 6934 1b2b 3f34
00000020: 18ad a6b3 a49e 3634 c85c 67b4 30fb e233
00000030: 5b45 2c34 2b95 b833 c8c0 07b4 1ddc 6634
00000040: 2fac 1b34 ee91 5b34 25fc 2834 66b8 5ab1
00000050: bb03 7ab4 43da 1734 c71c e9b3 4773 f4b2
00000060: b5ee 4b34 93d6 37b4 f06a 8a34 19e9 ce31
00000070: 99ac cb30 762c 3832 50ca 3034 9f45 da33
00000080: 24fe 8432 75ec 1a34 3b4f e031 9856 46b4
00000090: 0077 42b2 c2a5 3fb2 285c 04b3 07d2 37b3
000000a0: d446 3cb4 e1f9 48b4 db28 c3b3 20d8 0434
000000b0: ecaf 6334 8f02 02b3 09d7 a3b3 d6ce a230
000000c0: 43ea 55b4 2549 3734 ec6e 22b4 ec8d e335
000000d0: 5526 85b5 e9fb 3035 3272 cab5 2cb5 71b5
000000e0: adb1 d2b4 81dd 5a35 7f5f b633 414a adb5
000000f0: b5a7 ea34 fa68 c7b5 b1cb d935 b056 6535
00000100: 7bc1 e134 414b 4fb5 0db8 5b35 6120 c733
00000110: 4ede 1c35 cbd8 c935 4a90 3fb4 a943 cab5
00000120: 3cdf d135 2082 8eb5 c416 95b5 9fa2 f334
00000130: e805 f8b4 de1b 4d34 a649 9235 4d7d 9bb4
00000140: 54c1 b234 fecd 5035 2d70 0734 0ba1 bfb2
00000150: cd92 2d35 5e3d cc34 6153 42b5 1aa3 34b4
00000160: 4a36 8ab4 aeda ad34 02b0 2eb5 f1f5 ffb5
00000170: a839 2ab5 ab92 26b5 c93e 4235 8702 4035
00000180: e87f a3b4 ae67 95b5 6c7f 2935 a88b c1b5
00000190: d1ec 6e35 e3a7 5632 07dc aab3 5152 27b4
000001a0: 840d bb33 b7e5 feb3 63fd 1bb4 557e ab34
000001b0: 0758 4f34 1301 94b3 982b 92b5 8867 ef33
000001c0: 4983 5fb3 c18b 3cb4 c4ee 84b4 9534 89b5
000001d0: 0deb ba34 7f92 7334 0382 9fb4 84b9 ed33
000001e0: bb51 ceb4 2518 a833 f28d 26b4 f14a 38b3
000001f0: 9f35 14b5 703f e0b2 7cb2 c433 750d 0ab4
00000200: 8de1 8834 686e 13b3 fc92 1834 a769 7ab2
00000210: 5720 c933 7cf3 0ab5 3dba d8b4 8b91 86b2
00000220: 89d7 a134 1833 2f32 7e04 3134 86b8 b831
00000230: 6b53 3634 e54c 28b4 5bc8 b1b4 c7fd 0cb4
00000240: 6e5a 3f35 0ae7 f8b4 4154 3b34 1ad2 3e34
00000250: 4d8f 62b3 6f26 bab3 2abf a1b4 f9ac 3233
00000260: a216 81b2 a51d d634 068b 91b4 6dd4 c234
00000270: 810c 01b5 7683 8db4 c4fc b933 34c9 9434
00000280: 9537 b634 9e1c d232 77ce 0c34 8209 81b4
00000290: 690c fbb1 de54 8434 5441 be34 41a6 0132
000002a0: 26cc 8e34 c4cc 9c34 5367 8d34 917b 0f35
000002b0: 4372 0e33 77c0 a8b4 c46d b734 0222 1cb3
000002c0: e758 17b4 9ddb 4134 c794 3cb4 4654 f133
000002d0: c4c4 04b4 af64 c031 1868 2832 10c3 0433
000002e0: 3117 8eb2 d8d3 8fb4 79f9 0035 e6c4 1532
000002f0: 91e0 beb4 e6d7 8330 7d5e 3bb2 1175 15b4
00000300: b844 9db2 69a0 0cb5 e0e9 57b4 49f5 97b4
00000310: 991a d834 b55c 8e34 79f1 eab3 5493 92b4
00000320: 891a 2333 9e5f 58b4 734d 3034 8505 c3b4
00000330: 1237 90b6 a444 d835 4823 6db6 0d9d 0736
00000340: 73eb 24b4 c5d0 3c36 2b0d 9bb5 fc2f afb4
00000350: 7035 a834 7fb1 1eb6 fc54 1836 ea55 55b6
00000360: 3d82 f9b5 3d7b 12b5 1a14 0135 272f d7b5
00000370: 22ab 6833 5b63 c4b5 d12f e6b5 0679 beb4
00000380: 71e8 1436 c3f8 77b6 fffc b035 445c 1c36
00000390: db48 00b6 5e5a 5f36 f0a1 4236 b116 3eb5
000003a0: 6ee8 a433 adc5 3c34 c81e 2435 817a 76b6
000003b0: 3b1d 7235 5fdc 4eb6 3430 cf35 7b3a 3d36
000003c0: b84d e635 20e9 ca34 e2cb a1b4 14df c535
000003d0: 1ea8 7236 8f5e 6d35 c0e0 1636 abd4 48b6
000003e0: 0db6 e7b5 fc95 b1b5 dc19 6a36 898e a134
000003f0: 6827 8236 c2ba 95b3 ddbb 4836 c9ef 1a35
