tmp/aa_models/7.pt (torch_old, 283641 bytes, 18 tensors)

rnn.weight_ih_l0 f4 [204, 60]
000000 39 01 e2 bc 2c a7 c8 3d c1 1b 44 3e 6d c2 67 bc
       -0.027588474 0.097975105 0.19151212 -0.014145476
000010 1d 11 1c 3d 46 54 09 3d 6b 10 43 3d f8 d1 e4 3c
       0.038102258 0.033527635 0.04762308 0.027932152
000020 a4 98 91 be dc d6 a9 3d bc 5b bd bd 0f b0 84 be
       -0.28436768 0.08292934 -0.092460126 -0.25915572
000030 ee 37 cf 3d 4c 96 3b be f0 44 a5 3d cd f8 65 3d
       0.101180896 -0.18319052 0.080697894 0.056145478
000040 b4 dd dd bc c5 40 9d 3d 62 62 ac be 37 2e 08 be
       -0.027083255 0.076783694 -0.3366881 -0.1329888
000050 1b 7c 53 be 26 7b 8e bd cb 8c 0b 3d 99 9c 9d bc
       -0.20652811 -0.069570825 0.034069818 -0.01923971
000060 13 6d b4 3d a0 8b 2e bc b0 47 a6 3d 55 99 68 be
       0.08809867 -0.010653406 0.08119142 -0.22714742
000070 02 e9 ec 3b d4 b0 19 be c1 4c ed bb bb c0 08 be
       0.007229925 -0.15008861 -0.007241816 -0.13354771
000080 cf 60 88 bd 80 20 54 3d e1 5f d6 3d 69 f2 9e 3d
       -0.0665909 0.051788807 0.10467506 0.0776108
000090 18 60 bd bc c6 fd 80 bd 0d af dd bc ae a5 42 bd
       -0.02311711 -0.062984034 -0.02706101 -0.047521286
0000a0 e0 82 84 3d 8e 73 d3 3d 1b 74 0d 3d 9d 32 d0 3d
       0.06470275 0.10324775 0.034534555 0.10165904
0000b0 f1 4a 26 bc d2 4b 95 bb 9c f6 4d 3d d0 9e a9 bd
       -0.010149703 -0.0045561576 0.050284013 -0.08282244
0000c0 4e e9 44 bd f7 09 9a bd 1e c2 bc bd 2b 15 02 3e
       -0.04807406 -0.07521432 -0.092167124 0.12703387
0000d0 b4 69 c9 3d 60 df c7 3b d0 c4 fd bc 64 42 bd 3d
       0.098346144 0.0060996264 -0.030977637 0.09241179
0000e0 bc 31 f3 bd 2c 92 bd bd 3c 3a c3 bc 4c 7d bc 3d
       -0.118747205 -0.09256396 -0.02383148 0.09203586
0000f0 de c9 a6 3d ff c7 c2 3d c4 71 e1 3b 37 5b 56 3d
       0.08143972 0.095108025 0.006880017 0.052333083
000100 96 0b 04 3e 77 6c 8c 3b 42 ab a5 3b cd 05 08 3e
       0.12895045 0.004285391 0.005055816 0.13283463
000110 42 f3 b8 bc f2 67 6d 3d 7b dd ac 3c bc ff e3 3d
       -0.022576932 0.057960458 0.021101704 0.11132762
000120 56 e7 d5 3d 49 35 f1 3d 8a 85 9d 3d e6 b1 51 3d
       0.104445145 0.117777415 0.07691486 0.051195048
000130 92 89 b7 bc ed c0 e5 3d dd b7 8d 3d a9 e7 a4 bc
       -0.022404466 0.11218438 0.06919835 -0.020129995
000140 a0 a0 12 3e 22 da bc bc 0f 76 7b bd 2e e4 db bd
       0.14319086 -0.023053233 -0.061391886 -0.10736881
000150 da ee 1f bb a3 b3 5e bc ac 3e 88 3b 6d 68 f7 bd
       -0.0024403841 -0.013592633 0.0041578617 -0.120804645
000160 20 f6 71 bc 47 0e 32 bd 67 b4 20 bd 40 6f 6e 3c
       -0.014768153 -0.043470647 -0.039234545 0.014552891
000170 b9 ed a0 bd 7b da d7 bc b7 bd 92 3d e7 14 84 3d
       -0.07857842 -0.026349297 0.071650915 0.06449299
000180 ee 9c 0d 3e c2 8a 55 3d c7 c1 94 3c 09 30 0f bc
       0.13829395 0.052134283 0.018158806 -0.00873948
000190 46 b2 4e bd 41 2c e9 bd 80 99 d4 3b c9 6d 00 3e
       -0.050462984 -0.11385394 0.006488025 0.1254188
0001a0 06 4b 04 be 90 23 3b bc 7a e2 ee 3d d6 b0 a0 3d
       -0.12919244 -0.011422053 0.11664291 0.07846229
0001b0 7c 75 e1 bc 2a 90 f1 3d da 9b cc bd 2e b7 bf 3d
       -0.027521841 0.11795075 -0.09990664 0.09361111
0001c0 a2 48 11 bd bf d5 0e be 02 ca 94 3d fa 6b e4 3d
       -0.03546966 -0.13948725 0.072650924 0.111534074
0001d0 60 b6 9f 3b a0 e7 0f 3c e9 4d 04 3e cc f1 b4 bc
       0.0048740357 0.008783251 0.12920345 -0.022087954
0001e0 ec c8 b8 3d c5 12 3f 3d 1c 97 b4 3d 36 c0 fd 3c
       0.09022698 0.04664876 0.08817884 0.030975442
0001f0 62 79 91 3c d3 f0 1d 3e db 02 bd 3d 56 8d b9 3d
       0.017758075 0.15423898 0.0922906 0.09060161
000200 51 5e 38 3e a1 d8 c2 bc b4 f4 5c 3c 6c e1 b4 bc
       0.18004729 -0.023784937 0.013486076 -0.022080146
000210 b4 9b 10 3d c5 9d fb 3d 90 24 a5 bd e5 25 c8 bd
       0.03530474 0.122859515 -0.08063614 -0.09772853
000220 47 ad c3 bc 56 4f 9b 3d 40 71 26 3c 16 3f c0 bd
       -0.023886336 0.075834915 0.010158837 -0.09387033
000230 8f ac d1 3d 88 b7 97 3d 07 01 9f 3d 09 51 88 3d
       0.10237991 0.07408053 0.07763868 0.06656081
000240 3b 0b 30 be 68 f8 f2 3b 2d 83 02 be 9f a8 4a 3d
       -0.17191784 0.0074148662 -0.12745352 0.049477216
000250 41 6a 45 3d bf 08 fb bd e7 7d c5 bd d1 cc 1e bd
       0.048197035 -0.122575276 -0.096431546 -0.038769547
000260 d7 36 54 bd fc 45 01 be 25 ae f1 bd 15 1d a9 3d
       -0.05181011 -0.12624353 -0.118007936 0.082575
000270 22 1c 12 3d 28 54 01 3d 9c a6 51 bd db f8 43 bd
       0.03567136 0.0315744 -0.05118428 -0.04784475
000280 d4 42 05 3e 15 d9 82 bd aa 59 89 3d e1 c5 f4 3b
       0.13013774 -0.06389061 0.06706555 0.007469878
000290 3d 27 e1 3d 01 83 59 3d a5 1c 96 bd 20 fb 86 3d
       0.10993812 0.05310345 -0.07329682 0.06590867
0002a0 e5 b2 e5 3d 58 fd 26 bd 16 8a a1 3d 60 b0 b4 3c
       0.11215762 -0.04076895 0.07887666 0.022056758
0002b0 b8 99 94 3c 8e c6 89 bd 5c d3 37 3d 14 42 ee bd
       0.018139705 -0.067273244 0.044879302 -0.11633697
0002c0 44 b2 46 3d 22 ef ad 3d 2c 38 05 be 72 d1 1d bd
       0.04850985 0.084928766 -0.13009709 -0.03852982
0002d0 7c 47 7c 3d 12 73 18 3e c5 f6 3d 3e 7c 9b 0b 3e
       0.06159161 0.14887646 0.18551166 0.13633531
0002e0 cb 31 22 3e 03 43 46 3d 88 eb 5e 3d d8 e4 d2 3d
       0.15839307 0.04840375 0.05442384 0.10297555
0002f0 ac 52 64 bd a0 d3 9d 3d 13 f6 84 bd 64 33 76 bd
       -0.055742905 0.0770638 -0.064922474 -0.060107604
000300 b0 62 b1 3d 71 e4 c4 3d e6 b3 9a bd 8e 5a 73 3c
       0.08661401 0.09613884 -0.07553844 0.014853133
000310 fc fc 18 3d 45 85 0b 3e fe 23 64 bd d7 06 c4 bd
       0.03735064 0.13625057 -0.055698387 -0.09571617
000320 51 90 08 bd 94 07 78 bd 38 2d 74 3d d3 70 db bc
       -0.033340756 -0.060554102 0.059613436 -0.026787197
000330 d7 a1 8a 3d 81 60 85 bd fe b0 fa 3b 00 57 4d 3b
       0.0676915 -0.06512547 0.0076504936 0.0031332374
000340 1e f4 30 3e 32 95 fb 3b 81 e9 da bd 3a 51 d0 3c
       0.17280623 0.0076776976 -0.106890686 0.025429357
000350 41 88 88 3c e4 21 84 3d 77 19 dd bd 22 09 f3 3d
       0.016666533 0.064517766 -0.10795873 0.11866976
000360 b0 c2 a9 3d fb 99 8a 3d 1b f1 cc bd 4e e2 d9 bd
       0.08289087 0.06767651 -0.10006925 -0.10638867
000370 27 52 ea 3d 76 46 d6 bd f3 0a a5 3d 46 53 b6 3d
       0.114414506 -0.10462658 0.08058729 0.08902602
000380 85 51 0a 3c 9a cc 76 3d 1c 4e b2 3d 20 f7 05 3e
       0.008442287 0.060253717 0.087063044 0.13082552
000390 b8 ee 05 3b 4e 87 ef 3d 80 3f 47 bc e3 d6 ca bd
       0.0020436477 0.11695729 -0.012161136 -0.09904268
0003a0 70 57 84 3d e4 82 de 3d 7e 06 b4 bd 60 4f 14 bc
       0.0646199 0.10864809 -0.08790301 -0.009052128
0003b0 39 ff 0c 3e dc e4 53 bd e8 4a a1 bc 7d a6 9a bd
       0.13769235 -0.05173193 -0.019689038 -0.07551286
0003c0 2e 76 26 3d 62 a2 7f 3e 0f 94 3b 3e 83 73 a3 bd
       0.04064005 0.24964288 0.18318199 -0.079810165
0003d0 bb ef 9b bd bd 63 54 3e 76 f0 ae bd 36 65 c4 3d
       -0.07614084 0.20741172 -0.08541958 0.09589617
0003e0 fe 08 aa 3e e4 00 cb bd 87 79 05 be 61 fb 76 bd
       0.33209985 -0.09912279 -0.1303464 -0.060298327
0003f0 45 eb 4c 3d cc 3e 06 be 6a d2 92 3d de ff 32 3e
       0.050029058 -0.13109893 0.071690395 0.17480418

rnn.weight_hh_l0 f4 [204, 51]
000000 5e eb a6 3d 7b fd 5c 3c b8 a8 0c 3e c8 fa e4 be
       0.081503615 0.013488169 0.13736236 -0.4472258
000010 b0 e7 54 3e 47 4d a1 3d ef 84 c8 3d 26 9e 24 3e
       0.20791507 0.078760676 0.0979098 0.16075954
000020 9f 08 21 be 28 59 6c bd 96 01 07 be f4 1d 8d bd
       -0.15725945 -0.057702214 -0.13184199 -0.06890479
000030 bb 51 22 3c 5c 06 16 3c c6 a7 6e be 3a 69 4c 3d
       0.009907181 0.00915679 -0.23306188 0.04990504
000040 fb 9c 84 bd 81 3f 1e be eb 5b 37 be 9d 1a 0f ba
       -0.06475254 -0.15453912 -0.17906158 -0.0005458983
000050 5a 57 00 be e5 2e 55 3e ed ed 3d bc 9e b2 6b 3d
       -0.12533322 0.2081867 -0.01159237 0.05754339
000060 28 7c f0 bd 47 eb 10 bd 62 ef 37 3e 77 da 06 be
       -0.11742431 -0.035380628 0.17962411 -0.13169275
000070 a9 ee 61 3e a7 97 02 3e 42 dd 9b bc b2 f6 95 3e
       0.22063698 0.12753163 -0.019026402 0.29289776
000080 89 e5 0b be 69 23 f3 3d a6 9f 93 be 07 7d c1 3d
       -0.1366178 0.11871988 -0.2883274 0.09447675
000090 c3 6f ce 3d 46 f2 36 3e 2b fd ed bd d7 da 2f 3a
       0.100799106 0.17865857 -0.116205536 0.000670833
0000a0 d3 12 aa 3c 0c 70 d6 3c 1b d7 d9 bd 9c bf d6 3d
       0.02076093 0.026176475 -0.10636731 0.10485765
0000b0 0b d3 4c 3d 02 ad 57 be 3e 18 23 3d 16 76 fe bc
       0.050005954 -0.21062091 0.03981804 -0.031062167
0000c0 12 b1 fb bd ef ae 92 bc 4b 57 c1 3d cb 68 f6 3d
       -0.12289633 -0.01790568 0.09440478 0.120317064
0000d0 fd 17 33 bb ff 1d 12 3a a7 82 d3 be 2c 97 76 3c
       -0.002732753 0.0005573928 -0.41310617 0.015050691
0000e0 a6 05 ce 3d ca 54 44 3e 88 af 32 3d 8c e2 7b be
       0.10059671 0.1917297 0.04362443 -0.2459814
0000f0 38 6d 41 be e1 1f a3 be 7f b0 21 3e 00 50 f0 3d
       -0.1888932 -0.3186026 0.15789984 0.11734009
000100 85 fa 94 3e d7 86 7c be 9e a4 4c bc 32 c3 53 be
       0.2909738 -0.24660812 -0.01249042 -0.2067993
000110 14 e2 29 bd ab f2 39 be 92 6d b8 bd 01 ad b2 3b
       -0.04147537 -0.18158977 -0.09005274 0.0054527526
000120 6d be b5 3c cb c5 20 3d 08 2b 12 be 28 cd f0 bd
       0.022185529 0.03925113 -0.14274228 -0.117578804
000130 44 05 12 be 44 87 4c bd 61 fc d8 bc 37 15 3c 3e
       -0.14259821 -0.049933687 -0.026487531 0.18367468
000140 44 fa 97 3c 05 5c a2 bd 0b 4f 8d 3e 22 ab bd bd
       0.018551953 -0.079277076 0.27599367 -0.092611566
000150 8e 7f c5 bc f8 fd 04 be 4e 99 20 3d 16 f5 8f b8
       -0.024108674 -0.12987506 0.039208703 -6.864422e-05
000160 7d f5 e6 3d f0 87 06 be 64 11 97 bc 8c 0a 6c 3e
       0.11277292 -0.13137794 -0.01844091 0.23050898
000170 d9 5d 76 be b2 02 c3 bd 37 a8 ab 3d 9a 5c ae 3d
       -0.24059238 -0.095219985 0.08381694 0.08513756
000180 73 53 4d be f3 b7 ba 3d 8c d2 86 3e 25 72 21 be
       -0.20051365 0.09117117 0.2633251 -0.15766199
000190 46 9f fa bd 0d 8e 9e 3d 11 44 9e 3d 4f 7e ba 3d
       -0.1223741 0.07741938 0.077278264 0.09106123
0001a0 b7 e8 6d 3d 65 1b 75 be 51 c3 0f 3d f7 ea 8c 3d
       0.058083262 -0.23936231 0.035098378 0.068807535
0001b0 b8 39 b8 bc ef 6c 8c bd 1b 7f ef bd ac fb 80 3d
       -0.02248846 -0.06856715 -0.11694165 0.062980026
0001c0 6e a4 18 3d 12 ce f5 3d b9 2b c8 3c d1 77 f2 3d
       0.037266187 0.120021954 0.024434911 0.118392594
0001d0 00 bf 36 bd 0c 34 a6 3d e9 5e 26 bd 5d 6d 11 bd
       -0.044615746 0.08115396 -0.040617857 -0.035504688
0001e0 78 4a 1c be 73 61 41 bd 36 e5 e9 bd c8 f9 20 3e
       -0.15262783 -0.047212075 -0.11420672 0.15720284
0001f0 65 3c 9a 3d b7 d5 84 3d bf 47 27 be f1 65 13 3d
       0.075310506 0.06486075 -0.16335963 0.03598589
000200 e5 5f 01 3e 91 db 19 be d8 ce 3a 3d 89 10 3d bb
       0.12634237 -0.15025164 0.045607418 -0.0028848967
000210 cb b9 ab bd 8e 59 3b bc ac e4 89 bd a2 2f 3c bd
       -0.083850466 -0.011434926 -0.06733069 -0.045943864
000220 db da 06 be 71 2d c1 3d 84 83 08 be 25 13 1e 3e
       -0.13169424 0.094324954 -0.13331419 0.1543699
000230 1f 02 fc 39 37 47 d2 3c 91 05 a7 3d 47 ae e7 bc
       0.00048066766 0.025668724 0.081553586 -0.028281344
000240 7c 6c 96 3d a2 92 19 3d ad 49 26 be 55 da 86 3d
       0.073449105 0.037493356 -0.16239043 0.06584612
000250 18 b9 e6 bc 37 74 19 bd dd d0 9f bd eb 83 f2 bd
       -0.028164431 -0.037464347 -0.078035094 -0.118415676
000260 35 c9 55 bd e9 54 14 3e b2 59 6a 3d 22 ca ba 3c
       -0.05219384 0.14485516 0.057214446 0.022801463
000270 fe ef fd bd 9a c0 2c 3e df 24 0d 3d 93 55 09 3c
       -0.123992905 0.16870347 0.03445899 0.008382219
000280 76 60 07 3e 0f 17 49 be 75 04 02 3d c0 06 31 be
       0.1322039 -0.19637702 0.03174253 -0.17287731
000290 af c7 9c bd 6a 91 ee 3d 62 a5 81 3e ed 3a 53 bd
       -0.07655274 0.11648829 0.2532149 -0.051569868
0002a0 a0 00 4e 3b 5a 72 eb 3d 5a 22 0d 3c 3a f1 1d be
       0.0031433478 0.1149642 0.008614147 -0.15424052
0002b0 8f b3 3f 3d d7 a3 a2 3d b5 e6 35 bd 40 fc f6 3d
       0.0468021 0.07941406 -0.044409472 0.120598316
0002c0 71 da 81 bd c3 96 06 be 9d 09 37 bc 84 d1 c3 3d
       -0.063404925 -0.13143449 -0.011171726 0.09561446
0002d0 56 be d2 bb 5e 5e 13 3d ff c3 d0 3d 22 b4 ec bd
       -0.006431381 0.035978667 0.10193633 -0.11557795
0002e0 78 d6 ef bc 38 97 7d 3d e2 56 12 3d c3 88 5b bd
       -0.029277071 0.06191179 0.03572739 -0.053597223
0002f0 c0 f1 2d bd c7 31 10 bd d2 fd 60 3d a9 25 75 bd
       -0.04246688 -0.03520372 0.054929562 -0.05985037
000300 00 31 19 3d 4d 0b 02 bd 96 0c 65 bb 15 97 af bd
       0.037400246 -0.03174906 -0.0034950129 -0.085737385
000310 d5 b8 4e bd b1 1a 9c 3d 2f 33 de bd a6 34 7b 3b
       -0.05046924 0.076222785 -0.10849606 0.0038330941
000320 ba 47 c4 bd 84 fe 44 be 6c ae 05 bd 7f 0d 1b 3e
       -0.09583993 -0.19237715 -0.032637045 0.15141867
000330 e6 7b fa 3d a8 96 f7 bd cf eb ff 3d 23 b5 99 bd
       0.12230663 -0.12089282 0.12496149 -0.07505252
000340 c4 e2 30 3d 82 c6 53 3d a2 86 db 3d 7c 04 53 3e
       0.04318501 0.051702984 0.107190385 0.2060718
000350 36 14 4f 3b 2d 4d 05 be be 62 6a be c0 59 ba bd
       0.003159774 -0.13017721 -0.2288923 -0.0909915
000360 b2 ba 2b bd 3f e9 58 3d b8 75 da 3c 15 6c bc bd
       -0.041926093 0.052956816 0.02666746 -0.092003025
000370 89 3c ec 3d ff 95 5c be c5 f2 58 be ea 64 9e 3c
       0.11534984 -0.21541594 -0.21186359 0.019335229
000380 89 0f c8 3c 45 67 a7 bb af fd a6 3d be 06 a4 bd
       0.02442147 -0.0051087462 0.08153855 -0.080090985
000390 19 cf 9f bd 4e cd e3 bd 89 f5 3f 3d 65 7e ab bd
       -0.078031726 -0.11123143 0.04686502 -0.08373717
0003a0 1b cb 1f 3e 84 82 c3 3d c3 bd 48 bd 03 60 29 3c
       0.15604822 0.09546378 -0.049009096 0.010337832
0003b0 4a 4c ff bd 60 28 21 3e fe 2b d3 bd df 23 1f 3d
       -0.12465723 0.15738058 -0.10311125 0.03885257
0003c0 8f a8 aa 3c 70 ed a3 bd ef 8f 89 3d 56 c4 56 bd
       0.020832328 -0.08004272 0.06716906 -0.052433334
0003d0 7d 2e 39 bd 4b ee d3 3a 48 38 89 bc 20 6d 11 3d
       -0.04521035 0.0016169039 -0.01675047 0.03550446
0003e0 fb 5c e3 bd e3 3e 2d be 44 49 2a be 14 13 52 3d
       -0.11101719 -0.1691852 -0.16629511 0.051287726
0003f0 82 ba ae 3d a5 aa 5f 3d 3f 31 c3 3d 2c 67 41 3e
       0.08531667 0.0546061 0.09530877 0.18887013

rnn.bias_ih_l0 f4 [204]
000000 21 66 41 3e 27 5f 62 3e 75 05 0f ba 43 6d a6 bb
       0.18886615 0.2210661 -0.000545583 -0.005078943
000010 48 b1 5f bd 23 77 47 3e 1a 6d 2d bd 93 95 45 3d
       -0.054612428 0.19479041 -0.042340375 0.04823835
000020 f2 f3 bc bd 80 6a 0b bc b6 14 0a be 16 57 c8 3d
       -0.092262164 -0.008509278 -0.13484463 0.09782235
000030 7a 6f 24 3d ff a6 97 3d 95 7a 1a 3e 8c 87 35 3d
       0.040145375 0.07404899 0.15085824 0.04431872
000040 df 1d 80 3e e6 d1 08 3e de 4c 89 3d ad b9 44 3d
       0.2502279 0.1336132 0.067041144 0.048028637
000050 7f 32 af 3c ed 14 4b 3d c5 6d 7e 3e 40 54 e3 3c
       0.021386383 0.049580503 0.24846561 0.027750134
000060 e7 c2 58 3d 1e 49 a2 bd 14 d4 87 3d 20 6a 02 3d
       0.05292025 -0.07924102 0.066322476 0.03183949
000070 fa c6 b9 3d 95 fe 24 3e 69 1d e4 bb a2 43 c8 bb
       0.09071155 0.1611274 -0.006961514 -0.006111578
000080 a7 3b bf 3d 62 50 39 3e fe f6 a3 3d 64 38 cc 3d
       0.0933755 0.1809707 0.080060944 0.09971693
000090 20 81 2f bd 32 ae f2 3c 30 e0 a9 3d f7 5d 66 3d
       -0.042847753 0.029624078 0.082947135 0.056241956
0000a0 c7 c6 e0 3a c6 ca 5f 3e b7 2e 27 3e ce a7 56 3e
       0.0017149084 0.21854696 0.16326414 0.2096245
0000b0 43 f4 0c 3e 90 5a ba bd fa 68 d1 3d c9 af 11 3e
       0.13765053 -0.09099305 0.10225101 0.14227213
0000c0 94 22 04 3e 89 ec b1 3d 0b a9 05 3e e3 7e 21 be
       0.12903816 0.086876936 0.13052766 -0.1577106
0000d0 1f 98 f0 3d 23 c4 29 3e f3 7a 0e 3e e7 70 72 bd
       0.11747765 0.16578726 0.13914089 -0.059189703
0000e0 15 fa ce 3d 53 78 76 bd 75 7d a1 3d 6c 29 e1 bc
       0.10106293 -0.060173344 0.07885257 -0.027485572
0000f0 55 24 05 be 11 85 02 be a8 a6 a3 3c 4b 83 a0 bd
       -0.13002141 -0.12746073 0.019976929 -0.07837542
000100 5d 71 fa bd 40 e9 14 3e b5 f5 22 3e de 11 b2 3d
       -0.122286536 0.14542103 0.15914042 0.08694814
000110 29 30 06 3e 32 9d 2d 3d c6 d8 28 3d 71 2a 0a 3e
       0.13104309 0.04238624 0.041222356 0.13492753
000120 c8 48 29 3d 15 28 3b 3e 57 84 13 3d 7a 70 1e 3e
       0.041329175 0.18277009 0.03601488 0.15472594
000130 07 34 c8 3d 01 55 11 3e 66 54 0a bd fb 8a 11 bb
       0.097755484 0.14192583 -0.033771895 -0.0022208083
000140 3a 07 48 3d a0 82 71 bd 4d 38 85 3d e5 5b f8 bc
       0.048835017 -0.058962464 0.06504879 -0.030317256
000150 3e 73 40 3e b3 72 3d 3e dc ad 93 39 c2 3f 14 bc
       0.18793961 0.18500786 0.0002816756 -0.009048404
000160 ce b4 3a bd 62 61 a4 3d 25 07 fc 3d ab 5d f3 3c
       -0.045582585 0.08026387 0.1230605 0.02970775
000170 2a cb 2a be 8b be 29 3e fc 62 d2 bd 81 47 5b bd
       -0.16679063 0.16576593 -0.10272786 -0.05353499
000180 07 27 17 bd 98 a2 23 3e a7 e1 18 3d 13 13 81 bd
       -0.036902454 0.15979993 0.037324574 -0.06302466
000190 52 fb 1a 3e 2a 52 e6 3d e5 19 9a 3d 0e 63 26 3d
       0.15134934 0.1124614 0.0752447 0.04062181
0001a0 bb 62 1c 3e c3 ab 8c 3d 0c 27 38 3e f1 f8 4a 3e
       0.15272038 0.068686984 0.17983645 0.19821526
0001b0 02 69 75 3c 90 f8 5a bb ec 71 08 bd 8e 56 ea bd
       0.014978649 -0.0033412315 -0.03331177 -0.1144229
0001c0 93 3e 9d bd 3e 07 f7 3d 71 c2 22 3e 7c a9 d0 bd
       -0.07677951 0.12061928 0.15894486 -0.101885766
0001d0 eb e0 03 be 90 34 62 3d 89 6c 91 3d 40 be e8 bd
       -0.12878768 0.05522591 0.071007796 -0.11364412
0001e0 a4 aa c3 bd 38 56 0b be 58 af 76 bd 8d 82 bc 3b
       -0.095540315 -0.13607109 -0.060225815 0.0057528676
0001f0 c1 ab ff bc e4 e8 bd 3c 7e 3c 1c be 00 31 f5 3c
       -0.031209828 0.02318234 -0.15257451 0.029930592
000200 62 c2 fa 3d 93 46 30 be e2 a5 d5 38 4d ab cd bb
       0.12244107 -0.17214422 0.000101875296 -0.006276524
000210 d1 6b 30 be 01 4f 1b 3e 46 bd 1b be cc 0b 90 3d
       -0.17228629 0.15166856 -0.15208921 0.070335
000220 a5 d7 6b bc 08 ef 53 3d a9 a3 0f be d6 c1 02 3e
       -0.014394675 0.05174163 -0.14027275 0.12769255
000230 05 83 12 be f0 1e 10 3e a8 6e 11 3e 17 5f cd 3c
       -0.14307792 0.14074302 0.14202368 0.025069756
000240 ca 44 2e be 6c 37 49 be fa ef c5 bd 17 20 ee bd
       -0.17018428 -0.19650048 -0.096649125 -0.116272144
000250 95 8a cf bd 52 db 1a 3d 31 d8 bb bd f6 c6 12 be
       -0.10133854 0.037806816 -0.091720946 -0.1433371
000260 ad ba 17 3e de 07 00 3e fc aa cc 3d 55 12 2c 3e
       0.14817305 0.12503001 0.0999355 0.16803868
000270 6f 4d 6a 3e 38 44 21 3c 13 11 0e bb d2 7b 63 3d
       0.22881101 0.009842925 -0.0021677657 0.055538006
000280 c9 af 1f 3d 99 b6 30 3e b7 30 5a 3e 19 d2 6c bc
       0.038986 0.17257155 0.21307646 -0.014454388
000290 72 f1 39 3e 9b 7d 26 3e cc a8 a1 3d d0 2f a9 3e
       0.1815851 0.16258852 0.078935236 0.3304429
0002a0 b0 e9 05 3e f4 bc 31 bc fb aa 72 bd 6b 4d af 3c
       0.13077426 -0.010848273 -0.05924509 0.02139922
0002b0 9c 46 4b 3c 87 55 8f 3c ac 6d d2 3c 5a d4 2f bd
       0.012406971 0.017496837 0.025687061 -0.042927124
0002c0 0b de 4f 3e 00 c1 7c bd a6 19 22 3e f9 88 01 3e
       0.20299546 -0.061707497 0.15830097 0.12649907
0002d0 d1 1c 5e 3c 9e 39 b5 3c ee 70 cc 3d 11 0f 21 bd
       0.013556675 0.0221222 0.09982477 -0.03932101
0002e0 9f d8 63 3e 28 95 3c 3e 9d 7b 2e 3e f4 c1 d4 3c
       0.22250603 0.18416274 0.17039342 0.02597139
0002f0 8c ed 3d bd 1f 11 2c 3e 3d c1 06 3e d9 bf 45 3e
       -0.04636912 0.16803406 0.13159652 0.19311465
000300 9b 5b 49 bd af 16 16 3e e7 21 3f 3e b0 c4 66 3e
       -0.049159627 0.1465709 0.18665276 0.22535968
000310 ca 42 69 3e fc 16 3d 3d 45 92 8a 3d 3b 80 3d 3e
       0.22779384 0.046164498 0.0676618 0.18505947
000320 90 b6 32 bd 02 2d 31 3d c7 9e 05 3e 7d 60 42 3e
       -0.043631136 0.043255813 0.1304885 0.1898212

rnn.bias_hh_l0 f4 [204]
000000 53 d2 3d 3d 27 44 b2 3d c7 03 51 3d 8b c8 52 3c
       0.04634316 0.08704405 0.051028993 0.012865196
000010 55 28 0c bc 43 9c 36 3e a9 09 b0 3d e4 4f 3d 3e
       -0.008554538 0.17833047 0.085955925 0.18487507
000020 e2 9f 69 3c 56 bf 21 3e 0d ff bc 3d 64 d7 0e 3e
       0.01425931 0.15795645 0.092283346 0.13949353
000030 28 c6 24 3d e7 13 cc 3d d1 75 47 3d 38 33 08 3d
       0.04022804 0.099647336 0.048696343 0.03325197
000040 62 77 86 3e 5e 4d c3 3d 46 42 5c bd 45 6d 90 3d
       0.26262957 0.09536241 -0.05377414 0.070520915
000050 ee b7 c5 bc 83 56 2f bd e6 70 3b 3e 01 58 6e 3b
       -0.024135556 -0.042807113 0.18304786 0.0036368372
000060 a3 0e e4 3d d3 e5 d6 3a f1 7f db 3d 35 3c 94 bc
       0.11135604 0.0016395397 0.10717762 -0.018095115
000070 20 20 6e 3d 83 be 8c 3d 08 b6 fb 3d 9e e4 d2 bd
       0.058136106 0.06872275 0.12290579 -0.102975115
000080 76 ce 3a 3e a4 6d 8b 3d 8d 17 60 bc a1 bd a5 bd
       0.18242821 0.06808022 -0.01367749 -0.080928095
000090 e0 eb de bb e6 c7 85 3d 72 bb 45 3e 9a db 42 3e
       -0.006803021 0.06532268 0.19309786 0.19029084
0000a0 fa 29 9d 3d 3d 65 37 3e 28 fa 8e 3d 9b 64 3d 3e
       0.07674022 0.17909713 0.06981307 0.18495409
0000b0 54 0d 34 3d 5c f9 96 bd b0 8a b1 3c 24 b5 5b bd
       0.043958023 -0.0737178 0.021672577 -0.053639546
0000c0 1c 24 94 bd b8 2f 08 3e ab 92 3b bd 0c a0 b2 bd
       -0.0723345 0.13299453 -0.04579417 -0.08721933
0000d0 77 14 a5 3d d1 b3 aa 3d 63 73 b0 3d b6 29 32 3e
       0.08060544 0.083350785 0.08615758 0.17398724
0000e0 db 54 b4 bc f8 2d 97 bd 4d 84 81 3d b8 ef 95 3d
       -0.022013118 -0.07381815 0.063240625 0.07321113
0000f0 48 bd 05 be 0a ab b3 bd 14 06 52 bc 95 fd 20 3e
       -0.13060486 -0.087728575 -0.012818832 0.15721734
000100 29 d9 07 be f4 44 27 3e c1 41 69 bd 0b 5e 09 3e
       -0.13266434 0.16334897 -0.056947473 0.13414781
000110 25 51 52 bd 73 f5 27 3d d3 0d 24 3e b2 a3 70 3d
       -0.051346917 0.041005563 0.16020899 0.058749862
000120 a2 b2 e8 3d 50 63 02 3d 93 68 29 3e b1 bb 2b 3e
       0.113621965 0.031832993 0.16543798 0.16770817
000130 8d ff a6 bd 45 1c 3f 3d 86 e7 24 3e fd 3d de 3d
       -0.08154211 0.04665782 0.16103944 0.10851667
000140 67 bc 0a 3e bb ec 2c ba 15 3e f1 3c 63 38 27 3e
       0.13548432 -0.0006596555 0.029448548 0.16330104
000150 4e dc 79 3d b2 0e bf 3d 70 c5 05 bd 4c 6e 9d bd
       0.061001115 0.09328975 -0.032658994 -0.07687053
000160 0a f3 c9 3c 43 b4 ae bd 27 f9 36 3e e5 b7 ae bd
       0.024652023 -0.08530476 0.17868482 -0.08531169
000170 44 31 3c 3b 4b 3d 6f bc 10 5f 84 bd ce b2 d2 bd
       0.0028715888 -0.014602016 -0.06463444 -0.102880105
000180 f6 49 c4 3d a4 28 8d 3d cc c3 08 bd 46 f9 b4 3c
       0.095844194 0.06892517 -0.03338985 0.02209152
000190 43 d0 2d 3e 16 9a 2f 3e 58 6c 03 bd dc 84 24 be
       0.16973977 0.17148623 -0.032085747 -0.16066307
0001a0 b6 dd 3d 3e 06 57 e4 bd ab 8c 27 3e b7 9f 14 3e
       0.18541607 -0.11149411 0.16362254 0.14514051
0001b0 ad 74 25 3e 41 86 bf 3d a3 71 9e bd 96 5d cf bd
       0.1615779 0.09351779 -0.07736518 -0.10125272
0001c0 b6 fb 8e bd f1 86 1b 3e b8 0c 04 bd 4c 99 5b bc
       -0.06981604 0.15188195 -0.032238692 -0.013403248
0001d0 da 9b 9f 3d 4a 39 11 be 1c 15 88 bd 41 89 c6 3c
       0.07793398 -0.1418201 -0.06644651 0.02423537
0001e0 6a c7 24 3d 33 26 31 bd 13 f1 0a be 5f 08 b5 3d
       0.04022924 -0.04324932 -0.13568525 0.08839487
0001f0 56 4d 07 be 3a 86 21 be 3b fd 2e bd 9e 5d 7b 3d
       -0.13213095 -0.1577386 -0.04272197 0.061368577
000200 f9 8d 33 3e 12 14 0c be 83 c5 32 3c d7 7a 16 3e
       0.17534627 -0.13679531 0.010911348 0.14695297
000210 0d 8c 1f be 7e 27 88 3d e4 d3 30 3c cd e3 24 3e
       -0.15580769 0.066481575 0.010792706 0.16102524
000220 f6 72 ec bd df 27 a6 bd fb fa 04 3d 82 5a 3e 3e
       -0.115453646 -0.081130736 0.032465916 0.18589213
000230 e4 f2 ce bd ad 96 ed bc 1c 4a 3a 3d 3a 99 c6 bd
       -0.101049215 -0.029002512 0.045480832 -0.096971944
000240 63 f6 61 3d d2 4d 34 3d 09 6e e5 bd db ab ee bd
       0.055166613 0.044019528 -0.11202628 -0.116538726
000250 a3 4b 32 be 7b 8b 0c be c0 b8 15 be 20 7f 8f 3a
       -0.17411666 -0.13725083 -0.14621258 0.001094792
000260 25 b8 ed bc 87 dc 62 3e 24 5d 32 3d 18 38 11 3e
       -0.029018471 0.22154437 0.043545857 0.14181554
000270 e3 70 0b 3e 7e 86 48 3d 2b 71 bc 3b da 53 2e 3e
       0.13617282 0.048956387 0.0057507954 0.17024174
000280 7a aa cf 3d a0 45 7a bc 1b c4 be 3c 3f 68 85 bc
       0.10139938 -0.015275389 0.02328687 -0.01628506
000290 66 67 42 3e c2 37 11 bc 39 7c 9b 3c 68 a0 84 3e
       0.18984756 -0.008863391 0.018980132 0.2590363
0002a0 ed 43 32 3b 55 e6 e9 3d fb 80 02 3e 52 20 db bc
       0.0027201131 0.114208855 0.12744515 -0.02674881
0002b0 af 9f e4 3c 12 d0 ee 3d c7 e6 1f 3e d8 02 02 bc
       0.027908174 0.1166078 0.15615378 -0.007935248
0002c0 2a 47 9f 3c db 35 60 3b ae 38 60 3d 36 81 81 3c
       0.019443113 0.0034211788 0.054741554 0.015808683
0002d0 5b 0c 52 bd 62 8d 9f bc e9 bd 20 3d 35 9c 3f bd
       -0.051281314 -0.019476596 0.039243612 -0.04677983
0002e0 d6 97 8c bc 7d 73 66 bd 18 46 9c 3d 29 0d 4b 3e
       -0.017162245 -0.056262482 0.07630557 0.19829239
0002f0 9a 71 0e 3e c6 83 d6 3d 4c 99 d7 3d 06 7a 2b 3e
       0.13910523 0.104743525 0.10527286 0.16745767
000300 dc b7 6c 3d b3 1a 08 3e 0c 07 be 3d 7c 53 7b 3d
       0.05779253 0.13291435 0.09278688 0.061358914
000310 37 ad 37 3e 4c a0 96 3d 07 56 4e 3e 22 f5 43 3c
       0.1793717 0.07354793 0.20150004 0.0119603
000320 0c 90 24 3d b6 0c 3f 3e 03 ac 11 3e 06 b1 2a 3d
       0.040176436 0.18657193 0.14225774 0.04167273

nf.weight f4 [6, 51]
000000 12 02 a8 be 97 c0 83 be 80 bc 54 3e 70 b0 f4 3c
       -0.3281408 -0.25732872 0.20775032 0.029869288
000010 bd d1 bf 3d 29 ea fa 3d d4 d4 97 3d b3 bc fd 3d
       0.09366176 0.12251694 0.074136406 0.12389507
000020 9e fc e7 3e 3d 14 8d 3e 74 62 81 3e 8d 80 56 3e
       0.4530992 0.27554503 0.25270426 0.20947476
000030 e9 9f 52 3e 32 f9 8f be d6 75 07 be 47 12 54 be
       0.20568813 -0.28119808 -0.13228545 -0.20710097
000040 ae 24 8c 3e 81 af 0d be 0b ef eb 3c a1 ad 8d be
       0.27371734 -0.1383648 0.028800508 -0.2767153
000050 32 89 a5 bd e0 28 0b 3e d2 5f c2 bd 03 24 5a be
       -0.080828086 0.13589811 -0.094909325 -0.213028
000060 a0 25 b8 bd 0e 5f ac bd 7d 88 e9 3d a4 ea 9c bd
       -0.089915514 -0.08416568 0.11402986 -0.07661942
000070 ec bf 01 bf 31 21 ad 3d 34 f5 e4 bd b6 f5 ee 3c
       -0.50683475 0.084535964 -0.11179581 0.029169898
000080 85 ad 70 be b0 ee 2d 3e d8 69 81 bd 7a c7 38 3e
       -0.23503692 0.16985583 -0.06319016 0.18044844
000090 86 44 96 be a7 53 8c 3c b2 99 f1 bd a4 27 39 3e
       -0.29349154 0.017129732 -0.11796893 0.18081528
0000a0 d3 9f a6 bc 92 3f d0 3e 06 0c bd bd 76 d4 50 be
       -0.020339882 0.406735 -0.09230809 -0.20393547
0000b0 ed 00 46 be 94 d5 4a be c2 66 88 be d8 7b 6e be
       -0.1933629 -0.19808036 -0.26640898 -0.2328943
0000c0 f5 2c 8b bd 63 0b 55 bd 3d 5f 56 3e 00 ad 7f 3d
       -0.06795684 -0.052012812 0.20934768 0.062420845
0000d0 77 95 1e 3e a5 a4 1c 3e 35 9b 11 be 1f 51 97 3e
       0.15486704 0.15297182 -0.14219363 0.29554078
0000e0 79 ec 03 3f 14 c7 1b bf 45 61 89 3d ac 95 b7 bd
       0.51532704 -0.60850644 0.06708006 -0.089640945
0000f0 76 ce 9e be b0 86 a5 bd 7c 31 f2 bd 9c db fc be
       -0.31016892 -0.0808233 -0.11825845 -0.493863
000100 f3 6c 28 3e e6 a1 be be d1 48 ab 3e 47 ea a1 be
       0.16447811 -0.37232894 0.33453992 -0.31624052
000110 f1 2b 85 be cd fe 58 be f3 22 b1 3e 4a 92 fb be
       -0.26010087 -0.21190949 0.34596977 -0.49135047
000120 5d f3 a7 3d 3c e5 d4 3e 47 fc 80 3e 21 31 ec bd
       0.08200715 0.41581142 0.25192472 -0.11532808
000130 6f b5 3e 3e d7 72 07 3f 89 96 08 3f 4d bd d3 bc
       0.18623899 0.52909607 0.533547 -0.025847102
000140 3e f9 09 bf bb 02 07 be 62 10 1e 3d 2e 7f 87 3c
       -0.5389594 -0.13184635 0.038589843 0.016540136
000150 a9 f9 a0 3e 1b 7c 35 be 96 d3 7f be b2 7b aa 3e
       0.31440476 -0.17723124 -0.24983057 0.33297497
000160 a9 af 9d 3e ef 30 e4 3e 18 04 8c be 1d d7 d2 be
       0.3079808 0.44568583 -0.27346873 -0.41179743
000170 19 26 4d be b9 4b 45 be ed 7e 67 bd 61 ac 6f 3e
       -0.20034064 -0.19267167 -0.05651753 0.23405601
000180 9e 58 8b 3e e5 26 6d 3e 28 61 8d 3e 96 bb d1 bd
       0.27216047 0.23159368 0.27613187 -0.10240857
000190 21 26 29 be 1f ce 0f 3e d0 45 b7 bd 57 c5 e6 3c
       -0.16518451 0.14043473 -0.089488626 0.02817027
0001a0 f4 76 1a bd b7 6c a2 3e e1 bf 02 be 07 80 19 be
       -0.0377111 0.31723568 -0.12768508 -0.14990245
0001b0 26 c2 8f be 42 d3 8c ba 4b 0e ce 3c 8c 6f 75 bd
       -0.2807781 -0.0010744112 0.0251533 -0.059920833
0001c0 c1 58 a4 3d b9 4f e5 bd 56 ef fe bd 2f fa 65 3e
       0.08024741 -0.111968465 -0.124479935 0.22458719
0001d0 d7 49 0d 3e b3 3e 75 3e 0c 75 a6 3d 96 cc a3 3d
       0.13797699 0.23949699 0.08127794 0.07998006
0001e0 fc 32 2e 3e 6d 55 84 3e 79 e8 5f 3e 68 8d 1c be
       0.17011636 0.25846425 0.21866025 -0.15288317
0001f0 d8 76 93 3d 7f a4 a0 3b a1 5d 34 bd ae 49 38 3e
       0.07200402 0.004902422 -0.044034604 0.17996857
000200 2c 5f d3 ba 12 ac 34 3e e8 c5 0d be de ae e7 bd
       -0.0016126386 0.17643765 -0.13845026 -0.1131265
000210 b4 1f 3a 3e ba 8f 0a bd 5e 01 76 bc 6a 75 ce bc
       0.18176156 -0.033828475 -0.015014974 -0.025202472
000220 da 07 00 3e 3a fd b7 be 70 64 15 3e 7c 51 50 be
       0.12502995 -0.35935384 0.14589095 -0.20343584
000230 96 06 70 3e d2 4d a4 bd 03 09 6a be 7f 90 dc 3c
       0.23440012 -0.080226555 -0.22855 0.02692437
000240 53 d4 a9 3d 8f f6 0a bd c5 38 e2 3c 38 04 15 3e
       0.08292451 -0.033926543 0.02761496 0.1455239
000250 3a 46 df 3c 6a 95 bd b9 2a 2b 44 3e 7e 2a 07 3e
       0.027255166 -0.0003616021 0.19157091 0.13199803
000260 4f 62 9d bd aa 0e c1 bd e8 ed 77 3e d0 14 00 bf
       -0.076847665 -0.09426625 0.24211848 -0.5003176
000270 30 11 08 be 20 bf 88 be ee 95 06 bf 2b 30 70 3e
       -0.13287807 -0.26708317 -0.52572525 0.23455875
000280 e9 b7 59 be bd 86 3a be 6c e0 6d bd e3 41 5d be
       -0.21261562 -0.18215461 -0.058075354 -0.21607165
000290 fb 1f 1c be 07 63 c1 bd df a3 e2 3e e4 ee 04 3f
       -0.15246575 -0.09442716 0.4426565 0.5192702
0002a0 a1 33 81 be f6 08 ce 3c 0e 33 23 3c 5c fd 1f be
       -0.25234702 0.025150757 0.009960903 -0.15623993
0002b0 f5 fb 91 3e 5c 91 75 3e cc 62 62 be 6b ac 29 bf
       0.2851254 0.23981231 -0.22108 -0.66278714
0002c0 c4 f5 0b 3e 66 56 80 3e f5 c2 84 be 1e f3 ff be
       0.13667971 0.25065917 -0.2592999 -0.4999017
0002d0 c2 88 65 be 14 95 ad 3e 63 2c 3b 3e 2f 78 d8 3e
       -0.2241545 0.339028 0.18278651 0.42279193
0002e0 89 ce 56 3e 30 62 8d 3d bf c5 c5 be 98 68 34 3d
       0.20977224 0.069034934 -0.3862743 0.04404506
0002f0 db be 4a 3e ef 23 14 bd 73 ad c8 be 98 49 b3 be
       0.19799368 -0.03616708 -0.3919483 -0.35017085
000300 81 93 0e 3e 4f 8c 78 3e 6c 1f 7a be c7 89 28 3e
       0.13923456 0.24272273 -0.24426049 0.16458808
000310 dd 4a 66 3e 72 ff 9b 3e 27 47 46 be ab 8c dc bc
       0.22489496 0.30468327 -0.1936308 -0.026922544
000320 3d ed 46 bd 4a f7 37 3e 24 55 89 bd 8d f9 a8 be
       -0.04856609 0.17965427 -0.067056924 -0.33002892
000330 ea 2b 06 3c 36 8b 32 3d 21 ae 1c 3e bf ab 8b 3e
       0.008189181 0.043589793 0.153008 0.2727947
000340 50 ec b3 3d de a6 4b be be 4f 58 3e 13 f9 85 be
       0.087853074 -0.19887874 0.21124169 -0.2616659
000350 c6 d3 62 be 11 7c 37 be ef bd 66 3d a6 49 96 bd
       -0.22151098 -0.17918421 0.05633348 -0.07338266
000360 e3 96 73 3c 0f 39 f2 3d dd 31 67 3e 7d 8f 2c bc
       0.014867517 0.11827289 0.22577615 -0.010532257
000370 81 1e a6 3d 5f ed 0f 3e e5 72 5b 3e d1 d1 0d be
       0.08111287 0.14055394 0.21430548 -0.1384957
000380 de 7e bf 3e 6b 55 3e bd ea da ef 3e 33 36 fb bd
       0.3740148 -0.04646818 0.46846706 -0.12266197
000390 f5 12 a4 3e 0f 7b 68 ba 4b 3d bf be bf 08 c7 bd
       0.32045713 -0.0008868435 -0.3735145 -0.09718465
0003a0 5a 60 08 3b 0f 51 1e 3e 79 d8 83 be d8 38 31 bf
       0.0020809383 0.15460609 -0.25751093 -0.6922736
0003b0 51 54 2c 3e 40 61 b5 be 02 6b 96 3c 9c bd e9 be
       0.16829039 -0.35425758 0.018361572 -0.45652473
0003c0 46 6e bc 3e de 41 19 be ff 39 2c 3d fc 58 7c bb
       0.36802882 -0.14966533 0.042047497 -0.0038505187
0003d0 81 0b 66 3d ea d8 f1 3a ae 62 dc bd f7 19 61 3e
       0.056163315 0.0018451486 -0.10761009 0.21982561
0003e0 07 98 73 be 9a 13 87 3e 3b 01 24 3e d5 55 f0 3d
       -0.23788463 0.26382142 0.16016094 0.11735121
0003f0 19 b3 7f 3e 44 b8 30 3d 85 e1 83 be 52 eb ef 3c
       0.24970664 0.04314448 -0.25757995 0.029287014

nf.bias f4 [6]
000000 82 6d 90 bd c5 8a 6d 3d 45 12 e3 bd 1c db 86 bd
       -0.07052137 0.05799367 -0.11087469 -0.065847605
000010 af ed 07 3d 06 ee 97 3c
       0.033185657 0.018546116

exp_avg f4 [204, 60]
000000 27 c8 15 b9 a5 3b c3 b8 3e c6 52 b8 a1 be 9a b7
       -0.0001428431 -9.309434e-05 -5.025253e-05 -1.8447e-05
000010 6b 13 16 b9 9a 5c 76 b8 6a fe 47 b8 39 30 cd b8
       -0.00014312349 -5.8737212e-05 -4.768224e-05 -9.784144e-05
000020 2b 4b bb b8 16 a9 0b b8 61 d4 36 37 37 58 fe b7
       -8.930856e-05 -3.3297656e-05 1.0897494e-05 -3.0320238e-05
000030 21 61 bc 37 cd d1 3c 37 81 1f 25 37 f9 f4 4a 37
       2.2456576e-05 1.1254521e-05 9.8421015e-06 1.2097175e-05
000040 39 94 18 36 0d a6 23 37 e8 0f 07 37 cc ff 34 36
       2.2736042e-06 9.754219e-06 8.0503305e-06 2.6970984e-06
000050 cc 12 9f 35 2d 14 95 35 da 65 70 35 e5 5a 77 af
       1.1851894e-06 1.1107237e-06 8.955518e-07 -2.2496811e-10
000060 f7 77 47 31 2b 20 db 30 2b 50 8c 30 77 6b d1 2f
       2.9026503e-09 1.594349e-09 1.0209126e-09 3.8093237e-10
000070 ab 5d 49 30 b5 cc 20 31 38 81 cd 2f 96 29 87 24
       7.3256484e-10 2.3399427e-09 3.7381098e-10 5.8617367e-17
000080 24 2d f4 2b a3 af cd 2a da 3b 9a 2a 3c be e3 1c
       1.7349772e-12 3.6537188e-13 2.7397426e-13 1.5070774e-21
000090 72 8c 45 24 2b 57 26 23 29 25 3b 24 8d 21 59 1c
       4.2836527e-17 9.0173366e-18 4.0580637e-17 7.184264e-22
0000a0 44 a2 29 1d 9f 21 d9 1b 6b fd bd 1d 55 6b 30 1d
       2.2450853e-21 3.5921366e-22 5.028991e-21 2.3348895e-21
0000b0 37 d9 a2 1b 0a b5 87 1d 69 34 37 1d f8 eb 00 1d
       2.6941024e-22 3.5921392e-21 2.4246944e-21 1.7062652e-21
0000c0 37 d9 22 1d 00 00 00 00 00 00 00 00 00 00 00 00
       2.1552819e-21 0.0 0.0 0.0
0000d0 00 00 00 00 00 00 00 00 00 00 00 00 00 00 00 00
       0.0 0.0 0.0 0.0
0000e0 00 00 00 00 00 00 00 00 00 00 00 00 00 00 00 00
       0.0 0.0 0.0 0.0
0000f0 cd 8f 89 36 2d 0c 24 35 85 97 60 36 9c 20 ac b5
       4.099659e-06 6.111248e-07 3.3466797e-06 -1.2824489e-06
000100 dd c6 cf b4 95 53 38 36 95 91 25 35 93 e5 a5 34
       -3.8701447e-07 2.7466788e-06 6.167914e-07 3.0900682e-07
000110 8c b0 da 33 fd e3 c7 b4 6a 21 44 b4 ab 04 21 b2
       1.018353e-07 -3.7232522e-07 -1.8266078e-07 -9.372495e-09
000120 9d 4b 42 2f 03 d1 80 af 07 37 e1 ad e5 b2 2a ac
       1.767106e-10 -2.3431576e-10 -2.5603976e-11 -2.425776e-12
000130 ff 70 a1 ab 99 82 e0 a9 e7 63 01 2c fe 05 1f a9
       -1.1471101e-12 -9.9702534e-14 1.838746e-12 -3.531029e-14
000140 1d 4f 3d a9 19 32 28 a9 92 e4 08 a9 ec 52 6f a9
       -4.203505e-14 -3.7346946e-14 -3.039632e-14 -5.3140584e-14
000150 6f 7c c3 27 9d b2 f5 a8 68 7b 4b 29 c8 cc c1 28
       5.4258284e-15 -2.7277925e-14 4.5182093e-14 2.1516114e-14
000160 ad 13 95 27 0f fb 4c 29 0d fc a3 28 c8 cc c1 28
       4.137714e-15 4.5514858e-14 1.8205945e-14 2.1516114e-14
000170 3a 70 ab 28 0f fb 4c 29 3e 6e 7d 28 04 00 00 80
       1.9033484e-14 4.5514858e-14 1.4068226e-14 -6e-45
000180 7f 9f 8d 28 e4 85 6e 27 52 2b 86 28 04 00 00 80
       1.5723315e-14 3.3101717e-15 1.4895776e-14 -6e-45
000190 04 00 00 80 00 00 00 00 00 00 00 00 00 00 00 00
       -6e-45 0.0 0.0 0.0
0001a0 00 00 00 00 00 00 00 00 00 00 00 00 00 00 00 00
       0.0 0.0 0.0 0.0
0001b0 00 00 00 00 00 00 00 00 00 00 00 00 00 00 00 00
       0.0 0.0 0.0 0.0
0001c0 00 00 00 00 00 00 00 00 00 00 00 00 00 00 00 00
       0.0 0.0 0.0 0.0
0001d0 00 00 00 00 00 00 00 00 00 00 00 00 00 00 00 00
       0.0 0.0 0.0 0.0
0001e0 46 e6 2b b7 f8 e9 e2 b6 19 73 68 b6 a4 56 bc b6
       -1.0246009e-05 -6.7625624e-06 -3.463769e-06 -5.612923e-06
0001f0 45 4e 5f b6 2b 1d 88 b4 10 21 1f b4 c1 41 54 b4
       -3.3275148e-06 -2.5353197e-07 -1.4820057e-07 -1.976796e-07
000200 5a a8 24 b3 1b 52 fe b3 ad 93 3b b3 c5 92 24 b3
       -3.833734e-08 -1.18427316e-07 -4.367364e-08 -3.831771e-08
000210 64 51 f8 b2 db 42 a4 b1 80 77 42 b2 02 33 1d b2
       -2.8908012e-08 -4.780629e-09 -1.1319457e-08 -9.150201e-09
000220 73 6e 05 b2 f6 3e 77 2d cb 77 52 2d b7 8d 75 2f
       -7.766732e-09 1.4054305e-11 1.1963717e-11 2.2332967e-10
000230 d1 65 b3 2d 93 67 55 ac 80 07 36 2f 74 fe 5c ac
       2.039516e-11 -3.0326616e-12 1.6555468e-10 -3.140513e-12
000240 fe ff b0 2e 8b cf 42 2e db 6c 56 2e c0 b0 57 2d
       8.049027e-11 4.4294828e-11 4.875465e-11 1.22605814e-11
000250 68 e8 8a 2d 13 1a a2 2e 4d e2 4a 2d 32 ec 06 23
       1.5791993e-11 7.371539e-11 1.15326195e-11 7.314171e-18
000260 f1 68 9e 24 f0 f5 18 a0 7b 44 af a1 f0 f5 98 9f
       6.8699355e-17 -1.2956275e-19 -1.1876588e-18 -6.4781373e-20
000270 b8 b1 d8 a0 39 ef fe a0 f0 f5 18 a0 04 00 00 80
       -3.6709428e-19 -4.3187578e-19 -1.2956275e-19 -6e-45
000280 04 00 00 80 04 00 00 80 04 00 00 80 04 00 00 80
       -6e-45 -6e-45 -6e-45 -6e-45
000290 04 00 00 80 04 00 00 80 04 00 00 80 04 00 00 80
       -6e-45 -6e-45 -6e-45 -6e-45
0002a0 04 00 00 80 00 00 00 00 00 00 00 00 00 00 00 00
       -6e-45 0.0 0.0 0.0
0002b0 00 00 00 00 00 00 00 00 00 00 00 00 00 00 00 00
       0.0 0.0 0.0 0.0
0002c0 00 00 00 00 00 00 00 00 00 00 00 00 00 00 00 00
       0.0 0.0 0.0 0.0
0002d0 a4 88 68 b6 38 0c 31 b6 90 ee 1a b4 8d 8d ce b3
       -3.465023e-06 -2.6382168e-06 -1.4429156e-07 -9.6183705e-08
0002e0 27 18 bd b3 10 57 95 b4 36 61 cb b3 9d ac e2 b3
       -8.8053916e-08 -2.781676e-07 -9.470607e-08 -1.0555343e-07
0002f0 cc 1d e9 b3 c3 eb 1f b3 61 75 c4 b2 6f ac 85 b3
       -1.0855328e-07 -3.7234496e-08 -2.287078e-08 -6.2246606e-08
000300 b2 cc 5c b0 fb 61 af b1 90 17 b6 b0 20 2b 17 ac
       -8.0326423e-10 -5.1043094e-09 -1.324894e-09 -2.148233e-12
000310 5a c1 2a b0 3d c9 27 ab 60 74 e0 af 9f 51 1f b0
       -6.212041e-10 -5.960959e-13 -4.0828052e-10 -5.7959854e-10
000320 38 fe 3c af 44 79 19 b0 a0 90 b0 af 79 1c c8 af
       -1.7188817e-10 -5.5833405e-10 -3.2116976e-10 -3.640002e-10
000330 d3 61 3c af a8 2b 13 b0 ba 5f bc ae 17 19 12 26
       -1.7133255e-10 -5.354033e-10 -8.5662547e-11 5.068793e-16
000340 77 11 f6 24 a7 fb 5e 9f ed 62 b2 9e 02 d2 d2 9e
       1.0671508e-16 -4.721849e-20 -1.8887398e-20 -2.2321472e-20
000350 b1 7e ba 9e a7 fb 5e 9f 13 d8 89 9e 04 00 00 00
       -1.9745914e-20 -4.721849e-20 -1.4594805e-20 6e-45
000360 9d 0f 9a 9e 50 bc 81 9d d9 f3 91 9e 04 00 00 00
       -1.6311842e-20 -3.4340726e-21 -1.5453325e-20 6e-45
000370 04 00 00 00 04 00 00 80 04 00 00 80 04 00 00 80
       6e-45 -6e-45 -6e-45 -6e-45
000380 04 00 00 80 04 00 00 80 04 00 00 80 04 00 00 80
       -6e-45 -6e-45 -6e-45 -6e-45
000390 04 00 00 80 00 00 00 00 00 00 00 00 00 00 00 00
       -6e-45 0.0 0.0 0.0
0003a0 00 00 00 00 00 00 00 00 00 00 00 00 00 00 00 00
       0.0 0.0 0.0 0.0
0003b0 00 00 00 00 00 00 00 00 00 00 00 00 00 00 00 00
       0.0 0.0 0.0 0.0
0003c0 bf 75 a7 38 13 07 1c 37 cc 6d 3f 39 e4 a2 d9 b7
       7.9851125e-05 9.299972e-06 0.00018256082 -2.5944268e-05
0003d0 45 c1 15 39 94 27 41 38 5c 8d 6e 39 56 a9 90 38
       0.00014281746 4.6051646e-05 0.00022750109 6.897996e-05
0003e0 28 b9 8d 38 bf 56 90 38 b4 cd 04 39 e2 ee 29 39
       6.757892e-05 6.882613e-05 0.00012665131 0.00016206087
0003f0 76 f2 1c 37 b3 a3 99 38 54 07 3c b7 49 7c 34 b6
       9.354777e-06 7.3261e-05 -1.1207379e-05 -2.6894434e-06

exp_avg_sq f4 [204, 60]
000000 af 47 29 34 ea e0 9a 33 62 aa 3f 33 db 3b 28 33
       1.576543e-07 7.2120955e-08 4.4625615e-08 3.9169986e-08
000010 06 59 43 33 21 49 2a 33 15 0d 4d 33 40 cb 52 33
       4.5482942e-08 3.964772e-08 4.774218e-08 4.907929e-08
000020 78 28 70 33 78 1d ef 32 45 98 91 32 af 78 6f 32
       5.591616e-08 2.7836663e-08 1.6949466e-08 1.3939071e-08
000030 a6 73 46 32 2f 57 9d 31 40 4a 34 31 b5 84 0e 31
       1.1551412e-08 4.579213e-09 2.6235654e-09 2.0739155e-09
000040 ce 0b 5b 30 9f 10 ab 30 d1 06 9f 2f da 06 a9 2f
       7.968851e-10 1.2446612e-09 2.8926775e-10 3.074579e-10
000050 9e 5c 1e 30 7f 69 92 2f cf 8b 5a 2f d3 ab c5 2c
       5.761168e-10 2.6632205e-10 1.9876654e-10 5.618153e-12
000060 c6 ec cf 2c 04 c9 cd 2c 18 73 ae 2c c0 c1 23 2a
       5.909581e-12 5.8487677e-12 4.9581554e-12 1.4544529e-13
000070 6a 4c 2d 2c 6c 68 9f 2b 22 f7 09 29 f8 a9 80 29
       2.4627197e-12 1.1326612e-12 3.0634464e-14 5.713827e-14
000080 2b 43 09 28 db ea c8 29 1b cf 26 27 6c f3 67 29
       7.6195925e-15 8.922525e-14 2.31494e-15 5.150344e-14
000090 1c 33 ea 29 66 7c 24 28 e5 0b b9 26 eb 7c 24 28
       1.04005536e-13 9.130803e-15 1.2840178e-15 9.130916e-15
0000a0 cf c9 c8 29 65 7c 24 27 70 de fb 2a 21 2c d9 29
       8.9167924e-14 2.2827006e-15 4.4740904e-13 9.644391e-14
0000b0 e3 0b b9 26 35 81 80 2a 0d 33 ea 29 58 f3 67 29
       1.2840176e-15 2.2827023e-13 1.04005434e-13 5.150337e-14
0000c0 e3 0b b9 29 00 00 00 00 00 00 00 00 00 00 00 00
       8.2177124e-14 0.0 0.0 0.0
0000d0 00 00 00 00 00 00 00 00 00 00 00 00 00 00 00 00
       0.0 0.0 0.0 0.0
0000e0 00 00 00 00 00 00 00 00 00 00 00 00 00 00 00 00
       0.0 0.0 0.0 0.0
0000f0 34 93 b1 33 8c b1 0f 34 6f c7 a7 33 9c 90 27 33
       8.268981e-08 1.3382504e-07 7.81282e-08 3.901424e-08
000100 a5 ce 3e 32 62 74 f6 32 22 e3 d4 32 23 66 4c 31
       1.1106441e-08 2.8691094e-08 2.4783336e-08 2.9743965e-09
000110 98 9f 58 31 b0 88 48 30 95 94 f8 2f c9 9e c0 2d
       3.1522855e-09 7.295382e-10 4.521651e-10 2.1898388e-11
000120 9a 16 aa 2b 1e 4f 89 2b 2b c8 f4 28 d8 e1 3d 28
       1.20855e-12 9.756395e-13 2.717625e-14 1.054058e-14
000130 51 b6 88 27 d8 ba 84 25 c4 51 97 21 63 b3 8c 22
       3.794525e-15 2.302496e-16 1.0253801e-18 3.813701e-18
000140 46 1d c0 23 43 05 a0 23 7f 36 ae 22 0f 74 30 24
       2.082908e-17 1.7349463e-17 4.7220494e-18 3.8262222e-17
000150 4f c6 f8 23 d4 e3 df 20 ef 38 f0 1e b4 23 32 1e
       2.6972201e-17 3.7928433e-19 2.5434536e-20 9.430625e-21
000160 10 dd b6 1e c1 ad 48 1b 69 67 3c 1a bc f4 d3 19
       1.9361429e-20 1.6599755e-22 3.8961023e-23 2.1915736e-23
000170 80 24 8c 1a b9 04 e9 1a 44 18 32 19 9c 70 46 12
       5.796161e-23 9.637417e-23 9.207285e-24 6.2616585e-28
000180 84 7a 5e 19 0e c2 1d 17 ad a9 47 19 e4 2a a6 12
       1.1501873e-23 5.0974367e-25 1.0322325e-23 1.0486646e-27
000190 e3 c7 2f 10 00 00 00 00 00 00 00 00 00 00 00 00
       3.4666652e-29 0.0 0.0 0.0
0001a0 00 00 00 00 00 00 00 00 00 00 00 00 00 00 00 00
       0.0 0.0 0.0 0.0
0001b0 00 00 00 00 00 00 00 00 00 00 00 00 00 00 00 00
       0.0 0.0 0.0 0.0
0001c0 00 00 00 00 00 00 00 00 00 00 00 00 00 00 00 00
       0.0 0.0 0.0 0.0
0001d0 00 00 00 00 00 00 00 00 00 00 00 00 00 00 00 00
       0.0 0.0 0.0 0.0
0001e0 a0 47 08 33 b9 dd 1f 33 82 08 9d 32 5a 22 b7 32
       3.173011e-08 3.7221728e-08 1.8281074e-08 2.1319625e-08
0001f0 50 09 a1 32 39 4f 14 32 27 60 01 32 c1 ec ab 31
       1.8747102e-08 8.632747e-09 7.530651e-09 5.003671e-09
000200 da 19 3e 31 72 56 9c 31 c2 11 65 31 8a cd 1d 31
       2.7663334e-09 4.5500252e-09 3.333398e-09 2.2963342e-09
000210 0d e6 24 31 e6 9a 34 30 07 14 11 30 bd bd 7a 2f
       2.399591e-09 6.570374e-10 5.2779153e-10 2.2804776e-10
000220 08 2e 0d 2f 15 e3 b3 2d 9b 74 40 2e d0 af 1a 2e
       1.2840229e-10 2.0450789e-11 4.3759312e-11 3.51717e-11
000230 ce 52 bc 2c 35 ff c0 2c 05 2d 47 2d 58 8b 3c 2c
       5.3524745e-12 5.485302e-12 1.1321837e-11 2.6793758e-12
000240 8f f5 2f 2d d6 a6 1c 2c a7 0d 6a 2c d4 cd 20 28
       1.0002123e-11 2.2261546e-12 3.3260979e-12 8.926416e-15
000250 97 e6 02 2b de 22 91 29 72 fc b3 27 9b 0f be 27
       4.6505286e-13 6.445342e-14 4.995618e-15 5.2752513e-15
000260 64 69 ea 26 aa a1 66 25 16 5d a9 27 d1 5f 24 25
       1.6265578e-15 2.0004094e-16 4.7007847e-15 1.4257196e-16
000270 3a 8d 2f 26 e6 e3 32 26 a8 d3 81 24 27 52 78 25
       6.090672e-16 6.2065016e-16 5.630339e-17 2.1538405e-16
000280 18 59 03 23 ba 29 02 19 db 4f c7 1c 17 db ab 1b
       7.1203906e-18 6.729269e-24 1.3189358e-21 2.843116e-22
000290 fb 6e 92 18 15 61 4b 1c 61 54 b9 1b dd 8c 37 1b
       3.7852177e-24 6.729254e-22 3.066021e-22 1.518292e-22
0002a0 fb 6e 92 1b 00 00 00 00 00 00 00 00 00 00 00 00
       2.4225393e-22 0.0 0.0 0.0
0002b0 00 00 00 00 00 00 00 00 00 00 00 00 00 00 00 00
       0.0 0.0 0.0 0.0
0002c0 00 00 00 00 00 00 00 00 00 00 00 00 00 00 00 00
       0.0 0.0 0.0 0.0
0002d0 cc d8 44 33 9c 3b 5a 32 0d d6 cb 32 cf 84 23 31
       4.583198e-08 1.2702824e-08 2.372965e-08 2.3795115e-09
0002e0 c9 3d cd 31 7e f2 a0 31 f4 65 b5 30 4c 57 9f 30
       5.9733094e-09 4.684181e-09 1.319846e-09 1.1593584e-09
0002f0 ce 86 26 30 a0 48 92 30 0d be 13 30 29 a1 b1 2f
       6.0582017e-10 1.0643539e-09 5.3748367e-10 3.2310624e-10
000300 17 1d 6b 2f 7b 33 d0 2e bb 54 8f 2e 23 1c 8c 2d
       2.138346e-10 9.46789e-11 6.517938e-11 1.5928652e-11
000310 60 9c 3b 2d 9f df c3 2d 8c 53 c2 2d a9 ff ac 2c
       1.06644416e-11 2.2268241e-11 2.2092349e-11 4.916918e-12
000320 85 f4 05 2d 0b 58 34 2d 75 b5 98 2c aa f7 17 2c
       7.614469e-12 1.0251365e-11 4.3402456e-12 2.1595872e-12
000330 b9 95 59 2c c6 f4 c7 2c e7 14 b3 2b f9 e1 88 2c
       3.0920668e-12 5.6830955e-12 1.2724517e-12 3.8904405e-12
000340 ff 2f af 2a a0 ea e9 23 32 e7 ea 21 f9 8c b9 1e
       3.111955e-13 2.5361278e-17 1.5917654e-18 1.9645942e-20
000350 86 91 46 1e 6a c4 10 1f d0 f1 71 1c b6 83 a6 1e
       1.0512126e-20 3.0655656e-20 8.0052746e-22 1.7630408e-20
000360 60 34 28 1f ee 46 6c 1d 91 25 09 1c dc 34 6c 1d
       3.5618707e-20 3.127101e-21 4.537805e-22 3.1261668e-21
000370 cd 23 10 1f d6 28 6c 1c 27 cf 34 20 e1 e6 1b 1f
       3.05228e-20 7.813863e-22 1.5315134e-19 3.3013505e-20
000380 ef d6 04 1c e1 7f b8 1f 0d 20 28 1f b2 82 a6 1e
       4.395293e-22 7.813859e-20 3.5601896e-20 1.7629988e-20
000390 ef d6 04 1f 00 00 00 00 00 00 00 00 00 00 00 00
       2.8129876e-20 0.0 0.0 0.0
0003a0 00 00 00 00 00 00 00 00 00 00 00 00 00 00 00 00
       0.0 0.0 0.0 0.0
0003b0 00 00 00 00 00 00 00 00 00 00 00 00 00 00 00 00
       0.0 0.0 0.0 0.0
0003c0 de df 32 35 47 f4 09 34 02 9e b4 34 5f ef 42 35
       6.6635937e-07 1.2847987e-07 3.3642579e-07 7.261896e-07
0003d0 5d 68 7f 35 c5 70 22 34 01 73 47 35 a9 87 9d 34
       9.514677e-07 1.5128451e-07 7.430063e-07 2.9342235e-07
0003e0 3a 92 35 33 34 cb b9 34 b4 91 5f 34 56 c6 35 34
       4.227534e-08 3.4606785e-07 2.08215e-07 1.6929093e-07
0003f0 6c 40 28 33 a4 72 1f 33 da 0d 96 31 46 dd 00 30
       3.917414e-08 3.7124337e-08 4.3671493e-09 4.6880577e-10
