tmp/aa_models/8.pt (torch_old, 539704 bytes, 30 tensors)

rnn.weight_ih_l0 f4 [204, 60]
0	0x3baae305	0.005215051
1	0x3d9d615f	0.07684588
2	0x3cab48c3	0.020908719
3	0x3d5acd04	0.053418174
4	0x3d784338	0.06061098
5	0xbca0489e	-0.019565877
6	0xbcb5fc55	-0.022215048
7	0xbcba8c68	-0.022772029
8	0x3de42cf8	0.111413896
9	0xbcc0de4e	-0.023543503
10	0x3d11033e	0.035403483
11	0x3e2a16cf	0.16610263
12	0x3d1661a6	0.03671422
13	0x3dbacb7a	0.09120841
14	0x3cf4d131	0.029884906
15	0xbd146b8f	-0.03623539
16	0x3deac27c	0.11462876
17	0x3d971f5c	0.07379028
18	0xbd913a24	-0.070911676
19	0xbdc6f370	-0.09714401
20	0x3e06f2c9	0.13178553
21	0x3d183556	0.03716024
22	0x3c493c24	0.012282405
23	0x3c8e35ce	0.01735964
24	0xbdd24d5d	-0.10268662
25	0x3db74879	0.0894937
26	0xbce8333b	-0.028344741
27	0x3c85847d	0.016298527
28	0xbd72fa47	-0.059320714
29	0xbe049289	-0.12946524
30	0x3e082cae	0.13298294
31	0x3dff9da5	0.1248124
32	0xbc0542f4	-0.008133639
33	0xbdbd07c7	-0.09229999
34	0xbdc33d0e	-0.0953313
35	0x3cbb4658	0.022860691
36	0x3d9ff915	0.078111805
37	0xba3d0751	-0.0007210868
38	0x3dc06300	0.09393883
39	0x3de76eee	0.11300455
40	0x3de494ad	0.1116117
41	0x3d30de4b	0.043180745
42	0x3cdb4686	0.026767027
43	0x3e03e2dd	0.1287951
44	0xbd9fcf67	-0.07803231
45	0xbcc3d2f5	-0.023904303
46	0x3e03ecf5	0.1288336
47	0xbd3601fd	-0.04443549
48	0xbdb275de	-0.08713888
49	0xbd90f1aa	-0.07077344
50	0xbda006fe	-0.07813834
51	0x3c693b50	0.014235333
52	0x3dbcc9f2	0.092182055
53	0xbc619d60	-0.013770431
54	0x3db67838	0.08909649
55	0x3caf6a28	0.021412924
56	0x3dd8a844	0.10578969
57	0xbdadc6c0	-0.08485174
58	0x3db352cc	0.087560266
59	0x3e0c79a5	0.13718279
60	0x3e52318c	0.20526713
61	0x3db9fe85	0.09081749
62	0x3da76afd	0.08174703
63	0x3d432654	0.047643974
64	0x3dd7a38f	0.10529243
65	0x3d170665	0.036871333
66	0x3e14e467	0.14540254
67	0x3c8f11d7	0.017464561
68	0xbd9596d1	-0.073041566
69	0xbd4fb7f7	-0.050712552
70	0x3e2a9d14	0.16661483
71	0x3d28616b	0.04110853
72	0xbd0bdc49	-0.034145627
73	0x3d992f4b	0.074797235
74	0xbd3109a0	-0.04322207
75	0xbd4c9e43	-0.049955618
76	0xbcdc6db1	-0.026907774
77	0x3d29486f	0.041328844
78	0x3b8e4163	0.004341291
79	0x3b878839	0.004136112
80	0xbb30a33a	-0.002695276
81	0x3df82746	0.12116866
82	0xbcecffe8	-0.02893062
83	0x3de1ce35	0.11025659
84	0x3bc94363	0.0061420663
85	0xbd62a2b5	-0.05533095
86	0xbd81057d	-0.06299875
87	0x3d639e00	0.055570602
88	0x3c087efd	0.008331058
89	0x3ddf76f2	0.10911359
90	0x3a8a6189	0.0010557632
91	0x3d9c0319	0.07617778
92	0xbdd5a853	-0.10432496
93	0xbc8b205d	-0.016983205
94	0xbd77b6df	-0.060477134
95	0x3d0fbc11	0.035091463
96	0x3cf02817	0.029315991
97	0xbcb1ad29	-0.021689015
98	0x3bcd8ad8	0.006272655
99	0x3dc9fa62	0.0986221
100	0xbc7a1d48	-0.01526577
101	0x3de59f26	0.11211996
102	0xbd11d0f2	-0.035599656
103	0xbd543b38	-0.051814288
104	0x3d9162aa	0.07098897
105	0x3df6a66a	0.1204346
106	0x3d9d89e6	0.07692318
107	0xbd10de4c	-0.03536825
108	0xbdfca7bc	-0.1233668
109	0x3cb505b8	0.022097453
110	0x3ddf34a6	0.10898714
111	0xbd7e6892	-0.062111445
112	0x3dcb78f0	0.09935176
113	0xbe08b869	-0.13351597
114	0xbe03b328	-0.12861311
115	0xbe009d51	-0.12560011
116	0x3da66d1e	0.08126281
117	0x3d815156	0.06314342
118	0x3d4bc8c4	0.049752012
119	0x3da7647c	0.08173463
120	0x3df805b1	0.121104605
121	0xbd5dc2ff	-0.05414104
122	0x3da422a5	0.080144204
123	0x3d50ab10	0.050944388
124	0xbca16616	-0.019701999
125	0x3d575888	0.052574664
126	0xbd32aaf3	-0.04362006
127	0x3e26fdc7	0.16307746
128	0x3dabfd10	0.08397877
129	0x3dc066f4	0.09394637
130	0xbd8d352f	-0.068949096
131	0x3d5b82d8	0.05359158
132	0x3cf2e7b5	0.029651502
133	0x3daae6e6	0.08344822
134	0x3ce30cc9	0.027716057
135	0x3ce0a620	0.027422965
136	0xbca6257e	-0.02028155
137	0x3dad87cc	0.08473167
138	0x3db47b22	0.08812548
139	0xbda11604	-0.07865527
140	0xbdc77c39	-0.097404905
141	0x3d8849e7	0.06654721
142	0x3bf5b3ea	0.007498254
143	0x3dfbecbe	0.12301014
144	0xbdd325eb	-0.10309967
145	0x3ded8fc3	0.11599686
146	0x3d951721	0.07279802
147	0xbe3169c5	-0.17325504
148	0xbcfba7ef	-0.030719725
149	0xbcbca167	-0.023026181
150	0xbd9fb602	-0.07798387
151	0x3d79a36b	0.060946863
152	0xbddc0bf5	-0.10744468
153	0xbe0ecb99	-0.13944854
154	0x3dc7d55b	0.09757491
155	0xbde5bae9	-0.11217291
156	0x3de9a22c	0.11407885
157	0xbd9c4d79	-0.07631964
158	0xbb253c29	-0.002521286
159	0x3de8bbac	0.113639206
160	0xbd019719	-0.03163824
161	0xbab6ca9e	-0.0013945883
162	0x3dd53600	0.1041069
163	0xbe09b49f	-0.13447808
164	0xbde0de54	-0.10979906
165	0xbc60a335	-0.013710787
166	0x3d0f4f21	0.034987573
167	0x3c3b36d0	0.011426643
168	0xbd6f9395	-0.058490355
169	0x3ccd8190	0.025086194
170	0xbc77ed98	-0.01513233
171	0xbd9550c5	-0.07290796
172	0xbceb79a4	-0.028744526
173	0xbdb6c9e8	-0.08925229
174	0xbc6d0980	-0.014467597
175	0xbd559e5a	-0.05215297
176	0x3dab2f40	0.083586216
177	0xbdc63526	-0.09678106
178	0xbcf477bc	-0.02984225
179	0xbe0e76b4	-0.13912469
180	0x3e89eb21	0.26937202
181	0xbd4dad04	-0.05021383
182	0xbe50a89b	-0.20376818
183	0xbe09da0b	-0.13462083
184	0x3de127ed	0.10993943
185	0xbd9233fd	-0.07138822
186	0xbcb88bd3	-0.02252761
187	0x3e89188f	0.2677655
188	0x3da7b5ad	0.08188949
189	0xbdc3e357	-0.09564846
190	0x3e330e7a	0.17485991
191	0x3e6fb575	0.23409064
192	0x3cdf5e24	0.02726657
193	0xbddbef80	-0.107390404
194	0xbde962d2	-0.113958016
195	0xbcc53980	-0.02407527
196	0x3e83895f	0.25690743
197	0x3dcc4978	0.099749506
198	0xbdf8eca9	-0.12154514
199	0x3de06d42	0.10958339
200	0x3d67e77f	0.056617256
201	0xbe14612a	-0.1449019
202	0xbe3cec79	-0.18449582
203	0x3d9760a0	0.07391477
204	0xbdf1a066	-0.11798172
205	0x3e4e3295	0.20136483
206	0x3dbdfdcd	0.09276924
207	0xbdaf45ab	-0.0855821
208	0x3d892b45	0.06697706
209	0xbcd19201	-0.025582315
210	0xbc9f78fe	-0.019466873
211	0xbda6dd8e	-0.08147727
212	0xbc8b8619	-0.017031716
213	0x3bb3d79d	0.0054883496
214	0x3e0375dc	0.12837929
215	0xbd8ebe35	-0.06969873
216	0x3dc60f18	0.09670848
217	0x3cfd28dc	0.030903272
218	0x3da7942c	0.081825584
219	0x3de12098	0.10992545
220	0x3d96c5e1	0.07361961
221	0x3d03eb87	0.03220704
222	0x3d8fbce8	0.07018453
223	0xbd69c9c0	-0.05707717
224	0x3ddc318e	0.10751639
225	0x3dc30788	0.09522921
226	0x3d105b60	0.035243392
227	0xbb0d9980	-0.0021606386
228	0xbdaeed58	-0.085413635
229	0xbd7917ea	-0.06081382
230	0x3dbd2b6a	0.09236796
231	0x3e038217	0.12842594
232	0x3e061d5f	0.13097142
233	0xbd70c366	-0.058780096
234	0xbb966d80	-0.00459069
235	0xbda83130	-0.08212507
236	0x3d216c24	0.03940977
237	0x3da4cc94	0.08046833
238	0xbdef2a04	-0.11677936
239	0x3d9cd706	0.076582
240	0x3e0e3ac7	0.1388961
241	0x3dedf7da	0.116195396
242	0xbd11216f	-0.035432275
243	0x3dbd740c	0.0925065
244	0x3ce1f257	0.027581377
245	0xbb05fb42	-0.002044395
246	0x3dc14790	0.094374776
247	0x3cb37be1	0.021909656
248	0xbddd83d6	-0.10816161
249	0x3d85c286	0.06531243
250	0x3e2e1f86	0.17004213
251	0x3e1c6ffe	0.15277097
252	0xbd4d3463	-0.050098788
253	0xbc2ce1c5	-0.0105518745
254	0x3dd75d87	0.10515886
255	0x3df241e3	0.11828973

rnn.weight_hh_l0 f4 [204, 51]
0	0xbe3738f3	-0.17892818
1	0x3cb58a64	0.022160716
2	0xbd2662af	-0.040621456
3	0xbda6a632	-0.08137168
4	0x3c9bae7b	0.019004097
5	0xbc85cf4b	-0.016334197
6	0xbbc4a92f	-0.0060016136
7	0x3da2f751	0.07957328
8	0xb8290a23	-4.030218e-05
9	0x3e1c98ca	0.1529266
10	0xbe1680fd	-0.14697643
11	0x3e1774db	0.1479067
12	0x3e288a06	0.16458902
13	0xbce7c069	-0.02828999
14	0xbda46e8a	-0.08028896
15	0x3e459791	0.19296099
16	0xbc9fb437	-0.019495113
17	0x3e5a7646	0.2133418
18	0x3d625af4	0.05526252
19	0xbd317d6d	-0.043332506
20	0x3e2a20bb	0.16614048
21	0x3e179eb2	0.14806631
22	0xb9c97634	-0.00038425776
23	0xbd127b2e	-0.035762005
24	0x3e4dbebc	0.2009229
25	0xbd892406	-0.06696324
26	0xbbac8e65	-0.005265998
27	0x3dc4f9b3	0.09617939
28	0xbc80cca8	-0.015722588
29	0x3db77cb8	0.08959335
30	0xbd463927	-0.04839435
31	0x3bf148ca	0.0073634135
32	0x3d5cc906	0.05390265
33	0x3e10c94e	0.14139292
34	0xbe0358f2	-0.12826899
35	0x3d242aa4	0.040079728
36	0x3ceea903	0.029133325
37	0x3e57d0b3	0.21075706
38	0xbe24558e	-0.16048262
39	0xbd9f7d60	-0.07787585
40	0x3e54f1f3	0.20795421
41	0x3ce4a72e	0.027911749
42	0xbe39ecdc	-0.18156761
43	0xbe22fd91	-0.1591704
44	0xbdc0a8ea	-0.09407218
45	0x3e65cb2f	0.2244079
46	0x3e1312ff	0.14362715
47	0x3e37a56f	0.17934202
48	0xbe2a062b	-0.16603915
49	0x3dbbd3db	0.091712676
50	0xbd8a3f85	-0.06750397
51	0x3c845688	0.016154543
52	0xbe394000	-0.1809082
53	0x3df86246	0.12128119
54	0xbd7826c4	-0.060583845
55	0x3d9dc726	0.07704
56	0x3d6257bf	0.055259462
57	0x3c53c4ac	0.012925308
58	0xbe3121f8	-0.17298114
59	0x3e304b7e	0.17216298
60	0xbccf280f	-0.025287656
61	0x3c5d11cc	0.013493013
62	0x3c94f38f	0.018182544
63	0xbd4b87a2	-0.049689896
64	0xbdc926b7	-0.098218374
65	0xbd98356d	-0.07432065
66	0x3c0f5dda	0.008750403
67	0x3e05ab0e	0.13053533
68	0x3ceb7d07	0.028746141
69	0x3dc44696	0.09583776
70	0xbc391a14	-0.011297721
71	0x3d8f275d	0.0698993
72	0x3c3b8243	0.011444631
73	0x3df87fde	0.12133764
74	0xbd64cf12	-0.05586154
75	0x3cfcf4a4	0.030878372
76	0xbe144e8a	-0.14483085
77	0x3dae7f18	0.08520335
78	0xbdbd1f85	-0.092345275
79	0xbb39fe14	-0.0028380202
80	0x3e2cfa50	0.16892362
81	0xbd76da83	-0.060266983
82	0x3d267184	0.0406356
83	0x3e2b47a2	0.16726544
84	0xbd9b0d1c	-0.0757086
85	0x3d9a1007	0.07522588
86	0x3d0300dd	0.031983245
87	0x3d72db36	0.059291087
88	0x3dcb4c65	0.099266805
89	0xbddba1c6	-0.10724215
90	0x3dd0c9bc	0.10194728
91	0xbd235430	-0.03987521
92	0x3d84718f	0.06466972
93	0x3db71384	0.08939269
94	0xbdb116f3	-0.08646955
95	0x3d098a2f	0.033579048
96	0x3ab46929	0.001376425
97	0x3e1b16ee	0.15145466
98	0xbdb7bd1d	-0.08971617
99	0xbd8282df	-0.06372618
100	0xbcb46a1d	-0.022023255
101	0x3e54df9f	0.2078843
102	0x3c62627f	0.013817429
103	0xbb0888c1	-0.0020833465
104	0x3d9095d6	0.07059829
105	0xbd336163	-0.043794047
106	0x3d9e926e	0.07742773
107	0x3d904fe7	0.0704649
108	0xbdcfe305	-0.101507224
109	0x3d80a939	0.06282277
110	0xbc0c0eb0	-0.008548424
111	0x3cac0b46	0.02100147
112	0xbc482dd9	-0.012217962
113	0xbc999a45	-0.01875032
114	0x3e1f6b0a	0.15568176
115	0x3dff8af7	0.12477677
116	0x3c3d3f09	0.011550673
117	0x3d8fdf3d	0.07025001
118	0xbc07a2e3	-0.008278581
119	0xbd1b6fb6	-0.037948333
120	0x3e2c0f02	0.168026
121	0xbd4c1dcd	-0.049833108
122	0x3d0f9c35	0.03506108
123	0x3d77501d	0.060379136
124	0x3d7e3bce	0.062068753
125	0x3dbae543	0.091257595
126	0xbdd8a1d2	-0.1057774
127	0xbe359e96	-0.17736277
128	0xbe321684	-0.17391402
129	0x3e106045	0.14099224
130	0x3d09f46d	0.03368037
131	0xbdac8942	-0.08424617
132	0xbcda7d2c	-0.026671015
133	0x3df6eee3	0.12057283
134	0x3d86a3fa	0.06574245
135	0x3e19a62e	0.15004799
136	0xbe16753a	-0.14693156
137	0x3ce21425	0.027597496
138	0x3e1c3c2e	0.15257332
139	0xbc20cc4f	-0.009814336
140	0xbd551c54	-0.05202897
141	0xbdefe335	-0.11713258
142	0xbe199076	-0.14996514
143	0xbe31dc9d	-0.17369314
144	0x3d14da5d	0.03634106
145	0x3d34dea1	0.044157628
146	0xbdad078d	-0.08448706
147	0xbd93ab0b	-0.07210358
148	0x3c5b6cda	0.013392651
149	0xbdc4ea94	-0.09615055
150	0xbc9ae2c4	-0.018906958
151	0x3e2980c0	0.1655302
152	0xba0a62ca	-0.0005279003
153	0x3e123037	0.14276205
154	0x3cfca85a	0.030841995
155	0x3e3ca60a	0.18422714
156	0x3cd92464	0.02650661
157	0xbddb1906	-0.10698132
158	0xbe87cf5e	-0.26525396
159	0x3b808ad2	0.0039227987
160	0xbe0cc944	-0.13748652
161	0x3e2b3a15	0.16721375
162	0xbda412ae	-0.08011375
163	0x3d608570	0.054814756
164	0x3da5c359	0.080939
165	0x3d7feec0	0.06248355
166	0x3e812f79	0.2523153
167	0xbe8e6d83	-0.27817926
168	0x3b903384	0.0044006724
169	0xbd6d74a8	-0.05797258
170	0x3db77682	0.089581504
171	0xbde32271	-0.110905536
172	0x3e730fbd	0.23736472
173	0xbdec5f7c	-0.1154165
174	0xbd067df6	-0.03283497
175	0x3dcb1d90	0.09917748
176	0x3c759b49	0.014990636
177	0x3da993bb	0.082801305
178	0x3c14e476	0.009087672
179	0x3cf3e708	0.02977325
180	0xbdad9444	-0.08475545
181	0x3c99747f	0.018732307
182	0x3e232765	0.15932997
183	0x3e853ee0	0.26024532
184	0xbe361da0	-0.17784739
185	0x3b913ac0	0.0044320524
186	0x3efcab7f	0.4934959
187	0x3d87e38f	0.066352
188	0xbe0887d8	-0.1333307
189	0xbdb89629	-0.09013016
190	0x3e1117be	0.14169213
191	0xbb827bcb	-0.0039820424
192	0xbc811c26	-0.015760493
193	0x3dc0f600	0.09421921
194	0xbe5c48f5	-0.21512206
195	0x3ddd52e5	0.108068265
196	0xbe89b325	-0.2689449
197	0xbdff0699	-0.1245243
198	0xbd538725	-0.051642556
199	0x3e5dddc1	0.21666624
200	0x3d902519	0.07038326
201	0xbe2ca42a	-0.16859499
202	0x3e5101e3	0.20410876
203	0x3d6eafe7	0.058273222
204	0xbdeb3505	-0.11484722
205	0xbc0bd946	-0.008535689
206	0xbd90140c	-0.07035074
207	0xbde521f7	-0.11188119
208	0xbe276815	-0.16348298
209	0x3d22caea	0.039744295
210	0xbd2c38bd	-0.042046297
211	0xbdff7399	-0.124732204
212	0x3d698cb8	0.057018965
213	0x3e0dcdf8	0.13848102
214	0xbe04a8dd	-0.12955041
215	0xbc975d41	-0.018477084
216	0x3e055328	0.13020003
217	0x3e310a1e	0.17289016
218	0x3d9f7bae	0.07787262
219	0x3d0da6a6	0.034582756
220	0x3c89388a	0.016750593
221	0x3e03e914	0.12881881
222	0x3dff6700	0.124708176
223	0xbda23769	-0.07920725
224	0xbdb7125f	-0.08939051
225	0x3e0b21bc	0.13587087
226	0x3d772656	0.060339294
227	0xbe3d7a17	-0.18503605
228	0x3e1a129a	0.15046158
229	0x3d85fc0d	0.065422155
230	0xbd976536	-0.07392351
231	0x3dae5d84	0.085139304
232	0xbe08c053	-0.13354616
233	0xbca15a66	-0.019696426
234	0xbd080355	-0.033206303
235	0xbdbd949c	-0.092568606
236	0x3e003efc	0.12524027
237	0xbd06931c	-0.03285514
238	0xb8c43960	-9.356695e-05
239	0x3cda5ffe	0.0266571
240	0x3cc577ed	0.024105037
241	0xbc7ce35f	-0.015435069
242	0x3d5cd234	0.053911403
243	0xbe00895f	-0.12552403
244	0x3e292f77	0.16522013
245	0x3c90d372	0.01767895
246	0xbe12f37c	-0.14350694
247	0x3dc3dc2a	0.09563477
248	0xbe062e13	-0.13103513
249	0xbd0a42ca	-0.0337551
250	0xbdcb3bba	-0.09923501
251	0xbca7fa6c	-0.020505153
252	0xbe4354d3	-0.19075327
253	0x3e2b1fd3	0.16711359
254	0x3e08ffc6	0.1337882
255	0x3b847ff6	0.0040435744

rnn.bias_ih_l0 f4 [204]
0	0x3de80c37	0.11330455
1	0x3e2df413	0.16987638
2	0x3ca25913	0.019817865
3	0x3e322b8a	0.17399421
4	0x3e2eb1ec	0.1706006
5	0xbd1d7ab8	-0.03844711
6	0x3e2d5574	0.16927129
7	0x3d2090e6	0.039200686
8	0xbd6ae5d2	-0.05734808
9	0x3e57296c	0.21011895
10	0x3e550f96	0.20806727
11	0xbbb58829	-0.005539913
12	0x3d574882	0.052559383
13	0x3d0f02b3	0.034914684
14	0x3d944779	0.07240195
15	0x3d763508	0.06010917
16	0x3dafba5d	0.08580468
17	0xbc9a844c	-0.018861912
18	0xbdaf607f	-0.08563327
19	0x3d44c3dd	0.048038352
20	0x3db9498b	0.0904723
21	0x3dd62c89	0.10457713
22	0x3d46096e	0.048348837
23	0xbcd909c5	-0.026493916
24	0x3baeb463	0.0053315624
25	0xbd407455	-0.046985943
26	0x3ccb6248	0.024827138
27	0x3d049f73	0.032378625
28	0x3e126f31	0.14300229
29	0x3df1b664	0.118023664
30	0xbd384eb1	-0.04499692
31	0x3e9407eb	0.2891229
32	0x3e1f8baf	0.15580629
33	0x3dcdccc3	0.10048821
34	0x3df7e2bf	0.12103795
35	0x3c2ae175	0.01042973
36	0x3da8e26b	0.08246311
37	0x3e6ae822	0.22940114
38	0x3d015593	0.03157575
39	0x3ca4daad	0.020123804
40	0x3de31736	0.110884115
41	0x3c12c0c1	0.008957089
42	0xbd5486bc	-0.051886305
43	0xbde1f935	-0.110338606
44	0x3d552f25	0.052046914
45	0x3d1db307	0.038500812
46	0x3e17f21d	0.14838453
47	0x3df45a5b	0.119312964
48	0x3e3f65e7	0.18691216
49	0x3e2cf5d4	0.16890651
50	0x3e0812c6	0.13288411
51	0x3e0c4ef5	0.13701995
52	0x3d9e8a2e	0.077411994
53	0x3e2b1a25	0.16709192
54	0x3d0b737f	0.034045693
55	0x3d355c5e	0.04427754
56	0x3b102578	0.002199499
57	0xbcdd6197	-0.027024074
58	0x3d83c7c9	0.0643459
59	0xbda50624	-0.08057812
60	0xbdfb12fe	-0.12259482
61	0xbd930463	-0.07178571
62	0xbd7ece1a	-0.062208273
63	0xb88199ef	-6.179872e-05
64	0x3e2726d8	0.16323411
65	0x3ba76108	0.0051080026
66	0xbd26d22c	-0.04072778
67	0xbdc62bad	-0.09676299
68	0xbd123daf	-0.035703357
69	0x3d0b5553	0.03401692
70	0x3e094c79	0.13408078
71	0x3d93cc1e	0.07216667
72	0x3cd4a805	0.025959024
73	0xbcd7fb18	-0.026364848
74	0x3ca12e07	0.019675268
75	0x3c9a5881	0.01884103
76	0x3d1a505c	0.037674293
77	0xbd6a3e1d	-0.057188142
78	0xbdd99ea3	-0.10625961
79	0xbd667582	-0.056264408
80	0x3d5ba983	0.053628456
81	0xbd460dd8	-0.048353046
82	0x3d5e4e90	0.05427414
83	0x3e0f3ece	0.13988802
84	0x3e1bdfd1	0.15222098
85	0x3d56100a	0.05226139
86	0x3de124b1	0.109933265
87	0x3d37e955	0.044900257
88	0xbd904208	-0.070438445
89	0x3d96bdec	0.073604435
90	0xbdca19c0	-0.09868193
91	0xbe460567	-0.19337998
92	0xbd013e6c	-0.03155367
93	0x3db409b2	0.08790912
94	0x3d15ff18	0.03662023
95	0x3cd0e701	0.025500776
96	0x3e2d2412	0.16908291
97	0x3dcbb631	0.0994686
98	0xbd89a6dc	-0.06721279
99	0xbddb84c5	-0.10718683
100	0x3dbbe5ef	0.09174716
101	0xbc852c00	-0.016256332
102	0xbc08fe20	-0.008361369
103	0xbde72237	-0.11285823
104	0x3d9cd3e0	0.076575994
105	0xbd8f2746	-0.06989913
106	0xbd18111b	-0.037125688
107	0xbdcc7b34	-0.09984437
108	0x3d728a56	0.05921396
109	0xbb963f37	-0.0045851725
110	0x3d01be22	0.031675465
111	0xbe0970cb	-0.13421933
112	0x3e2f8aba	0.17142764
113	0x3e044f02	0.12920764
114	0x3c6df5d7	0.014523945
115	0xbd942ba9	-0.0723489
116	0xbd9f9a11	-0.07793058
117	0x3e1fd29e	0.15607688
118	0xbd5e9368	-0.054339796
119	0x3c480681	0.012208582
120	0x3dabfe79	0.08398146
121	0x3dc0a275	0.09405986
122	0x3ddea06e	0.10870443
123	0x3d66c3f0	0.056339204
124	0x3e00aaad	0.12565108
125	0xbdf40f9b	-0.11917039
126	0x3c4d6f43	0.012538734
127	0xbdfc5023	-0.12319972
128	0xbe3e5ea2	-0.18590787
129	0x3d4745ed	0.04865067
130	0x3cd00830	0.02539453
131	0xba30a671	-0.0006738669
132	0x3df01344	0.117224246
133	0x3ccdfe21	0.025145592
134	0x3dccf7a8	0.10008174
135	0x3db486b7	0.08814757
136	0xbd76dd77	-0.0602698
137	0x3df6abce	0.12044488
138	0x3d9deb10	0.0771085
139	0x3d926465	0.07148055
140	0xbc3ff592	-0.011716263
141	0xbc4cad89	-0.012492546
142	0x3e0ba3ac	0.13636655
143	0xbd72bb97	-0.05926093
144	0x3bf0ca63	0.007348345
145	0xbd6e51f4	-0.058183625
146	0xbdb7a75b	-0.089674674
147	0xbd8c8f9b	-0.06863328
148	0xbdc58529	-0.09644539
149	0x3df84f26	0.12124471
150	0xbd9c93f3	-0.076454066
151	0x3e0f5a6c	0.13999337
152	0xbc3f0403	-0.011658671
153	0xbce7457c	-0.028231375
154	0xbcc5c9ca	-0.024144072
155	0x3dcef3e7	0.101051144
156	0x3dde840a	0.10865028
157	0x3dda1593	0.10648646
158	0x3ddf804b	0.10913142
159	0x3da9339f	0.08261799
160	0x3cff6f27	0.031180931
161	0x3d6aa37f	0.05728483
162	0x3e15458a	0.14577308
163	0x3dd7e377	0.10541432
164	0x3d9d7ac3	0.076894306
165	0x3e2e3968	0.17014086
166	0x3c0414c3	0.008061591
167	0x3d2e77e7	0.042594817
168	0x3e0a71a4	0.13519913
169	0xbd97beca	-0.07409437
170	0x3e044283	0.12915997
171	0x3dfdeefa	0.12399097
172	0x3e167e45	0.14696606
173	0x3e3bc137	0.18335424
174	0x3e0c05d0	0.13674092
175	0xbd64b2a3	-0.055834424
176	0xbd8900b1	-0.06689585
177	0x3daf3536	0.08555071
178	0xbd97a8b5	-0.07405225
179	0x3d54d696	0.051962458
180	0xbc1184b6	-0.008881738
181	0xbd211d45	-0.039334554
182	0x3d71efad	0.059066463
183	0xbc44cf3f	-0.012012302
184	0x3dda1fce	0.106505975
185	0x3d89da22	0.06731059
186	0x3d661762	0.056174643
187	0xbc8976c7	-0.01678027
188	0xbd13bdd4	-0.036069706
189	0xbde28d3f	-0.11062097
190	0x3dcd184d	0.10014401
191	0xbe1ecd27	-0.15507947
192	0x3c2c5c66	0.010520076
193	0x3e69b7fb	0.22824089
194	0x3dcfb3f1	0.10141743
195	0x3e2e7e76	0.17040429
196	0x3e2c06ca	0.16799465
197	0x3e37b092	0.1793845
198	0x3cc76780	0.024341345
199	0xbd451b80	-0.04812193
200	0x3e0c022f	0.13672708
201	0x3d9220c2	0.07135154
202	0xbd9426da	-0.07233973
203	0x3de1c250	0.1102339

rnn.bias_hh_l0 f4 [204]
0	0xbd844af4	-0.06459609
1	0x3e2f572b	0.17123096
2	0x3e1910de	0.1494784
3	0x3e4f5f82	0.20251277
4	0xba86426c	-0.0010243184
5	0xbc40e85a	-0.011774147
6	0x3e28c816	0.16482577
7	0x3dea6dbc	0.114467114
8	0xbd4a64a3	-0.04941238
9	0x3e416337	0.18885504
10	0x3d428bf0	0.047496736
11	0x3e1315da	0.14363804
12	0x3dc6e458	0.09711522
13	0xbd805025	-0.06265286
14	0x3e06d5f8	0.1316756
15	0x3b27039f	0.0025484336
16	0x3e466d4b	0.1937763
17	0xbd7ac416	-0.06122216
18	0x3ddccad9	0.107808776
19	0x3d9a6af4	0.07539931
20	0x3da84093	0.082154416
21	0x3d67f7f1	0.05663294
22	0x3dcbc5d1	0.0994984
23	0xbd0ed3c7	-0.034869935
24	0x3d59f07c	0.05320786
25	0x3ded6894	0.11592212
26	0x3e311703	0.17293935
27	0x3e631072	0.22174242
28	0xbd6635cc	-0.05620365
29	0xbced1bda	-0.028943945
30	0x3bfa0c51	0.0076308628
31	0x3e864d65	0.26230922
32	0x3da42f3b	0.08016821
33	0x3e2908d9	0.16507281
34	0xbd6a823a	-0.0572531
35	0xbd6778d6	-0.056511723
36	0x3d994744	0.07484296
37	0x3e43ecd8	0.19133317
38	0xbc5a8e8d	-0.013339651
39	0x3e0f875d	0.1401648
40	0xbd0c6c7e	-0.034283154
41	0xbd55ad8c	-0.05216746
42	0x3df9c903	0.12196543
43	0xbe1065fb	-0.14101402
44	0x3d29f60a	0.041494407
45	0xbd8080f3	-0.06274595
46	0x3d4e086b	0.050300997
47	0xbc162c50	-0.009165838
48	0x3e04b456	0.12959418
49	0x3e03bea1	0.12865688
50	0x3e2ff557	0.17183433
51	0x3d729fb7	0.059234347
52	0x3e064dfb	0.13115685
53	0x3df364d2	0.11884464
54	0x3db2073f	0.08692788
55	0x3e29ac9c	0.16569752
56	0x3e179ba4	0.14805466
57	0x3c142c4d	0.009043765
58	0xbd0a1676	-0.033712827
59	0x3e1b9c91	0.15196444
60	0x3d8bcfca	0.06826742
61	0xbe095b9e	-0.13413855
62	0xbb4c3d4f	-0.0031164472
63	0x3de4b36f	0.11167037
64	0x3d9c6129	0.07635719
65	0x3e2703fc	0.16310114
66	0x3e091d35	0.13390048
67	0x3d4612ac	0.04835765
68	0xbda9744c	-0.08274135
69	0x3e0fa973	0.14029483
70	0x3d9f12fe	0.07767294
71	0x3dd0da29	0.10197861
72	0x3de04964	0.10951498
73	0x3e29469f	0.16530846
74	0xbcd217fb	-0.0256462
75	0xbd2f95de	-0.042867534
76	0x3e0a4ed2	0.1350663
77	0x3d4e8edd	0.050429214
78	0x3c5bfd5e	0.013427107
79	0x3d9a44f2	0.075326815
80	0xbd44e287	-0.048067596
81	0xbdb8fda4	-0.09032753
82	0x3dee2701	0.11628533
83	0x3d4f6345	0.05063178
84	0x3d220169	0.039552126
85	0x3e08c87f	0.13357733
86	0x3e2031a8	0.15643942
87	0x3ce70a74	0.028203227
88	0x3e056d6b	0.13030021
89	0x3d69a3ca	0.057040967
90	0x3e13438b	0.14381234
91	0xbd8c7e88	-0.068600714
92	0xbd27f61d	-0.041006196
93	0x3e115264	0.14191586
94	0x3e0324b8	0.12806976
95	0x3db04fbd	0.08608959
96	0xbd8798c7	-0.06620937
97	0xbc5a4e1d	-0.013324288
98	0x3e2fa7a0	0.17153788
99	0x3daf36bb	0.08555361
100	0x3e145057	0.14483772
101	0xbdac3afb	-0.08409687
102	0xbdc7686e	-0.09736715
103	0x3b9d6769	0.004803587
104	0x3e01a4a6	0.12660465
105	0x3dddc3cd	0.10828362
106	0xbd94d255	-0.0726668
107	0xbe09962a	-0.1343619
108	0x3e13d770	0.14437652
109	0xbdd6b7e3	-0.10484292
110	0x3d90fe6f	0.07079779
111	0x3d8fe1db	0.070255004
112	0xbdb9ec04	-0.090782195
113	0xbd1dd17a	-0.03852985
114	0x3da3f2f4	0.08005324
115	0x3e26f65a	0.16304913
116	0xbdd35ecb	-0.10320815
117	0x3c803f4c	0.015655182
118	0xbd00ea11	-0.031473223
119	0xbccbce80	-0.02487874
120	0x3c38f2ac	0.011288326
121	0x3daea435	0.08527414
122	0x3ce81f52	0.028335247
123	0x3d7e3e5c	0.06207119
124	0xbda3353e	-0.079691395
125	0xbe02c6d2	-0.12771156
126	0x3d4c66fb	0.049902897
127	0xbe0af150	-0.13568616
128	0xbdcbffb0	-0.09960878
129	0x3da9e675	0.08295909
130	0xbe0607de	-0.13088939
131	0x3dc6cc2d	0.09706912
132	0x3a4b6e37	0.0007760259
133	0x3e239bc9	0.15977396
134	0x3d4d0706	0.050055526
135	0x3ddd17a4	0.10795525
136	0xbcd76cc5	-0.026296983
137	0x3e2beedd	0.16790338
138	0x3dbb360a	0.091411665
139	0x3cdb4420	0.026765883
140	0xbcfad21b	-0.030617764
141	0xbdf9e5de	-0.12202047
142	0xbdf9864a	-0.12183817
143	0xbe32e994	-0.17471915
144	0xbe343c61	-0.17601158
145	0xbdcec4e5	-0.100961484
146	0xbe07fb83	-0.13279538
147	0x3e0de521	0.13856937
148	0x3ddcf3a9	0.10788662
149	0x3e19e7bd	0.15029807
150	0xbd48499e	-0.04889833
151	0x3e20dc6c	0.15709084
152	0xbde10d3c	-0.109888524
153	0x3d8ca982	0.068682685
154	0x3de77a25	0.11302594
155	0xbc3b16f2	-0.011419045
156	0x3e5fdaea	0.21860853
157	0x3cf025d7	0.029314918
158	0x3e1e1d01	0.15440752
159	0x3ce6e987	0.028187526
160	0x3d7fa6ea	0.06241504
161	0x3d260e24	0.04054083
162	0x3d11a7ec	0.035560533
163	0x3e0ee6b7	0.13955198
164	0x3a148d9a	0.0005666852
165	0x3df26d4c	0.11837253
166	0x3d413e5b	0.047178607
167	0xbd9141ee	-0.07092653
168	0x3dfa0b4a	0.122091845
169	0x3cb3e4a8	0.021959618
170	0x3d92cf65	0.071684636
171	0x3e032e3c	0.12810606
172	0x3e1855db	0.14876501
173	0x3de576d8	0.11204308
174	0xbdacc6c7	-0.08436351
175	0x3e4110ac	0.18854016
176	0xbda905c1	-0.082530506
177	0x3d880d0a	0.06643112
178	0xbd6aa573	-0.05728669
179	0x3d53562e	0.05159586
180	0xbd0a22ad	-0.033724476
181	0xbcbcc3c1	-0.023042561
182	0x3e1e0980	0.15433311
183	0x3de69919	0.1125967
184	0x3e1cb242	0.15302375
185	0x3de73a2d	0.11290393
186	0xbcbe9839	-0.023265945
187	0x3e153560	0.14571142
188	0xbdb41a73	-0.08794107
189	0xbdf6e743	-0.120558284
190	0x3d83ff92	0.064452305
191	0x3dae99f9	0.08525462
192	0x3e15922c	0.14606541
193	0x3e8b4386	0.27199954
194	0x3dc10150	0.094240785
195	0x3e4cf8df	0.20016812
196	0x3e784314	0.24244338
197	0xbd491fef	-0.04910272
198	0x3d600741	0.054694418
199	0xbd995a6d	-0.074879505
200	0x3d8314a2	0.0640042
201	0xbd3f5946	-0.046715997
202	0xbd87368a	-0.066021994
203	0xbcb45559	-0.022013353

rnn.weight_ih_l1 f4 [204, 51]
0	0xbe402d7b	-0.1876735
1	0xbd674357	-0.056460705
2	0xbd3c32ba	-0.045946814
3	0xbe00fc95	-0.12596352
4	0xbdae51a6	-0.08511667
5	0x3ce5ada2	0.028036896
6	0xbe13aad4	-0.14420635
7	0xbe1bcbe6	-0.152145
8	0x3dcf9436	0.10135691
9	0x3e3762da	0.17908803
10	0xbe379b47	-0.17930327
11	0x3e8631c0	0.2620983
12	0x3dc46334	0.09589234
13	0x3db63bc1	0.08898116
14	0x3ded1a82	0.115773216
15	0x3dc484c9	0.09595639
16	0xbcfb524e	-0.030678894
17	0x3e2de3dc	0.16981453
18	0xbc08fc96	-0.008361002
19	0x3d754099	0.05987606
20	0x3d4db808	0.050224334
21	0x3d85f29f	0.06540417
22	0x3e3b8261	0.18311454
23	0xbe60b124	-0.21942574
24	0x3e4ac62c	0.19802159
25	0xbe785575	-0.2425135
26	0xbe29f22b	-0.16596286
27	0x3c3baf65	0.0114553915
28	0x3e0a4b28	0.13505232
29	0x3d999831	0.07499731
30	0x3e15aa5c	0.14615768
31	0x3ddc6d9f	0.10763096
32	0xbc5c8db5	-0.01346152
33	0x3d13bd84	0.036069408
34	0xbe70db02	-0.23521045
35	0xbdfaf833	-0.122543715
36	0xbdf334df	-0.11875319
37	0x3e3eae6b	0.18621223
38	0xbecc093e	-0.398508
39	0x3cd2f541	0.025751712
40	0x3e2e27cc	0.17007369
41	0xbde52c6c	-0.111901134
42	0xbe354d54	-0.1770528
43	0xbd61f7b8	-0.055167884
44	0xbdcda86b	-0.10041889
45	0x3eab4656	0.334521
46	0xbd7edebc	-0.062224135
47	0x3df8193d	0.12114189
48	0xbe2ddde2	-0.16979173
49	0x3dc53b95	0.09630505
50	0x3e8dacde	0.2767095
51	0xbe4d896a	-0.2007195
52	0xbccf0a73	-0.025273537
53	0x3d8d3267	0.06894379
54	0xbda41bd4	-0.0801312
55	0xbe03cbdb	-0.12870733
56	0x3ce15ce3	0.027510112
57	0xbd607e08	-0.054807693
58	0xbe30131f	-0.17194794
59	0x3e3d1586	0.18465242
60	0x3e23de63	0.16002803
61	0xbe0fbadd	-0.14036126
62	0x3d2c0d31	0.042004768
63	0xbb9c8c34	-0.0047774557
64	0x3e157f8d	0.14599438
65	0xbdb4bc5f	-0.088249914
66	0x3e551aee	0.20811054
67	0x3e196ed2	0.14983681
68	0x3dd0fe22	0.10204722
69	0xbc64c61b	-0.013963248
70	0xbdf581e7	-0.119876675
71	0x3dd78819	0.105240054
72	0xbd62e41e	-0.05539333
73	0x3e895961	0.26826003
74	0xbe3b1284	-0.18268782
75	0x3cc08703	0.023501879
76	0xbe5089fc	-0.20365137
77	0xbd7699ac	-0.060205147
78	0x3e2ee18b	0.17078225
79	0x3af3b0ed	0.0018592157
80	0x3e1f3855	0.15548833
81	0x3da10f8c	0.078642935
82	0x3e6f2fe2	0.2335811
83	0x3d69f119	0.057114694
84	0x3e290fb9	0.16509904
85	0xbc70d0ac	-0.014698189
86	0xbd7ec8f5	-0.062203366
87	0xbd87f58c	-0.06638631
88	0x3dc33611	0.09531797
89	0xbe6de88e	-0.23233244
90	0x3d785505	0.060627956
91	0xbcb5e07d	-0.02220177
92	0xbe06554b	-0.13118474
93	0x3d33b0ae	0.043869667
94	0xbd31d4d0	-0.043415844
95	0xbe6001cb	-0.21875684
96	0x3e3dce01	0.18535616
97	0x3d9e1c3c	0.07720229
98	0x3d3cd072	0.046097226
99	0xbe552099	-0.20813216
100	0xbd84690c	-0.064653486
101	0x3dcd42f5	0.10022537
102	0xbdb65d81	-0.08904553
103	0xbde40dfe	-0.11135481
104	0xbda0850d	-0.078378774
105	0xbe5a0fc7	-0.21295081
106	0xbe8c6954	-0.2742411
107	0xbd7ce6d0	-0.061743557
108	0x3d5e71d6	0.05430778
109	0x3d59759a	0.05309067
110	0x3dbd0881	0.092301376
111	0x3db7d83a	0.08976789
112	0xbd896304	-0.06708339
113	0x3cd113c1	0.025522115
114	0x3dc67933	0.09691086
115	0x3cc010ba	0.023445476
116	0xbc553a26	-0.013014352
117	0x3c5bed86	0.013423329
118	0x3e0db809	0.13839735
119	0x3e811b45	0.25216118
120	0x3d227548	0.03966263
121	0xbd761f76	-0.060088597
122	0x3dfac411	0.12244428
123	0x3d8e6f20	0.06954789
124	0x3e3b6d93	0.18303518
125	0xbc208a69	-0.009798625
126	0x3e49434d	0.1965458
127	0xbd9e0a51	-0.077168114
128	0x3bc63739	0.0060490635
129	0xbd8ee8c5	-0.06977991
130	0xbd5ce520	-0.053929448
131	0x3d63080c	0.055427596
132	0x3e0e4218	0.138924
133	0x3e85f5e2	0.26164156
134	0x3d2aadbc	0.041669592
135	0x3d0f6e39	0.035017226
136	0xbdafd27c	-0.085850686
137	0x3e030c77	0.12797724
138	0xbe979c0d	-0.29611245
139	0x3e435da9	0.19078697
140	0xbe03f07c	-0.12884706
141	0x3b605e53	0.003423591
142	0x3e3edafa	0.1863822
143	0xbcb27e65	-0.021788785
144	0xbd228392	-0.039676256
145	0xbd898ea7	-0.06716662
146	0xbe018f98	-0.12652433
147	0x3e93f143	0.28895006
148	0x3da8a4dd	0.0823457
149	0xbd8ef5bf	-0.06980466
150	0xbea87285	-0.3289987
151	0xbd718da1	-0.05897296
152	0x3e876f55	0.26452127
153	0xbd4cf0c4	-0.0500343
154	0xbd87a026	-0.06622343
155	0x3e148ccf	0.14506839
156	0xbd28bfe7	-0.041198637
157	0xbc929b7f	-0.017896412
158	0xbd9148f9	-0.070939966
159	0xbd960b08	-0.07326323
160	0xbe4ea03a	-0.20178309
161	0x3d2725f7	0.04080769
162	0xbd22dd07	-0.03976157
163	0xbe5b63e3	-0.21424823
164	0x3be56dec	0.007001629
165	0xbd2e1cb3	-0.04250784
166	0x3a78575b	0.0009473466
167	0xbbeadf36	-0.007167722
168	0x3df41d87	0.119196944
169	0x3d571601	0.05251122
170	0x3e03fedf	0.12890194
171	0xbd90c1ff	-0.07068252
172	0xbdebf376	-0.11521046
173	0xbc3da5a2	-0.0115751345
174	0xbe37a118	-0.17932546
175	0x3e1f3062	0.155458
176	0xbe5c3acb	-0.21506803
177	0x3e94af6b	0.29040083
178	0xbe870f86	-0.2637903
179	0xbcd25880	-0.025676966
180	0x3e408089	0.18799032
181	0x3d648484	0.05579044
182	0x3e9094f4	0.28238642
183	0x3e260337	0.16212164
184	0x3e53bf74	0.20678502
185	0x3e179a9c	0.14805073
186	0xbd5976a9	-0.05309168
187	0xbe06b4d4	-0.13154918
188	0xbbd9ffd0	-0.0066528097
189	0x3cef4563	0.02920789
190	0x3e596130	0.2122848
191	0xbe10b851	-0.14132811
192	0xbcef6284	-0.02922178
193	0x3e5d824a	0.21631733
194	0xbb9f387a	-0.0048590275
195	0xbcfdfd7d	-0.031004662
196	0x3d13d407	0.036090877
197	0xbd09e343	-0.033664
198	0x3e3a45b3	0.1819065
199	0xbe08c5b5	-0.13356669
200	0x3d81c2a7	0.06335955
201	0xbdd1302e	-0.10214268
202	0xbd3834e0	-0.0449723
203	0x3e5e7dd3	0.21727686
204	0xbd681620	-0.056661725
205	0xbe2b4e0e	-0.16728994
206	0x3d1a62ca	0.03769187
207	0xbdfa9b13	-0.12236609
208	0xbe7dc31e	-0.24781463
209	0xbd11ae4e	-0.03556662
210	0xbc5d24f2	-0.013497578
211	0x3d4ad9a0	0.04952395
212	0xbd3f1d3d	-0.046658743
213	0x3c2d5a6f	0.010580643
214	0xbe59e437	-0.21278463
215	0x3e7f4e07	0.24932109
216	0xbdf4b57c	-0.11948678
217	0x3e313b6e	0.17307827
218	0x3bd96adc	0.006635053
219	0x3c9c378b	0.019069454
220	0x3ddb6841	0.10713244
221	0x395557bf	0.00020345951
222	0xbdbeb371	-0.093115695
223	0xbd5c6530	-0.053807437
224	0x3cc3b197	0.023888392
225	0xbe0fa077	-0.14026056
226	0x3df45327	0.119299226
227	0xbe4920e1	-0.19641449
228	0x3da41ef9	0.0801372
229	0xbe13f3ab	-0.1444842
230	0xbdec7a8d	-0.11546812
231	0xbc28567e	-0.010274528
232	0xbc6b9f52	-0.014381247
233	0x3e161a2e	0.14658424
234	0x3e169a52	0.14707306
235	0x3ee5b326	0.44863242
236	0x3dfadb90	0.122489095
237	0xbc324992	-0.010881798
238	0xbd314665	-0.043280024
239	0xbe08b17f	-0.1334896
240	0xbe09953b	-0.13435833
241	0x3e2cf62f	0.16890787
242	0xbe26936c	-0.16267174
243	0x3da3115a	0.07962294
244	0x3e7e5f48	0.24841034
245	0x3ca12ed4	0.01967565
246	0x3da29510	0.07938588
247	0x3d69e283	0.057100784
248	0xbb586692	-0.003302012
249	0x3e74eb0c	0.23917788
250	0xbe4edc4d	-0.20201226
251	0xbd0aae2c	-0.03385751
252	0xbdfbf51d	-0.12302611
253	0x3dc3e090	0.09564316
254	0x3e366add	0.17814203
255	0xbd48f3a6	-0.049060486

rnn.weight_hh_l1 f4 [204, 51]
0	0xbe0cd8f5	-0.13754638
1	0xbc6a7529	-0.01431016
2	0x3dc319ea	0.09526427
3	0xbc238505	-0.009980445
4	0x3e47fecf	0.19530796
5	0xbe00f568	-0.12593615
6	0x3db2770e	0.08714114
7	0x3d4c1702	0.04982663
8	0x3d0c2025	0.034210343
9	0x3e0a7f25	0.13525064
10	0x3e172bc1	0.14762785
11	0x3e2e3d84	0.17015654
12	0x3bdd69a6	0.006756979
13	0x3d68e2e5	0.05685701
14	0x3db4396d	0.088000156
15	0x3da6c025	0.081421174
16	0xbd6a2b04	-0.05716993
17	0x3e1a9a39	0.15097894
18	0xbe345e39	-0.17614068
19	0xbe1949dd	-0.14969583
20	0x3e7f2fd4	0.24920589
21	0xbe141823	-0.14462332
22	0x3e111d30	0.1417129
23	0x3d4a7f1e	0.049437635
24	0xbdac6123	-0.08416965
25	0xbe096409	-0.13417067
26	0xbe0d1e1d	-0.13781019
27	0x3c7df487	0.015500194
28	0x3e33f362	0.17573312
29	0x3c31a1ff	0.010841846
30	0x3e3c261c	0.18373913
31	0x3da97a24	0.082752496
32	0xbd3096ce	-0.04311257
33	0xbe13912c	-0.14410847
34	0xbe0eb8c1	-0.13937666
35	0x3da65338	0.081213415
36	0x3e256370	0.16151214
37	0x3b62b1eb	0.003459091
38	0xbd92ac23	-0.07161739
39	0xbbdb410e	-0.0066911047
40	0xbdb9bfda	-0.09069796
41	0xbe6b2a3e	-0.22965333
42	0xbdb14833	-0.08656349
43	0xbe029b15	-0.12754472
44	0xbdb3a326	-0.087713525
45	0x3c8b2da2	0.016989533
46	0x3e0e8002	0.13916019
47	0x3dbe3ddc	0.092891425
48	0xbad6ae28	-0.0016378807
49	0xbdc97688	-0.09837061
50	0x3d9b71f9	0.07590098
51	0xbde16076	-0.110047266
52	0x3ba7c579	0.005119976
53	0xbd73d6f0	-0.059531152
54	0xbdee664f	-0.116406076
55	0x3e4a8ef0	0.19781089
56	0xbe45fac9	-0.19333948
57	0xbe71541c	-0.23567241
58	0x3dec182e	0.115280494
59	0x3da89d9e	0.08233188
60	0xbe094d7c	-0.13408464
61	0xbce486ee	-0.02789637
62	0xbde0799a	-0.10960694
63	0xbe2315eb	-0.1592633
64	0x3d2b3224	0.041795865
65	0xbc9875ce	-0.018610861
66	0xbc9089d1	-0.017643841
67	0xbdba2ccb	-0.09090575
68	0x3e2989cc	0.16556472
69	0x3d49444f	0.04913741
70	0xbbfdd47d	-0.007746278
71	0x3dd814dd	0.10550854
72	0xbe33b35b	-0.17548887
73	0x3e3c1950	0.18369031
74	0x3da6cb72	0.08144273
75	0xbe5698bb	-0.209567
76	0x3cd431cb	0.02590265
77	0xbe7e695f	-0.24844883
78	0xbe00c3ea	-0.12574735
79	0x3e304c66	0.17216644
80	0x3c02c36c	0.0079811625
81	0xbc1890f4	-0.009311903
82	0x3e744552	0.23854569
83	0x3e052d7b	0.1300563
84	0xbd3fe05c	-0.046844825
85	0xbde562d5	-0.11200491
86	0xbd90ddf1	-0.07073582
87	0x3df10e84	0.11770347
88	0xbcc4eba0	-0.024038136
89	0xbd4359aa	-0.047692932
90	0x3d590f17	0.052992906
91	0xbde21ff9	-0.110412546
92	0xbe160461	-0.14650108
93	0x3e16fd36	0.1474503
94	0x3de3e81a	0.11128254
95	0x3dbaeb0f	0.09126865
96	0xbd9b80b9	-0.07592911
97	0x3cb53121	0.022118153
98	0x3c9b477a	0.018954981
99	0x3dcac90b	0.09901627
100	0x3d078ed6	0.033095203
101	0x3ddba79e	0.1072533
102	0x3bb88ebc	0.0056322496
103	0x3dc8115a	0.097689345
104	0xbddafb1e	-0.10692428
105	0xbd772c6c	-0.0603451
106	0x3e762ec8	0.24041283
107	0xbdc17c8f	-0.09447586
108	0xbe2b04c3	-0.16701035
109	0x3dbf1270	0.093296885
110	0x3e191555	0.14949544
111	0x3dff7655	0.12473742
112	0x3df9994a	0.12187441
113	0x3e1df79e	0.1542649
114	0xbc86e3f8	-0.016466126
115	0x3db43adf	0.08800291
116	0x3e187b2e	0.1489074
117	0x3e64336e	0.22285244
118	0xbde6a8a7	-0.11262637
119	0x3db32f89	0.08749301
120	0x3cad2e0e	0.021140125
121	0xbe2c9dcd	-0.16857071
122	0x3d076d06	0.033062957
123	0xbd7d4fb2	-0.06184358
124	0xbdb103ba	-0.08643289
125	0xbd893386	-0.066992804
126	0xbd1da35a	-0.038485862
127	0xbd1feb54	-0.039042786
128	0xbe42e41f	-0.19032334
129	0xbe433bcf	-0.19065784
130	0x3e1c9fa9	0.1529528
131	0xbdef012e	-0.11670147
132	0x3de4843b	0.111580335
133	0x3dc9a046	0.09845023
134	0x3d7ef9c6	0.06224992
135	0xbdae4f3c	-0.085112065
136	0xbdee932d	-0.11649165
137	0x3d793976	0.060845815
138	0xbd674690	-0.056463778
139	0xbc37a72e	-0.011209292
140	0x3d04a334	0.032382205
141	0xbcc1e57a	-0.023668993
142	0xbde14688	-0.10999781
143	0xbe4858b4	-0.19565088
144	0x3de72500	0.11286354
145	0xbddba17e	-0.107241616
146	0x3d7d4c75	0.061840493
147	0x3bc5ce1d	0.0060365335
148	0x3e270a29	0.1631247
149	0xbc997ccf	-0.018736271
150	0x3d834f6c	0.06411633
151	0x3d8f05a8	0.06983501
152	0x3e148011	0.14501978
153	0xbbe74416	-0.007057677
154	0x3e18a736	0.14907536
155	0x3d20bdbf	0.039243456
156	0xbe14f03e	-0.1454477
157	0x3e140465	0.14454801
158	0x3c07f9bf	0.00829929
159	0xbe1d5ea1	-0.1536813
160	0xbb5fcfe7	-0.003415102
161	0x3d58c3e0	0.052921176
162	0xbdd61b47	-0.104544215
163	0x3e0b5f0e	0.13610479
164	0xbdb25685	-0.087079085
165	0x3dc3ccf5	0.09560577
166	0x3cc972bc	0.024590842
167	0x3d9abb8d	0.07555304
168	0x3d9c48fe	0.0763111
169	0x3d21316e	0.03935378
170	0x3dd7987d	0.10527132
171	0xbda3752b	-0.079813324
172	0xbd1cdd35	-0.038296897
173	0x3d1dc750	0.038520157
174	0x3d593fc4	0.053039327
175	0xbd1e47dd	-0.038642753
176	0x3d4d75b1	0.050161067
177	0xbe126cd8	-0.14299333
178	0x3c285ac5	0.010275547
179	0xbe82d3f8	-0.25552344
180	0xbe15aa75	-0.14615805
181	0x3e421a2e	0.189553
182	0xbe088dfd	-0.13335414
183	0x3dd8eed9	0.105924316
184	0x3e38bd6d	0.1804101
185	0x3ca5eeef	0.020255534
186	0x3d59224d	0.053011227
187	0x3dc8043c	0.09766433
188	0xbd974098	-0.07385367
189	0x3d05a412	0.032627173
190	0x3db60429	0.08887512
191	0x3d42186a	0.047386564
192	0x3d65bdb3	0.056089114
193	0xbcb19196	-0.021675866
194	0x3bc5038e	0.0060123866
195	0x3d2d5e88	0.04232648
196	0x3e1dfdb0	0.15428805
197	0x3d4bf3f4	0.0497932
198	0x3e001e41	0.12511541
199	0x3e356a12	0.17716244
200	0x3d97dd77	0.07415288
201	0xbd055e67	-0.032560732
202	0xbde64846	-0.11244254
203	0x3d3bcd0c	0.045849845
204	0xbdc10472	-0.09424676
205	0xbddc25e8	-0.107494175
206	0xbd974f88	-0.07388216
207	0x3db88000	0.09008789
208	0x3dfd436e	0.12366377
209	0xbcebb8ea	-0.028774697
210	0xbd64aca9	-0.055828724
211	0x3cdeb920	0.027187884
212	0x3e2bc52a	0.16774431
213	0xbd4f7066	-0.0506443
214	0xbdd4a685	-0.103833236
215	0x3e099852	0.13437012
216	0xbdfe5541	-0.12418605
217	0xbd88b93b	-0.06675955
218	0x3e25a689	0.1617681
219	0xbd839492	-0.06424822
220	0x3d663761	0.056205157
221	0xbb639247	-0.003472464
222	0x3d734767	0.059394266
223	0xbca63fae	-0.020294037
224	0x3db22bf5	0.086997904
225	0xbc656482	-0.014001014
226	0xbda5f8aa	-0.081040695
227	0xbe095efd	-0.13415141
228	0xbab7e6ef	-0.0014030616
229	0xbd2e89e1	-0.04261196
230	0xbe186bd1	-0.14884879
231	0x3c6a4c39	0.014300399
232	0xbd58aacc	-0.05289726
233	0xbd477029	-0.04869095
234	0x3ddf687f	0.10908603
235	0xbb4aeeed	-0.0030965165
236	0xbde5d891	-0.112229474
237	0xbe10540e	-0.14094564
238	0x3c8fbd6d	0.01754638
239	0x3e08b25f	0.13349293
240	0x3e2acd65	0.16679914
241	0xbcb2103c	-0.021736257
242	0x3c24d72d	0.0100610675
243	0xbd9197d3	-0.07109036
244	0x3d60c87e	0.054878704
245	0xbe1bbc5c	-0.15208572
246	0x3d71d675	0.059042413
247	0xbd95a79f	-0.07307362
248	0x3e1825be	0.14858148
249	0x3d0e6106	0.034760498
250	0x3e0a9433	0.13533096
251	0x3df9758d	0.12180624
252	0xbc93352e	-0.017969694
253	0x3c036f94	0.008022208
254	0xbc652e2f	-0.013988062
255	0x3cc18b97	0.023626132

rnn.bias_ih_l1 f4 [204]
0	0x3df2038a	0.11817081
1	0xbd00170e	-0.031271987
2	0xbc2dc867	-0.010606862
3	0x3e52c832	0.20584181
4	0x3dee6ca4	0.11641815
5	0x3e4d3a44	0.20041758
6	0xbc3af013	-0.011409777
7	0x3e2fe915	0.17178757
8	0x3e4afe80	0.19823647
9	0x3caf55e0	0.021403253
10	0x3e14b780	0.14523125
11	0xbd775e50	-0.060392678
12	0x3ce2d879	0.027691113
13	0xbd0f33af	-0.0349614
14	0x3e190c2d	0.14946051
15	0x3e28adfa	0.16472617
16	0x3e1e8c06	0.15483102
17	0xbd40d1ee	-0.047075205
18	0xbd16b508	-0.03679374
19	0xbcd8e97a	-0.026478518
20	0x3d825aef	0.063650005
21	0x3ca78352	0.02044836
22	0xbd1be666	-0.038061522
23	0x3e070074	0.13183767
24	0x3e70de9d	0.2352242
25	0x3dcbaa90	0.099446416
26	0x3d518907	0.05115607
27	0xbd95390b	-0.07286271
28	0xbd99b47e	-0.07505129
29	0x3cc207ac	0.023685299
30	0x3e39f7d3	0.18160944
31	0x3dfb80d3	0.12280431
32	0x3e27a716	0.16372332
33	0xbcdfff48	-0.027343407
34	0xbc10be58	-0.008834444
35	0x3c8e5ff0	0.017379731
36	0x3dcfdc82	0.101494804
37	0x3df444c7	0.11927181
38	0xbd9ffb8b	-0.0781165
39	0x3d5a6ef1	0.05332846
40	0x3bfa020d	0.007629639
41	0x3e2a60c0	0.1663847
42	0x3e11854d	0.14211006
43	0x3d8b3f7b	0.06799217
44	0x3dc01fd3	0.0938107
45	0xbd876331	-0.06610716
46	0x3d746245	0.05966403
47	0x3e4f9752	0.20272568
48	0x3dd47d6f	0.10375487
49	0x3e16c6f8	0.14724338
50	0x3e37eba3	0.17960982
51	0xbc9d8e94	-0.019233026
52	0x3cc6fcb4	0.02429042
53	0x3c3758ba	0.011190588
54	0xbd89803e	-0.067139134
55	0xbd9dfdfe	-0.07714461
56	0xbdb919a3	-0.09038093
57	0xbca5add2	-0.020224486
58	0xbdd9d69b	-0.10636636
59	0x3d498b25	0.049204964
60	0x3d55720d	0.05211072
61	0xbd98d193	-0.07461848
62	0xbd8db5ee	-0.06919466
63	0xbe139ac5	-0.14414509
64	0x3e0716e9	0.13192333
65	0x3de3be4a	0.11120279
66	0xbc76d4b4	-0.015065361
67	0xbd367ae4	-0.04455079
68	0x3db38f0b	0.08767518
69	0x3e19b608	0.15010846
70	0x3d71b501	0.05901051
71	0xbcdc49e8	-0.02689071
72	0x3c8c19e9	0.017102199
73	0xbbe378fd	-0.006941913
74	0xbc112a1c	-0.008860137
75	0xbb869ac1	-0.0041078036
76	0x3e1e54e2	0.15462068
77	0xbac5d60c	-0.0015093698
78	0xbcefed74	-0.029288031
79	0xbc49f7b8	-0.012327127
80	0x3d9e702c	0.07736239
81	0xbdeecfd4	-0.11660734
82	0x3df90eb7	0.1216101
83	0xbb6a7377	-0.0035774389
84	0x3e1b2652	0.15151337
85	0xbc77b0ae	-0.015117807
86	0x3e03ce4a	0.12871662
87	0x3e27cd75	0.1638697
88	0x3dafe410	0.08588421
89	0x3d702e04	0.058637634
90	0x3ddba6a1	0.10725141
91	0x3daef24e	0.0854231
92	0x3dbd7ff0	0.09252918
93	0xbd8ca3ce	-0.06867181
94	0xbe017359	-0.12641658
95	0xbd8f0f09	-0.069852896
96	0xbcfbd8f7	-0.030743105
97	0x3e10cc45	0.14140423
98	0x3ce24272	0.027619574
99	0xbc3f81ae	-0.011688633
100	0x3da7aea1	0.08187605
101	0xbe29dfbf	-0.16589259
102	0x3d5c66f0	0.053809106
103	0xbdddc4a9	-0.108285256
104	0x3a81c145	0.0009899518
105	0x3d0e92c3	0.03480793
106	0x3dd52298	0.10406989
107	0x3d1a132a	0.037615933
108	0xbc1fe044	-0.009758059
109	0xbd081ffe	-0.033233635
110	0xbd3b274a	-0.045691766
111	0x3e015ef3	0.12633877
112	0x3deda751	0.11604179
113	0x3dc58c78	0.09645933
114	0xbdecb2bd	-0.11557529
115	0xbd23e364	-0.04001178
116	0xbd146037	-0.03622457
117	0x3e148886	0.14505205
118	0x3d2d3353	0.042285275
119	0x3d5e0906	0.054207824
120	0xbd8f28dc	-0.06990215
121	0xbe076bf1	-0.1322477
122	0xbd9350ab	-0.071931206
123	0x3d3a4cdb	0.04548345
124	0x3e104e2e	0.14092323
125	0x3c7bbcbe	0.015364824
126	0x3dbfbf60	0.09362674
127	0x3cfa49ee	0.03055283
128	0xbe06d5f1	-0.1316755
129	0xbc1d8042	-0.009613099
130	0x3da5596b	0.08073696
131	0x3d8cbcf4	0.068719774
132	0x3dbf774d	0.09348927
133	0xbdaeacb5	-0.08529035
134	0x3e1daaa6	0.15397128
135	0xbc044305	-0.008072619
136	0xbd180b97	-0.037120428
137	0xbd5b6e36	-0.053571902
138	0x3dc8c853	0.09803834
139	0x3d018115	0.031617243
140	0x3e27b517	0.16377674
141	0x3d7f022d	0.062257934
142	0x3c0bc7cb	0.008531521
143	0xbda8308a	-0.08212383
144	0x3e1ea7aa	0.15493646
145	0xbdc8b200	-0.09799576
146	0x3dd705c2	0.10499145
147	0x3d97230d	0.07379732
148	0x3dec3526	0.11533575
149	0x3e26f430	0.16304088
150	0xbace00d1	-0.0015716796
151	0xbcf0c30d	-0.029389882
152	0x3dcb5264	0.09927824
153	0x3e1cb4b8	0.15303314
154	0x3d3f58f9	0.04671571
155	0x3c1feee4	0.009761546
156	0xbd4c69e0	-0.049905658
157	0x3d85b345	0.065283336
158	0x3bea3026	0.007146853
159	0x3d60d0b1	0.054886524
160	0xbbd22ee6	-0.006414282
161	0x3e2f740f	0.17134117
162	0x3ddb9194	0.10721126
163	0x3dfe7de9	0.12426359
164	0x3e20f28b	0.15717523
165	0x3d5fc709	0.054633174
166	0xbc502562	-0.012704225
167	0xbd891662	-0.06693722
168	0xbcca2f22	-0.024680678
169	0x3d86f4da	0.065896705
170	0x3e3980b6	0.18115506
171	0x3da62d20	0.08114076
172	0x3db4284f	0.08796751
173	0x3e43ace8	0.19108927
174	0xbd947f42	-0.07250835
175	0x3d8db5c9	0.069194384
176	0x3e25217d	0.16126056
177	0x3e1e817f	0.15479086
178	0x3e03c0df	0.12866543
179	0x3cbaa5e4	0.022784181
180	0x3dd11cc0	0.10210562
181	0x3e20d073	0.15704517
182	0xbc4ceb65	-0.012507294
183	0xbd657f54	-0.056029633
184	0xbcecc54c	-0.028902672
185	0xbd117314	-0.035510138
186	0x3e2f3265	0.17109068
187	0x3e180e6f	0.14849256
188	0x3d8974bd	0.06711719
189	0x3d9ad7b3	0.075606726
190	0x3ddebf53	0.10876336
191	0xbd5408d7	-0.051766243
192	0x3d1ac00d	0.03778081
193	0x3ddfa89e	0.10920833
194	0x3d231668	0.03981629
195	0xbda8cf4f	-0.08242666
196	0x3db72623	0.08942821
197	0xbd2965e1	-0.041356925
198	0xbdae77e5	-0.08518962
199	0xbd17ed7b	-0.037091713
200	0x3d9114b4	0.07084027
201	0xbd114237	-0.035463538
202	0xbdae72c8	-0.085179865
203	0x3da745aa	0.08167584

rnn.bias_hh_l1 f4 [204]
0	0x3e1bc494	0.15211707
1	0xbd545217	-0.0518361
2	0x3c82f285	0.015984783
3	0x3c04ec81	0.008113028
4	0x3e085a8b	0.1331579
5	0x3e563f0d	0.2092249
6	0x3dc21cb6	0.094781324
7	0x3e4e3d50	0.20140576
8	0x3cedd622	0.02903277
9	0x3d8aee5b	0.06783744
10	0x3de353e1	0.11099983
11	0x3e304432	0.17213514
12	0x3da44836	0.08021586
13	0x3b88ced8	0.0041750483
14	0x3dadef27	0.0849288
15	0x3e68de36	0.22741017
16	0xbd0e6cd0	-0.03477174
17	0x3e00821b	0.12549631
18	0xbd82402d	-0.06359897
19	0x3dd7258e	0.1050521
20	0xbb8744dc	-0.0041280817
21	0xbcf26237	-0.029587848
22	0xbcfeba2a	-0.03109463
23	0xbd4d6037	-0.050140586
24	0x3c02fd2d	0.007994932
25	0x3dfeed7b	0.124476396
26	0x3df7defe	0.12103079
27	0x3d44ecea	0.0480775
28	0x3df026e6	0.11726169
29	0x3d198aca	0.037485875
30	0xbd8c0f9b	-0.06838914
31	0x3d0f340a	0.034961738
32	0x3cf093c2	0.029367331
33	0x3dca3849	0.09874017
34	0x3dab22c9	0.08356244
35	0xbc6c57c3	-0.014425221
36	0x3d856877	0.06514066
37	0x3b62c74a	0.0034603649
38	0x3de21111	0.110384114
39	0x3d307461	0.043079738
40	0x3c9bff13	0.019042527
41	0xbcf40c5c	-0.02979105
42	0x3dc9bc89	0.09850413
43	0x3c7c5e84	0.015403394
44	0x3d37caf8	0.0448713
45	0x3de1a755	0.11018244
46	0x3de729b9	0.11287255
47	0xbcfab819	-0.030605363
48	0x3e2d26bf	0.16909312
49	0x3e02b994	0.12766105
50	0x3e40f8db	0.18844931
51	0x3d194f4b	0.037429135
52	0xbd57bd56	-0.0526708
53	0xbcfd7aaa	-0.03094228
54	0xbc4cc619	-0.012498402
55	0x3d906633	0.07050743
56	0x3da61395	0.08109204
57	0xbc73353e	-0.014844237
58	0x3c93f1f0	0.0180597
59	0x3e066313	0.13123731
60	0x3c966652	0.018359337
61	0x3e00f45c	0.12593216
62	0x3da38ec5	0.079862155
63	0xbc8be95a	-0.017079044
64	0x3e1de799	0.15420379
65	0xbdc7a655	-0.09748522
66	0x3d3a12a9	0.045427952
67	0x3dc93892	0.09825243
68	0xbdbe33ba	-0.0928721
69	0x3e087b40	0.13328266
70	0x3e38451f	0.17995118
71	0xbbd1ad22	-0.006398813
72	0xbce42ecd	-0.027854348
73	0x3d37ed2c	0.04490392
74	0x3db55922	0.08854891
75	0x3dadc3eb	0.08484634
76	0xbbda3a37	-0.006659772
77	0x3c60ba37	0.013716272
78	0x3e1efb53	0.1552556
79	0x383ef904	4.5531444e-05
80	0xbda8b3b3	-0.082374
81	0x3d073983	0.03301383
82	0x3c883ca4	0.016630478
83	0x3da77371	0.081763156
84	0x3e153583	0.14571194
85	0xbda910cf	-0.08255159
86	0xbdcf8dbe	-0.10134457
87	0x3e15c684	0.14626509
88	0x3d3e7e07	0.046506908
89	0x3dfd8bca	0.12380178
90	0xbcae36b4	-0.021266319
91	0xbdd4c3a8	-0.10388881
92	0xbc9a9fe2	-0.018875066
93	0x3d400006	0.046875022
94	0x3dcc06d5	0.099622406
95	0x3d2a18b7	0.041527476
96	0x3d164c35	0.03669377
97	0xbd69d05b	-0.05708347
98	0x3e3041ce	0.17212602
99	0xbcd026de	-0.025409158
100	0xbce53194	-0.027977742
101	0xbdf74fc3	-0.1207576
102	0xbe291b1d	-0.16514249
103	0x3dd4530d	0.10367403
104	0xbdba0797	-0.09083479
105	0xbdb47871	-0.08812035
106	0x3d797744	0.060904756
107	0xbd2a3d5e	-0.04156243
108	0x3dbaec00	0.09127045
109	0xbded7e3f	-0.11596345
110	0x3b8895e2	0.004168258
111	0x3d0168b8	0.03159401
112	0x3b2955ba	0.002583845
113	0x3e1f9be0	0.15586805
114	0xbdc74e8e	-0.0973178
115	0x3d489361	0.048968676
116	0x3e0d0dc6	0.13774785
117	0xbbfe7e21	-0.0077665006
118	0xbd942d39	-0.07235188
119	0x3dec7959	0.11546583
120	0xbe0fed1f	-0.14055298
121	0xbd84e1bd	-0.06488369
122	0x3d87096f	0.06593596
123	0x3dae6ee6	0.08517246
124	0x3cbca1be	0.023026343
125	0xbdc120a6	-0.09430055
126	0xbdbc6fb7	-0.092009954
127	0xbd38cfe8	-0.04512015
128	0xbe116923	-0.14200263
129	0xbe1d4535	-0.15358432
130	0x3bf2c148	0.007408295
131	0xbd4c35ea	-0.049856104
132	0xbde8b008	-0.113617
133	0xbd97c107	-0.07409864
134	0x3db60f86	0.088896796
135	0xbd9ed543	-0.0775552
136	0xbded8708	-0.11598021
137	0x3ce97f30	0.02850303
138	0x3d3ce812	0.046119757
139	0x3e2797e1	0.16366531
140	0x3ca7b5b8	0.020472392
141	0x3dd0ac34	0.10189095
142	0xbe11020e	-0.1416094
143	0xbd9946ba	-0.07484193
144	0xbd83aa65	-0.064289846
145	0x3d0451f2	0.03230471
146	0xbd9d8ae2	-0.076925054
147	0x3db1a3f2	0.08673848
148	0x3e3814d1	0.17976691
149	0xbcac1c2d	-0.021009529
150	0x3d2c55b8	0.042073935
151	0x3cb78ded	0.022406543
152	0xbcb45058	-0.022010967
153	0x3d2362c8	0.039889127
154	0x3c5a18cb	0.013311575
155	0x3d2041a7	0.03912511
156	0x3d76db3e	0.06026768
157	0x3d833e6d	0.06408391
158	0x3d1b7dc8	0.03796175
159	0xbd8ae209	-0.06781394
160	0xbd00b337	-0.031420913
161	0xbd11dc70	-0.035610616
162	0x3e1e574b	0.15462987
163	0x3e2a374d	0.16622658
164	0xbd666528	-0.056248814
165	0x3e162630	0.14663005
166	0x3e195d2e	0.14976951
167	0x3c0a0f3a	0.008426482
168	0xbd754781	-0.059882645
169	0xbd3f7edf	-0.046751853
170	0x3db607cb	0.08888205
171	0xbd8673c4	-0.06565049
172	0xbd94aabb	-0.07259127
173	0x3d0febe2	0.035137065
174	0x3deb9a83	0.1150408
175	0xbc99a9c2	-0.018757705
176	0x3e5369fd	0.206459
177	0xbccbaaf9	-0.0248618
178	0x3c8a19b5	0.016857961
179	0xbcd2f6c1	-0.025752427
180	0x3dad2b7c	0.084555596
181	0x3e3b1c75	0.18272574
182	0x3c9f7734	0.01946602
183	0x3e43d290	0.19123292
184	0x3dd259ef	0.1027106
185	0x3e104e4f	0.14092372
186	0xbd6e2e0e	-0.05814939
187	0x3d066d75	0.03281923
188	0x3e1d3acf	0.15354465
189	0xbda4f273	-0.08054056
190	0x3dd52a60	0.10408473
191	0xbdac28e9	-0.084062405
192	0x3c9e0613	0.019290006
193	0x3e490fb6	0.196349
194	0xbc845af9	-0.01615666
195	0x3e3a8ed7	0.18218552
196	0xbcfc7b66	-0.03082056
197	0x3e62c7d0	0.22146535
198	0x3e26f9e3	0.16306262
199	0x3d8018ac	0.06254706
200	0x3ceaeef2	0.028678391
201	0x3dc03a71	0.09386147
202	0x3ab4e935	0.0013802411
203	0x3e346213	0.17615537
