tmp/aa_models/8.pt (torch_old, 539706 bytes, 30 tensors)

rnn.weight_ih_l0 f4 [204, 60]
000000 da f6 04 3e 3d 06 f6 bc 8a e9 c8 bd 62 7c e8 3e
       0.12984791 -0.030032272 -0.09810169 0.45407397
000010 ac 71 7c 3d 8b 5f 02 3d 15 37 d5 bd 64 5a 8c bd
       0.061631843 0.031829398 -0.10410897 -0.06853178
000020 13 73 ec 3d e1 21 af 3d 0c 97 76 3d 33 7a c1 bb
       0.11545386 0.08551384 0.060202643 -0.00590446
000030 b2 63 6a 38 04 7b 60 3d 50 fe 28 3e 69 30 09 be
       5.5882796e-05 0.054804817 0.16503263 -0.13397373
000040 5b 6d 9d 3e 59 67 54 be 7d a0 bb bd 16 84 cf bd
       0.30747494 -0.20742549 -0.0916147 -0.10132615
000050 d0 43 0a bc db c1 e3 bd d9 70 47 bd 24 96 57 bd
       -0.008439019 -0.11120959 -0.048691604 -0.05263342
000060 e0 2a e7 3d ba bf 11 3d 8a ab 2b 3d 91 32 fb 3d
       0.11287475 0.035583235 0.04191164 0.12265504
000070 38 2a fd 3c 19 a0 16 be 03 80 c9 bd e2 29 91 bc
       0.03090392 -0.1470951 -0.098388694 -0.017720167
000080 be ac 3c 3d 86 02 c3 3d 07 a9 92 bc 81 b8 81 3d
       0.046063177 0.09521966 -0.017902864 0.063340195
000090 5a 0f 91 bc 57 93 43 3c f1 33 d8 bc 54 a9 9c 3c
       -0.017707516 0.011936984 -0.026391955 0.01912371
0000a0 d0 f9 60 3d 94 95 a9 bd 72 22 64 bd 66 03 d1 3c
       0.05492574 -0.08280483 -0.055696912 0.025514316
0000b0 bc f7 ca bd 10 92 bc 3c 5a 48 f9 3d 80 08 03 bb
       -0.09910533 0.023018867 0.12172003 -0.001999408
0000c0 92 5a fc 3d 32 0d fe bd e2 65 85 3d 63 25 9c bd
       0.123219624 -0.124048606 0.06513573 -0.076243185
0000d0 88 2c 80 3d 60 a0 4f bc f7 58 00 be 1e 77 c2 3d
       0.06258494 -0.012672514 -0.12533937 0.09495376
0000e0 9e d7 9a 3d 00 47 9d 3c 3e 6f 03 bd 4e c5 2d bd
       0.07560657 0.019198895 -0.03208851 -0.042424493
0000f0 df e7 cf 3d b3 b4 c2 3c 29 68 88 be e8 c1 d1 3d
       0.10151648 0.023767805 -0.26641968 0.10242063
000100 b7 2c 14 3e f6 36 5a be f9 14 ef bd 2f d6 1e be
       0.14470182 -0.21310028 -0.11673922 -0.15511392
000110 85 dd e0 3d 89 9b 91 bd 2a a4 b3 bd 2a 0e 3e be
       0.109797515 -0.07109744 -0.08771546 -0.1856009
000120 59 e0 c3 bc ef 48 d7 bd f3 48 29 3e 86 8d c0 bd
       -0.023910688 -0.10511958 0.16531734 -0.094019935
000130 e9 3c 18 3e e9 3a 03 be d8 fa f0 3c 82 16 97 3e
       0.14866985 -0.12815441 0.029416487 0.2950936
000140 fa 0d cc bc c2 f4 bb bd 13 cc 98 3c e0 96 dd bd
       -0.024909008 -0.09177543 0.018651998 -0.10819793
000150 31 7f 54 bd 94 ec 00 bc a5 26 51 be 59 68 0a be
       -0.05187911 -0.007868905 -0.20424898 -0.13516368
000160 a7 af 2a be 6d 11 87 3c e7 d5 60 bd bc 89 84 bc
       -0.16668569 0.016487801 -0.054891493 -0.016178958
000170 a2 94 7a 3d 86 69 21 3b d1 e7 f1 bd df a3 3f bd
       0.061176904 0.0024629547 -0.118117936 -0.04678714
000180 64 c6 b4 bc d6 09 93 bd a1 a8 a6 3b 5e af 4f bd
       -0.022067256 -0.071796104 0.00508602 -0.050704353
000190 4b 6e 00 3e 10 97 60 bd bf 4c 2b 3d 38 df 5b bd
       0.12542073 -0.054831564 0.041821238 -0.053679675
0001a0 e4 07 33 3d f0 9e d2 bc 04 68 9f bd a4 64 27 3d
       0.043708697 -0.025710553 -0.07783511 0.040867463
0001b0 84 ac 8d bc 56 57 f4 3d da 81 36 bd 38 fb 5d 3d
       -0.017294176 0.119307205 -0.04455743 0.05419466
0001c0 d4 cf 73 3d f8 e5 9a bc 8f ab 08 3e 3c e1 b4 bd
       0.059524372 -0.018908486 0.13346694 -0.088320225
0001d0 2d 01 03 3e 00 9f 3e 3b 60 81 94 bb e0 f3 8d 3d
       0.12793417 0.002908647 -0.0045320243 0.06931281
0001e0 a8 a1 0f be a7 b4 7a 3e d6 90 79 3e 28 b8 73 be
       -0.1402651 0.24482976 0.24371657 -0.23800719
0001f0 a1 f4 4d 3d 74 8b c0 3d 21 eb 90 bd 52 2c 19 bd
       0.050282124 0.094015986 -0.07076097 -0.037395783
000200 0f a4 f8 3e 36 b5 a4 3e 90 30 f3 bc b5 f5 e9 3e
       0.48562667 0.32169503 -0.029686242 0.45695272
000210 9b 07 90 be e0 37 d7 3e 06 b0 8f 3e 78 f2 a9 bc
       -0.28130803 0.42034817 0.28063983 -0.0207455
000220 54 32 47 bd 0c be 34 3e 3b bd 09 3e f6 09 68 3e
       -0.04863198 0.17650622 0.13451092 0.2266005
000230 34 2d 31 be c9 9b 9f 3d 11 a7 0e 3e 5c 47 0d 3d
       -0.173024 0.077933855 0.13930918 0.03449188
000240 3a 1b 39 be 65 0f 3d bd 0c 81 43 bd 35 f8 0b be
       -0.18076792 -0.04615726 -0.04773049 -0.13668902
000250 4c ce 6c 3c fb c7 44 3d 65 1e b5 ba 53 75 ee bd
       0.014453482 0.04804228 -0.0013818262 -0.116434716
000260 42 36 f8 bd 7d a6 e0 3d 20 8a c4 bd 28 5f be 3d
       -0.12119724 0.10969255 -0.09596658 0.09295493
000270 ad 01 c8 bd 65 b8 69 bd 81 f9 aa 3c db 02 05 be
       -0.09765945 -0.057060618 0.020870926 -0.1298937
000280 fa 39 3e bd 18 01 f4 3c 4e a6 b3 bd c0 13 9a 3b
       -0.04644201 0.029785678 -0.087719545 0.0047020614
000290 40 e4 5a 3d f0 c6 6e 3c 06 57 15 bd 34 b9 04 3d
       0.053440332 0.014573798 -0.036459945 0.032403186
0002a0 da cf 1d bd a8 8d ce 3c 10 59 bb 3c 78 38 54 bd
       -0.0385283 0.025214031 0.022869617 -0.051811665
0002b0 ba 45 95 3d 30 49 27 bc 39 44 9e bd c4 7d 80 3d
       0.0728869 -0.01021032 -0.07727856 0.06273988
0002c0 68 9a 03 bd 90 99 cb 3d b0 8e 87 bd fa a6 a6 3d
       -0.032129675 0.09941399 -0.06619012 0.08137317
0002d0 3e f9 f0 bc 17 11 63 3e fe 9b c6 3d 41 06 9f bc
       -0.029415723 0.22174488 0.09697722 -0.019412162
0002e0 22 2a 55 be b6 2a 1a 3e ae 93 e4 3a 04 c4 1a be
       -0.20816854 0.15055355 0.0017439032 -0.15113837
0002f0 61 28 f0 bd 5e 4c de 3d e2 03 a2 bd 2b 51 81 bd
       -0.11726452 0.1085441 -0.07910897 -0.0631431
000300 54 a0 d3 3c 0e 56 0a 3d 65 ed 72 3e b6 fe 08 bd
       0.025833286 0.033773474 0.23723371 -0.033446036
000310 c3 44 0d 3d 15 5d 67 3c 2f f2 1d 3e 46 ee 92 3d
       0.034489404 0.014121314 0.15424417 0.07174353
000320 59 cf 5c 3d 3c 6c 8a bd 46 b5 63 bd ed 9f 8e 3d
       0.05390868 -0.06758925 -0.055592798 0.06964097
000330 03 7f b0 3d 32 e1 e7 3c 8b 59 3d bd 6a b7 2e 3e
       0.086179756 0.028305624 -0.046227973 0.17062154
000340 51 6a 1c 3e 74 5c d0 bc 92 88 7a bd 1a 42 85 3d
       0.15274931 -0.02543471 -0.0611654 0.065067485
000350 17 6c d3 3d 67 ba 31 bd 42 fd 22 3e 17 0c ee 3d
       0.10323351 -0.043390658 0.15916923 0.116234
000360 74 90 20 bd d5 b0 d9 3d d7 67 80 3b e1 2a d4 bd
       -0.03920026 0.10629431 0.0039186287 -0.10359741
000370 b7 bc d7 bd 4d 84 f4 bd 68 ad f9 bd 29 6a fd bd
       -0.105340414 -0.11939297 -0.12191278 -0.12373764
000380 e0 1b 8a 3b f7 38 cc bd 2e 01 f6 3d ea 00 d7 bd
       0.0042147487 -0.09971803 0.12011944 -0.10498221
000390 98 45 35 3d 98 de 9c bc b8 d1 bd bd 02 06 08 bd
       0.044255823 -0.01914911 -0.09268516 -0.033208854
0003a0 a2 4a b8 3d 5d b9 a9 bd b0 e9 28 3c a2 78 ef 3d
       0.0899861 -0.08287308 0.010309622 0.11692931
0003b0 38 5f 9f bd 42 dd db bd 20 27 c7 bb 34 50 d8 3d
       -0.077818334 -0.10735561 -0.006077662 0.105621725
0003c0 2a 48 ba 3e 6f b3 b3 3e 2b 8f f5 bc ec d0 06 3e
       0.36383182 0.35097834 -0.029975494 0.13165635
0003d0 14 87 56 3e 2d a6 08 3e 6d ae 3f be cd 83 da 3d
       0.20949966 0.13344641 -0.18718882 0.1066967
0003e0 37 d0 4e 3e 87 e5 29 3e 4e 5a 0b 3d 4f 4e 44 3c
       0.20196615 0.16591464 0.034021668 0.011981561
0003f0 c8 36 0e 3e 30 0c 1c bd 60 21 94 3d 64 43 e0 3c
       0.13888085 -0.03809756 0.07232928 0.027375884

rnn.weight_hh_l0 f4 [204, 51]
000000 af c5 d5 3d 7d 53 7a 3e cb b2 33 be 4d 0b 35 bd
       0.10438096 0.24445911 -0.17548673 -0.04420023
000010 cc 5e 34 be ae 3c 37 3e 1c 99 ba bd b3 76 46 3e
       -0.17614287 0.17894241 -0.091112345 0.19381218
000020 3c a7 da bd b6 4f 1c 3e b2 23 92 bd e8 1f 8e 3c
       -0.10676429 0.15264782 -0.071357146 0.017349198
000030 91 dc 63 be 5b 62 e7 3d 10 f3 3b 3d d9 58 0a 3e
       -0.22252108 0.11298057 0.0458861 0.13510455
000040 26 53 95 bd 00 fb 27 bd 2c f1 25 3d 5d 9b a8 3d
       -0.0729125 -0.041010857 0.040513203 0.08232758
000050 8d ff b8 3d 51 ae d3 3d 90 d3 13 be 90 ae 86 bd
       0.090331174 0.103359826 -0.14436173 -0.06576264
000060 ec 76 55 be ae d1 69 3d 62 c8 07 bb 6f 5d fe 3d
       -0.20846146 0.05708473 -0.0020718803 0.12420165
000070 52 8f 80 3d b5 44 3e 3e 35 bf 7f 3c e9 4d 17 3c
       0.06277336 0.18580897 0.015609552 0.009234884
000080 b9 65 2e bb a4 f7 07 be 63 9f 11 be 86 c4 ad 3d
       -0.0026610924 -0.13278061 -0.14220957 0.084847495
000090 17 b0 63 3e 02 3e 1f 3d 1b bf 08 bd 7f e2 96 bc
       0.22235142 0.038877495 -0.033385377 -0.018418549
0000a0 6b 1e fd 3d d6 d2 22 3e e5 ab 48 bc d9 bf 10 be
       0.123593174 0.1590074 -0.012248014 -0.14135684
0000b0 ac 49 8f bd 8d 60 e4 3b 2e 08 46 be b1 ed d0 3d
       -0.06996474 0.0069695176 -0.19339058 0.10201586
0000c0 88 b6 cc bd 20 57 e1 3c 0b 2e 82 bc a0 f1 22 be
       -0.099957526 0.027507365 -0.015891096 -0.15912485
0000d0 0f 6f 3f 3e 6a d8 9e be 89 25 39 3d 1c a4 6a be
       0.18694709 -0.31024486 0.045201812 -0.22914165
0000e0 bd 6b 3b 3d bf 39 37 3e 07 78 da 3d 89 44 6d be
       0.045757044 0.17893122 0.10667425 -0.23170675
0000f0 9f ec 88 bd 93 89 b0 be cf 95 2a be a3 80 5c bd
       -0.06685757 -0.3447996 -0.1665871 -0.053833615
000100 2a 98 85 3d 84 5a 12 3e 0c 45 ff 3d 10 0f 55 bd
       0.065231636 0.14292341 0.124643415 -0.052016318
000110 c2 ef 5c be 76 ef 03 be d4 c7 a6 3d 84 92 3e 3d
       -0.21575835 -0.12884316 0.08143583 0.046526447
000120 43 f2 c8 3d c3 1f e5 bd cd 40 1b be 6b de aa bd
       0.09811833 -0.11187699 -0.15161438 -0.08343204
000130 76 fc 3a 3e 1d 15 97 3d aa a2 57 be ce 3f 28 3e
       0.18260369 0.07377074 -0.21058145 0.1643059
000140 f2 ac cd bc a5 1d 8c be 14 69 11 be 61 3c d3 bd
       -0.02510688 -0.27366367 -0.1420024 -0.10314251
000150 37 ec b0 3d f5 df da 3d f4 bf 06 3e 36 6c 10 3e
       0.086388044 0.10687248 0.13159162 0.14103779
000160 0a 24 9c 3e a0 3b 96 3e 88 de b0 3c c7 de de bd
       0.30496246 0.29342365 0.021590486 -0.10882335
000170 75 c9 04 3e c3 a0 81 bd b6 a1 c6 bd 56 98 d6 bd
       0.12967475 -0.06329491 -0.09698813 -0.104782745
000180 e2 32 aa bd 90 b9 b0 3c f7 fb 73 3e ac 73 84 bd
       -0.083104864 0.021572858 0.23826586 -0.06467375
000190 1e 45 de 3d 2d f6 9a bc 0e f1 04 3e c7 da 8a bd
       0.10853027 -0.018916214 0.1298258 -0.0678001
0001a0 96 07 11 bd 0d c4 54 be 8b 0c c5 3d 71 d5 1c 3c
       -0.035407625 -0.20777912 0.09621533 0.009572373
0001b0 41 d0 9e bc 05 8d 2f bd 69 bd a5 bc 04 3e 2f 3e
       -0.019386413 -0.042859096 -0.02023192 0.17113501
0001c0 6b 33 a1 3d a3 4c 37 3d a5 65 27 3d 4f 52 f8 bc
       0.07871135 0.04475082 0.04086842 -0.030312685
0001d0 09 0d 23 bc 23 fc 0d 3e 9b f9 20 be 5b 46 cc bd
       -0.009951838 0.13865714 -0.15720217 -0.09974357
0001e0 22 da 52 3d b9 07 22 3d 09 fd 90 3d 1c 0c 0a be
       0.05147756 0.039558146 0.070795126 -0.13481182
0001f0 7f 0c 2d 3c db 32 00 be 5a 34 60 bc 10 2d f2 3d
       0.010562061 -0.125194 -0.013684357 0.11825001
000200 79 2e 2e bc e3 61 fb 3d 1a 2f 9a bb 18 a5 bf 3d
       -0.010631197 0.1227453 -0.004705322 0.09357661
000210 96 29 4a 3e d2 66 9c 3d 30 ac b9 bc de 31 39 3b
       0.19742426 0.07636799 -0.022665113 0.0028258483
000220 ca be 81 3e d1 ea 78 3d b8 d5 17 3e 67 6a f8 3d
       0.25340873 0.060770813 0.14827621 0.1212967
000230 3d 4c 06 bd 77 9f bc ba 1d 8d ae 3b 94 bd a9 3d
       -0.03278755 -0.0014390786 0.0053268806 0.08288112
000240 e3 02 23 bd b4 16 9d bd 3c b1 ef bb ba 77 5a 3c
       -0.039797675 -0.07670346 -0.007314829 0.013334209
000250 0f 16 21 3e e2 6c 0c 3d cc f6 b4 3d a2 1b 1d be
       0.15731071 0.034283526 0.08836135 -0.15342572
000260 7d c2 9e bd 5f 7d b8 bd 86 ed 21 3d 94 e4 11 be
       -0.077519394 -0.09008288 0.03953316 -0.14247352
000270 4e 59 9d bc 06 c2 06 bd fa d7 c0 bd 9b 18 d2 3d
       -0.019207623 -0.03289988 -0.09416194 0.10258599
000280 f8 1a 1c bd 27 66 35 bc 53 4e 81 bd 32 c3 fc bd
       -0.038111657 -0.011071718 -0.06313767 -0.12341918
000290 2a e0 02 be b9 c5 f2 3b fd af 05 3d 4f e3 9f bd
       -0.12780824 0.0074088243 0.03263854 -0.078070275
0002a0 e2 d9 2c bd ed ba c6 bd 57 fa 88 bd c4 78 18 3e
       -0.042199977 -0.09703622 -0.066883735 0.14889818
0002b0 23 eb 24 bc 12 bc 1e bd fc 4f 83 bd dd b5 80 3d
       -0.010065827 -0.038753577 -0.0641174 0.06284688
0002c0 39 9b 77 3c bb 76 0e 3d 64 de b6 bd 4b c4 c1 3b
       0.015112692 0.0347812 -0.089291364 0.0059132925
0002d0 e3 24 80 3d c2 76 21 3d 4f 63 70 bd 88 ea a4 39
       0.062570356 0.039419897 -0.058688458 0.00031455257
0002e0 80 03 b6 bd 35 e4 65 3d 2f d8 0d 3e b3 e5 8a bd
       -0.08887386 0.05612584 0.13851999 -0.06782093
0002f0 84 dc 2c 3e c5 7d 62 bd f8 32 1e be 5e 36 2b 3d
       0.16880995 -0.055295724 -0.1544913 0.041799895
000300 69 fb b6 3d d3 0b 8d 3c 1e 88 02 bd f6 d3 1d be
       0.089346714 0.017217552 -0.031868093 -0.15412888
000310 8e 8f 5a bc 1a 91 88 3d d7 1a ea 3d 70 f5 b6 bd
       -0.01333989 0.06668301 0.114309005 -0.08933532
000320 78 e0 82 3d b5 51 3d bd 79 48 ce 3a 69 57 d2 bd
       0.0639047 -0.0462205 0.0015738151 -0.102705784
000330 14 1d c1 3d 1a 32 aa 3c 36 ef f1 bd 69 ea ee bd
       0.09429374 0.020775843 -0.11813204 -0.11665804
000340 06 f2 6c 3d 30 1d 05 be 26 ef 6c bd f6 d5 91 3d
       0.057848 -0.12999415 -0.057845257 0.07120888
000350 fe 9a 2b bd 54 92 87 3d 22 e3 2c 3c 28 89 63 bd
       -0.04189586 0.06619707 0.0105522 -0.055550724
000360 29 92 43 bd 64 ee 38 be ec 26 4b be 9c 47 cf 3d
       -0.04774681 -0.18059689 -0.19839066 0.1012108
000370 4d c0 6d 3d fe a5 39 3e 4f 5e 16 3e cc 07 5d bb
       0.05804472 0.18129727 0.14684413 -0.003372657
000380 85 be 1c bd 03 d0 4e be 23 0f 61 3e d3 1f 8a 3d
       -0.03826763 -0.20196538 0.2197843 0.06744351
000390 25 f4 0e bd fa d7 f7 bd ad 59 48 be 17 72 5a bc
       -0.034900803 -0.12101741 -0.19565459 -0.013332865
0003a0 db c6 6e bd 09 ff 2b 3d 5c cc 93 3e e2 f7 85 3e
       -0.058295112 0.041991267 0.2886685 0.26165682
0003b0 f6 7f ab 3d ab f5 b5 bd 5d 21 b0 3d f0 71 04 3b
       0.08374016 -0.08884748 0.086001135 0.0020209514
0003c0 9c 79 24 bd a0 65 c3 bc ad 1e a9 bd 69 be ef bd
       -0.04015504 -0.02385217 -0.08257804 -0.1170624
0003d0 72 c4 c0 bd 38 26 40 bd 57 78 82 bd 35 ab ec 3b
       -0.09412469 -0.04691145 -0.06370609 0.007222558
0003e0 25 6a 72 bd 55 64 09 bd fc f2 22 be 4b 42 40 be
       -0.05918326 -0.03354295 -0.15913004 -0.18775289
0003f0 e9 eb 8a 3d 29 22 85 bd be c3 fc 3d a2 58 23 be
       0.067832775 -0.06500656 0.12342022 -0.1595178

rnn.bias_ih_l0 f4 [204]
000000 65 24 7d 3e cf 78 c1 bd 65 54 83 bd b4 63 0e 3e
       0.24720915 -0.094468705 -0.06412581 0.13905221
000010 2c 99 5d 3d ba 35 ec 3d 9f 66 80 3c e6 3c 47 bd
       0.054101154 0.11533685 0.015673934 -0.04864206
000020 23 3b 15 3e af 76 fd 3c 90 79 65 bd 1a c3 7f bc
       0.1457334 0.030940382 -0.056024134 -0.015610481
000030 94 40 70 3d 92 2b ed 3d e8 22 89 3d 37 32 5a 3d
       0.058655336 0.11580576 0.06696111 0.053270545
000040 b8 90 3e 3d 54 92 9f 3d e4 95 2d bc 51 e5 06 3e
       0.046524733 0.07791582 -0.010594819 0.13173415
000050 52 db 6f 3d 27 07 aa 3e fb 64 f6 3c c7 c4 2c 3e
       0.05855877 0.33208582 0.030077448 0.1687194
000060 db a4 c6 3d f1 48 e6 3d d2 4e 46 3e 93 32 60 3c
       0.096994124 0.11244381 0.19366005 0.013683933
000070 39 98 09 3e 99 4c 80 3c f0 9a 90 bc a8 a4 5a bc
       0.13436975 0.015661525 -0.017652005 -0.013344921
000080 55 70 11 3d b5 18 bb b9 9c 35 da 3d bc 69 1f 3e
       0.03550752 -0.00035685828 0.106547564 0.15567678
000090 7a e7 8c 3c 47 9d 76 3c 6b 87 24 3d c7 8f e4 bc
       0.01720022 0.015052146 0.040168207 -0.02790059
0000a0 2d d4 aa 3d 37 0b 6b 3d 43 b2 de 3d 16 53 54 bc
       0.083412506 0.057383742 0.108738445 -0.012959262
0000b0 51 b5 66 3e e7 e5 1d 3e da 1e 55 bd 4b 9e 2f 3d
       0.22530104 0.15419732 -0.052031375 0.04287557
0000c0 a6 70 74 bd da b6 8a bc d3 d8 1a 3e a3 50 c6 3d
       -0.059677742 -0.016932894 0.15121774 0.09683349
0000d0 0e d6 6f bd 81 c0 bd 3d 2e e0 7c bb dc 4c 2a 3c
       -0.058553748 0.09265233 -0.003858577 0.010394301
0000e0 1a f4 30 3e 7b f4 be 3d a6 af 27 3e 8d b4 91 3d
       0.17280617 0.09323975 0.16375598 0.071145155
0000f0 61 cc f6 bd 31 0d d9 3d b3 d6 c1 3d 6e 65 98 3d
       -0.12050701 0.10598219 0.09464779 0.07441221
000100 a2 5c 5e bd 8f 4c bf bd 8b fa 47 bc 25 ab 31 3e
       -0.05428756 -0.09340774 -0.01220573 0.17350443
000110 f0 3c 45 3d 31 33 cf bd f7 cc 23 3e 9f 19 fc bc
       0.048153818 -0.10117186 0.15996157 -0.030773936
000120 cc af 11 be 6b ca 5e 3d b7 61 0e 3d 40 21 29 3c
       -0.14227217 0.05439226 0.034761157 0.010322869
000130 fc 26 25 3e ed 4d d3 bd ce 1c e0 3b 55 62 01 3c
       0.16128153 -0.103175975 0.0068393713 0.007896979
000140 d3 86 c4 3d ba e1 c2 bd 4a 49 03 3d 49 6c cb 3c
       0.09596028 -0.0951571 0.032052316 0.024831908
000150 67 cb 3b 3d 4f 1e 65 bc c1 be df bc ce d3 ae 3d
       0.045848276 -0.013984277 -0.027312638 0.08536492
000160 09 3d 37 3e 4e 49 00 3e 75 f2 05 bd 1c c2 86 bd
       0.17894377 0.12527964 -0.03270193 -0.06579992
000170 fe e9 89 bd f2 0b a7 bc e6 c1 b5 3d e1 9d b7 3d
       -0.067340836 -0.020391438 0.08874874 0.0896566
000180 0a b5 13 3e fa ed 4b 3d 76 c3 80 3d 99 cc 23 3e
       0.1442453 0.0497875 0.06287281 0.15996017
000190 08 89 80 3d 2b a1 a4 bd fa ae 44 b9 4c 3b 09 3e
       0.06276137 -0.08038553 -0.000187572 0.13401526
0001a0 9b be 34 be 77 13 22 3d 24 b2 93 3d 42 27 e3 bc
       -0.17650835 0.039569344 0.07211712 -0.02772868
0001b0 55 d7 bc 3d 49 e5 b0 3d 99 77 99 ba 6c b9 36 3e
       0.09220759 0.08637483 -0.0011708617 0.1784417
0001c0 a7 77 43 bd 4f 2f d9 bc d6 2b 38 be 2d 12 65 bc
       -0.04772153 -0.026511816 -0.17985472 -0.013981384
0001d0 18 40 f8 3d 65 c3 ab bd ae fe 2e be 70 8e 81 3d
       0.121216 -0.08386878 -0.1708934 0.06325996
0001e0 e9 6a 83 3d 7c 55 29 3e 6a 0d 23 be 53 e3 27 bd
       0.06416876 0.16536516 -0.15923086 -0.040988278
0001f0 21 de 56 bd 97 ab 6e bd d0 c3 07 3e e1 c7 a9 3d
       -0.052457932 -0.05826911 0.1325829 0.08290077
000200 9e 23 28 be ca 8a 1b bc ee 6c ec 3d 57 3b 08 be
       -0.16419837 -0.009493539 0.11544214 -0.13303886
000210 89 a3 a0 bd ca b6 8b bd bd 0f 26 3e bb fa 22 3e
       -0.07843692 -0.068219736 0.16216941 0.15915959
000220 5e 5b ea 3c 4e 5a a7 3c 5e f7 38 3d fe 07 2a bd
       0.02860802 0.020428803 0.045157783 -0.04151153
000230 46 ed 9f 3c 35 25 88 bd e0 30 d2 bb 74 e2 02 bc
       0.01952232 -0.06647722 -0.0064145178 -0.007988561
000240 f7 40 1a be 36 59 2e bc ad 12 54 3c 02 56 19 3e
       -0.15063845 -0.010641387 0.012943906 0.14974216
000250 ba 08 78 3d 06 cd ca 3d 08 db 14 3d e8 97 07 3e
       0.060555197 0.09902386 0.036341697 0.13241541
000260 f0 ac ee bd e8 00 8a 3c 00 f7 49 bd 68 dc 14 3e
       -0.11654079 0.016846135 -0.049307823 0.14537203
000270 9d 68 de bd 48 69 43 bd 52 6b 01 3e 40 77 4b 3e
       -0.10859797 -0.047707826 0.12638596 0.19869709
000280 ca 89 27 3e 9e ee 14 bd 0a f2 b8 3d ed 65 0e 3e
       0.16361156 -0.036360376 0.0903054 0.13906069
000290 52 dd f4 bc 9c bb 0b 3d fc 5e d0 bd ab 01 00 3d
       -0.02989069 0.034114465 -0.10174367 0.03125159
0002a0 3a d9 c0 3d d1 48 e3 3d dd 14 37 3e 18 42 4e 3e
       0.09416433 0.11097873 0.17879052 0.201424
0002b0 65 4a d9 3c b5 b5 d3 bc ec c4 59 3e a9 5b bf 3d
       0.026524732 -0.02584348 0.21266526 0.09343655
0002c0 f1 91 06 be 16 62 bd 3b 1e d6 7e 3d 04 c0 b6 3d
       -0.1314161 0.005779515 0.062215917 0.08923343
0002d0 70 2f 1f 3d 84 b2 17 bd 24 6f ad 3d de 78 a8 3c
       0.0388636 -0.03703548 0.08468464 0.020565446
0002e0 27 a7 da bd f1 0b 51 bb cc 1d 93 3c 72 bf 14 3d
       -0.10676413 -0.0031897987 0.017958544 0.03631539
0002f0 81 be 1a 3e 29 4f 99 3c a9 a6 c9 bc b4 cd 0e bd
       0.15111734 0.018714504 -0.024615603 -0.034864143
000300 5d e9 3c 3e a7 92 19 3e 00 8f 95 bb c1 98 38 3d
       0.18448396 0.1499735 -0.004564166 0.045067552
000310 f1 b2 92 bd 7a 73 10 3e 8b 16 38 3e f8 57 0f bd
       -0.071630366 0.14106551 0.1797735 -0.034996003
000320 84 bc 99 bd 24 1a b0 bc 48 4a 8b bd c7 b6 f1 3b
       -0.075066596 -0.02149684 -0.068012774 0.007376525

rnn.bias_hh_l0 f4 [204]
000000 bf 05 e1 3d 43 23 21 3e 4e a7 20 3e 96 b0 3a 3c
       0.10987424 0.15736108 0.15688822 0.01139464
000010 57 96 d2 3d 1d 85 27 3d f0 a7 bf 3d e9 1f 9d bd
       0.10282581 0.04089843 0.093582034 -0.07672102
000020 04 bd eb 3d 87 7d 0e bd 14 81 96 3d e7 df 80 bd
       0.11510661 -0.03478768 0.073488384 -0.06292706
000030 b8 ce 34 3d b5 74 f9 3d e2 bb c5 bb 43 9a f1 bc
       0.044142455 0.12180463 -0.0060343603 -0.029492503
000040 05 26 80 bd d6 3d ed 3d f0 4a a8 3d f8 a7 3d 3c
       -0.06257252 0.1158406 0.08217418 0.011575691
000050 92 17 7e bc 3a 4f aa 3e 62 7b 77 3d cb 17 b7 3c
       -0.015508549 0.3326357 0.0604204 0.022350213
000060 85 fe 8a 3c a3 e5 98 3d ac c7 06 3d b5 ea c7 3c
       0.016967067 0.07465675 0.032905266 0.02440391
000070 90 73 56 bd 84 14 c3 bd 79 2d b0 bc 62 e0 7d 3d
       -0.052356303 -0.095253974 -0.021506058 0.061981566
000080 93 cc 07 3e 50 35 90 bd e8 39 1f 3e 3f fd 33 3c
       0.13261633 -0.070414186 0.15549433 0.010985672
000090 b9 d8 b3 3d df b7 60 3d 3a 84 bf bc 3e 05 f4 3d
       0.08781571 0.054862853 -0.02337848 0.11915062
0000a0 ce 3f 92 3c 7e 04 97 3d ad 09 16 bc 4e f2 70 3c
       0.01785269 0.07373904 -0.00915758 0.014706207
0000b0 6e f0 29 3d 3a 44 9c bb d5 c8 bc bd 67 73 75 3e
       0.041489057 -0.0047688754 -0.09217993 0.23969804
0000c0 6e a4 0c 3e dc 27 f0 3d 6f ef 17 bd 7e d3 64 3d
       0.137346 0.117263526 -0.037093576 0.055865757
0000d0 62 44 68 3d ef 0a 49 3c bc 4b b3 3d a1 e5 9c 3d
       0.05670584 0.012270673 0.087546796 0.07660986
0000e0 b6 59 b7 3d 81 4a 79 3d 4c 62 3b bb a3 87 46 bd
       0.08952658 0.060862068 -0.0028592525 -0.048469197
0000f0 23 f8 d2 bd c3 4d 8f bd 99 48 bc 3d e4 8c 21 3e
       -0.103012346 -0.06997254 0.091935344 0.15776402
000100 d7 7b 94 bc a0 a6 33 3d ee 14 24 3e 8d dc bd bc
       -0.018125458 0.043860078 0.16023609 -0.023176456
000110 24 c0 be bc 0f c7 c2 3d 3a 7f ab bc 74 d3 c2 bd
       -0.02328498 0.09510624 -0.02093469 -0.09512988
000120 df 2a a6 bd 3f f2 0c 3e e2 8b 0e be 30 f0 ed 3d
       -0.08113646 0.13764285 -0.13920549 0.11618078
000130 6b 59 90 bd b3 d4 e6 3c 63 a2 b1 3d b0 e8 28 3e
       -0.07048305 0.028177595 0.08673551 0.16495013
000140 6d 0b 5e 3d 7b e5 92 3d 5f 9b 9d bd 2e af 81 bd
       0.054210115 0.07172676 -0.0769565 -0.06332241
000150 e3 8e e6 bd 16 d8 0c be 19 c9 9d bd 27 98 9e 3d
       -0.11257722 -0.13754305 -0.07704372 0.077438645
000160 7e b7 1d 3e aa bb 0d bd 82 aa 57 bd af 57 96 3d
       0.15402028 -0.0346028 -0.052652843 0.07340943
000170 a6 1c 93 bc df 85 e8 3d 09 7f 8b bd 1f ae 86 3d
       -0.017957997 0.11353659 -0.068113394 0.0657618
000180 0f 89 0d 3e a3 66 86 3d 2b 7d 47 3d 4f bd 2e 3e
       0.13821815 0.06562545 0.048703354 0.17064403
000190 1d 09 54 bd 8b 72 40 3d 8e a7 b9 bd 28 f9 a3 3d
       -0.051766504 0.046984237 -0.09065162 0.08006507
0001a0 11 e5 d9 bc ca e1 16 be 54 ad 14 be 59 63 34 3e
       -0.026598485 -0.14734569 -0.14519244 0.17616023
0001b0 9e 40 34 3d b0 83 34 3e 95 a5 9f 3b 0a 40 2a 3e
       0.044006936 0.1762836 0.004872034 0.16625991
0001c0 40 1e 77 3d 77 0a 10 be 50 2d 1b bc 2a 62 df 3d
       0.060331583 -0.14066492 -0.009471253 0.10907395
0001d0 bc 28 68 bd a3 d8 ba bd f5 fa 33 bc 8c 6f 0b be
       -0.056679472 -0.091233514 -0.010985126 -0.1361677
0001e0 29 f3 2a 3e 6d fb 32 bd ca 97 93 3a 25 08 12 3e
       0.1669432 -0.04369681 0.0011260447 0.1426092
0001f0 4b 9f bc bd c0 bb a2 bd 57 d2 69 bb 82 b0 a4 3d
       -0.0921007 -0.07945967 -0.003567835 0.08041479
000200 39 73 52 3d fb 88 f2 3d dd fc ef 3d 03 1f 38 ba
       0.051379416 0.11842533 0.11718152 -0.0007023664
000210 44 bc 8d bd 38 e9 9f bc 09 24 0c 3e 0b 70 fc 3d
       -0.069206744 -0.019520387 0.13685621 0.12326058
000220 ab 46 2f 3d 20 60 35 3e 42 64 20 3e 82 79 77 3d
       0.042792004 0.1771245 0.15663245 0.060418613
000230 f9 77 b2 3d 26 63 29 be e9 05 e3 3d 51 3e 18 3e
       0.08714289 -0.16541728 0.11085112 0.14867522
000240 e5 e7 62 bd f8 b9 01 be 87 85 cb 3d de 72 ab 3b
       -0.055396933 -0.12668598 0.09937578 0.005232199
000250 03 21 91 bd 9d 1a 37 3c 18 9d 16 3e 52 fb 4c bd
       -0.070863746 0.011175779 0.14708364 -0.050044365
000260 3a 98 2e be 54 ba 8d 3d 76 26 3a 3a f2 5d af bd
       -0.17050257 0.06920305 0.0007101068 -0.085628405
000270 34 53 06 be bc bf 94 bc cf d9 21 3e c2 e4 a6 3b
       -0.13117677 -0.018157832 0.15805744 0.005093188
000280 82 82 95 bb af b1 3e 3e a2 c1 0b 3d 48 5b c0 3d
       -0.004562677 0.18622468 0.03412021 0.093924105
000290 2c f1 7b bd e9 5c 0a bd d1 04 95 3c 72 73 c2 3d
       -0.061509296 -0.033780012 0.018190773 0.09494676
0002a0 81 ff 3e 3e 7d 43 22 3e b1 de 1e 3e c3 99 1e 3e
       0.18652155 0.15846057 0.15514638 0.15488343
0002b0 6e b2 fa 3b 02 5f 44 3b fe 37 3b 3e 49 e1 bf 3c
       0.007650665 0.0029963856 0.18283078 0.023422854
0002c0 cd 15 44 bd 95 60 06 bc cc 3d 8f 3d 21 6e 0c 3e
       -0.047872353 -0.008201738 0.06994209 0.13713886
0002d0 ca fd 33 3e f9 7a 65 bd 25 cf 49 bd 01 d6 0f bd
       0.17577282 -0.05602548 -0.049269814 -0.0351162
0002e0 2e 22 98 bd 9e 96 25 bd 93 03 c8 3c 0c c3 21 3e
       -0.07428394 -0.040426843 0.024415767 0.1579706
0002f0 1b 9a 3d bd 5c 12 25 3e 20 77 8f 3d b3 c3 3a bd
       -0.046289545 0.16120285 0.07005143 -0.04559679
000300 b2 e2 1d 3e 5a 82 08 3e b7 c3 d6 3d 73 ae a7 bd
       0.15418509 0.13330975 0.104865484 -0.081875704
000310 a2 51 19 3e 51 90 3e 3e 1e 64 0a 3e f5 37 94 bd
       0.14972547 0.1860974 0.13514754 -0.072372355
000320 4e f6 fc 3b d4 41 28 3e 54 79 6f 3d 28 42 3e 3e
       0.0077197915 0.16431361 0.058465317 0.18579924

rnn.weight_ih_l1 f4 [204, 51]
000000 14 b4 07 3a 22 23 46 bc c6 43 90 bd 14 21 31 3e
       0.0005176675 -0.012093337 -0.07044177 0.17297775
000010 e3 6d 2e be 57 60 0c 3e 99 5f 1a 3e b0 53 84 bd
       -0.17034106 0.13708626 0.1507553 -0.064612746
000020 9e c9 90 3e ac f7 8c be 02 ee 8d 3d e6 ce a8 3b
       0.28278822 -0.2753271 0.06930162 0.0051516173
000030 a5 d4 8d bd 9f 3d 08 3e 04 53 09 3e 94 d1 00 3e
       -0.06925324 0.13304757 0.13410574 0.12579948
000040 9f 65 a2 3d 9a 5d 31 be e1 05 94 bd 5c 87 80 3d
       0.07929539 -0.17320862 -0.07227684 0.06275818
000050 c4 39 f9 bd fc 58 73 3e d6 6f b6 bd 3b 12 4a be
       -0.12169221 0.23764414 -0.0890805 -0.19733517
000060 31 35 76 be c0 5f f6 3c 23 1b 32 3d 7d 73 d5 bd
       -0.24043728 0.030074954 0.04348291 -0.10422418
000070 7c 25 2c 3e 03 e8 35 be c5 76 32 be 9a 78 07 be
       0.16811174 -0.17764287 -0.1742812 -0.132296
000080 60 ea c9 3d 07 3a 4a be c4 a1 33 be 0b 19 4d 3e
       0.098591566 -0.19748698 -0.17542177 0.20029084
000090 d5 b3 1d 3e 95 6f 3a 3c be 77 87 3e 13 7f b0 3c
       0.15400632 0.011379142 0.26458544 0.021544969
0000a0 46 b2 28 3d af 57 95 3d cd 32 f3 bc 24 22 57 be
       0.04118564 0.07292115 -0.02968731 -0.21009117
0000b0 b3 64 d0 be 05 27 a8 3b 27 63 c3 be c6 da 97 3e
       -0.40701827 0.0051316046 -0.38161585 0.29659098
0000c0 f1 67 ee bd f0 cc e1 3d 51 81 a1 bb 4e 71 80 be
       -0.11640919 0.11025417 -0.004928746 -0.25086445
0000d0 63 53 e1 3d 1d ce 5b bd 05 93 96 be 48 ef a8 be
       0.11002233 -0.05366336 -0.29409042 -0.32995057
0000e0 4d 25 88 3e ec 20 eb 3d d0 36 5e 3c 21 65 78 bc
       0.26590958 0.11480889 0.013562873 -0.01516083
0000f0 8c 0e c6 3d ff 00 83 be ec 06 16 3d 7f 14 7a be
       0.09670743 -0.25586697 0.036627695 -0.24421881
000100 22 71 2f 3e c9 1c 07 bd 6b 62 0e be 37 1d d6 bd
       0.17133 -0.032986436 -0.13904731 -0.10454791
000110 38 7e 77 be cb c6 52 3d 51 f8 88 3e 8c 68 26 be
       -0.24169242 0.051459115 0.2675195 -0.16250819
000120 7c ab 6a 3d 30 60 51 be 6f 36 14 3d 75 9f 94 bd
       0.057292446 -0.20446849 0.036184724 -0.072569765
000130 47 41 f7 3b ce 3e bf 3d 95 46 29 3e ac 9d ab bd
       0.0075456235 0.09338151 0.16530831 -0.08379683
000140 d4 1c 97 3d 7d c2 6f be d4 b6 34 bd d6 96 65 3e
       0.073785454 -0.23414035 -0.04411967 0.2242082
000150 e6 da 71 bd b1 f3 17 be 1d 19 66 3d 88 01 f5 3d
       -0.05904665 -0.14839055 0.056176294 0.11963183
000160 21 4c 46 bd cc e3 3f 3e b2 d5 07 be 9f e6 95 3d
       -0.048412446 0.18739241 -0.13265112 0.07319378
000170 b1 1e 60 3e 51 87 2d be 8e 0d 72 be ee e0 ba bd
       0.21886708 -0.1694615 -0.23637983 -0.09124933
000180 42 ed 1d ba 51 50 fd 3c 0d f4 97 3e 07 2e b3 3d
       -0.0006024429 0.030922087 0.29678383 0.087490134
000190 c0 a8 eb 3c 46 f4 0e 3d 89 74 72 be 7d c2 d6 3d
       0.02876699 0.034900926 -0.23677267 0.104863144
0001a0 f0 4f c8 bd 4a 2c 85 be e7 36 73 be 9e 94 8c 3e
       -0.09780872 -0.26010352 -0.23751412 0.27457136
0001b0 72 ed 8a 3e 1d d3 13 3e c6 22 13 be 4d 0e 09 be
       0.2713428 0.14436002 -0.14368734 -0.13384362
0001c0 b5 8c 91 be fc 28 c5 3c 40 b6 d5 be b7 09 87 3e
       -0.28427663 0.024067394 -0.41740608 0.263746
0001d0 26 b9 bf 3e 3e 11 bc bd 2a be 87 bc 8c f3 45 be
       0.37445945 -0.09182976 -0.01657017 -0.19331187
0001e0 60 4c 36 be d2 20 9c 3e 11 74 72 be c4 50 6b 3e
       -0.17802572 0.3049379 -0.23677088 0.22980028
0001f0 e7 36 7c be 29 b3 c9 bd 55 01 81 be 3c cb 20 3e
       -0.24630319 -0.09848625 -0.2519633 0.15702528
000200 7e c1 c0 3e 17 c0 8a 3e 9b 2b 73 bc 04 9b f4 bd
       0.37647623 0.27099678 -0.014841939 -0.119436294
000210 bb d9 31 be 6f c0 5f be be e1 1e 3e 13 5d 8f be
       -0.17368214 -0.21850751 0.15515801 -0.28000697
000220 86 b3 4a be b1 d2 3a 3e 84 5c 94 3e d1 cf b4 be
       -0.19795045 0.18244435 0.28976834 -0.353148
000230 78 66 3d 3e 2b cb 88 3d 48 8e 84 3d fc b0 dd bc
       0.1849612 0.06679376 0.064724505 -0.027061932
000240 9b 10 0e be 07 05 1d be e1 f3 04 bf a9 fc 49 be
       -0.13873522 -0.15333949 -0.5193463 -0.19725288
000250 42 3e ae be 53 ec 91 3e 19 5b 5b 3e ee c4 11 3e
       -0.34031874 0.28500614 0.2142147 0.14235279
000260 b8 b1 6c 3d 0d 00 4f be be 53 df bc 92 67 03 be
       0.057786673 -0.20214863 -0.027261611 -0.12832478
000270 bb 4f b2 bc 65 e7 48 bd dc b4 7c 3d c1 c0 2d 3e
       -0.021766534 -0.0490488 0.06169592 0.16968061
000280 f0 fd 39 3e 80 c4 87 be 5b a4 1a bd e2 da 8f bd
       0.18163276 -0.26517105 -0.037754398 -0.070241705
000290 46 a3 f9 bc 6b e8 ba bd 68 a3 33 3e 5c 82 01 bd
       -0.030473363 -0.091263615 0.17542803 -0.03161846
0002a0 72 fa 0b be 23 c1 eb bd c6 ed 27 be 90 fa bf bd
       -0.13669756 -0.11511447 -0.16399297 -0.09373963
0002b0 7b 5e 15 bd 3f c9 88 bc e6 68 9c bc 19 da 64 be
       -0.036467057 -0.016697524 -0.019092988 -0.22348823
0002c0 b2 f0 37 3d 90 21 af bd e8 ad 23 bc 76 e3 1d 3e
       0.04490728 -0.085513234 -0.009990193 0.154188
0002d0 f9 58 7a 3c 90 8d 96 3d 51 77 5e 3c 56 58 29 be
       0.015280002 0.0735122 0.013578252 -0.16537604
0002e0 50 be 04 bd 9f 7f 52 3d 1c 6e 0c 3e 32 df ce 3d
       -0.03240806 0.05139124 0.13713878 0.10101165
0002f0 95 85 33 3c d4 be 9a 3b 48 f6 6d bd 0b 46 85 3e
       0.010957141 0.0047224555 -0.0580962 0.2603
000300 08 85 49 3d 24 a0 a0 3d b6 51 90 3d 23 9e 55 be
       0.049199134 0.078430444 0.07046835 -0.20861106
000310 52 5c 84 be 94 90 93 bd 15 a0 47 bd 84 22 2c 3d
       -0.25851685 -0.072053105 -0.04873665 0.042025104
000320 24 31 f3 3b 94 cb 65 bd c0 2d d6 3c fa 17 58 bc
       0.0074216295 -0.05610235 0.026144862 -0.01318931
000330 4d bc ab bd e1 a8 20 3e 49 79 ca bd ee 24 83 be
       -0.08385525 0.15689422 -0.098864146 -0.25614113
000340 f1 d1 d8 bd 48 4b 24 3e e2 35 f8 3d 70 5a ce 3c
       -0.10586918 0.16044343 0.12119652 0.025189608
000350 1d 73 8a bd 36 79 64 3d 5b 59 1e bd 68 e3 36 be
       -0.06760237 0.05577966 -0.038659435 -0.17860186
000360 4b 18 86 3d a7 39 15 bd 8f 2b 8d 3d 1e 1c f3 3c
       0.06547602 -0.036431935 0.06893074 0.029676493
000370 5a ee dc bd 2f 27 bc bd 93 74 13 bd 65 22 17 3e
       -0.107876495 -0.09187161 -0.035999846 0.14759214
000380 52 6e 1b bd 75 87 3c 3d b1 d5 57 3c 9d 67 db 3d
       -0.037947007 0.04602762 0.013173507 0.10713122
000390 a5 69 d4 3c b1 1e 55 bd 85 92 30 3e e4 84 5e 3d
       0.025929281 -0.052031223 0.17243393 0.054325953
0003a0 32 85 b6 3c d8 ef c1 3d fa a0 6c be 94 91 0b bd
       0.02228031 0.09469575 -0.23108283 -0.03407438
0003b0 c7 cd 07 3e 5b 0c ad 3c 9d e0 b9 3d 3e 67 10 3e
       0.13262092 0.021124056 0.09076045 0.14101884
0003c0 3d 90 32 3e fd d8 06 3a bf 46 dc 3d 93 1f ad bd
       0.17437835 0.0005144028 0.10755681 -0.08453288
0003d0 66 47 36 bc 29 ed 98 3d 44 88 32 be 30 f0 d1 bd
       -0.011125421 0.0746711 -0.17434794 -0.1025089
0003e0 33 94 4a bd 2d 28 0f 3d 7b b9 1e 3d 5c c8 25 3d
       -0.04945774 0.034950424 0.038751107 0.04047428
0003f0 ef c8 88 bd ee 31 12 3e 73 a9 b4 bd 38 02 59 bd
       -0.0667895 0.14276859 -0.088213824 -0.05298063

rnn.weight_hh_l1 f4 [204, 51]
000000 f8 f7 34 bc 53 39 9f 3d 90 36 57 3d 77 e3 ad 3d
       -0.0110454485 0.077746056 0.05254227 0.08490651
000010 a1 40 b9 bd 9f cf c9 bd 37 6c ae bb 9c 1f c5 3d
       -0.0904553 -0.09854054 -0.005322959 0.0962517
000020 2d d9 24 bd fd d6 fe bc 0b e7 ec 3d cb de 88 bd
       -0.040246177 -0.031108374 0.115675054 -0.066831194
000030 a7 7c ad 3d 41 b5 11 be bf 3b 01 be 61 7b 4d 3b
       0.08471041 -0.14229299 -0.12620448 0.0031354057
000040 45 d4 55 3d 47 2a 7a ba e1 4b a8 bd 7c 81 4b 3d
       0.05220439 -0.0009543043 -0.08217598 0.049684033
000050 d8 e6 03 3e ad 31 44 3d ce 03 49 bc e7 bf c2 bd
       0.12881029 0.047898937 -0.0122689735 -0.09509259
000060 65 39 cd bd 7f 95 fd 3d fa c9 6c bc 22 46 df bd
       -0.10020713 0.1238203 -0.014452452 -0.10902049
000070 3d 27 8b 3d 02 5c 8a bc 7e 7b 04 be 8c c9 f3 bd
       0.067945935 -0.016889576 -0.12937734 -0.119036764
000080 61 8b 8b bc 0a e9 ae 3d 4b 05 2d 3b 6e 85 95 3d
       -0.017034234 0.085405424 0.002640086 0.0730084
000090 a0 b3 db bd 19 d5 21 bd 1c 1c 95 3d e8 f8 cf 3c
       -0.1072762 -0.039509866 0.07280752 0.025387242
0000a0 d1 3b 98 bc 06 90 71 3b 37 e0 bb bd 4c 26 5f bd
       -0.01858321 0.0036859526 -0.09173625 -0.054479882
0000b0 e1 0b 89 3d 41 b5 5c 3d 0a 0f 86 bd bf 78 95 bd
       0.06691719 0.053883795 -0.06545837 -0.07298421
0000c0 b1 1d e6 bc 82 47 17 3d 40 be 1c be 33 87 3b 3c
       -0.02809033 0.03693343 -0.1530695 0.011445808
0000d0 af cb 0f 3b ac bb 32 bd 28 14 31 be 7e 37 5b bd
       0.0021941473 -0.04363601 -0.17292845 -0.05351972
0000e0 a0 86 03 bd d7 ea b0 3d 3d b2 f7 bd d2 f7 11 3e
       -0.03211081 0.08638542 -0.12094543 0.14254692
0000f0 19 cf fc 3c 8d 1b 94 bd af be 90 3b 0f ac e8 bb
       0.03086047 -0.072318174 0.0044172625 -0.007100589
000100 51 4a 13 be c8 2e ef 3c 50 e8 02 be d4 c3 b1 3d
       -0.14383818 0.029197112 -0.12783933 0.086799294
000110 bc a8 65 3d 38 7c 0e be 43 37 19 3e 6e 5a 85 bd
       0.05606912 -0.13914573 0.14962487 -0.06511389
000120 60 dd f5 bd 57 76 37 be a6 68 ca bd 46 81 2e 3d
       -0.120051146 -0.17916237 -0.09883241 0.042603754
000130 8b 0f 87 3c 76 15 bc 3d 6b bf 2a bc d0 85 36 bd
       0.016486904 0.09183781 -0.010421614 -0.044561207
000140 7d 3f e1 3d 81 65 4c 3d 28 18 e6 bd 7f 22 21 bd
       0.109984376 0.04990149 -0.11235076 -0.03933954
000150 91 46 27 3e bf dc 84 3d 65 17 fa bc 6b ab a4 bd
       0.16335513 0.064874165 -0.030528734 -0.08040508
000160 cb d6 29 be 14 56 80 bc 27 48 a6 3d fa 2d e6 bd
       -0.16585843 -0.015666045 0.08119231 -0.11239238
000170 16 a9 87 bd 73 f0 72 3d 79 0c 1b 3d c3 41 ad bb
       -0.066240475 0.05931134 0.03785369 -0.0052873804
000180 4e cc d0 3d 84 fd 32 3e 1d 8e 60 bd e1 04 82 bc
       0.10195218 0.17479521 -0.05482303 -0.015871467
000190 fd 6e 9d bd 55 a1 11 be ec a0 d3 ba ef 0a 15 bc
       -0.07687185 -0.142217 -0.0016145981 -0.009096845
0001a0 1d 23 94 3d 3a bb 75 bd 7f f2 34 be f3 d2 01 be
       0.0723326 -0.059993006 -0.1767063 -0.12678127
0001b0 60 4e 3d 3e 71 73 b1 3d 37 e7 56 3d 9e ef 1b be
       0.18486929 0.08664597 0.052466597 -0.15228125
0001c0 c1 0e 69 be 6f 3f bc bd 08 c6 37 3d e9 bb 80 bc
       -0.22759534 -0.091917865 0.04486659 -0.015714603
0001d0 fe 4f d0 bd 18 6d 2d 3d 9e 7e 3f 3e a2 96 63 bc
       -0.10171507 0.042340368 0.18700644 -0.013890894
0001e0 71 3c 3e 3e 96 4f f0 3c 01 e6 0d 3e 61 48 6c be
       0.18577744 0.029334825 0.13857271 -0.23074485
0001f0 bb 3c 47 3d e8 06 74 bd dd 40 71 be 82 1a 80 3e
       0.0486419 -0.0595769 -0.235599 0.25020224
000200 6a 22 db 3d f9 41 a1 3d 0b 17 2d bd d2 fb b4 3d
       0.10699923 0.078739114 -0.042258304 0.088370934
000210 3d c8 28 be 7d c1 00 be 68 aa 89 3c 60 ef 92 bc
       -0.16482635 -0.1257381 0.016804889 -0.017936409
000220 a9 8c 2a 3e 1d f2 3f bc b2 22 68 3d f3 24 36 bc
       0.1665522 -0.011715439 0.056673713 -0.011117208
000230 fe 8a 41 3d 6d 4d de 3d 9a 45 32 be 1e 24 4f be
       0.047251694 0.108546115 -0.17409363 -0.20228621
000240 8d c0 c7 3d 7e a7 17 3e a1 b8 01 3c 93 c1 1b 3e
       0.09753523 0.14809987 0.007917554 0.15210561
000250 72 ec 7f 3e cb 6f c1 3d 7a ed 4c 3d af bb 56 be
       0.2499254 0.09445151 0.050031163 -0.20970033
000260 ec 7a c6 bd 6b bf 84 bd 9f a3 fa bd 66 25 c9 bd
       -0.09691414 -0.064818226 -0.122382395 -0.09821586
000270 4d 89 ac bd 57 b8 20 be 7c 2f 45 3c 23 39 f6 3c
       -0.084246255 -0.1569532 0.012035247 0.030056542
000280 a1 51 86 3d 6d d0 d4 3d 8d 36 64 bd 37 4c 1e bd
       0.06558538 0.103913166 -0.055716086 -0.038646903
000290 c2 b3 10 3c 14 51 15 bd ae 94 bf bd 75 7c ac 3d
       0.00883192 -0.036454275 -0.0935453 0.08422176
0002a0 e5 b8 6f 3c 42 65 73 bd b3 c3 1b be f5 7c 03 bd
       0.014631485 -0.05942274 -0.15211372 -0.03210159
0002b0 a0 03 69 3d 9b 2b 8e 3d c3 af f1 bd f1 87 e5 3b
       0.056888223 0.06941911 -0.11801102 0.007004731
0002c0 05 37 dd 3d 1b 06 1c be bf 9e 5e 3d 63 ec 2b bd
       0.1080151 -0.15236704 0.05435061 -0.041973483
0002d0 8e 5d bd bd d2 7a ab bc 30 45 d6 bd 2e be c1 bd
       -0.0924636 -0.020932589 -0.10462415 -0.09460102
0002e0 e7 7e 2a be 0e 95 42 3c 76 3f af 3d 16 38 0e 3e
       -0.16649972 0.011876358 0.08557026 0.13888583
0002f0 73 39 fa 3c 18 b1 de bd de 59 78 3c 71 ee 0a bc
       0.030544972 -0.10873622 0.015158145 -0.0084797
000300 ea eb c1 3d ee f2 a8 bd c0 50 04 be cf 81 21 3d
       0.09468825 -0.0824946 -0.12921429 0.039430436
000310 cf 1b 34 3e 2c 5f 38 3d b3 8e 92 3c 88 7e 33 3c
       0.17588733 0.045012638 0.01789031 0.01095546
000320 bd ce be 3d cc 14 8a 3d c8 df b6 bd be 78 07 be
       0.09316776 0.06742248 -0.08929402 -0.13229653
000330 7a 7b 9e 3c 19 74 aa bd 61 a2 75 bc 72 55 87 3d
       0.019345988 -0.08322925 -0.014992327 0.06608094
000340 3e 15 06 be b6 c3 06 3e a3 44 ec bc 53 de 1c be
       -0.13094041 0.13160595 -0.028841322 -0.15319185
000350 d3 44 e2 3d 87 40 05 3e 86 b4 01 be cc e5 6c 3d
       0.110482834 0.13012896 -0.1266652 0.05783634
000360 47 41 b9 bd f8 eb 28 be a5 f6 11 3e e2 88 ef bd
       -0.09045654 -0.16496265 0.14254244 -0.1169603
000370 38 18 07 3e 25 a5 ba 3d da 9c c5 3d d8 61 0e bc
       0.13192832 0.0911353 0.09649058 -0.00869032
000380 59 61 0f 3d 81 60 10 be 36 60 b3 3d f8 89 0e be
       0.035004947 -0.14099313 0.08758585 -0.13919818
000390 1f 00 67 3d 50 a2 a7 3d db c6 06 3e c0 64 6b 3c
       0.0563966 0.081852555 0.13161795 0.014367282
0003a0 d9 36 e5 3d f2 38 1f 3e 85 41 ae bd 32 54 6c bd
       0.11192102 0.15549067 -0.085085906 -0.057697482
0003b0 69 77 40 3c 2b d3 8f bc 80 ff 33 bd e1 62 57 3c
       0.01174722 -0.017556747 -0.043944836 0.013146133
0003c0 b2 5f 15 3d f2 18 61 be 50 e2 bc 3d 52 94 45 3c
       0.036468215 -0.21982172 0.09222853 0.012059288
0003d0 99 a3 3f bd e8 8f c8 3d a6 23 e9 bd 77 c2 26 3e
       -0.04678688 0.09793073 -0.113837525 0.1628512
0003e0 b4 61 1f be 4e 18 af bd 93 4c 6e 3d b0 2b b1 3d
       -0.15564615 -0.085495576 0.058178496 0.08650911
0003f0 1e 4f b2 3d 55 47 2a 3c b8 9d 7f 3d 1b 4c 02 be
       0.08706497 0.010392983 0.06240627 -0.12724344

rnn.bias_ih_l1 f4 [204]
000000 86 13 0b bd 7c 06 91 3c f2 5c 46 3d 03 6b 44 3e
       -0.033954166 0.017703287 0.048428483 0.19181447
000010 5d 97 18 3d e7 05 a8 bd 9c 57 d9 3d 3c 66 29 3e
       0.037253726 -0.08204251 0.10612413 0.16542906
000020 6c 13 ed 3d 3b a6 f8 3d ef ab 29 3e 1f 02 0e 3e
       0.1157597 0.12141081 0.16569494 0.13867997
000030 6e 7d 66 bd 82 99 e4 bc a2 30 3d bd 3b 86 24 3d
       -0.056271963 -0.02790523 -0.046188958 0.040167075
000040 71 ac 19 bd aa ef 13 3d 86 98 12 bd b7 ac bd 39
       -0.03751797 0.036117233 -0.03578999 0.00036177572
000050 30 b4 40 3e 3b f4 aa 3c 69 d4 14 3e c9 d4 ab 3d
       0.18818736 0.020868411 0.14534153 0.08390195
000060 26 5d 07 3e 7b cd 85 3c e1 9c 87 bd f0 bc d4 3d
       0.13219127 0.016333332 -0.06621719 0.103875995
000070 a8 d9 0c 3d 62 39 4d 3d e4 48 74 bd 1b 6f 2e 3e
       0.03438726 0.050103553 -0.059639826 0.17034571
000080 f9 a3 b2 3d 0c e8 dc 3d 1c 4f 10 3d 32 ea 30 3e
       0.087226816 0.10786447 0.035231695 0.17276838
000090 f9 fc 18 3e 0e c4 81 3d 69 a2 62 3d 18 b1 8e bc
       0.14940251 0.063362226 0.055330668 -0.01741843
0000a0 37 ab db 3d bb dc fc 3d bd a5 1f 3d 3f 2e c8 bc
       0.10726016 0.123467885 0.03897642 -0.024436114
0000b0 00 4e 34 3d af e0 3d 3d 29 03 f8 3d d5 5d f4 3d
       0.0440197 0.046356853 0.12109978 0.119319595
0000c0 1c a1 c5 bc 15 f0 a4 3d f4 3e a0 bd f9 70 92 3c
       -0.024124674 0.080536045 -0.07824507 0.017876135
0000d0 25 27 b8 3d 7c 0b 5e 3c 3c bb 04 3e 8e 49 a1 b9
       0.08991841 0.013552543 0.12962049 -0.00030763116
0000e0 d8 b5 55 bb 2a d5 42 bd 50 f9 8d 3d e4 d2 9b bd
       -0.0032609608 -0.04756657 0.06932318 -0.076085836
0000f0 c0 56 42 3d 7f 16 ae bc b9 f5 b8 bc 2f 6f 15 3e
       0.047446012 -0.021250961 -0.022578107 0.14593194
000100 d8 ba 9c bd a4 9c 2c 3e a3 c2 23 bd 7c 67 4f bd
       -0.07652825 0.16856629 -0.039980542 -0.0506358
000110 89 ca 93 3d 06 96 d7 3d 13 bb ec bc 07 23 6b bd
       0.07216365 0.105266616 -0.028897798 -0.05740645
000120 ba 0d 00 be bd 50 7e bd 25 d2 ba bd 75 ba 02 3e
       -0.12505236 -0.062088717 -0.09122113 0.1276644
000130 5e 66 e6 bc b8 5e 11 3e 20 32 1a 3e 9d f8 36 3d
       -0.028124984 0.14196289 0.15058184 0.04467069
000140 ac 62 ac 3d e1 3d 9e bd 01 2c 0b be 31 b4 c6 3d
       0.08417258 -0.07726646 -0.13591005 0.097023375
000150 9b 44 12 3d d1 4b 36 3e 56 a2 8f bb 58 66 fe bc
       0.03570996 0.17802359 -0.0043833656 -0.03105466
000160 cd 0a 47 bd 8f a4 ba 3d 8a d9 9c 3d 92 ef 92 3d
       -0.048594285 0.09113418 0.0765868 0.07174601
000170 21 46 bc 3d 75 44 fa 3d bd 06 f9 3a ed 0d 77 bd
       0.091930635 0.122200884 0.00189992 -0.060316015
000180 1a de 03 3e d1 4e 1f 3d 70 93 d6 3d e4 ee f2 3d
       0.12877694 0.038893525 0.1047734 0.11861971
000190 2e 1f 8c bd 52 80 c1 bc 40 1a b9 3d 8d 82 54 ba
       -0.068418846 -0.023620758 0.0903821 -0.0008106612
0001a0 cb 49 8c bd 88 5f e5 3c 12 66 9e bc 00 e6 d9 3d
       -0.068500124 0.027999654 -0.01933578 0.10639572
0001b0 5c 8d 11 3d 14 a2 16 be a7 e5 3a 3d 50 2c b3 3d
       0.0355352 -0.14710265 0.04562917 0.08748686
0001c0 c6 8c 0a be f8 5f c1 bd 58 a9 60 bd 13 60 08 be
       -0.13530263 -0.09442133 -0.054849 -0.133179
0001d0 ac 12 a7 3d cf db 7e 3d 76 88 aa 3d 3a 79 e8 bd
       0.08157858 0.062221345 0.08326809 -0.11351247
0001e0 a2 eb 13 be 02 3c 34 bd 84 c3 47 3c ed f3 26 3a
       -0.14445356 -0.04400254 0.012192611 0.0006368745
0001f0 cc 52 81 bd cb 48 fb 3b b7 d0 7d bd 24 c7 07 bd
       -0.063146204 0.0076685897 -0.061966624 -0.0331489
000200 9f 0b 75 bd 80 f3 d5 bd 6e 3f 77 3d d9 46 1e 3e
       -0.059825536 -0.104468346 0.060363226 0.15456714
000210 89 32 01 be a5 8a 92 bd 25 4b 16 be 6a e3 a6 3d
       -0.12616934 -0.071553506 -0.14677103 0.081488445
000220 9a 10 a1 bd 4e 72 78 3d 67 05 98 bd 65 cb 88 bc
       -0.078644946 0.060655884 -0.074229054 -0.016698549
000230 c2 2e 8e bd c8 d8 60 3d ad 09 14 be 2e d9 70 38
       -0.06942512 0.05489424 -0.14456816 5.7422723e-05
000240 0e 86 e8 bd a6 4a 1f 3e 42 2d a7 bd f9 37 0e 3e
       -0.11353694 0.1555582 -0.08162929 0.1388854
000250 34 96 6a 3d a5 18 6f 3d 76 8d 0e be 4d 35 94 bc
       0.05727215 0.058373112 -0.1392115 -0.018091822
000260 b7 dd 45 be a5 f9 6e bc 50 df 04 3e 5d b8 9b bc
       -0.19322859 -0.014585887 0.12975812 -0.01900881
000270 54 ad 80 bc 48 70 09 3e ad 96 b1 3d 72 ab 90 3d
       -0.01570765 0.13421738 0.08671317 0.070639506
000280 58 ca f7 bb da 56 22 3d 4b 58 34 3e 63 56 3b 3c
       -0.007561963 0.03963361 0.17611806 0.01143417
000290 2b 36 b1 bc 4e 1e 8f 3d 14 bd 7d 3d 98 9c 46 3e
       -0.021632275 0.06988202 0.061947897 0.19395673
0002a0 96 b7 b2 3d a4 a1 60 bd d7 33 31 3e a4 79 38 bc
       0.087264225 -0.054841653 0.17304932 -0.01125947
0002b0 97 55 65 3d 96 83 a0 bc c6 f9 e0 3d 51 9b 0e 3d
       0.055989828 -0.019593995 0.109851405 0.03481609
0002c0 a5 63 33 bd b3 ab 15 3e 68 46 cc 3c df 78 cf bd
       -0.0437962 0.1461628 0.024935916 -0.10130476
0002d0 83 66 8b bd 6f ff fe 3d 7e f4 3d 3e 57 10 4a bd
       -0.06806662 0.12451064 0.18550298 -0.04933199
0002e0 a6 2b 0b 3d 80 59 ec 3b 59 40 ee 3d 7e c0 2d 3d
       0.033977173 0.0072128177 0.11633367 0.042419903
0002f0 22 f6 da 3d a3 91 19 3e ee 47 65 3e 72 24 da 3d
       0.10691477 0.14996962 0.2239072 0.10651483
000300 e6 ce 27 3d b6 b2 ca 3d 6f 33 36 3e 70 16 18 3e
       0.040968798 0.09897368 0.17793058 0.14852309
000310 8c f9 f1 3d 53 90 15 3e 7e 1f b9 bd 0a 22 9f 3d
       0.118151754 0.14605837 -0.0903921 0.07770164
000320 f7 db 55 3d d4 e0 f2 3d 67 3f 39 3e c9 2d eb 3d
       0.052211728 0.11859289 0.18090592 0.11483342
