tmp/aa_models/8.pt (torch_old, 539894 bytes, 30 tensors)

rnn.weight_ih_l0 f4 [204, 60]
0	0xbd1d8243	-0.038454305
1	0x3db5dcab	0.0887998
2	0x3dc7274e	0.09724294
3	0x3de1d66b	0.11027225
4	0x3e00c564	0.12575299
5	0x3d4b2799	0.04959831
6	0xbd9834a1	-0.07431913
7	0x3cfe8693	0.03107003
8	0xbe2e6686	-0.17031297
9	0xbeccc0fe	-0.3999099
10	0xbe5eec0c	-0.21769732
11	0x3d862db8	0.06551689
12	0xbc150152	-0.009094553
13	0xbce7df74	-0.028304793
14	0xbeb52ac2	-0.35384184
15	0xbeaa7bf7	-0.33297703
16	0xbe8a7222	-0.270402
17	0xbe88dced	-0.26731053
18	0xbd5a1cd1	-0.053250138
19	0x3e110da4	0.1416536
20	0x3e53af97	0.20672451
21	0xba098772	-0.0005246318
22	0x3e0a4a75	0.13504966
23	0xbdcd544f	-0.10025846
24	0xbe3da210	-0.18518853
25	0xbe0f77b5	-0.14010508
26	0x3d920ad9	0.07130975
27	0xbdc2d398	-0.095130146
28	0xbdc24c2b	-0.09487184
29	0x3e0fb4ea	0.14033857
30	0xbd5fd083	-0.05464221
31	0xbd9fcbac	-0.07802519
32	0x3d17de8f	0.037077483
33	0xbd0ffd88	-0.035153896
34	0xbcfbbab6	-0.03072868
35	0x3e2dc7e5	0.16970785
36	0x3e487ccf	0.1957886
37	0x3c17ccfd	0.009265182
38	0x3da4be11	0.08044065
39	0x3b9e17d8	0.0048246197
40	0x3e3d41c5	0.1848212
41	0xbde2cae0	-0.110738516
42	0x3e2ce416	0.16883883
43	0x3ce8bb11	0.028409513
44	0x3dc05273	0.09390726
45	0x3e127e87	0.14306079
46	0xbb2c9b6a	-0.0026337751
47	0x3d945317	0.07242411
48	0x3e322323	0.17396216
49	0x3d955ada	0.07292719
50	0x3d836efc	0.06417653
51	0xbd58baa8	-0.052912384
52	0xbdbbc2ca	-0.091680124
53	0x3d8d0876	0.068863794
54	0x3e0d18f9	0.13779058
55	0x3cb17860	0.021663845
56	0x3d7ecc3c	0.06220649
57	0x3cdf7c20	0.027280867
58	0x3de27232	0.11056937
59	0xbd62fcc2	-0.05541683
60	0x3f0cf8b2	0.5506698
61	0xbda7ab69	-0.08186991
62	0x3c58396d	0.013197285
63	0x3e8abd1b	0.270974
64	0x3d4dd5fe	0.050252907
65	0xbd10c5f1	-0.03534502
66	0xbe6bcf0f	-0.23028205
67	0x3e85eebc	0.26158702
68	0xbd83378a	-0.064070776
69	0x3eadf2c8	0.3397429
70	0xbdf584bf	-0.1198821
71	0x3d925433	0.07144966
72	0x3d037eb7	0.032103267
73	0xbd7860ae	-0.060639076
74	0x3d8dff3f	0.0693345
75	0xbe60915b	-0.21930449
76	0xbd4fd047	-0.050735738
77	0xbe6c76b4	-0.23092157
78	0x3e4d0228	0.20020354
79	0xbe6059d8	-0.21909273
80	0x3dbda481	0.09259892
81	0xbe5b7e13	-0.21434812
82	0x3a9886e6	0.0011636883
83	0x3eae68c3	0.34064302
84	0x3debe42b	0.11518129
85	0x3e78996a	0.24277273
86	0xbde9a9f3	-0.11409368
87	0x3d40153f	0.04689526
88	0xbddb3605	-0.10703663
89	0x3d668ace	0.05628472
90	0x3dfd3ac9	0.12364728
91	0xbdc03abc	-0.09386203
92	0x3d0656cc	0.03279762
93	0xbd6747df	-0.056465026
94	0xbd81afee	-0.06332384
95	0x3d94f632	0.072735205
96	0x3d813cb8	0.06310409
97	0xbd053db0	-0.032529533
98	0x3c8761df	0.01652616
99	0xbda669fc	-0.08125684
100	0xbc97d040	-0.018531919
101	0xbdb67ab8	-0.089101255
102	0xbd960ad5	-0.07326285
103	0x3c810860	0.015751064
104	0x3db5989a	0.08866997
105	0x3d5764c0	0.052586317
106	0x3dc397c8	0.09550434
107	0xba9d5380	-0.0012003034
108	0x3af94c80	0.0019019991
109	0xbd301c16	-0.042995535
110	0xbaadbb80	-0.0013254732
111	0xbd80066a	-0.062512234
112	0x3dc788a2	0.097428575
113	0x3dffa82e	0.124832496
114	0x3e01bf3f	0.12670611
115	0xbdb1296c	-0.08650479
116	0x3c5c16f0	0.013433203
117	0xbd0a0b0c	-0.03370194
118	0x3d649204	0.055803314
119	0xbdd7edcd	-0.10543404
120	0xbdcb5515	-0.099283375
121	0x3e398a4a	0.1811916
122	0x3ebb2d6c	0.36558092
123	0xbc9b37c1	-0.018947484
124	0x3deba652	0.115063325
125	0xbe99f37c	-0.30068576
126	0xbdab0dca	-0.083522394
127	0x3df6f6e5	0.1205881
128	0xbe874623	-0.26420698
129	0x3e40620a	0.18787399
130	0x3e16e89b	0.1473717
131	0xbe45a936	-0.1930283
132	0x3e5ff5c4	0.21871096
133	0xbbe102e4	-0.0068667997
134	0xbe5fbccd	-0.21849366
135	0xbc4abf4f	-0.012374713
136	0x3d0c04ae	0.03418415
137	0xbde2e8ea	-0.11079581
138	0xbd63bb90	-0.055598795
139	0x3dca1beb	0.09868606
140	0xbd8c591f	-0.06852936
141	0xbe31e5cc	-0.17372817
142	0xbdc850fd	-0.09781072
143	0xbc84e6ae	-0.016223278
144	0xbd92487d	-0.07142732
145	0x3e14cfd4	0.14532405
146	0x3e8a78f8	0.27045417
147	0x3e9f1b0f	0.31075332
148	0x3d9e446b	0.077278934
149	0xbcc7951d	-0.024363095
150	0x3e51e854	0.20498782
151	0xbcb4086d	-0.021976674
152	0xbc722fb6	-0.014781883
153	0x3d479b29	0.048731957
154	0xbe3fe025	-0.18737848
155	0xbde42bc7	-0.11141162
156	0xbe712e06	-0.23552713
157	0xbdf1457b	-0.117808305
158	0xbe29c963	-0.16580729
159	0x3c2e858b	0.010651956
160	0xbc631f57	-0.0138624525
161	0x3dd9a057	0.106262855
162	0x3db4724b	0.08810862
163	0x3dc470ad	0.09591804
164	0x3d3bbfe5	0.0458373
165	0x3dec09a5	0.11525277
166	0x3daf36d3	0.08555379
167	0xbd22f77e	-0.03978681
168	0xbdc4e0fc	-0.09613225
169	0x3e0805a1	0.13283397
170	0x3dda5a38	0.10661739
171	0xbc539e40	-0.012916148
172	0x3da1533a	0.07877202
173	0xbd3ffe18	-0.046873182
174	0x3cd3f2e0	0.025872648
175	0x3df57156	0.11984508
176	0xbd8f3c6b	-0.06993946
177	0xbd22b4fe	-0.03972339
178	0x3dab4216	0.08362214
179	0xbdd0282b	-0.101639114
180	0x3dab2d36	0.08358233
181	0x3e2652c7	0.16242515
182	0x3e559865	0.20858915
183	0xbe13b766	-0.1442543
184	0xbe650d55	-0.22368367
185	0x3e5fd780	0.2185955
186	0xbdfd33da	-0.123634055
187	0xbe377ec8	-0.17919457
188	0xbe0bf3d8	-0.13667238
189	0x3de31baa	0.11089261
190	0x3e0e05e1	0.1386943
191	0x3eaa1ecc	0.3322662
192	0x3d46ebc3	0.048564684
193	0x3f228285	0.63480407
194	0x3e7d8e18	0.24761236
195	0x3eb9b394	0.3626982
196	0x3ddc6323	0.10761096
197	0x3ea1a6f9	0.31572703
198	0x3e2d3aae	0.16916916
199	0x3d03a0d3	0.032135796
200	0xbd9494ca	-0.07254942
201	0x3e077ba9	0.13230766
202	0xbc2ee087	-0.010673649
203	0xbcffbca9	-0.03121789
204	0x3c8ed607	0.01743604
205	0x3e170281	0.14747049
206	0xbd707ebe	-0.05871462
207	0x3e13e228	0.1444174
208	0x3e04aed4	0.12957317
209	0xbdd6c6d1	-0.1048714
210	0xbd2064f7	-0.039158788
211	0x3d0e88ba	0.03479836
212	0x3b5440e4	0.003238731
213	0x3cd95c7f	0.026533363
214	0xbcc544ce	-0.02408066
215	0x3db3adb9	0.08773369
216	0x3ceb62c6	0.028733622
217	0x3db99533	0.090616606
218	0xbc3fe8f0	-0.0117132515
219	0xbd89eebd	-0.06734989
220	0x3da95434	0.082680136
221	0xbd777777	-0.060416665
222	0x3e03fef5	0.12890227
223	0x3d792336	0.060824595
224	0x3dba4725	0.09095601
225	0xbdbb4d55	-0.09145609
226	0xbe095766	-0.13412246
227	0x3d45f5cc	0.048330113
228	0xbdfa1ccf	-0.12212526
229	0xbcffa260	-0.031205356
230	0xbdc117b1	-0.09428347
231	0x3dd66f3e	0.104704365
232	0xbd20e12e	-0.039277248
233	0x3e0414ef	0.1289861
234	0x3cdfc998	0.027317807
235	0x3e0335ed	0.1281354
236	0xbe0aaec7	-0.13543235
237	0x3d47e178	0.048799008
238	0xbdd1ec34	-0.1025013
239	0x3d52d290	0.05147034
240	0xbe02ef0d	-0.12786503
241	0xbe199d7a	-0.15001479
242	0xbe7208fc	-0.2363624
243	0x3ea3ed8e	0.32017177
244	0xbe97ac8e	-0.29623836
245	0x3d93fe8c	0.07226285
246	0xbe018289	-0.12647451
247	0x3c3f6586	0.01168192
248	0xbeb6dadf	-0.3571386
249	0xbcf22816	-0.02956013
250	0x3d814ad2	0.06313099
251	0xbe18cc72	-0.1492174
252	0xbd97f5e9	-0.074199505
253	0xbce2ff40	-0.027709603
254	0xbe557367	-0.20844804
255	0x3dcdb24a	0.100437716

rnn.weight_hh_l0 f4 [204, 51]
0	0xbe2bb104	-0.16766745
1	0x3e30c953	0.17264299
2	0x3e561104	0.20904928
3	0x3d78edf2	0.060773797
4	0xbdaeee25	-0.08541516
5	0x3e740c82	0.23832896
6	0x3e3579c9	0.17722239
7	0xbda089b1	-0.078387626
8	0x3dcf3070	0.101166606
9	0x3dd08d11	0.10183156
10	0x3de13895	0.1099712
11	0x3ddb2d99	0.107020564
12	0x3ce69a49	0.02814974
13	0x3e105f3c	0.14098829
14	0xbcaf3e20	-0.021391928
15	0x3d61d872	0.05513806
16	0xbe472175	-0.19446357
17	0x3dc0da19	0.09416599
18	0xbcef203f	-0.02919018
19	0xbdeffc3d	-0.117180325
20	0xbd1d0ecb	-0.038344186
21	0x3ded79ed	0.11595521
22	0x3cb74cf7	0.022375567
23	0x3da4d370	0.08048141
24	0x3e0fbb25	0.14036234
25	0x3dd62c48	0.10457665
26	0x3d9a7001	0.07540894
27	0xbd85940d	-0.06522379
28	0x3e2ae03d	0.16687103
29	0xbc960c8b	-0.018316528
30	0xbe567753	-0.20943956
31	0xbce6fa05	-0.02819539
32	0xbded3221	-0.11581827
33	0xbe0555ff	-0.13021086
34	0xbe35dfa8	-0.177611
35	0xbdfd98a3	-0.12382629
36	0xbe288435	-0.16456683
37	0x3d89d831	0.06730688
38	0xbdc55fb8	-0.096373975
39	0xbe22ffec	-0.15917939
40	0xbe897069	-0.26843575
41	0xbe1a8e72	-0.15093401
42	0x3cd656b1	0.026164385
43	0x3e4219eb	0.189552
44	0xbe134171	-0.14380433
45	0xbd974f3d	-0.073881604
46	0x3da9b2df	0.0828607
47	0xbbf515b7	-0.0074793953
48	0xbe0b183c	-0.13583463
49	0x3d5d5720	0.054038167
50	0x3e65200f	0.2237551
51	0x3e113389	0.14179815
52	0xbdff6e41	-0.12472201
53	0xbdf0d0c4	-0.11758569
54	0xbdf95e23	-0.12176158
55	0x3d911f23	0.07086017
56	0x3d4d1d31	0.050076667
57	0x3e116d55	0.14201863
58	0x3d2b3493	0.041798186
59	0x3c8cd97f	0.017193554
60	0xbcbd42f0	-0.023103207
61	0xbdecaa5f	-0.11555933
62	0x3d086f4b	0.033309262
63	0x3c8e6ade	0.017384943
64	0xbe309cd1	-0.1724732
65	0xbe516350	-0.20448041
66	0x3e899515	0.26871553
67	0x3c8dd29c	0.01731234
68	0xbcd47612	-0.025935207
69	0xbce05810	-0.027385741
70	0xbc337331	-0.010952757
71	0x3df71f3a	0.12066503
72	0x3db14d4e	0.08657323
73	0x3de6b61d	0.11265204
74	0xbd6eb785	-0.058280487
75	0x3dddcd0d	0.10830126
76	0x3d30810b	0.043091815
77	0x3d6fde18	0.058561414
78	0xbe733149	-0.2374927
79	0xbde2ac06	-0.11067967
80	0xbd87b0e4	-0.06625536
81	0xbd0aaa66	-0.03385391
82	0x3e727f15	0.2368129
83	0x3cb61130	0.022224993
84	0xbe5470af	-0.2074611
85	0x3e259748	0.1617099
86	0xbe101c37	-0.14073263
87	0x3ed9ffb4	0.42577899
88	0x3d3994a8	0.045307785
89	0x3d897e5a	0.06713553
90	0x3dae1c3f	0.08501481
91	0xbd1ebdc8	-0.03875521
92	0xbc145d59	-0.009055459
93	0x3d6117e0	0.05495441
94	0xbcd687ff	-0.026187895
95	0x3d26baf1	0.040705625
96	0x3d888a0d	0.06666956
97	0xbe09ba68	-0.13450015
98	0xbd3d5ab1	-0.04622907
99	0xbca11d7b	-0.019667378
100	0xbdb984b9	-0.09058518
101	0xbedd6423	-0.4324046
102	0xbd599076	-0.053116284
103	0xbc23f50e	-0.010007156
104	0x3e0ea325	0.13929422
105	0x3d6624b2	0.05618734
106	0xbe515dbb	-0.20445912
107	0x3e40dd2d	0.18834372
108	0x3e356ce7	0.17717324
109	0x3d4e0ad1	0.050303284
110	0x3d90f04d	0.07077084
111	0x3e2c7aa2	0.16843656
112	0xbd0181e7	-0.031618025
113	0xbd68c5d4	-0.05682929
114	0xbdbde6c3	-0.0927253
115	0x3dc28b31	0.09499205
116	0x3de27522	0.110574976
117	0xbe7e45f0	-0.24831367
118	0x3dbb12ec	0.091344684
119	0x3deaf11a	0.11471768
120	0xbd9a9036	-0.07547037
121	0xbe1b3502	-0.1515694
122	0xbc906212	-0.017624889
123	0x3cd05b73	0.025434231
124	0xbe02540b	-0.12727372
125	0x3d4af8a9	0.049553547
126	0x3e165c0b	0.14683549
127	0xbce12b7d	-0.027486557
128	0x3df45e3c	0.11932036
129	0xbded2c05	-0.11580662
130	0x3e01093b	0.12601177
131	0xbdf2876c	-0.11842236
132	0xbbfa6d78	-0.007642444
133	0x3d32eeb1	0.043684665
134	0x3ce5786d	0.028011525
135	0x3ca18519	0.019716786
136	0x39973f6c	0.00028848217
137	0x3be2c61e	0.00692059
138	0xbd6d3c2c	-0.057918712
139	0xbd80fd1e	-0.06298278
140	0xbe51dc7a	-0.20494261
141	0x3d950e6f	0.072781436
142	0x3d6ad9d3	0.05733664
143	0x3dee869d	0.11646769
144	0xbd221aa2	-0.03957618
145	0x3cbe9d9f	0.023268519
146	0xbd8bfa97	-0.068349056
147	0x3e0e2df2	0.13884714
148	0x3d7ed89f	0.062218305
149	0xbc166405	-0.00917912
150	0xbe27dc24	-0.1639257
151	0x3d6c3606	0.05766871
152	0x3e282d12	0.16423443
153	0x3c0199d2	0.007910209
154	0x3e0bdbae	0.1365802
155	0x3d067fbc	0.03283666
156	0x3d4c1c12	0.049831457
157	0xbc9acf92	-0.018897805
158	0x3e0ccee9	0.13750805
159	0x3e5ef874	0.21774465
160	0xbe0d2f69	-0.13787617
161	0x3c3f4e1a	0.011676336
162	0x3e04af6c	0.12957543
163	0x3da8f15b	0.0824916
164	0xbc07dfe4	-0.008293126
165	0x3e2ad9b0	0.16684604
166	0xbd2036e5	-0.03911485
167	0xbd63757c	-0.055531964
168	0x3e2b07d4	0.16702205
169	0xbc030eec	-0.007999163
170	0x3d92923d	0.07156799
171	0xbcf1cca1	-0.02951652
172	0xbbdcccf6	-0.0067383004
173	0xbe59f8f2	-0.21286371
174	0xbdac9408	-0.08426672
175	0x3cab5864	0.020916171
176	0x3e1a8666	0.15090331
177	0x3e588a7a	0.21146575
178	0xbceeebf1	-0.02916524
179	0x3e6281e9	0.2211987
180	0xbe2aa989	-0.16666235
181	0x3def886a	0.11695941
182	0xbe1ffb99	-0.1562332
183	0xbe43725c	-0.19086593
184	0xbcadfc4e	-0.021238472
185	0xbdba4ea6	-0.09097032
186	0xbdc771ca	-0.097385004
187	0x3b13aa17	0.0022531801
188	0xbe20f2d3	-0.1571763
189	0x3dba2d6a	0.09090693
190	0x3deb0f30	0.11477506
191	0x3da30b52	0.079611436
192	0xbdc1ca33	-0.094623946
193	0xbd9933a5	-0.074805535
194	0xbd0415ec	-0.03224747
195	0x3e0adaa3	0.13559966
196	0xbb56069f	-0.0032657755
197	0xbd39fa71	-0.045404855
198	0xbc83d0d4	-0.016090788
199	0x3cd545ba	0.026034225
200	0x3e689ff2	0.22717264
201	0xbdda2b77	-0.106528215
202	0x3c1f387a	0.009718055
203	0xbeb69844	-0.35663044
204	0xbe03f8ab	-0.12887828
205	0x3e74ea71	0.23917557
206	0x3eb531b8	0.35389495
207	0x3e318e08	0.17339337
208	0x3de13d15	0.109979786
209	0xbcd8a8a2	-0.026447598
210	0x3e00666c	0.12539071
211	0xbdf496ee	-0.1194285
212	0x3e0cd129	0.13751663
213	0xbd659f1f	-0.056059953
214	0x3e1b92e2	0.1519275
215	0xbe6055f2	-0.21907786
216	0xbd2b74a5	-0.041859288
217	0xbda66820	-0.08125329
218	0xbdd79199	-0.105258174
219	0xbd33603c	-0.043792948
220	0x3db53c60	0.08849406
221	0x3dd70c8f	0.10500442
222	0x3e40bcac	0.18821973
223	0xbc902037	-0.017593486
224	0xbda3e6b9	-0.08002991
225	0x3e0f2c94	0.13981849
226	0x3e416dd2	0.1888955
227	0xbd8ffeb4	-0.07031003
228	0xbe360e94	-0.17778999
229	0x3e24fade	0.16111323
230	0x3da06768	0.07832223
231	0x3d8f1f02	0.06988336
232	0x3e0e6973	0.13907413
233	0x3e50abd2	0.20378044
234	0xbd953e5b	-0.07287284
235	0x3e61c060	0.22046041
236	0xbe471e4e	-0.19445154
237	0xbdad078c	-0.08448705
238	0xbe2f75ed	-0.17134829
239	0xbe0d2e9f	-0.13787316
240	0xbebe4047	-0.37158415
241	0x3cf5fad0	0.030026823
242	0xbe05ebf3	-0.13078289
243	0xbda72fa5	-0.08163384
244	0xbdfae2db	-0.122503005
245	0xbecd1fe7	-0.40063402
246	0x3e0a5c36	0.13511738
247	0x3e267fb0	0.16259646
248	0xbee4b3d1	-0.4466844
249	0xbe55a571	-0.20863892
250	0x3d6357c5	0.055503625
251	0x3d2e810e	0.042603545
252	0x3da34a70	0.07973182
253	0x3de91f89	0.11382968
254	0x3dc655bd	0.09684322
255	0xbe58fc49	-0.21189989

rnn.bias_ih_l0 f4 [204]
0	0x3e15df66	0.14636001
1	0x3c81d4ca	0.015848536
2	0xbbcc3064	-0.0062313545
3	0xbca3bd91	-0.019987853
4	0x3d2a95c1	0.041646723
5	0x3e292e79	0.16521634
6	0xbcf954a1	-0.030435862
7	0x3e815db7	0.2526681
8	0x3d983946	0.07432799
9	0x3e4e2505	0.2013131
10	0x3d079960	0.033105254
11	0x3c19d1f8	0.009388439
12	0x3e7f3f1c	0.24926418
13	0xbd6849eb	-0.05671112
14	0x3e0ff3cd	0.14057846
15	0x3e2a164d	0.1661007
16	0x3e269324	0.16267067
17	0xbd283fa4	-0.041076317
18	0x3e749888	0.23886311
19	0x3d51f9f4	0.051263765
20	0xbc763936	-0.015028289
21	0xbd3b88b3	-0.045784663
22	0xbb2eab25	-0.0026652303
23	0xbd8f9f94	-0.07012859
24	0x3e064796	0.13113245
25	0x3e4dd5f4	0.20101148
26	0x3daf551e	0.08561157
27	0x3aba8cc7	0.0014232629
28	0x3d0e1159	0.034684513
29	0x3d749739	0.05971453
30	0x3d16bed2	0.036803074
31	0x3e117bf8	0.14207447
32	0x3d83fe89	0.06445033
33	0x3d82477f	0.06361293
34	0x3e40dc7e	0.18834111
35	0xbda38a1a	-0.07985325
36	0x3eebe74f	0.46074912
37	0x3e95ee74	0.29283488
38	0x3d02cd0c	0.03193383
39	0x3d9b2774	0.075758845
40	0x3e03bd89	0.1286527
41	0xbb0e2da6	-0.002169469
42	0x3e1edcdb	0.15513937
43	0xbd0572df	-0.032580253
44	0xbd1b6c8c	-0.037945315
45	0x3e25e049	0.16198839
46	0x3cac8d2d	0.021063412
47	0x3e21bd72	0.15794924
48	0x3e0af2a8	0.13569129
49	0x3b77c039	0.0037803783
50	0xbd1824db	-0.037144523
51	0x3c150f74	0.009097923
52	0x3d7e5ed1	0.062102143
53	0x3d108bfd	0.035289753
54	0xbd4c03b9	-0.049808238
55	0x3d3f5544	0.046712175
56	0xbdbda0ba	-0.09259172
57	0x3e3cca52	0.18436554
58	0xbe54348b	-0.20723169
59	0xbc55af33	-0.013042259
60	0xbcd75a36	-0.026288133
61	0xbcdd6306	-0.027024757
62	0xbe2968b9	-0.16543855
63	0x3d14d543	0.036336195
64	0x3c447405	0.011990552
65	0x3c597971	0.013273583
66	0xbc2791fb	-0.010227676
67	0xbd8dee55	-0.06930224
68	0xbe25e125	-0.16199167
69	0xbe04a1d7	-0.12952362
70	0xbd31a12a	-0.04336659
71	0xbcb8e433	-0.022569751
72	0x3e00d7c3	0.12582307
73	0xbd43e6ea	-0.04782764
74	0x3d3b3e51	0.045713726
75	0x3c15118d	0.009098423
76	0xbab1ec5d	-0.001357447
77	0x3db1f9db	0.08690234
78	0xbc0d79cf	-0.008634998
79	0x3d164b3d	0.036692847
80	0x3d4a3a6e	0.04937213
81	0x3c47dfde	0.01219937
82	0x3ca4e743	0.020129805
83	0xbd89d4d1	-0.06730045
84	0x3d98219e	0.07428287
85	0xbdc5f72c	-0.09666285
86	0xbc5725e8	-0.013131596
87	0xbd880b8b	-0.06642827
88	0x3e02d386	0.12776002
89	0x3be0670e	0.0068482226
90	0xbd35e48e	-0.04440742
91	0x3d51b764	0.051200286
92	0x3e3c8894	0.18411475
93	0x3d5f2d34	0.05448647
94	0xbdbe3887	-0.092881255
95	0xbcca0738	-0.024661645
96	0xbc5a5101	-0.013324977
97	0xbd533857	-0.0515674
98	0xbd15d9f6	-0.036584817
99	0xbc3090f8	-0.010776751
100	0x3e1f2a76	0.15543541
101	0xbc96d6f1	-0.018413039
102	0xbe30628f	-0.17225097
103	0xbbbc0cc6	-0.0057388274
104	0x3c9f12a1	0.019418063
105	0xbd02fff5	-0.03198238
106	0x3d3f7283	0.046740066
107	0x3d2c26cc	0.042029187
108	0x3dcbbca5	0.099480905
109	0xbddbe0d4	-0.10736242
110	0x3e46b4a0	0.1940484
111	0x3e3f82dd	0.18702264
112	0x3e07c0bb	0.13257115
113	0xbbfb6b0b	-0.0076726726
114	0x3e1117de	0.14169261
115	0x3da9817a	0.08276649
116	0xbd9fbf5a	-0.07800169
117	0x3e5f8906	0.21829614
118	0xbdb2cae1	-0.08730102
119	0xbcc6fb5f	-0.024289785
120	0xbc827218	-0.015923545
121	0xbe193ca2	-0.14964536
122	0xbe33a003	-0.17541508
123	0x3e1728fa	0.14761725
124	0x3d6d9598	0.05800399
125	0x3dff0500	0.124521255
126	0x3db4dd86	0.08831315
127	0xbcc4b694	-0.024012841
128	0x3e37d0c9	0.17950739
129	0xbe16b0eb	-0.14715926
130	0xbd5bfd6d	-0.053708483
131	0xbe2446b8	-0.16042602
132	0xbd3ed045	-0.04658534
133	0x3e1c7dd9	0.15282382
134	0x3d207b47	0.039180066
135	0xbd9173ce	-0.07102166
136	0xbe2beb63	-0.16789012
137	0xbd563c9d	-0.0523039
138	0x3e4ad609	0.1980821
139	0xbd7466ba	-0.05966828
140	0x3daa89d3	0.08327069
141	0xbd4ab55a	-0.049489357
142	0xbdb54dc0	-0.0885272
143	0xbd9a9276	-0.075474665
144	0x3df76034	0.12078896
145	0x3e248e9c	0.16070026
146	0xbdab661b	-0.083690844
147	0xbd96ac43	-0.07357075
148	0xbd4d0492	-0.050053187
149	0x3ce21b6a	0.027600963
150	0xbdaa534e	-0.0831667
151	0xbc425ed7	-0.011863432
152	0x3d6856a1	0.05672324
153	0x3da535c8	0.080668986
154	0x3dc501e6	0.09619503
155	0x3e687079	0.22699155
156	0xbe82cc33	-0.25546417
157	0x3e079d5f	0.13243626
158	0x3de8804e	0.11352597
159	0x3d55a940	0.052163363
160	0x3e3aa4f5	0.18226989
161	0x3e4bba73	0.19895343
162	0x3e40227b	0.18763153
163	0x3d01a129	0.031647835
164	0x3d3905a4	0.045171395
165	0x3dff250d	0.12458239
166	0x3c803495	0.015650073
167	0x3e383798	0.17989957
168	0x3eed18d5	0.46308008
169	0xbe101769	-0.1407143
170	0x3d36a6a8	0.04459253
171	0x3daccb3d	0.08437202
172	0x3dcb11ac	0.0991548
173	0x3e34b00f	0.17645286
174	0x3dcbb7c2	0.099471584
175	0x3dd48a6d	0.10377965
176	0x3d8bf8b3	0.06834545
177	0x3d8b5d58	0.06804913
178	0xbcc1190a	-0.02357151
179	0xbda0b4e3	-0.078470014
180	0x3e4ed801	0.20199586
181	0x3dac5fa4	0.084166795
182	0x3e3f49b6	0.18680462
183	0x3daae26c	0.08343968
184	0xbd921505	-0.071329154
185	0x3e6359c1	0.22202207
186	0xbcb14ffb	-0.021644583
187	0xbd6ad001	-0.057327274
188	0x3d7cb858	0.06169924
189	0x3da400f6	0.08007996
190	0x3d126067	0.035736468
191	0x3c1e16b0	0.009648964
192	0xbd9505ae	-0.07276474
193	0xbe0fe3f2	-0.14051798
194	0x3e40825b	0.18799727
195	0x3d59143d	0.052997816
196	0x3dc2f98a	0.09520252
197	0xbce92914	-0.02846197
198	0x3e2ba47e	0.16761968
199	0x3e01b684	0.1266728
200	0xbd776b46	-0.06040504
201	0x3e2b08a2	0.16702512
202	0xbc0ce666	-0.008599853
203	0xbdeb4e51	-0.11489547

rnn.bias_hh_l0 f4 [204]
0	0x3bcea01a	0.0063057067
1	0x3dc2e071	0.09515465
2	0x3dad6435	0.084663786
3	0xbd4af022	-0.049545415
4	0xbc51ce0f	-0.012805476
5	0x3e2fde6b	0.1717469
6	0x3d57c9f8	0.052682847
7	0x3dd4a637	0.103832655
8	0xbbb7eccc	-0.005612945
9	0x3c672935	0.014108946
10	0x3e3d42ae	0.18482468
11	0x3dd8178f	0.105513684
12	0x3da90630	0.08253133
13	0x3d32c3e3	0.043643843
14	0x3d70180b	0.05861668
15	0x3e9a2206	0.30104083
16	0x3e02c20a	0.12769333
17	0x3d438f50	0.047744095
18	0x3c252aee	0.010081036
19	0xbd94151d	-0.072305895
20	0x3c15adbc	0.00913566
21	0x3e093d7d	0.13402362
22	0x3d144f5c	0.036208495
23	0x3d9a0ac4	0.07521585
24	0x3e1f7b4e	0.15574381
25	0x3c8055f0	0.015665978
26	0x3e25cda1	0.16191722
27	0x3e07d153	0.13263445
28	0xbd12474a	-0.035712518
29	0x3d746271	0.059664194
30	0x3e0fbb08	0.1403619
31	0xbd26c9e8	-0.040719897
32	0x3c340b7b	0.010989065
33	0x3b195724	0.0023397887
34	0x3d17a32b	0.037020843
35	0x3d94fe25	0.07275037
36	0x3ea3357e	0.3187675
37	0x3dbcc9a3	0.09218147
38	0x3baf8de8	0.0053574927
39	0x3d42fe8c	0.047606036
40	0x3e5e1848	0.2168895
41	0x3c8d0a94	0.017216958
42	0x3e0dd259	0.13849773
43	0x3dcc15e7	0.09965115
44	0x3e16506b	0.14679115
45	0x3e44d01e	0.19220015
46	0x3e403c78	0.18773067
47	0x3dbe3f68	0.092894375
48	0x3dc85654	0.09782091
49	0x3b3f4c46	0.002918975
50	0x3c8d222e	0.017228212
51	0x3cf430b3	0.029808378
52	0x3d9ce41d	0.07660697
53	0x3dd1a077	0.10235684
54	0xbc17f41b	-0.009274508
55	0x3e3ff13c	0.18744367
56	0xbda8194d	-0.08207951
57	0x3e394128	0.18091261
58	0xbe14e620	-0.1454091
59	0xbc697b01	-0.014250518
60	0x3d1686ae	0.036749534
61	0x3e23174d	0.15926857
62	0x3d5edf5a	0.054412223
63	0xbc5de91e	-0.013544349
64	0xbdce91a4	-0.100863725
65	0xbd5c1202	-0.05372811
66	0xbe3a8b53	-0.1821721
67	0x3d2ac060	0.04168737
68	0xbdd21edd	-0.10259793
69	0xbd9d0412	-0.07666792
70	0x3c9ae1fd	0.018906588
71	0x3db13e33	0.08654442
72	0x3d8c24ca	0.068429545
73	0xbd2cc6ff	-0.042181965
74	0xbca4cc33	-0.020116901
75	0xbd6533fc	-0.05595778
76	0x3d594a93	0.053049635
77	0x3e0b0083	0.13574414
78	0x3b6f473b	0.0036510963
79	0xbd5b1ace	-0.05349236
80	0x3d63987f	0.055565353
81	0x3d2ac762	0.041694053
82	0x3e1d4115	0.15356858
83	0xbb168f44	-0.0022973577
84	0x3de62c70	0.112389445
85	0x3dd01994	0.10161129
86	0x3de38da4	0.11111
87	0x3daeaa86	0.085286185
88	0x3e0a2864	0.1349197
89	0xbe06777b	-0.13131516
90	0xbc029b5b	-0.00797161
91	0xbde8959e	-0.11356662
92	0x3dd1a898	0.10237235
93	0xbcd4e51a	-0.02598815
94	0x3aa657c3	0.001269095
95	0x3d27b01d	0.04093944
96	0x3de1f7fc	0.110336274
97	0xbc874cc2	-0.016516093
98	0x3e18b02f	0.14910959
99	0xbe01b423	-0.12666373
100	0x3e15c1e8	0.1462475
101	0xbd80734e	-0.062719926
102	0x3c8dace2	0.017294351
103	0x3ddfc1d3	0.10925641
104	0x3cea004b	0.028564593
105	0x3e45c54d	0.19313546
106	0x3d883b49	0.06651933
107	0x3c2a3338	0.010388188
108	0x3deb7973	0.11497774
109	0xbd98b1f6	-0.07455818
110	0x3e41b904	0.18918234
111	0x3d3da92d	0.046303917
112	0xbd9202d0	-0.07129443
113	0xbcc2b685	-0.023768673
114	0xbd791d2d	-0.06081884
115	0x3d858b78	0.06520742
116	0xbe0ba822	-0.13638356
117	0x3bd74986	0.006570044
118	0x3dbcecf9	0.092248864
119	0xbdbdf3f5	-0.09275047
120	0x3dff3515	0.124612965
121	0xbda37fe4	-0.079833776
122	0xbe2810d2	-0.16412666
123	0xbd271e60	-0.040800452
124	0x3e0ff752	0.14059189
125	0x3e346768	0.17617571
126	0x3ca81d55	0.0205218
127	0x3e1fd1e2	0.15607408
128	0x3e2a2e21	0.1661916
129	0x3d0a45f2	0.03375811
130	0x3d819594	0.06327358
131	0xbe11cd45	-0.1423846
132	0xbe26452b	-0.16237323
133	0x3e2282f0	0.15870261
134	0xbe13940d	-0.14411946
135	0xbdb512de	-0.08841489
136	0x3d8e3905	0.06944469
137	0xbdcc7369	-0.0998295
138	0x3e64d171	0.2234552
139	0x3e027ef9	0.12743749
140	0xbd568c63	-0.052379977
141	0xbe063f71	-0.13110138
142	0x3d4a7595	0.04942854
143	0xbcb4d576	-0.022074442
144	0x3e014384	0.12623411
145	0x3c82ae8e	0.015952375
146	0xbe0628fd	-0.13101573
147	0xbd68a2ae	-0.05679577
148	0xbb363f40	-0.0027808696
149	0x3e397dfe	0.18114468
150	0xbd268b19	-0.040659998
151	0x3e27fcaf	0.16404985
152	0x3e01b9a0	0.12668467
153	0xbdbc5a40	-0.09196901
154	0x3e042c0b	0.12907426
155	0x3cc50df7	0.02405451
156	0xbe801510	-0.2501607
157	0x3e2ef876	0.17086968
158	0xbb9915f7	-0.004671808
159	0xbd6ce3f9	-0.0578346
160	0xbbb58903	-0.0055400147
161	0xbcf10a96	-0.029423993
162	0x3e468658	0.19387186
163	0x3e1cc48b	0.1530935
164	0xbdba014c	-0.090822786
165	0x3d92a493	0.07160296
166	0x3e14707c	0.14496034
167	0x3dbc4573	0.09192934
168	0x3e8e3553	0.27775058
169	0xbe73a439	-0.23793115
170	0x3e1de236	0.15418324
171	0x3def6b8e	0.11690436
172	0xbd8a4676	-0.067517206
173	0x3dff30c7	0.124604754
174	0xbce7abd9	-0.028280186
175	0xbc084102	-0.00831628
176	0x3cc6f78a	0.024287958
177	0x3e2112e8	0.15729868
178	0x3d25b916	0.040459715
179	0x3d7ee2a3	0.062227856
180	0xbd4bc1d3	-0.049745392
181	0x3de56420	0.11200738
182	0x3e2c4dd4	0.16826564
183	0x3e0d4b3c	0.13798231
184	0x3c026081	0.007957579
185	0x3e2a5939	0.16635598
186	0x3e2f9cb7	0.17149626
187	0x3dddf28b	0.10837277
188	0x3e0be15c	0.13660187
189	0x3c9295b6	0.017893653
190	0x3e473e3d	0.19457336
191	0x3e80ea66	0.25178832
192	0xb9bba573	-0.0003579069
193	0x3d675973	0.05648179
194	0x3c2d8943	0.010591808
195	0x3dfff7ce	0.12498437
196	0xbb058d38	-0.0020378362
197	0x3e162de3	0.14665942
198	0x3d203e1f	0.039121743
199	0x3d63b629	0.055593643
200	0x3db9929e	0.09061168
201	0xbd714089	-0.058899436
202	0xbd11845a	-0.03552661
203	0xbd193570	-0.037404478

rnn.weight_ih_l1 f4 [204, 51]
0	0xbd9bc4b4	-0.076058775
1	0x3dee50ee	0.1163653
2	0xbbf59580	-0.0074946284
3	0x3da6ec2b	0.08150514
4	0xbdcbe385	-0.09955505
5	0x3dde08a2	0.1084149
6	0x3c5ebf53	0.01359542
7	0xbe284495	-0.16432412
8	0x3d948954	0.07252756
9	0x3da1d0c8	0.0790115
10	0x3e076696	0.13222727
11	0xbe6bd911	-0.23032023
12	0x3d9671c4	0.07345918
13	0x3c11ce47	0.008899278
14	0xbde8d454	-0.113686234
15	0x3d8e547b	0.06949707
16	0x3d33f048	0.043930322
17	0x3d7adeaf	0.061247524
18	0xbe91e1af	-0.28492495
19	0xbd09bb28	-0.03362575
20	0xbd746e72	-0.05967564
21	0xbc5c040e	-0.013428701
22	0x3de9b7f7	0.11412042
23	0x3e4db115	0.20087083
24	0x3dd2297a	0.10261817
25	0x3b8ad6a0	0.004237011
26	0xbd695295	-0.056963522
27	0x3da4e2f0	0.080510974
28	0xbc168938	-0.009187989
29	0xbc1e725c	-0.00967082
30	0xbd869d9b	-0.065730296
31	0x3d69c96a	0.05707685
32	0xbe084fe4	-0.13311726
33	0xbb756950	-0.0037446804
34	0x3b292759	0.0025810807
35	0xbc4a92bb	-0.012364085
36	0x3e5aa072	0.21350268
37	0xbcad9848	-0.021190777
38	0x3c5cce4f	0.013476922
39	0xbd956b0a	-0.07295807
40	0x3d84f0f9	0.064912744
41	0xbe2f9748	-0.17147553
42	0x3e332fc2	0.17498687
43	0x3e0e12ab	0.13874309
44	0xbe3940d4	-0.18091136
45	0x3c83a1f8	0.016068444
46	0x3d94f0a3	0.0727246
47	0x3e591dc0	0.21202755
48	0x3ce57738	0.02801095
49	0xbcea7e29	-0.028624611
50	0xbe617ff1	-0.22021462
51	0x3dad1e6b	0.084530674
52	0xbd9e1c6c	-0.07720265
53	0xbdcaa47e	-0.09894656
54	0x3e880a82	0.26570517
55	0xbde67b61	-0.112540014
56	0x3dfebc3f	0.12438249
57	0xbce9c10b	-0.028534433
58	0xbe2b0786	-0.16702089
59	0x3cc86f6d	0.024467194
60	0x3c845f3d	0.016158694
61	0xbc5fff19	-0.01367166
62	0x3d8cfbf3	0.06883993
63	0x3da8a933	0.08235397
64	0xbebfe9e6	-0.37483138
65	0xbaff9cbf	-0.001950167
66	0x3eb2cf3f	0.3492374
67	0xbe0c06d6	-0.13674483
68	0x3b3ee89c	0.0029130345
69	0xbe213151	-0.15741469
70	0x3d3394da	0.043843128
71	0xbcc19da7	-0.023634745
72	0x3c04e3e4	0.008110974
73	0x3d01bbb6	0.031673156
74	0x3e94aa95	0.29036394
75	0xbdad8d4c	-0.08474216
76	0x3ccc8d29	0.024969654
77	0xbb5d46e5	-0.003376418
78	0x3e4fc849	0.20291246
79	0x3d665290	0.05623108
80	0x3c10104e	0.00879295
81	0xbe13105b	-0.14361708
82	0xbe5bd5e1	-0.21468307
83	0xbe52a6c9	-0.20571436
84	0x3e7feb11	0.24992014
85	0x3cc092dc	0.023507528
86	0xbded3d46	-0.115839526
87	0x3e4593a3	0.192946
88	0x3ed1b082	0.40954977
89	0x3e140501	0.14455034
90	0xbd7aff9e	-0.06127893
91	0x3ee6b89a	0.45062715
92	0xbeb8d168	-0.36097264
93	0x3d8f8780	0.070082664
94	0x3e9e205f	0.30884072
95	0xbb9d397c	-0.0047981124
96	0xbd1452c7	-0.036211755
97	0x3c7a5103	0.015278104
98	0x3ea7952f	0.32731006
99	0x3e0ee14b	0.1395313
100	0xbe5b3c52	-0.21409729
101	0xbefee0a2	-0.49780756
102	0xbe6b937a	-0.23005477
103	0x3e25daaa	0.16196695
104	0x3e47f3a9	0.19526543
105	0x3d98961c	0.07450506
106	0x3e110ccb	0.14165036
107	0x3e239f51	0.15978743
108	0x3dff2d15	0.124597706
109	0xbe6920b1	-0.22766377
110	0x3c8114e8	0.01575704
111	0x3d7b0e4a	0.061292924
112	0x3e476098	0.19470441
113	0xbea12b81	-0.31478503
114	0xbde703e8	-0.11280042
115	0x3e1ebd6e	0.15501949
116	0x3e62597f	0.22104453
117	0xbe463888	-0.19357502
118	0x3e3a563b	0.18196957
119	0xbd41ed55	-0.047345478
120	0xbcea5423	-0.028604573
121	0xbe19655e	-0.14980075
122	0xbe5c2716	-0.21499285
123	0x3df72a59	0.12068624
124	0x3d860a40	0.06544924
125	0xbda0eba6	-0.07857446
126	0x3ede801d	0.43457118
127	0x3db23b4b	0.087027155
128	0x3db9a5ae	0.09064804
129	0xbc1f95f8	-0.009740345
130	0x3dee8384	0.11646178
131	0xbe1892a4	-0.14899689
132	0xbe270d2f	-0.16313623
133	0x3b52f8f3	0.0032191842
134	0xbe114cf3	-0.1418951
135	0x3db03759	0.08604307
136	0xbee7ecc0	-0.45297813
137	0xbe04e544	-0.12978083
138	0xbe747faf	-0.23876832
139	0x3e306002	0.17224124
140	0x3e062fd7	0.13104187
141	0xbe75ec24	-0.24015862
142	0xbec05574	-0.37565196
143	0xbc8b589f	-0.017010031
144	0x3d37e3ac	0.04489486
145	0xbd05d505	-0.032673854
146	0x3c73d9f1	0.014883504
147	0xbea55f41	-0.32299235
148	0x3d1d8613	0.03845794
149	0x3e592fdc	0.21209663
150	0xbec03c66	-0.3754608
151	0x3ded5621	0.115886934
152	0x3f13e6f2	0.5777427
153	0xbdf019e4	-0.11723688
154	0x3d88d96d	0.06682096
155	0xbe14d6fb	-0.14535134
156	0x3e45ff7b	0.1933574
157	0xbd6a5461	-0.057209376
158	0x3df0ed42	0.11764003
159	0x3e1df459	0.15425242
160	0xbe87a8f1	-0.2649608
161	0x3d89d90c	0.067308515
162	0x3db96235	0.09051935
163	0x3cc2570e	0.023723152
164	0xbe38e88b	-0.18057458
165	0xbe1b2ade	-0.15153071
166	0xbd850f94	-0.06497112
167	0x3e5eac38	0.21745384
168	0x3d668296	0.05627688
169	0x3cff17bf	0.031139253
170	0x3de61541	0.112345226
171	0xbe494ac7	-0.19657432
172	0xbcf051e9	-0.029335933
173	0x3dcee56d	0.10102353
174	0xbe5449c4	-0.20731264
175	0xbd812451	-0.06305755
176	0xbc984169	-0.018585877
177	0x3e148999	0.14505614
178	0x3cf5bc6c	0.029997073
179	0x3c896d05	0.016775617
180	0x3e055734	0.13021547
181	0xbac48fa7	-0.0014996425
182	0x3dcd683a	0.10029645
183	0xbd9a8d93	-0.075465344
184	0xbe017bf0	-0.12644935
185	0xbe80ce52	-0.2515741
186	0x3d3ec055	0.04657014
187	0xbe38f8cc	-0.18063658
188	0x3d286849	0.04111508
189	0xbd414498	-0.047184557
190	0x3e47efdb	0.19525091
191	0x3a88cbe9	0.0010436747
192	0xbcbbd925	-0.022930691
193	0x3e1ea9e9	0.15494503
194	0xbe6c0d57	-0.23051964
195	0x3e0e1155	0.13873799
196	0x3ed0d75c	0.40789306
197	0x3d2f972e	0.042868786
198	0xbdc8c0cc	-0.09802398
199	0xbd0208c4	-0.03174664
200	0x3e01892c	0.12649983
201	0x3e418453	0.18898134
202	0xbe380694	-0.1797126
203	0x3c17ea34	0.009272147
204	0xbcd672d5	-0.026177803
205	0x3e987372	0.29775578
206	0x3e3e5e82	0.1859074
207	0x3e058e60	0.13042593
208	0x3e033c23	0.12815909
209	0x3e61379c	0.2199387
210	0x3e78c827	0.24295102
211	0x3d52048d	0.05127387
212	0x3dc26ae5	0.09493045
213	0x3e1092cd	0.141185
214	0x3e8e2b63	0.27767476
215	0x3d85b967	0.06529503
216	0xbe387fdf	-0.18017529
217	0x3d88db57	0.06682461
218	0xbd1de885	-0.038551826
219	0xbe085c78	-0.13316524
220	0x3dc36e7d	0.09542558
221	0xbcfa184f	-0.03052917
222	0x3dfc6911	0.12324727
223	0xbddcb29f	-0.10776257
224	0xbcb15c40	-0.021650434
225	0x3e16627b	0.14686005
226	0xbcd46689	-0.025927799
227	0x3e04723c	0.12934202
228	0x3de32b0b	0.11092194
229	0x3e14b8af	0.14523576
230	0xbdbe2fce	-0.09286462
231	0xbd780c42	-0.060558565
232	0xbd682e71	-0.056684915
233	0xbbc4d001	-0.0060062413
234	0xbd6abf5e	-0.05731141
235	0xbd0f24ca	-0.034947194
236	0xbdee88d9	-0.11647195
237	0x3e0d99ac	0.13828152
238	0xbe08cf59	-0.13360347
239	0xbe545877	-0.20736872
240	0xbe1836dc	-0.14864677
241	0xbc2af8d6	-0.010435304
242	0xbdf67ceb	-0.12035545
243	0xbd43e3a6	-0.047824524
244	0xbeed7565	-0.46378627
245	0x3dd13b46	0.10216384
246	0x3e17744d	0.14790459
247	0x3c228b98	0.009920977
248	0xbe3da128	-0.18518507
249	0xbe271f01	-0.16320421
250	0xbde91c35	-0.11382333
251	0xbd830fc3	-0.06399491
252	0xbe1346d2	-0.14382485
253	0x3e448397	0.19190823
254	0x3f0e112e	0.55494964
255	0xbd112212	-0.035432883

rnn.weight_hh_l1 f4 [204, 51]
0	0xbe11f43c	-0.14253324
1	0xbd120d6d	-0.035657335
2	0xbd835bb9	-0.06413979
3	0xbe053105	-0.1300698
4	0xbddf28ae	-0.10896431
5	0xbda9b8e6	-0.0828722
6	0x3da86918	0.0822317
7	0xbd686602	-0.056737907
8	0xbe72cb42	-0.23710349
9	0x3dc51635	0.09623376
10	0xbbcaa8c4	-0.006184669
11	0x3e013b3b	0.12620251
12	0x3dae3dc7	0.08507877
13	0xbaf2b960	-0.0018518381
14	0x3b0fbe1c	0.0021933382
15	0xbd5ffd7e	-0.05468511
16	0x3d48c0e1	0.04901207
17	0x3ddbebed	0.10738359
18	0xbda89874	-0.08232203
19	0xbcb7016c	-0.022339545
20	0x3e18fa83	0.14939313
21	0x3c9531d6	0.01821224
22	0x3c88e6b7	0.016711576
23	0x3d18c40e	0.037296347
24	0x3dbeb2c3	0.0931144
25	0xbd0ab186	-0.033860706
26	0xbcb8db71	-0.022565575
27	0xbdc602f3	-0.09668531
28	0x3c7ee636	0.015557816
29	0xbd7ba60a	-0.061437644
30	0xbc9834aa	-0.0185798
31	0x3bc92a1d	0.0061390535
32	0x3dabbc78	0.08385557
33	0x3d8956e4	0.06706026
34	0x3e259c14	0.1617282
35	0xbdc8414f	-0.097780816
36	0x3db84cf1	0.089990504
37	0x3e1469db	0.14493506
38	0xbe11b0cc	-0.14227599
39	0xbd853616	-0.06504457
40	0xbbb15f80	-0.005412996
41	0x3da1baec	0.07896981
42	0x3ddd1241	0.10794497
43	0xbca98b18	-0.020696208
44	0x3e3dc6e7	0.18532906
45	0x3d9ba557	0.075998954
46	0x3e29c6da	0.16579762
47	0x3e00dad8	0.12583482
48	0xbd9c0045	-0.07617239
49	0x3d81428d	0.06311522
50	0x3e1fff69	0.15624775
51	0x3d584eb4	0.052809432
52	0xbd92e6f6	-0.071729586
53	0xbd70b50c	-0.05876641
54	0xbd5c9237	-0.05385038
55	0xbd6212e2	-0.05519379
56	0x3e50fd37	0.20409094
57	0x3da1e56e	0.07905088
58	0xbd8416a7	-0.06449633
59	0xbe6c6701	-0.23086168
60	0xbe7967c5	-0.24355991
61	0xbe8ba68e	-0.2727551
62	0xbbcc072c	-0.006226441
63	0x3d292517	0.041295137
64	0xbcdf2439	-0.027238952
65	0x3d2a880b	0.041633647
66	0xbe3dc103	-0.1853066
67	0x3d0b5bb2	0.034022994
68	0xbd23c9b2	-0.039987274
69	0xbe49717c	-0.19672197
70	0x3d5c3c01	0.05376816
71	0x3e3b56df	0.18294857
72	0xbe5763c6	-0.21034154
73	0x3e4564a0	0.19276667
74	0xbe16b916	-0.14719042
75	0xbd2cba6a	-0.042169966
76	0x3d29c44a	0.04144696
77	0x3d5f5480	0.054523945
78	0x3d8c6dbc	0.06856868
79	0xbe488ef3	-0.19585781
80	0xbd9c1bd2	-0.07622494
81	0xbea908b4	-0.33014452
82	0x3d0403d7	0.032230224
83	0x3d905810	0.070480466
84	0xbe642d6d	-0.22282954
85	0x3d5a0601	0.053228382
86	0xbe195c54	-0.14976627
87	0x3d14f812	0.03636939
88	0x3d8fb5aa	0.070170715
89	0x3cfb2c33	0.030660724
90	0x3c32ae89	0.01090587
91	0x39e6b359	0.00044002643
92	0x3db761b4	0.08954182
93	0xbd957ad9	-0.07298822
94	0x3cd1d21e	0.025612887
95	0x3de45c2c	0.11150393
96	0x3d708dbd	0.058728922
97	0x3cbf88a4	0.023380585
98	0x3e0c0f1d	0.1367764
99	0x3db2a8e2	0.08723618
100	0x3df28b1c	0.11842939
101	0x3e879857	0.26483414
102	0x3d8c398a	0.06846912
103	0xbe372677	-0.17885767
104	0x3cdcc1fb	0.026947966
105	0xbdd67564	-0.10471609
106	0xbdb04107	-0.08606153
107	0xbb816efd	-0.0039499984
108	0x3d8075aa	0.06272443
109	0xbd1aa55e	-0.037755363
110	0xbe17661e	-0.14785048
111	0xbe599106	-0.21246728
112	0xbdc63ed5	-0.09679953
113	0x3e2422ae	0.16028854
114	0xbdc4b458	-0.0960471
115	0xbdc876ca	-0.09788282
116	0x3db85281	0.09000111
117	0xbe63180e	-0.22177145
118	0x3d4294b7	0.047505107
119	0x3e1c096c	0.15237969
120	0x3cdf3c6b	0.02725049
121	0x3d074bce	0.033031277
122	0xbcb8b070	-0.02254507
123	0x3de68782	0.11256315
124	0x3db2139d	0.08695147
125	0x3c66e3d7	0.014092407
126	0x3ae77ee3	0.0017661717
127	0x3d6692c6	0.056292318
128	0x3e20ac9f	0.1569085
129	0xbd732ea3	-0.059370648
130	0xbda6665e	-0.08124994
131	0xbc92af41	-0.017905833
132	0xbe999e51	-0.30003598
133	0xbdc1ee25	-0.094692506
134	0xbe0313aa	-0.1280047
135	0xbd94b83f	-0.07261705
136	0x3a0413f3	0.0005038373
137	0x3d7a1a3f	0.061060186
138	0xbbabb078	-0.0052395426
139	0x3e1cbd32	0.15306547
140	0x3dd5881a	0.1042635
141	0xbe02ebb0	-0.1278522
142	0x3dadcf04	0.08486751
143	0x3e062c5f	0.13102864
144	0x3da63a1d	0.08116553
145	0x3d905764	0.070479184
146	0x3da64b6a	0.08119853
147	0xbc981ada	-0.018567491
148	0x3e135b9f	0.1439042
149	0x3e4109de	0.1885142
150	0x3d7ef19a	0.062242128
151	0x3e6dd95d	0.23227449
152	0x3def1418	0.116737545
153	0x3da59049	0.08084161
154	0xbcbf8ce5	-0.023382613
155	0x3e18ca35	0.14920886
156	0xbe19ab01	-0.15006639
157	0x3d5aa67a	0.05338142
158	0x3df89c64	0.12139204
159	0xbdad595d	-0.0846431
160	0xbe0c6d4e	-0.13713571
161	0xbd1c92d8	-0.03822598
162	0xbda7e03c	-0.08197066
163	0x3c11227f	0.008858322
164	0x3d7a7af2	0.061152406
165	0xbcec3dae	-0.028838005
166	0xbd125d19	-0.035733316
167	0xbe145273	-0.14484577
168	0xbe2c80f8	-0.16846073
169	0xbd63bcea	-0.055600084
170	0x3db2e6eb	0.0873545
171	0xbdc57dc4	-0.096431285
172	0x3dd3eddd	0.10348103
173	0xbddca145	-0.10772947
174	0xbe2e047b	-0.16993897
175	0x3ca1d0e4	0.019752927
176	0x3c9f908f	0.01947811
177	0xbd3c54b9	-0.045979235
178	0xbcbb5841	-0.022869231
179	0x3e34ddff	0.1766281
180	0x3e50ca86	0.20389757
181	0xbe2145ea	-0.15749326
182	0x3cdcb85a	0.026943374
183	0xbe00f08c	-0.12591761
184	0xbe0f7a78	-0.14011562
185	0x3d304edd	0.04304396
186	0xbdd58003	-0.10424807
187	0xbe1731c5	-0.1476508
188	0xbca1b2a7	-0.019738508
189	0x3d9aa848	0.07551628
190	0xbe08cd7d	-0.13359638
191	0xbca59cfc	-0.020216458
192	0x3d3de949	0.046365056
193	0xbe089e63	-0.1334167
194	0x3e170d41	0.1475115
195	0xbe1c57c3	-0.15267853
196	0x3d2b24da	0.04178319
197	0x3d3299fd	0.043603886
198	0xbc14a1c0	-0.009071767
199	0xbe18bddf	-0.1491618
200	0x3daa6111	0.08319295
201	0xbe125d87	-0.1429349
202	0x3d27bfe0	0.04095447
203	0xbdd0581a	-0.10173054
204	0xbc9067af	-0.017627565
205	0xbd937fc7	-0.07202106
206	0xbe2a9697	-0.16659008
207	0x3d98d4b8	0.07462448
208	0xbde13406	-0.10996251
209	0xbd87b7f8	-0.06626886
210	0xbe2ce903	-0.16885762
211	0x3d738da9	0.05946127
212	0x3d8d2153	0.06891122
213	0x3bc9f9e8	0.0061638243
214	0x3e316e34	0.17327195
215	0xbde8767d	-0.11350725
216	0xbcadeaab	-0.021230062
217	0x3d54888d	0.051888037
218	0x3dc9fd0a	0.098627165
219	0xbcae9604	-0.021311767
220	0x3d9306d7	0.07179039
221	0xbb343e08	-0.0027502794
222	0x3e2ac33a	0.16676036
223	0xbd314d27	-0.04328647
224	0x3cd456ae	0.025920238
225	0x3e48d718	0.19613302
226	0xbe30fd64	-0.17284161
227	0xbe1a6ef1	-0.15081383
228	0x3c3b72ed	0.011440975
229	0xbd0acf14	-0.03388889
230	0xbbed25df	-0.0072371806
231	0x3cae73ff	0.021295546
232	0x3da8ff6d	0.082518436
233	0x3d961cb7	0.07329696
234	0x3c4fe78e	0.012689484
235	0xbdad922f	-0.08475148
236	0x3d55091d	0.052010644
237	0xbdf09345	-0.117468394
238	0xbce10651	-0.027468832
239	0xbdedd151	-0.116121896
240	0x3c87a0cc	0.016556166
241	0x3da060a2	0.07830931
242	0xbca2dee6	-0.019881677
243	0xbdbfa383	-0.09357359
244	0x3c43b017	0.011943839
245	0x3d08493e	0.033272974
246	0x3e3dfe84	0.18554121
247	0x3d5460e0	0.0518502
248	0xbd797774	-0.060904935
249	0x3e13f21a	0.14447823
250	0xbda8876c	-0.08228955
251	0x3d464aef	0.048411306
252	0x3e2591d6	0.16168913
253	0x3decf341	0.115698345
254	0x3e0c24f0	0.13685966
255	0xbc923cb2	-0.017851207

rnn.bias_ih_l1 f4 [204]
0	0x3e443496	0.19160685
1	0x3dd82c27	0.105552964
2	0xbd846aa5	-0.06465653
3	0xbb602487	-0.003420146
4	0xbdb733ab	-0.08945402
5	0xbd919bb2	-0.07109775
6	0xbd563efd	-0.052306164
7	0xbc5a80af	-0.013336345
8	0x3e350aa1	0.17679836
9	0x3db60499	0.08887596
10	0x3c1f806f	0.009735211
11	0xbd973a89	-0.073842116
12	0x3b98b63d	0.0046603964
13	0xbd5fd2f1	-0.05464453
14	0xbd6e4ad1	-0.05817682
15	0xbcf2a685	-0.029620418
16	0x3d97586b	0.07389911
17	0x3ddf9c00	0.109184265
18	0x3dfd0371	0.12354172
19	0x3decc6a1	0.11561323
20	0xbcfe2a2d	-0.03102597
21	0x3d6c2d43	0.057660352
22	0xbc66c373	-0.014084685
23	0x3dc7dbd6	0.09758727
24	0x3e419005	0.18902595
25	0x3e41bd22	0.18919805
26	0x3e054a40	0.13016605
27	0xbc9f0bc6	-0.019414794
28	0x3e310836	0.17288288
29	0x3e3dfbc5	0.18553074
30	0x3db3be21	0.087764986
31	0x3e6094dd	0.21931787
32	0x3e06a9e8	0.13150752
33	0x3d4062ab	0.046969097
34	0x3d02097a	0.03174732
35	0x3c0af972	0.008482324
36	0x3ce0cb32	0.027440641
37	0x3e29b101	0.16571428
38	0x3cac695c	0.021046333
39	0x3e46f5a5	0.19429643
40	0x3e17990c	0.14804476
41	0x3dec128b	0.11526974
42	0x3d6f4533	0.058415603
43	0x3e293692	0.16524723
44	0xbd8b0287	-0.067875914
45	0x3e10cbd8	0.1414026
46	0x3e12b06c	0.14325112
47	0x3ddfd7e2	0.10929848
48	0xbd708927	-0.05872455
49	0xbcd38a96	-0.025822919
50	0x3bdd6871	0.006756835
51	0x3da0fb4c	0.07860431
52	0x3d107683	0.03526927
53	0x3d4ab3a5	0.04948773
54	0x3c719e91	0.014747278
55	0xbcaa29ec	-0.020771943
56	0x3d062ad3	0.032755684
57	0xbca612cb	-0.020272633
58	0x3da2dc96	0.0795223
59	0x3dfb27bb	0.12263437
60	0xbdb245bb	-0.08704706
61	0xbd435d86	-0.047696613
62	0x3de4980d	0.11161814
63	0x3cf6fe2d	0.030150497
64	0xbd746e8d	-0.059675742
65	0x3e13fbb0	0.1445148
66	0x3ce67e36	0.028136354
67	0xbd5699cd	-0.05239277
68	0x3cb8fb57	0.022580786
69	0xbd99a6d3	-0.07502522
70	0xbd951493	-0.07279315
71	0x3d7e103a	0.062027194
72	0x3c1e9247	0.00967843
73	0xbde22bd2	-0.11043514
74	0x3d81e391	0.06342233
75	0x3de86a5a	0.1134841
76	0x3e080b35	0.13285525
77	0x3e04a5fc	0.12953943
78	0xbabdda36	-0.0014484588
79	0x3d4e7d5e	0.05041253
80	0x3da56cd0	0.08077395
81	0x3e0730b4	0.13202173
82	0x3d6df0f9	0.058091138
83	0x3d257f28	0.04040447
84	0x3e1b1445	0.15144451
85	0x3da473c9	0.08029897
86	0x3df3af56	0.11898677
87	0xbd50c2f8	-0.050967187
88	0x3e0493aa	0.12946954
89	0x3e208c5d	0.15678544
90	0xbc79b2a8	-0.015240349
91	0x3e2f9347	0.17146026
92	0xbd6c596a	-0.05770246
93	0xbdfe6f42	-0.124235645
94	0x3e16e5b6	0.14736065
95	0xbd22f765	-0.039786715
96	0xbd9b42c4	-0.07581094
97	0xbdc4cce9	-0.09609396
98	0x3dccb632	0.099956885
99	0x3daa2410	0.083076596
100	0x3d904c99	0.0704586
101	0xbd6e051e	-0.05811035
102	0xbdf8c15d	-0.12146256
103	0xbe3d0bcb	-0.1846153
104	0xbe00d7cc	-0.1258232
105	0x3c99d016	0.01877598
106	0xbd7daa6f	-0.061930116
107	0x3d9df565	0.07712821
108	0xbdbe5186	-0.09292893
109	0xbe24adaf	-0.1608188
110	0xbdc138d3	-0.094346665
111	0xbd542729	-0.05179516
112	0x3ced2bd2	0.02895156
113	0xbe006f0e	-0.12542364
114	0x3abb90b3	0.0014310092
115	0x3e0bc962	0.1365104
116	0xbe1a1b44	-0.15049464
117	0x3d7176e0	0.05895126
118	0xbdbe8441	-0.09302569
119	0x3bbf29bb	0.005833832
120	0xbb309016	-0.002694135
121	0xbe124e74	-0.1428774
122	0x3c7cca00	0.01542902
123	0x3cc417b1	0.023937078
124	0xbe056241	-0.13025762
125	0xbdd7e1bb	-0.105411015
126	0x3d66fa12	0.05639083
127	0xbe296151	-0.1654103
128	0x3e4a95ab	0.19783656
129	0xbd9107b3	-0.07081547
130	0xbcb5fcbe	-0.022215243
131	0xbe027f8c	-0.12743968
132	0xbd8082c0	-0.062749386
133	0xbd00ab17	-0.031413164
134	0x3d1f8799	0.038947675
135	0xbe469447	-0.19392501
136	0x3dd41291	0.10355104
137	0xbe0ed61a	-0.13948861
138	0x3e313cfd	0.17308421
139	0x3d9fb78c	0.07798681
140	0xbde32676	-0.1109132
141	0xbdc0535d	-0.093909
142	0x3e273fef	0.16332982
143	0xbdae56a2	-0.08512618
144	0x3da28fb4	0.079375654
145	0xbd8154f1	-0.063150294
146	0x3db37cb5	0.0876402
147	0x3d62c9aa	0.055368103
148	0x3df0e63e	0.11762665
149	0x3d40c0ec	0.047058985
150	0x3da46ab7	0.08028167
151	0x3b2822c6	0.0025655492
152	0x3e017c77	0.12645136
153	0xbda46582	-0.080271736
154	0x3e5f6df6	0.2181929
155	0xbd46195e	-0.048364036
156	0x3d85cda8	0.065333664
157	0xbd541a73	-0.051783036
158	0x3e1c750e	0.15279028
159	0x3e0f137c	0.13972276
160	0x3e29dc13	0.16587858
161	0xbd268d48	-0.04066208
162	0x3e0ad46a	0.13557592
163	0x3e029614	0.12752563
164	0x3ddd6841	0.108109005
165	0x3e306e09	0.17229475
166	0x3d85fe7f	0.06542682
167	0x3cad1375	0.021127442
168	0x3df44f63	0.11929204
169	0x3e02fd81	0.12792017
170	0x3e15ba27	0.14621793
171	0xbd3005ba	-0.04297421
172	0x3bab1564	0.005221056
173	0x3941c513	0.0001847933
174	0x3e809d9a	0.2512024
175	0x3d0263bd	0.0318334
176	0x3df8b313	0.12143531
177	0x3d4fd88a	0.050743617
178	0xbd832efb	-0.06405445
179	0x3db1f89a	0.08689995
180	0xbd09a16a	-0.033601202
181	0x3d7b50b7	0.061356273
182	0x3e3e5de0	0.18590498
183	0xbba77f09	-0.0051115793
184	0x37a53819	1.9695655e-05
185	0xbcb246e8	-0.021762326
186	0x3d8c5cda	0.068536475
187	0x3cbe8e6d	0.023261273
188	0x3d066c01	0.032817844
189	0x3e3e96f6	0.18612275
190	0xbda000f6	-0.07812683
191	0x3d3b30d8	0.045700878
192	0x3d85c774	0.06532183
193	0xbd24341f	-0.04008877
194	0xbd9bdde7	-0.07610684
195	0x3e07bf10	0.13256478
196	0x3e03c2f8	0.12867343
197	0x3c5ca51a	0.013467098
198	0x3e367453	0.17817812
199	0x3d59ba3d	0.053156126
200	0x3d474906	0.048653625
201	0x3d76a3e9	0.06021491
202	0x3d37688c	0.044777438
203	0x3d9eb688	0.07749659

rnn.bias_hh_l1 f4 [204]
0	0x3e3aaec2	0.18230727
1	0x3cca62ce	0.024705317
2	0xbd893766	-0.067000195
3	0x3deeaaca	0.11653669
4	0x3c8d046e	0.017214026
5	0x3cdefa91	0.027219089
6	0x3e409e13	0.188103
7	0x3d9dbc74	0.0770196
8	0x3e87566f	0.2643313
9	0x3df46e38	0.11935085
10	0x3e34747f	0.17622565
11	0x3c1771ef	0.0092434725
12	0x3e0f69ae	0.14005157
13	0x3d5d1c7c	0.053982243
14	0x3c50ef58	0.0127523765
15	0x3e69869e	0.22805259
16	0x3e01fe66	0.12694702
17	0x3e387626	0.1801382
18	0x3d739fb7	0.059478488
19	0x3dfe99e2	0.124316946
20	0x3ccaf391	0.024774345
21	0x3dceab3f	0.10091256
22	0x3cb153bc	0.021646373
23	0x3e364e43	0.17803292
24	0xbc4de8e6	-0.012567734
25	0xbd1ebd6c	-0.038754866
26	0x3e06e55c	0.13173431
27	0x3c89f929	0.016842442
28	0x3d2c6606	0.042089485
29	0x3d272bd4	0.040813282
30	0x3d7a34fa	0.06108568
31	0x3bd92138	0.0066262744
32	0xbda7cd5f	-0.08193468
33	0x3e381e7d	0.1798038
34	0x3c363ba9	0.0111226225
35	0x3dd6bfd1	0.10485805
36	0x3e26057b	0.16213028
37	0x3e18b98b	0.14914529
38	0xbd8bd428	-0.06827575
39	0xbd182351	-0.037143055
40	0xbb568c90	-0.003273759
41	0x3dedffc7	0.11621051
42	0x3dd8912c	0.10574564
43	0xbd2bc12b	-0.041932266
44	0x3df57d4d	0.1198679
45	0xbd029a20	-0.031885266
46	0x3df0cf7e	0.11758326
47	0x3e14b937	0.14523779
48	0x3e3e970f	0.18612312
49	0x3db1a088	0.08673197
50	0x3df6c301	0.12048913
51	0x3ddb92d7	0.10721367
52	0x3bab5afa	0.005229351
53	0xbd3617de	-0.044456355
54	0x3d525c1b	0.05135737
55	0x3dddce1f	0.1083033
56	0x3e1c556e	0.15266964
57	0x3db8d7bf	0.09025525
58	0xbd6720ad	-0.056427646
59	0xbdd64981	-0.104632385
60	0xbd27bb36	-0.040950023
61	0x3ccd51df	0.025063453
62	0xbdca17d9	-0.0986783
63	0x3dcf6c92	0.1012813
64	0xbd800591	-0.06251062
65	0xbd814b95	-0.06313244
66	0x3dd99a3b	0.1062512
67	0xbd19963a	-0.037496783
68	0xbd2975c4	-0.041372076
69	0xbdc8a841	-0.09797717
70	0x3dd45776	0.10368244
71	0xbcc28fe8	-0.02375026
72	0xbd927306	-0.07150845
73	0xbdda88b0	-0.10670602
74	0x3e32149e	0.17390677
75	0xbcaf1fba	-0.021377433
76	0x3df158e9	0.117845364
77	0xbdaab3e9	-0.083350964
78	0x3df4049c	0.11914942
79	0x3e18eece	0.14934847
80	0xbcc7b4cb	-0.024378201
81	0xbb8329db	-0.0040027923
82	0x3e030964	0.12796551
83	0x3e04b21c	0.12958568
84	0x3c74989a	0.014928961
85	0xbcd8eadc	-0.026479177
86	0x3de4d9c2	0.111743465
87	0xbc30f8a1	-0.010801465
88	0xbd89f9b1	-0.06737078
89	0xbd8ec2b6	-0.06970732
90	0xbc925f27	-0.017867638
91	0xbdbbe098	-0.09173697
92	0x3dbf204d	0.09332333
93	0xbcb5f35d	-0.022210771
94	0xbd8d8005	-0.069091834
95	0x3d188c4e	0.03724318
96	0x3e21db5b	0.15806334
97	0xbd00120f	-0.031267222
98	0x3d3fe343	0.046847593
99	0x3d97251f	0.07380127
100	0x3e218eb8	0.15777099
101	0x3deb4bfc	0.11489102
102	0xbe143718	-0.14474142
103	0xbd9f6fba	-0.07784982
104	0xbdab1501	-0.083536156
105	0x3d4ffc80	0.050777912
106	0xbddcffba	-0.107909635
107	0xbe0f9f89	-0.14025702
108	0xbdaf1fec	-0.085510105
109	0xbe24536c	-0.16047448
110	0xbd7fad73	-0.062421273
111	0xbd5120c8	-0.051056653
112	0x3dacc121	0.08435274
113	0x3c757b99	0.014983081
114	0x3a642be9	0.0008704053
115	0x3db47152	0.08810677
116	0x3d4c30e9	0.04985133
117	0xbe03eee0	-0.12884092
118	0xbe1e2a07	-0.1544572
119	0x3e155526	0.14583263
120	0x3d3cf0a0	0.046127915
121	0xbde848cd	-0.11342011
122	0x3d8bbcba	0.06823106
123	0x3ddfe8eb	0.109330975
124	0x3dd32f71	0.10311783
125	0xbd8a24d7	-0.06745308
126	0xbae76391	-0.0017653574
127	0x3c9d149e	0.01917487
128	0xbcc03186	-0.023461115
129	0x3d3024ec	0.04300396
130	0x3dbf2e80	0.09335041
131	0x3ca41b03	0.020032411
132	0xbdf84ebb	-0.12124392
133	0xbe0ebbcf	-0.13938831
134	0xbc03fac8	-0.008055396
135	0xbe25c124	-0.16186959
136	0x3e283642	0.16426948
137	0xbe28c5c8	-0.16481698
138	0x3da2fb0e	0.07958041
139	0x3e2be9b2	0.16788366
140	0x3d88653d	0.06659935
141	0x3d816a0e	0.063190565
142	0x3dc8b904	0.09800914
143	0x3d2d9a80	0.04238367
144	0x3e02cd3e	0.12773606
145	0xbd7ae228	-0.061250836
146	0x3e2a2b3b	0.16618054
147	0x3e0f6773	0.14004306
148	0xbcc7f324	-0.02440793
149	0x3dea301c	0.114349574
150	0x3e2e9a18	0.1705097
151	0x3e2af05e	0.16693255
152	0x3e14bcf4	0.14525205
153	0xbd3a93a8	-0.045550972
154	0xbd1fb5bc	-0.038991675
155	0x3c53be15	0.012923737
156	0xbe12b640	-0.14327335
157	0xbbbcdf1b	-0.005763901
158	0x3e238b59	0.15971126
159	0x3e3074fa	0.17232123
160	0xbd380924	-0.044930592
161	0xbd3407df	-0.04395282
162	0xbda8c48a	-0.08240612
163	0xbd84d839	-0.06486554
164	0x3d849e72	0.064755335
165	0x3e4f78b7	0.20260893
166	0x3dbd77f3	0.09251394
167	0x3e260884	0.16214186
168	0x3e272232	0.16321638
169	0x3da0e4be	0.07856129
170	0x3dfd2bf7	0.12361901
171	0x3dd1a2ca	0.10236128
172	0x3cf636cc	0.030055426
173	0x3db32cbf	0.08748769
174	0x3e234ef1	0.15948083
175	0x3ded5a6e	0.11589514
176	0x3df282af	0.11841332
177	0xbc238281	-0.009979845
178	0x3db429ff	0.087970726
179	0xbccaf1ae	-0.024773445
180	0x3ceb0da2	0.028693024
181	0x3c6a0f6b	0.0142859025
182	0x3d97ca1d	0.07411597
183	0xbdb90d7a	-0.090357736
184	0xbdb1dfa0	-0.08685231
185	0xbd7e5782	-0.062095173
186	0x3c2adf34	0.010429192
187	0x3e2fa4cc	0.17152709
188	0x3e210a80	0.15726662
189	0xbb916ffb	-0.004438398
190	0x3d4089de	0.04700648
191	0x3c8b1585	0.016978035
192	0xbd163512	-0.036671706
193	0xbc126ac1	-0.008936585
194	0x3cc445b4	0.023959018
195	0x3bc09973	0.0058776676
196	0x3da878ff	0.08226203
197	0x3e08fb20	0.13377047
198	0xbc8be7b5	-0.01707826
199	0xbd8e526e	-0.06949316
200	0x3df84e23	0.121242784
201	0x3e391230	0.18073344
202	0xbd9f9e16	-0.077938244
203	0x3ca5fe07	0.020262731
